results/PlayerAgentTest2/TestPlayerAgent.onnx (onnx, 274768 bytes, 6 tensors)

network_body._body_endoder.seq_layers.0.weight f4 [128, 396]
00000000: af6f e5bc 579d 37bd f4eb 813d 1d07 2f3d
00000010: 208b 913d 3bdc 9b3c 30f9 ddbb adce a93d
00000020: 5114 28bd 4978 81bd 2a29 70bc 497e bfbb
00000030: ecfd a13c b488 92bc f13a ff3c e8ef 713d
00000040: 4821 893d 481d c33d ba7c 183d daa7 24bd
00000050: e1d2 293c 627f 39bd 3acf 66bb d944 1f3d
00000060: ca9e 5f3c 4236 1cbd b4c8 183c 1f99 07bc
00000070: 2eaf d03c bb35 54bd 9915 663c f384 183d
00000080: be24 3f3d ac0a 093c 7b3d 8d3c d56b 86bc
00000090: d69c 623d e709 3fbd fa04 913d d629 943b
000000a0: 814c 4c3c c9a8 693d 90b0 5d3d 5ce8 393d
000000b0: 04e6 00bd 92bd 313d f930 eabc 6398 653d
000000c0: 5f87 c93c 80a0 c93c d828 243c fc28 ba3d
000000d0: 298e 423d 9087 bdbb 811c 6e3d 0ff4 bbbc
000000e0: 50b1 d53c 7858 c23d b565 813c 6a3e d93d
000000f0: a7d4 1b3d 1925 ba3c e91b 5fbb bed4 56bd
00000100: b633 91bd 275e bdbc 29e7 c73c 425f cbbc
00000110: 52a3 293d 2b78 d1bb cf4d 41bd 9de2 60bd
00000120: 5d08 42bc 27d0 eabd bc1b aebc 0950 f9b9
00000130: 3065 9cbd 0061 94bd 7b69 0a3b 9061 e4bc
00000140: 0fca d03b 741e 0abc e0ba 1e3d aae4 13bd
00000150: 35fa eebc 957c 6dbd ce49 2dbd e9a1 a4bd
00000160: cdbb 823d f2b5 6c3d 9010 973d 40c9 43bd
00000170: bf56 fe3c bd6a de3c fc1f f5bc 6178 923c
00000180: a608 653d c1a9 6d3c 7364 fcbb a160 473d
00000190: ef5b e7bc b349 96bd 8ce9 dabc 41ec e03b
000001a0: d90c ff3a 4467 a43d 6a54 a83d 74e1 e7bb
000001b0: 6d5b 8a3c 4628 203d 1962 8e3c 970b 423d
000001c0: 1fdf 203d 2b47 e1bc 7415 32bd 4c3c 2d3d
000001d0: 1da2 9a3c f669 b43c c208 90bc da68 503d
000001e0: b815 8cbd 4d62 503b 7465 89bd 823b 00be
000001f0: dc5b 403d 97e0 d93c 31ed cdbd a58d 53bd
00000200: 78fb f3bb aa49 a5ba 1860 463c 480c ff3c
00000210: 1913 7d3c d626 43bd 4ba1 2dbd 3cd4 5c3d
00000220: aca5 863b 9fb4 e33c 224c 8cbd f08c 8f3a
00000230: 7ffd 5dbd 68cf d13c 47e9 03bd d2b2 e13c
00000240: 6880 1fbd febb 4abb 5cc5 a93d ad0f 9abc
00000250: 859b 29bd e549 963c 821e 44bd e536 1bbd
00000260: 1867 a2bc dee9 f93d b065 a13d d247 3bbc
00000270: 5fd3 7c3d 8a4d 31bd 6f1b 913d dbba 8dbc
00000280: fdd0 d43b b532 66bc 81bf 173c ec43 f5bd
00000290: 94a9 dd3c 76e9 953d b665 a6bd 2856 85bd
000002a0: e43c 753d c210 1dbe 50a9 573c 5a93 3abd
000002b0: 5b88 153b 3813 b13c d883 043d 945b 7fbd
000002c0: c6bc 0cbd 005d 60bd 1e4b e43c a35d e53b
000002d0: 0bdc 963c 6650 7a3c b1a8 213d 6beb a4bc
000002e0: c5a6 b5bd da8a 2ebd 63a9 ffbc 3fb6 d2bd
000002f0: 58b2 71bc a34a e83b f1aa d33a e0aa 9fbb
00000300: 6fba 29bc be4b 363d c37b bdbc c817 44bd
00000310: dec7 30bc 94a1 3c3d fe52 57bc 0c55 8fbc
00000320: 4b28 45bc c7c8 31bd 1e3f 2ebd 54c7 ce3c
00000330: 9aac 863d ad40 2e3d 3c52 dbbc 14a1 8ebd
00000340: b5d4 923d 04b3 5e3d 7273 253d 3480 bcbc
00000350: e1ed 9fbc d18c fabd 8625 883d c58d 41bd
00000360: 0382 85bd 3fd1 5dbd aad3 18bd 36a7 fbbb
00000370: d6fb dcbc ef20 85bd 6e36 e3bc a821 1fbd
00000380: d4ee 78bc a349 593c abd8 1b3d 9507 753d
00000390: 5e64 b6bc 3695 b73c c1e1 253c 6804 0bbe
000003a0: f8d9 b4bc ffae 053c 5094 f53b abd8 35bd
000003b0: d82a af3c 5d59 363b a3b9 213d 357d b73d
000003c0: 69a7 a2bd 6fb7 0cbd 79e7 7bbc cb18 40bd
000003d0: 40dc 8cbd 930d 7e3d 39df 423d eb25 cb3c
000003e0: f49b 703c d26d e23c 1c29 8dbc 3998 48bc
000003f0: f3c5 f53d dd5e 163c 381e c4bb aa19 423d
-0.028007356 -0.044827785 0.063438326 0.042731393 0.07106614 0.019025913 -0.00677409 0.082913734
-0.041035 -0.06321771 -0.014658252 -0.005843912 0.0197744 -0.01788745 0.031156035 0.059066683
0.06695801 0.09527069 0.037228324 -0.04019914 0.010365219 -0.045287497 -0.0035218732 0.038884018
0.013648698 -0.03813768 0.009325195 -0.008276253 0.025474157 -0.051809054 0.014043235 0.037236165
0.0466659 0.008364361 0.01724123 -0.01640884 0.05532535 -0.046640303 0.07081027 0.004521589
0.012469412 0.05704573 0.05412346 0.04538761 -0.03146936 0.04339368 -0.028587805 0.05605353
0.024600683 0.024612665 0.0100195035 0.090898484 0.047498856 -0.0057839826 0.058132652 -0.022943525
0.026085526 0.0948953 0.015795568 0.10607608 0.038044598 0.022722768 -0.0034043735 -0.05244898
-0.07089941 -0.023116184 0.024402218 -0.024825696 0.04141552 -0.006392499 -0.047193345 -0.054903615
-0.011842814 -0.11465483 -0.02125346 -0.00047552612 -0.076364875 -0.07245064 0.002112 -0.027878553
0.0063717435 -0.008430112 0.038752437 -0.036106743 -0.029172042 -0.05798014 -0.042306714 -0.080386944
0.063834764 0.057790704 0.07376206 -0.04779935 0.031047223 0.027150506 -0.029922478 0.017879667
0.05591645 0.0145058045 -0.007702404 0.048676137 -0.02824208 -0.07338276 -0.026722692 0.006864101
0.0019458785 0.08027509 0.08219226 -0.0070764367 0.016889298 0.039100908 0.017380761 0.047374334
0.039275285 -0.027499756 -0.04347749 0.04229383 0.01887613 0.022023182 -0.017582301 0.050881244
-0.0684008 0.0031796873 -0.06708804 -0.125227 0.046962604 0.02659635 -0.10055006 -0.051648755
-0.007445749 -0.0012610455 0.0121078715 0.031133786 0.015446448 -0.04764446 -0.04239015 0.05391334
0.004109105 0.027796088 -0.06850459 0.0010952037 -0.05419683 0.025611594 -0.032204892 0.027551088
-0.038940817 -0.0030934806 0.082895964 -0.018806303 -0.04140808 0.018345783 -0.047880657 -0.03789415
-0.01982455 0.1220281 0.078807235 -0.0114306975 0.061725017 -0.043286838 0.07085311 -0.017301014
0.00649464 -0.014050175 0.009261967 -0.11975846 0.0270584 0.0731992 -0.081248686 -0.065105736
0.059872523 -0.15338424 0.013162926 -0.04555068 0.002281687 0.02161561 0.0323523 -0.062343195
-0.034359716 -0.05477619 0.02786785 0.0069996878 0.018415472 0.015277958 0.039467517 -0.020131787
-0.088696994 -0.042612888 -0.0312087 -0.10288667 -0.014751993 0.0070889755 0.0016148967 -0.004872665
-0.010359391 0.044505827 -0.023130303 -0.047874242 -0.01078984 0.04605253 -0.0131423455 -0.017496608
-0.012033532 -0.043404367 -0.042540662 0.025241531 0.0657589 0.04254215 -0.02677261 -0.06964317
0.07169477 0.05436994 0.0403933 -0.02301035 -0.01952261 -0.1223389 0.06647782 -0.047254343
-0.065189384 -0.05415463 -0.037311234 -0.007679845 -0.026975553 -0.06500422 -0.027735915 -0.038850456
-0.01519366 0.013262185 0.038048428 0.059821684 -0.022264656 0.022410017 0.010124625 -0.135759
-0.022076592 0.008159398 0.007494487 -0.044396084 0.021382734 0.002782426 0.039483678 0.08959428
-0.07942087 -0.034354623 -0.015375012 -0.046898644 -0.06877947 0.062024664 0.047576163 0.024798354
0.01468562 0.027640257 -0.017231517 -0.012243324 0.120006464 0.009177891 -0.0059850477 0.047387756

network_body._body_endoder.seq_layers.0.bias f4 [128]
00000000: 0000 0000 0000 0000 0000 0000 0000 0000
00000010: 0000 0000 0000 0000 0000 0000 0000 0000
00000020: 0000 0000 0000 0000 0000 0000 0000 0000
00000030: 0000 0000 0000 0000 0000 0000 0000 0000
00000040: 0000 0000 0000 0000 0000 0000 0000 0000
00000050: 0000 0000 0000 0000 0000 0000 0000 0000
00000060: 0000 0000 0000 0000 0000 0000 0000 0000
00000070: 0000 0000 0000 0000 0000 0000 0000 0000
00000080: 0000 0000 0000 0000 0000 0000 0000 0000
00000090: 0000 0000 0000 0000 0000 0000 0000 0000
000000a0: 0000 0000 0000 0000 0000 0000 0000 0000
000000b0: 0000 0000 0000 0000 0000 0000 0000 0000
000000c0: 0000 0000 0000 0000 0000 0000 0000 0000
000000d0: 0000 0000 0000 0000 0000 0000 0000 0000
000000e0: 0000 0000 0000 0000 0000 0000 0000 0000
000000f0: 0000 0000 0000 0000 0000 0000 0000 0000
00000100: 0000 0000 0000 0000 0000 0000 0000 0000
00000110: 0000 0000 0000 0000 0000 0000 0000 0000
00000120: 0000 0000 0000 0000 0000 0000 0000 0000
00000130: 0000 0000 0000 0000 0000 0000 0000 0000
00000140: 0000 0000 0000 0000 0000 0000 0000 0000
00000150: 0000 0000 0000 0000 0000 0000 0000 0000
00000160: 0000 0000 0000 0000 0000 0000 0000 0000
00000170: 0000 0000 0000 0000 0000 0000 0000 0000
00000180: 0000 0000 0000 0000 0000 0000 0000 0000
00000190: 0000 0000 0000 0000 0000 0000 0000 0000
000001a0: 0000 0000 0000 0000 0000 0000 0000 0000
000001b0: 0000 0000 0000 0000 0000 0000 0000 0000
000001c0: 0000 0000 0000 0000 0000 0000 0000 0000
000001d0: 0000 0000 0000 0000 0000 0000 0000 0000
000001e0: 0000 0000 0000 0000 0000 0000 0000 0000
000001f0: 0000 0000 0000 0000 0000 0000 0000 0000
0.0 0.0 0.0 0.0 0.0 0.0 0.0 0.0
0.0 0.0 0.0 0.0 0.0 0.0 0.0 0.0
0.0 0.0 0.0 0.0 0.0 0.0 0.0 0.0
0.0 0.0 0.0 0.0 0.0 0.0 0.0 0.0
0.0 0.0 0.0 0.0 0.0 0.0 0.0 0.0
0.0 0.0 0.0 0.0 0.0 0.0 0.0 0.0
0.0 0.0 0.0 0.0 0.0 0.0 0.0 0.0
0.0 0.0 0.0 0.0 0.0 0.0 0.0 0.0
0.0 0.0 0.0 0.0 0.0 0.0 0.0 0.0
0.0 0.0 0.0 0.0 0.0 0.0 0.0 0.0
0.0 0.0 0.0 0.0 0.0 0.0 0.0 0.0
0.0 0.0 0.0 0.0 0.0 0.0 0.0 0.0
0.0 0.0 0.0 0.0 0.0 0.0 0.0 0.0
0.0 0.0 0.0 0.0 0.0 0.0 0.0 0.0
0.0 0.0 0.0 0.0 0.0 0.0 0.0 0.0
0.0 0.0 0.0 0.0 0.0 0.0 0.0 0.0

network_body._body_endoder.seq_layers.2.weight f4 [128, 128]
00000000: 04fa 34bd d53d ca3b c047 b8bd 1de1 26be
00000010: 15ec 7bbd 0cf9 513d dfef 193d 4020 273d
00000020: fb03 c4bc f574 a33c 883c 373b 3a19 203d
00000030: 6465 efbc 40e4 113d d0d1 153d 8eb7 5a3d
00000040: 282f 4dbe 2530 673c b2f5 d43c cc2f bc3d
00000050: 2cb5 083d ef32 9d3b e7c7 993d acd3 69bd
00000060: 5d80 abbd c8ae 2dbd 54c6 20bd eadc 43be
00000070: 409e af3d 6129 00be b355 9cbd fe5e 3fbd
00000080: 605b 3d3c 5cd8 0dbe b841 f7bc 2ace a13d
00000090: 68c9 7ebd 0b21 b23d d3de 123d 4941 3bbc
000000a0: c41c f9ba 9b75 a3bd d6d0 863d e386 023e
000000b0: 2800 2f3e 31ea aebb beb7 af3c ce61 503d
000000c0: e772 29be e292 02be 1f3e cd3d cdff 473d
000000d0: 4bd8 7b3d 87c6 36be dffd 7abd 83a2 243b
000000e0: f384 babc 8bcb bd3d c38d 403d 11c1 ea3d
000000f0: 4f2a b03b 5134 003d bcce 443c 5a32 253d
00000100: a6e8 b2bd a5e8 1d3c 8ce6 1ebd 863b 593c
00000110: d8d6 02bd e201 493c e9d1 ee3d 859f 263d
00000120: fca8 963c ccb6 1d3d 1904 04bc c95b b9bd
00000130: b6ff 80bd 6315 03bd 4b85 9c3d 2069 173e
00000140: 3cb3 b0bb c4f7 173e bb8f 9fbd b5f2 463c
00000150: 55f5 b73d 740b 9e3d 5745 843e 7834 263d
00000160: b12d 673d 2589 71bd 0af8 eb3d 6f53 20be
00000170: ccc3 bbbd 761e 0cbd 4bac 1c3e 9ea1 913d
00000180: c1d2 8a3d 4710 a7bc 2b49 433d e989 edbd
00000190: 203c 72bc d660 173e 286e b2bd d09e 953d
000001a0: 841c 0ebc 2eef 8c3d fa47 ca3d fffc 3c3e
000001b0: 363a 56be 0434 103d 3a02 863d b99b 49be
000001c0: 0e30 633d b6bd 0cbd 5d04 70bd 2124 4bbc
000001d0: f265 aabb 5b28 d0bd f5fc 053d c47f f93c
000001e0: 6316 d23d 86cc d5bd 2019 083d 11ae 253d
000001f0: f547 1bbe 59a5 8bbc a549 37bc a363 023d
00000200: 14bc fe3d aab1 f13d 4ca1 2f3d 32a0 ce3c
00000210: 2b9c 9c3d 0ad2 d0bc 8af0 e2bc bcea 94bd
00000220: bd2d bfbc 95f2 13be 2b5b f93d 5dd0 4abe
00000230: 8429 4dbe 8f1c 0cbe b58c 18be 303e dcbc
00000240: b6f8 a3bc 3952 ec3d 6435 4039 f8eb 6dbd
00000250: a575 1f3d d8ab 32bc 9f60 673d a0cd 8c3d
00000260: 4870 80bc c681 313c 0942 5ebc 976d ebbd
00000270: 07f1 33bd c161 a13d 627d 1c3d f8f9 b2bc
00000280: 0b2f 90bc f743 e43c 3f44 4e3d 78d0 ff3d
00000290: 2eac 263d 3579 1bbb f628 c8bd 3560 623e
000002a0: 2483 973c b2aa b5bd 0fa5 f23b 2ca6 8cbd
000002b0: 8ee7 00bc 636a 5b3d e5c2 ab3d 6cb6 99bd
000002c0: ad9c 6abd 604b 0b3d 9941 913d 6059 a93c
000002d0: 58ef e33d 9dd0 8d3c e441 8dbd cbb2 3bbd
000002e0: 3a0d 983e ab17 083e 67e2 53bd 445d 9f3d
000002f0: 98f2 cbbc 88a6 15bd 066c 43bd 0dac 44be
00000300: 3678 e83d 2b38 033d 7188 413d 8d81 f3bd
00000310: 73b1 9ebd eaac c93d f71b e9bd 67d4 cb3c
00000320: 1d02 d13d 46a5 d63b bd21 a43d 30df b93d
00000330: 0020 16be 5242 2e3b 99b6 7d3c a297 b2bd
00000340: 941e 4abd a3fe c1bd f693 8abd b75c 8ebd
00000350: dc16 1f3e 643c 433d 9ca1 be3d 4a73 b2bd
00000360: 2cd1 9e3b dbfd 94bc b84e b6bc 9ef8 c13d
00000370: 2aec 4abd 717c 2c3d 230f 14bd 2580 883c
00000380: d76d f43d 3a2e f4bd 9ecb 9bbb 80d9 16bd
00000390: 4552 4dbd b999 a23c 8c36 a63d cbab 1a3e
000003a0: f884 50bd ef36 92bd 9a8c 25be 70a9 043e
000003b0: 3dba 6dbd 1652 7d3d 88f2 b3bd 07e9 3c3d
000003c0: 5872 1d3d 8aea 60bd 8d0d 8a3d eedf 0dbe
000003d0: c3ed 3e3d 9b51 733e b453 823c d091 ec3d
000003e0: 4f9d 643d adb7 873b 03a5 993c b63a 1d3e
000003f0: c6a7 b63d 91f4 a0bc ce9a e83d 9c53 f3bd
-0.044183746 0.0061719217 -0.0899806 -0.16296811 -0.061504442 0.0512629 0.037582275 0.04080224
-0.02392768 0.01995323 0.0027959663 0.039086558 -0.029223152 0.035618067 0.036577046 0.053397708
-0.2003752 0.0141106 0.025996063 0.09188804 0.033375904 0.0047973315 0.075088315 -0.05708663
-0.08374093 -0.042403013 -0.03925164 -0.19127241 0.08575106 -0.12515785 -0.07633533 -0.04672145
0.01155743 -0.13852066 -0.030182704 0.07900651 -0.062203795 0.08697709 0.035857033 -0.011429139
-0.0019005765 -0.07981416 0.06582801 0.12746768 0.17089903 -0.0053379764 0.02144992 0.050874524
-0.16547738 -0.12751344 0.10021614 0.048827935 0.06148557 -0.1784917 -0.061277267 0.0025121279
-0.022768473 0.09267338 0.047010195 0.11462606 0.0053761373 0.031299893 0.01201218 0.040331222
-0.087357804 0.009637986 -0.038794085 0.01325882 -0.031943172 0.012268515 0.11661131 0.040679473
0.018391125 0.038504407 -0.008057618 -0.0905071 -0.06298773 -0.032002818 0.07642611 0.14786196
-0.00539246 0.14840609 -0.07791086 0.012142827 0.0898234 0.07717028 0.25834152 0.04057738
0.05644006 -0.05896868 0.11521919 -0.15656827 -0.09168205 -0.034208737 0.153001 0.07110904
0.06778479 -0.020393504 0.0476772 -0.1159857 -0.014784843 0.14783034 -0.08712417 0.07305682
-0.008673791 0.068815574 0.0987701 0.18455885 -0.20920643 0.035205856 0.065433934 -0.1968831
0.05546575 -0.03436061 -0.05859791 -0.0123987505 -0.005200141 -0.10163947 0.03271194 0.030456431
0.10258176 -0.104394004 0.033227086 0.040449206 -0.15164168 -0.017046617 -0.011186992 0.031833302
0.12438217 0.11801465 0.042878434 0.025222871 0.07646974 -0.02549078 -0.027702589 -0.072713345
-0.02333724 -0.14448006 0.12175592 -0.19806047 -0.20035368 -0.13682769 -0.14897425 -0.026885122
-0.020016056 0.1153912 0.00018330436 -0.058086365 0.038930554 -0.010905229 0.05648863 0.06875157
-0.01567854 0.010834163 -0.013565549 -0.11495512 -0.043931033 0.07879973 0.038205512 -0.02184771
-0.017600557 0.02786444 0.050358053 0.12490934 0.040691547 -0.0023723368 -0.09773438 0.22107013
0.01849515 -0.08870448 0.0074049304 -0.06867632 -0.007867707 0.053568255 0.083867826 -0.07505497
-0.057278324 0.03400743 0.0709259 0.0206725 0.111296356 0.017311389 -0.06897333 -0.045824807
0.2969759 0.13290279 -0.051729586 0.07781461 -0.024895951 -0.03653577 -0.04771044 -0.19206257
0.113510534 0.032035988 0.04724926 -0.11889944 -0.077486895 0.09847434 -0.11382287 0.024881555
0.10205481 0.006550464 0.080142476 0.09075773 -0.14660645 0.0026589823 0.015485429 -0.08720328
-0.049345568 -0.09472396 -0.067665026 -0.06951278 0.15536064 0.047665015 0.09308168 -0.08713396
0.0048467126 -0.018187454 -0.022254333 0.09471248 -0.04954163 0.042110864 -0.036147248 0.016662667
0.11935013 -0.119228795 -0.0047544977 -0.036828518 -0.050127286 0.019848691 0.08115873 0.15104596
-0.05090806 -0.07139384 -0.16166916 0.1295526 -0.05803894 0.06184586 -0.087864935 0.04612067
0.038439125 -0.054911174 0.06740866 -0.13854954 0.046613466 0.23761599 0.015909053 0.11551249
0.055814084 0.004141769 0.018755442 0.15354428 0.08918719 -0.019647868 0.11357652 -0.118811816

action_model._continuous_distribution.log_sigma f4 [1, 6]
00000000: 0000 0000 0000 0000 0000 0000 0000 0000
00000010: 0000 0000 0000 0000
0.0 0.0 0.0 0.0 0.0 0.0

action_model._continuous_distribution.mu.weight f4 [6, 128]
00000000: 0842 db3c 0dbb f8bb be9b 44bd 5390 a43c
00000010: d394 61bc 249e 03bd e895 a63c 673c c43b
00000020: b242 883c afc8 043d 62e1 a0bc 8801 903c
00000030: 4751 b73b 5ba3 bd3c b79f 1d3b d435 01bc
00000040: b281 ec3c e72a d03c cc08 13bd c44b bc3c
00000050: 73d9 4a3c 268a 003c 1561 7d3c 0adc 913b
00000060: affb 52bb 7e80 2a3a 63d8 91ba c30a 933c
00000070: f3d3 e03a 19fe b03c 9bf4 513c dc63 073b
00000080: 2e6c 49bc 6494 2abb c4af 293c 81d6 0fbd
00000090: ab35 dcbc c5c9 ec3b 7f0a 6dbc aad8 d43c
000000a0: b714 413a 1a00 a13b a085 d8bc 32eb 75bc
000000b0: bea5 9cbc 9ae2 cd3c d56a d83c 3e45 9fbc
000000c0: 82c0 69bb 82f4 1c3d 9b6e 8abc 24b5 96bc
000000d0: 26b4 97bc ccc4 9fbc f0c8 fd3b d323 f23c
000000e0: ff3f 603c 8556 ddbc 0ffa 9d3c 5fd4 2c3b
000000f0: e308 3c3d de74 10bd 0227 663c 5921 86ba
00000100: 80e9 aaba f2e0 683c c07d 76bc 91f1 2a3c
00000110: 7b25 d7bb 80be 223c 842f cb3b 4f36 193d
00000120: 1e92 0f3d 88f8 3fbc 0d3f 73bc ba09 093b
00000130: f16e 9e3c 60ff 6cbc 0781 943c b8b6 c23c
00000140: 7d7f 573c 5d89 363c e09e 76bb b9c7 993c
00000150: 0fc3 ae3c 0061 803c 3a80 d2bc e7c5 893c
00000160: df88 783c 09b8 0dbc e195 843c a686 023c
00000170: 9a2b edbb d33d fe3b dbe0 ab3b 7580 663c
00000180: 6fa7 203c 40ed 23bb a7fa fdbb 1515 e1bc
00000190: 0f7f d03c 2f8f 78bc 2f26 b33c 874e 753a
000001a0: 7705 15bc 78cb 34bb 2847 4d3c 0a25 1a3c
000001b0: 2597 613c 3236 a53c cf74 2fbc d0a1 e6bb
000001c0: 787e 2bbc 2f4e 2c3c 8232 f53b 7ed6 8bbc
000001d0: c5fa 7a3c 8727 2cbc 4b23 043d 242b ab3c
000001e0: e85a f3bc 004a db3c 82c8 52bc 300a 553c
000001f0: 6378 793c 892b 1abd 1407 84bc a643 abbc
00000200: 77ec 6cbc 889d 013c 91ec c1bc 239e cc3c
00000210: 32e9 30bc 438d f6bc 5036 a0bb e503 443b
00000220: 7c2e b8bb 4569 f33b 7252 8939 df8a a43c
00000230: 9a71 bf3c e3d8 163c 81de 8bbc 3741 c13c
00000240: 0fc7 8dbc 98a9 abbc 3a66 02bc d343 9ebc
00000250: 30c0 f6bb 9f8b 31ba 5710 2ebc c334 c6bc
00000260: e749 3c3c 802f 18bd 82ea fabc bd50 36bc
00000270: d937 c4bb 13a5 963c bac6 8a3c c32f 853c
00000280: 4372 df3b 6e76 ccbb 3399 813c afbc 053b
00000290: 7c49 313c 4f02 b63b 9357 4abc 0d7f 66bc
000002a0: b775 19bc a2ec c6bc f07c 0ebd 9962 b53a
000002b0: 1318 b13c f5ee f1bb cb96 a1bc 0799 c8bb
000002c0: 7362 f0bb 8da6 0cbc 4783 b0bc 976a d33c
000002d0: 1774 9e3c f382 ff3a d2a5 7e3c 7bb3 f13b
000002e0: f476 10bb 689d 4d3c b89a 45bc dda2 ff3c
000002f0: 1bbf 73bc 118f 83bb 6d78 02bc 0a81 863c
00000300: 1869 e2bb c301 bf3c 61b6 28bc d992 263b
00000310: d4f3 81bc a468 963b f9c2 9b3c 36be 12bd
00000320: c122 95bc 272d 8abb fb96 c2bb f12e 27bb
00000330: 1ff2 e6bb 8824 84bc 857f efbc dbdd 3cbc
00000340: aba2 adbb f096 a8bb 5d94 a8bb d803 5d3c
00000350: db51 e63c 7d01 de3c 4c03 a6ba 8de6 00bc
00000360: 3034 3c3c b3db d3ba 9307 293c bbb5 25bc
00000370: 5719 eb3c 509e c53c 095a 8a3c fb67 693c
00000380: e84c ed3b cb22 d33a d19d 03bd 1890 60bb
00000390: 1728 b1bc 1f6c 693c 534a 26bb f584 d83b
000003a0: 8f50 01ba 73d3 2b3b fc37 21bb f210 2abc
000003b0: fb25 ed3c 1af8 64bc bacf 7fbc 30ed 933c
000003c0: 7334 873c d110 afbc 3f05 853c 536f 87bc
000003d0: f771 83bb 1adb d8bc 9ee7 153d be37 4b3c
000003e0: 7745 d0ba f7c2 2d3d c356 38ba 3496 03bc
000003f0: 248d 46bb fca9 c43c 9763 8b3c 1ab0 ee3c
0.026764885 -0.0075906576 -0.04800009 0.02008835 -0.013768393 -0.032133237 0.020335153 0.005988646
0.016633365 0.03241795 -0.01963872 0.017578855 0.005594406 0.023149183 0.0024051496 -0.007886369
0.028870437 0.025411082 -0.03589706 0.022985347 0.0123809455 0.007845437 0.015465041 0.0044512795
-0.0032193472 0.0006504132 -0.001112711 0.017949468 0.001715301 0.021605538 0.012814666 0.0020658886
-0.012293858 -0.002602839 0.010356847 -0.035116676 -0.02688106 0.0072262012 -0.0144678345 0.02598222
0.00073654525 0.004913342 -0.026430905 -0.015009688 -0.019122 0.025132466 0.026418129 -0.019442197
-0.0035667722 0.03831912 -0.016898444 -0.018396921 -0.018518519 -0.01950302 0.007744901 0.029558098
0.013687133 -0.027018795 0.019284276 0.00263717 0.045906913 -0.035267703 0.014047386 -0.0010233327
-0.0013039559 0.014213787 -0.01504463 0.0104335705 -0.0065657473 0.009933114 0.0062007327 0.03740531
0.035051458 -0.011716969 -0.014846575 0.0020910338 0.01934001 -0.014465183 0.018127931 0.023768768
0.013152954 0.011141148 -0.0037631318 0.018771993 0.021333246 0.015671253 -0.025695909 0.016818
0.015169351 -0.008649834 0.01618475 0.007966673 -0.0072378637 0.007758835 0.0052453107 0.0140687125
0.009805544 -0.0025013238 -0.0077508274 -0.027475873 0.025451211 -0.015170856 0.021868793 0.000935771
-0.009095541 -0.0027587097 0.012529172 0.009408245 0.013768946 0.020167444 -0.010709002 -0.0070383325
-0.010467164 0.010516687 0.0074828276 -0.017070051 0.015318577 -0.010507471 0.03226022 0.020894594
-0.029706433 0.026768684 -0.012865188 0.013002917 0.015226456 -0.037639175 -0.016116656 -0.02090628
-0.0144606745 0.0079110935 -0.023672374 0.02497775 -0.010797786 -0.030096656 -0.004889287 0.0029909548
-0.0056207757 0.0074283206 0.00026192103 0.02008575 0.0233696 0.009206983 -0.017073872 0.023590667
-0.017306833 -0.020954892 -0.007958943 -0.01931945 -0.0075302348 -0.00067728193 -0.010624013 -0.02419508
0.011492229 -0.037154675 -0.0306294 -0.011127648 -0.005988103 0.01838926 0.016940463 0.016258126
0.006819041 -0.006239704 0.015820121 0.0020406654 0.010820743 0.0055544744 -0.012349981 -0.014068377
-0.009366444 -0.024282757 -0.03478712 0.0013838588 0.021617925 -0.007383222 -0.019725224 -0.006121758
-0.007335955 -0.008584631 -0.021546973 0.025807662 0.019342465 0.0019493982 0.015542464 0.007376132
-0.0022043558 0.012549736 -0.012060814 0.031205589 -0.014877106 -0.0040148576 -0.007963282 0.016418952
-0.006909501 0.02331627 -0.010297389 0.0025417118 -0.015863337 0.004590111 0.019013869 -0.03582593
-0.018205049 -0.0042168084 -0.0059384084 -0.0025510157 -0.007047906 -0.0161307 -0.02923561 -0.011527504
-0.0052989325 -0.0051449463 -0.0051446394 0.013489686 0.028115204 0.027100319 -0.0012665777 -0.007867468
0.011487052 -0.0016163498 0.010316747 -0.010114129 0.028698606 0.02412334 0.016888635 0.014245982
0.007241834 0.0016108392 -0.032132927 -0.0034265574 -0.021625562 0.0142469695 -0.002537389 0.0066076466
-0.00049329636 0.0026218563 -0.002460002 -0.010380017 0.028948775 -0.013975168 -0.015613491 0.018057436
0.016504502 -0.021370323 0.016237853 -0.016532576 -0.0040113884 -0.026471663 0.03659784 0.012403427
-0.0015889843 0.04242226 -0.00070319715 -0.008031417 -0.0030296529 0.024006836 0.017015262 0.029136706

action_model._continuous_distribution.mu.bias f4 [6]
00000000: 0000 0000 0000 0000 0000 0000 0000 0000
00000010: 0000 0000 0000 0000
0.0 0.0 0.0 0.0 0.0 0.0
