results/PlayerAgentTest2/TestPlayerAgent/TestPlayerAgent-4650.pt (torch, 550249 bytes, 12 tensors)

network_body._body_endoder.seq_layers.0.weight f4 [128, 396]
0	0xbce56faf	-0.028007356
1	0xbd379d57	-0.044827785
2	0x3d81ebf4	0.063438326
3	0x3d2f071d	0.042731393
4	0x3d918b20	0.07106614
5	0x3c9bdc3b	0.019025913
6	0xbbddf930	-0.00677409
7	0x3da9cead	0.082913734
8	0xbd281451	-0.041035
9	0xbd817849	-0.06321771
10	0xbc70292a	-0.014658252
11	0xbbbf7e49	-0.005843912
12	0x3ca1fdec	0.0197744
13	0xbc9288b4	-0.01788745
14	0x3cff3af1	0.031156035
15	0x3d71efe8	0.059066683
16	0x3d892148	0.06695801
17	0x3dc31d48	0.09527069
18	0x3d187cba	0.037228324
19	0xbd24a7da	-0.04019914
20	0x3c29d2e1	0.010365219
21	0xbd397f62	-0.045287497
22	0xbb66cf3a	-0.0035218732
23	0x3d1f44d9	0.038884018
24	0x3c5f9eca	0.013648698
25	0xbd1c3642	-0.03813768
26	0x3c18c8b4	0.009325195
27	0xbc07991f	-0.008276253
28	0x3cd0af2e	0.025474157
29	0xbd5435bb	-0.051809054
30	0x3c661599	0.014043235
31	0x3d1884f3	0.037236165
32	0x3d3f24be	0.0466659
33	0x3c090aac	0.008364361
34	0x3c8d3d7b	0.01724123
35	0xbc866bd5	-0.01640884
36	0x3d629cd6	0.05532535
37	0xbd3f09e7	-0.046640303
38	0x3d9104fa	0.07081027
39	0x3b9429d6	0.004521589
40	0x3c4c4c81	0.012469412
41	0x3d69a8c9	0.05704573
42	0x3d5db090	0.05412346
43	0x3d39e85c	0.04538761
44	0xbd00e604	-0.03146936
45	0x3d31bd92	0.04339368
46	0xbcea30f9	-0.028587805
47	0x3d659863	0.05605353
48	0x3cc9875f	0.024600683
49	0x3cc9a080	0.024612665
50	0x3c2428d8	0.0100195035
51	0x3dba28fc	0.090898484
52	0x3d428e29	0.047498856
53	0xbbbd8790	-0.0057839826
54	0x3d6e1c81	0.058132652
55	0xbcbbf40f	-0.022943525
56	0x3cd5b150	0.026085526
57	0x3dc25878	0.0948953
58	0x3c8165b5	0.015795568
59	0x3dd93e6a	0.10607608
60	0x3d1bd4a7	0.038044598
61	0x3cba2519	0.022722768
62	0xbb5f1be9	-0.0034043735
63	0xbd56d4be	-0.05244898
64	0xbd9133b6	-0.07089941
65	0xbcbd5e27	-0.023116184
66	0x3cc7e729	0.024402218
67	0xbccb5f42	-0.024825696
68	0x3d29a352	0.04141552
69	0xbbd1782b	-0.006392499
70	0xbd414dcf	-0.047193345
71	0xbd60e29d	-0.054903615
72	0xbc42085d	-0.011842814
73	0xbdead027	-0.11465483
74	0xbcae1bbc	-0.02125346
75	0xb9f95009	-0.00047552612
76	0xbd9c6530	-0.076364875
77	0xbd946100	-0.07245064
78	0x3b0a697b	0.002112
79	0xbce46190	-0.027878553
80	0x3bd0ca0f	0.0063717435
81	0xbc0a1e74	-0.008430112
82	0x3d1ebae0	0.038752437
83	0xbd13e4aa	-0.036106743
84	0xbceefa35	-0.029172042
85	0xbd6d7c95	-0.05798014
86	0xbd2d49ce	-0.042306714
87	0xbda4a1e9	-0.080386944
88	0x3d82bbcd	0.063834764
89	0x3d6cb5f2	0.057790704
90	0x3d971090	0.07376206
91	0xbd43c940	-0.04779935
92	0x3cfe56bf	0.031047223
93	0x3cde6abd	0.027150506
94	0xbcf51ffc	-0.029922478
95	0x3c927861	0.017879667
96	0x3d6508a6	0.05591645
97	0x3c6da9c1	0.0145058045
98	0xbbfc6473	-0.007702404
99	0x3d4760a1	0.048676137
100	0xbce75bef	-0.02824208
101	0xbd9649b3	-0.07338276
102	0xbcdae98c	-0.026722692
103	0x3be0ec41	0.006864101
104	0x3aff0cd9	0.0019458785
105	0x3da46744	0.08027509
106	0x3da8546a	0.08219226
107	0xbbe7e174	-0.0070764367
108	0x3c8a5b6d	0.016889298
109	0x3d202846	0.039100908
110	0x3c8e6219	0.017380761
111	0x3d420b97	0.047374334
112	0x3d20df1f	0.039275285
113	0xbce1472b	-0.027499756
114	0xbd321574	-0.04347749
115	0x3d2d3c4c	0.04229383
116	0x3c9aa21d	0.01887613
117	0x3cb469f6	0.022023182
118	0xbc9008c2	-0.017582301
119	0x3d5068da	0.050881244
120	0xbd8c15b8	-0.0684008
121	0x3b50624d	0.0031796873
122	0xbd896574	-0.06708804
123	0xbe003b82	-0.125227
124	0x3d405bdc	0.046962604
125	0x3cd9e097	0.02659635
126	0xbdcded31	-0.10055006
127	0xbd538da5	-0.051648755
128	0xbbf3fb78	-0.007445749
129	0xbaa549aa	-0.0012610455
130	0x3c466018	0.0121078715
131	0x3cff0c48	0.031133786
132	0x3c7d1319	0.015446448
133	0xbd4326d6	-0.04764446
134	0xbd2da14b	-0.04239015
135	0x3d5cd43c	0.05391334
136	0x3b86a5ac	0.004109105
137	0x3ce3b49f	0.027796088
138	0xbd8c4c22	-0.06850459
139	0x3a8f8cf0	0.0010952037
140	0xbd5dfd7f	-0.05419683
141	0x3cd1cf68	0.025611594
142	0xbd03e947	-0.032204892
143	0x3ce1b2d2	0.027551088
144	0xbd1f8068	-0.038940817
145	0xbb4abbfe	-0.0030934806
146	0x3da9c55c	0.082895964
147	0xbc9a0fad	-0.018806303
148	0xbd299b85	-0.04140808
149	0x3c9649e5	0.018345783
150	0xbd441e82	-0.047880657
151	0xbd1b36e5	-0.03789415
152	0xbca26718	-0.01982455
153	0x3df9e9de	0.1220281
154	0x3da165b0	0.078807235
155	0xbc3b47d2	-0.0114306975
156	0x3d7cd35f	0.061725017
157	0xbd314d8a	-0.043286838
158	0x3d911b6f	0.07085311
159	0xbc8dbadb	-0.017301014
160	0x3bd4d0fd	0.00649464
161	0xbc6632b5	-0.014050175
162	0x3c17bf81	0.009261967
163	0xbdf543ec	-0.11975846
164	0x3cdda994	0.0270584
165	0x3d95e976	0.0731992
166	0xbda665b6	-0.081248686
167	0xbd855628	-0.065105736
168	0x3d753ce4	0.059872523
169	0xbe1d10c2	-0.15338424
170	0x3c57a950	0.013162926
171	0xbd3a935a	-0.04555068
172	0x3b15885b	0.002281687
173	0x3cb11338	0.02161561
174	0x3d0483d8	0.0323523
175	0xbd7f5b94	-0.062343195
176	0xbd0cbcc6	-0.034359716
177	0xbd605d00	-0.05477619
178	0x3ce44b1e	0.02786785
179	0x3be55da3	0.0069996878
180	0x3c96dc0b	0.018415472
181	0x3c7a5066	0.015277958
182	0x3d21a8b1	0.039467517
183	0xbca4eb6b	-0.020131787
184	0xbdb5a6c5	-0.088696994
185	0xbd2e8ada	-0.042612888
186	0xbcffa963	-0.0312087
187	0xbdd2b63f	-0.10288667
188	0xbc71b258	-0.014751993
189	0x3be84aa3	0.0070889755
190	0x3ad3aaf1	0.0016148967
191	0xbb9faae0	-0.004872665
192	0xbc29ba6f	-0.010359391
193	0x3d364bbe	0.044505827
194	0xbcbd7bc3	-0.023130303
195	0xbd4417c8	-0.047874242
196	0xbc30c7de	-0.01078984
197	0x3d3ca194	0.04605253
198	0xbc5752fe	-0.0131423455
199	0xbc8f550c	-0.017496608
200	0xbc45284b	-0.012033532
201	0xbd31c8c7	-0.043404367
202	0xbd2e3f1e	-0.042540662
203	0x3ccec754	0.025241531
204	0x3d86ac9a	0.0657589
205	0x3d2e40ad	0.04254215
206	0xbcdb523c	-0.02677261
207	0xbd8ea114	-0.06964317
208	0x3d92d4b5	0.07169477
209	0x3d5eb304	0.05436994
210	0x3d257372	0.0403933
211	0xbcbc8034	-0.02301035
212	0xbc9fede1	-0.01952261
213	0xbdfa8cd1	-0.1223389
214	0x3d882586	0.06647782
215	0xbd418dc5	-0.047254343
216	0xbd858203	-0.065189384
217	0xbd5dd13f	-0.05415463
218	0xbd18d3aa	-0.037311234
219	0xbbfba736	-0.007679845
220	0xbcdcfbd6	-0.026975553
221	0xbd8520ef	-0.06500422
222	0xbce3366e	-0.027735915
223	0xbd1f21a8	-0.038850456
224	0xbc78eed4	-0.01519366
225	0x3c5949a3	0.013262185
226	0x3d1bd8ab	0.038048428
227	0x3d750795	0.059821684
228	0xbcb6645e	-0.022264656
229	0x3cb79536	0.022410017
230	0x3c25e1c1	0.010124625
231	0xbe0b0468	-0.135759
232	0xbcb4d9f8	-0.022076592
233	0x3c05aeff	0.008159398
234	0x3bf59450	0.007494487
235	0xbd35d8ab	-0.044396084
236	0x3caf2ad8	0.021382734
237	0x3b36595d	0.002782426
238	0x3d21b9a3	0.039483678
239	0x3db77d35	0.08959428
240	0xbda2a769	-0.07942087
241	0xbd0cb76f	-0.034354623
242	0xbc7be779	-0.015375012
243	0xbd4018cb	-0.046898644
244	0xbd8cdc40	-0.06877947
245	0x3d7e0d93	0.062024664
246	0x3d42df39	0.047576163
247	0x3ccb25eb	0.024798354
248	0x3c709bf4	0.01468562
249	0x3ce26dd2	0.027640257
250	0xbc8d291c	-0.017231517
251	0xbc489839	-0.012243324
252	0x3df5c5f3	0.120006464
253	0x3c165edd	0.009177891
254	0xbbc41e38	-0.0059850477
255	0x3d4219aa	0.047387756

network_body._body_endoder.seq_layers.0.bias f4 [128]
0	0x00000000	0.0
1	0x00000000	0.0
2	0x00000000	0.0
3	0x00000000	0.0
4	0x00000000	0.0
5	0x00000000	0.0
6	0x00000000	0.0
7	0x00000000	0.0
8	0x00000000	0.0
9	0x00000000	0.0
10	0x00000000	0.0
11	0x00000000	0.0
12	0x00000000	0.0
13	0x00000000	0.0
14	0x00000000	0.0
15	0x00000000	0.0
16	0x00000000	0.0
17	0x00000000	0.0
18	0x00000000	0.0
19	0x00000000	0.0
20	0x00000000	0.0
21	0x00000000	0.0
22	0x00000000	0.0
23	0x00000000	0.0
24	0x00000000	0.0
25	0x00000000	0.0
26	0x00000000	0.0
27	0x00000000	0.0
28	0x00000000	0.0
29	0x00000000	0.0
30	0x00000000	0.0
31	0x00000000	0.0
32	0x00000000	0.0
33	0x00000000	0.0
34	0x00000000	0.0
35	0x00000000	0.0
36	0x00000000	0.0
37	0x00000000	0.0
38	0x00000000	0.0
39	0x00000000	0.0
40	0x00000000	0.0
41	0x00000000	0.0
42	0x00000000	0.0
43	0x00000000	0.0
44	0x00000000	0.0
45	0x00000000	0.0
46	0x00000000	0.0
47	0x00000000	0.0
48	0x00000000	0.0
49	0x00000000	0.0
50	0x00000000	0.0
51	0x00000000	0.0
52	0x00000000	0.0
53	0x00000000	0.0
54	0x00000000	0.0
55	0x00000000	0.0
56	0x00000000	0.0
57	0x00000000	0.0
58	0x00000000	0.0
59	0x00000000	0.0
60	0x00000000	0.0
61	0x00000000	0.0
62	0x00000000	0.0
63	0x00000000	0.0
64	0x00000000	0.0
65	0x00000000	0.0
66	0x00000000	0.0
67	0x00000000	0.0
68	0x00000000	0.0
69	0x00000000	0.0
70	0x00000000	0.0
71	0x00000000	0.0
72	0x00000000	0.0
73	0x00000000	0.0
74	0x00000000	0.0
75	0x00000000	0.0
76	0x00000000	0.0
77	0x00000000	0.0
78	0x00000000	0.0
79	0x00000000	0.0
80	0x00000000	0.0
81	0x00000000	0.0
82	0x00000000	0.0
83	0x00000000	0.0
84	0x00000000	0.0
85	0x00000000	0.0
86	0x00000000	0.0
87	0x00000000	0.0
88	0x00000000	0.0
89	0x00000000	0.0
90	0x00000000	0.0
91	0x00000000	0.0
92	0x00000000	0.0
93	0x00000000	0.0
94	0x00000000	0.0
95	0x00000000	0.0
96	0x00000000	0.0
97	0x00000000	0.0
98	0x00000000	0.0
99	0x00000000	0.0
100	0x00000000	0.0
101	0x00000000	0.0
102	0x00000000	0.0
103	0x00000000	0.0
104	0x00000000	0.0
105	0x00000000	0.0
106	0x00000000	0.0
107	0x00000000	0.0
108	0x00000000	0.0
109	0x00000000	0.0
110	0x00000000	0.0
111	0x00000000	0.0
112	0x00000000	0.0
113	0x00000000	0.0
114	0x00000000	0.0
115	0x00000000	0.0
116	0x00000000	0.0
117	0x00000000	0.0
118	0x00000000	0.0
119	0x00000000	0.0
120	0x00000000	0.0
121	0x00000000	0.0
122	0x00000000	0.0
123	0x00000000	0.0
124	0x00000000	0.0
125	0x00000000	0.0
126	0x00000000	0.0
127	0x00000000	0.0

network_body._body_endoder.seq_layers.2.weight f4 [128, 128]
0	0xbd34fa04	-0.044183746
1	0x3bca3dd5	0.0061719217
2	0xbdb847c0	-0.0899806
3	0xbe26e11d	-0.16296811
4	0xbd7bec15	-0.061504442
5	0x3d51f90c	0.0512629
6	0x3d19efdf	0.037582275
7	0x3d272040	0.04080224
8	0xbcc403fb	-0.02392768
9	0x3ca374f5	0.01995323
10	0x3b373c88	0.0027959663
11	0x3d20193a	0.039086558
12	0xbcef6564	-0.029223152
13	0x3d11e440	0.035618067
14	0x3d15d1d0	0.036577046
15	0x3d5ab78e	0.053397708
16	0xbe4d2f28	-0.2003752
17	0x3c673025	0.0141106
18	0x3cd4f5b2	0.025996063
19	0x3dbc2fcc	0.09188804
20	0x3d08b52c	0.033375904
21	0x3b9d32ef	0.0047973315
22	0x3d99c7e7	0.075088315
23	0xbd69d3ac	-0.05708663
24	0xbdab805d	-0.08374093
25	0xbd2daec8	-0.042403013
26	0xbd20c654	-0.03925164
27	0xbe43dcea	-0.19127241
28	0x3daf9e40	0.08575106
29	0xbe002961	-0.12515785
30	0xbd9c55b3	-0.07633533
31	0xbd3f5efe	-0.04672145
32	0x3c3d5b60	0.01155743
33	0xbe0dd85c	-0.13852066
34	0xbcf741b8	-0.030182704
35	0x3da1ce2a	0.07900651
36	0xbd7ec968	-0.062203795
37	0x3db2210b	0.08697709
38	0x3d12ded3	0.035857033
39	0xbc3b4149	-0.011429139
40	0xbaf91cc4	-0.0019005765
41	0xbda3759b	-0.07981416
42	0x3d86d0d6	0.06582801
43	0x3e0286e3	0.12746768
44	0x3e2f0028	0.17089903
45	0xbbaeea31	-0.0053379764
46	0x3cafb7be	0.02144992
47	0x3d5061ce	0.050874524
48	0xbe2972e7	-0.16547738
49	0xbe0292e2	-0.12751344
50	0x3dcd3e1f	0.10021614
51	0x3d47ffcd	0.048827935
52	0x3d7bd84b	0.06148557
53	0xbe36c687	-0.1784917
54	0xbd7afddf	-0.061277267
55	0x3b24a283	0.0025121279
56	0xbcba84f3	-0.022768473
57	0x3dbdcb8b	0.09267338
58	0x3d408dc3	0.047010195
59	0x3deac111	0.11462606
60	0x3bb02a4f	0.0053761373
61	0x3d003451	0.031299893
62	0x3c44cebc	0.01201218
63	0x3d25325a	0.040331222
64	0xbdb2e8a6	-0.087357804
65	0x3c1de8a5	0.009637986
66	0xbd1ee68c	-0.038794085
67	0x3c593b86	0.01325882
68	0xbd02d6d8	-0.031943172
69	0x3c4901e2	0.012268515
70	0x3deed1e9	0.11661131
71	0x3d269f85	0.040679473
72	0x3c96a8fc	0.018391125
73	0x3d1db6cc	0.038504407
74	0xbc040419	-0.008057618
75	0xbdb95bc9	-0.0905071
76	0xbd80ffb6	-0.06298773
77	0xbd031563	-0.032002818
78	0x3d9c854b	0.07642611
79	0x3e176920	0.14786196
80	0xbbb0b33c	-0.00539246
81	0x3e17f7c4	0.14840609
82	0xbd9f8fbb	-0.07791086
83	0x3c46f2b5	0.012142827
84	0x3db7f555	0.0898234
85	0x3d9e0b74	0.07717028
86	0x3e844557	0.25834152
87	0x3d263478	0.04057738
88	0x3d672db1	0.05644006
89	0xbd718925	-0.05896868
90	0x3debf80a	0.11521919
91	0xbe20536f	-0.15656827
92	0xbdbbc3cc	-0.09168205
93	0xbd0c1e76	-0.034208737
94	0x3e1cac4b	0.153001
95	0x3d91a19e	0.07110904
96	0x3d8ad2c1	0.06778479
97	0xbca71047	-0.020393504
98	0x3d43492b	0.0476772
99	0xbded89e9	-0.1159857
100	0xbc723c20	-0.014784843
101	0x3e1760d6	0.14783034
102	0xbdb26e28	-0.08712417
103	0x3d959ed0	0.07305682
104	0xbc0e1c84	-0.008673791
105	0x3d8cef2e	0.068815574
106	0x3dca47fa	0.0987701
107	0x3e3cfcff	0.18455885
108	0xbe563a36	-0.20920643
109	0x3d103404	0.035205856
110	0x3d86023a	0.065433934
111	0xbe499bb9	-0.1968831
112	0x3d63300e	0.05546575
113	0xbd0cbdb6	-0.03436061
114	0xbd70045d	-0.05859791
115	0xbc4b2421	-0.0123987505
116	0xbbaa65f2	-0.005200141
117	0xbdd0285b	-0.10163947
118	0x3d05fcf5	0.03271194
119	0x3cf97fc4	0.030456431
120	0x3dd21663	0.10258176
121	0xbdd5cc86	-0.104394004
122	0x3d081920	0.033227086
123	0x3d25ae11	0.040449206
124	0xbe1b47f5	-0.15164168
125	0xbc8ba559	-0.017046617
126	0xbc3749a5	-0.011186992
127	0x3d0263a3	0.031833302
128	0x3dfebc14	0.12438217
129	0x3df1b1aa	0.11801465
130	0x3d2fa14c	0.042878434
131	0x3ccea032	0.025222871
132	0x3d9c9c2b	0.07646974
133	0xbcd0d20a	-0.02549078
134	0xbce2f08a	-0.027702589
135	0xbd94eabc	-0.072713345
136	0xbcbf2dbd	-0.02333724
137	0xbe13f295	-0.14448006
138	0x3df95b2b	0.12175592
139	0xbe4ad05d	-0.19806047
140	0xbe4d2984	-0.20035368
141	0xbe0c1c8f	-0.13682769
142	0xbe188cb5	-0.14897425
143	0xbcdc3e30	-0.026885122
144	0xbca3f8b6	-0.020016056
145	0x3dec5239	0.1153912
146	0x39403564	0.00018330436
147	0xbd6debf8	-0.058086365
148	0x3d1f75a5	0.038930554
149	0xbc32abd8	-0.010905229
150	0x3d67609f	0.05648863
151	0x3d8ccda0	0.06875157
152	0xbc807048	-0.01567854
153	0x3c3181c6	0.010834163
154	0xbc5e4209	-0.013565549
155	0xbdeb6d97	-0.11495512
156	0xbd33f107	-0.043931033
157	0x3da161c1	0.07879973
158	0x3d1c7d62	0.038205512
159	0xbcb2f9f8	-0.02184771
160	0xbc902f0b	-0.017600557
161	0x3ce443f7	0.02786444
162	0x3d4e443f	0.050358053
163	0x3dffd078	0.12490934
164	0x3d26ac2e	0.040691547
165	0xbb1b7935	-0.0023723368
166	0xbdc828f6	-0.09773438
167	0x3e626035	0.22107013
168	0x3c978324	0.01849515
169	0xbdb5aab2	-0.08870448
170	0x3bf2a50f	0.0074049304
171	0xbd8ca62c	-0.06867632
172	0xbc00e78e	-0.007867707
173	0x3d5b6a63	0.053568255
174	0x3dabc2e5	0.083867826
175	0xbd99b66c	-0.07505497
176	0xbd6a9cad	-0.057278324
177	0x3d0b4b60	0.03400743
178	0x3d914199	0.0709259
179	0x3ca95960	0.0206725
180	0x3de3ef58	0.111296356
181	0x3c8dd09d	0.017311389
182	0xbd8d41e4	-0.06897333
183	0xbd3bb2cb	-0.045824807
184	0x3e980d3a	0.2969759
185	0x3e0817ab	0.13290279
186	0xbd53e267	-0.051729586
187	0x3d9f5d44	0.07781461
188	0xbccbf298	-0.024895951
189	0xbd15a688	-0.03653577
190	0xbd436c06	-0.04771044
191	0xbe44ac0d	-0.19206257
192	0x3de87836	0.113510534
193	0x3d03382b	0.032035988
194	0x3d418871	0.04724926
195	0xbdf3818d	-0.11889944
196	0xbd9eb173	-0.077486895
197	0x3dc9acea	0.09847434
198	0xbde91bf7	-0.11382287
199	0x3ccbd467	0.024881555
200	0x3dd1021d	0.10205481
201	0x3bd6a546	0.006550464
202	0x3da421bd	0.080142476
203	0x3db9df30	0.09075773
204	0xbe162000	-0.14660645
205	0x3b2e4252	0.0026589823
206	0x3c7db699	0.015485429
207	0xbdb297a2	-0.08720328
208	0xbd4a1e94	-0.049345568
209	0xbdc1fea3	-0.09472396
210	0xbd8a93f6	-0.067665026
211	0xbd8e5cb7	-0.06951278
212	0x3e1f16dc	0.15536064
213	0x3d433c64	0.047665015
214	0x3dbea19c	0.09308168
215	0xbdb2734a	-0.08713396
216	0x3b9ed12c	0.0048467126
217	0xbc94fddb	-0.018187454
218	0xbcb64eb8	-0.022254333
219	0x3dc1f89e	0.09471248
220	0xbd4aec2a	-0.04954163
221	0x3d2c7c71	0.042110864
222	0xbd140f23	-0.036147248
223	0x3c888025	0.016662667
224	0x3df46dd7	0.11935013
225	0xbdf42e3a	-0.119228795
226	0xbb9bcb9e	-0.0047544977
227	0xbd16d980	-0.036828518
228	0xbd4d5245	-0.050127286
229	0x3ca299b9	0.019848691
230	0x3da6368c	0.08115873
231	0x3e1aabcb	0.15104596
232	0xbd5084f8	-0.05090806
233	0xbd9236ef	-0.07139384
234	0xbe258c9a	-0.16166916
235	0x3e04a970	0.1295526
236	0xbd6dba3d	-0.05803894
237	0x3d7d5216	0.06184586
238	0xbdb3f288	-0.087864935
239	0x3d3ce907	0.04612067
240	0x3d1d7258	0.038439125
241	0xbd60ea8a	-0.054911174
242	0x3d8a0d8d	0.06740866
243	0xbe0ddfee	-0.13854954
244	0x3d3eedc3	0.046613466
245	0x3e73519b	0.23761599
246	0x3c8253b4	0.015909053
247	0x3dec91d0	0.11551249
248	0x3d649d4f	0.055814084
249	0x3b87b7ad	0.004141769
250	0x3c99a503	0.018755442
251	0x3e1d3ab6	0.15354428
252	0x3db6a7c6	0.08918719
253	0xbca0f491	-0.019647868
254	0x3de89ace	0.11357652
255	0xbdf3539c	-0.118811816

network_body._body_endoder.seq_layers.2.bias f4 [128]
0	0x00000000	0.0
1	0x00000000	0.0
2	0x00000000	0.0
3	0x00000000	0.0
4	0x00000000	0.0
5	0x00000000	0.0
6	0x00000000	0.0
7	0x00000000	0.0
8	0x00000000	0.0
9	0x00000000	0.0
10	0x00000000	0.0
11	0x00000000	0.0
12	0x00000000	0.0
13	0x00000000	0.0
14	0x00000000	0.0
15	0x00000000	0.0
16	0x00000000	0.0
17	0x00000000	0.0
18	0x00000000	0.0
19	0x00000000	0.0
20	0x00000000	0.0
21	0x00000000	0.0
22	0x00000000	0.0
23	0x00000000	0.0
24	0x00000000	0.0
25	0x00000000	0.0
26	0x00000000	0.0
27	0x00000000	0.0
28	0x00000000	0.0
29	0x00000000	0.0
30	0x00000000	0.0
31	0x00000000	0.0
32	0x00000000	0.0
33	0x00000000	0.0
34	0x00000000	0.0
35	0x00000000	0.0
36	0x00000000	0.0
37	0x00000000	0.0
38	0x00000000	0.0
39	0x00000000	0.0
40	0x00000000	0.0
41	0x00000000	0.0
42	0x00000000	0.0
43	0x00000000	0.0
44	0x00000000	0.0
45	0x00000000	0.0
46	0x00000000	0.0
47	0x00000000	0.0
48	0x00000000	0.0
49	0x00000000	0.0
50	0x00000000	0.0
51	0x00000000	0.0
52	0x00000000	0.0
53	0x00000000	0.0
54	0x00000000	0.0
55	0x00000000	0.0
56	0x00000000	0.0
57	0x00000000	0.0
58	0x00000000	0.0
59	0x00000000	0.0
60	0x00000000	0.0
61	0x00000000	0.0
62	0x00000000	0.0
63	0x00000000	0.0
64	0x00000000	0.0
65	0x00000000	0.0
66	0x00000000	0.0
67	0x00000000	0.0
68	0x00000000	0.0
69	0x00000000	0.0
70	0x00000000	0.0
71	0x00000000	0.0
72	0x00000000	0.0
73	0x00000000	0.0
74	0x00000000	0.0
75	0x00000000	0.0
76	0x00000000	0.0
77	0x00000000	0.0
78	0x00000000	0.0
79	0x00000000	0.0
80	0x00000000	0.0
81	0x00000000	0.0
82	0x00000000	0.0
83	0x00000000	0.0
84	0x00000000	0.0
85	0x00000000	0.0
86	0x00000000	0.0
87	0x00000000	0.0
88	0x00000000	0.0
89	0x00000000	0.0
90	0x00000000	0.0
91	0x00000000	0.0
92	0x00000000	0.0
93	0x00000000	0.0
94	0x00000000	0.0
95	0x00000000	0.0
96	0x00000000	0.0
97	0x00000000	0.0
98	0x00000000	0.0
99	0x00000000	0.0
100	0x00000000	0.0
101	0x00000000	0.0
102	0x00000000	0.0
103	0x00000000	0.0
104	0x00000000	0.0
105	0x00000000	0.0
106	0x00000000	0.0
107	0x00000000	0.0
108	0x00000000	0.0
109	0x00000000	0.0
110	0x00000000	0.0
111	0x00000000	0.0
112	0x00000000	0.0
113	0x00000000	0.0
114	0x00000000	0.0
115	0x00000000	0.0
116	0x00000000	0.0
117	0x00000000	0.0
118	0x00000000	0.0
119	0x00000000	0.0
120	0x00000000	0.0
121	0x00000000	0.0
122	0x00000000	0.0
123	0x00000000	0.0
124	0x00000000	0.0
125	0x00000000	0.0
126	0x00000000	0.0
127	0x00000000	0.0

action_model._continuous_distribution.log_sigma f4 [1, 6]
0	0x00000000	0.0
1	0x00000000	0.0
2	0x00000000	0.0
3	0x00000000	0.0
4	0x00000000	0.0
5	0x00000000	0.0

action_model._continuous_distribution.mu.weight f4 [6, 128]
0	0x3cdb4208	0.026764885
1	0xbbf8bb0d	-0.0075906576
2	0xbd449bbe	-0.04800009
3	0x3ca49053	0.02008835
4	0xbc6194d3	-0.013768393
5	0xbd039e24	-0.032133237
6	0x3ca695e8	0.020335153
7	0x3bc43c67	0.005988646
8	0x3c8842b2	0.016633365
9	0x3d04c8af	0.03241795
10	0xbca0e162	-0.01963872
11	0x3c900188	0.017578855
12	0x3bb75147	0.005594406
13	0x3cbda35b	0.023149183
14	0x3b1d9fb7	0.0024051496
15	0xbc0135d4	-0.007886369
16	0x3cec81b2	0.028870437
17	0x3cd02ae7	0.025411082
18	0xbd1308cc	-0.03589706
19	0x3cbc4bc4	0.022985347
20	0x3c4ad973	0.0123809455
21	0x3c008a26	0.007845437
22	0x3c7d6115	0.015465041
23	0x3b91dc0a	0.0044512795
24	0xbb52fbaf	-0.0032193472
25	0x3a2a807e	0.0006504132
26	0xba91d863	-0.001112711
27	0x3c930ac3	0.017949468
28	0x3ae0d3f3	0.001715301
29	0x3cb0fe19	0.021605538
30	0x3c51f49b	0.012814666
31	0x3b0763dc	0.0020658886
32	0xbc496c2e	-0.012293858
33	0xbb2a9464	-0.002602839
34	0x3c29afc4	0.010356847
35	0xbd0fd681	-0.035116676
36	0xbcdc35ab	-0.02688106
37	0x3becc9c5	0.0072262012
38	0xbc6d0a7f	-0.0144678345
39	0x3cd4d8aa	0.02598222
40	0x3a4114b7	0.00073654525
41	0x3ba1001a	0.004913342
42	0xbcd885a0	-0.026430905
43	0xbc75eb32	-0.015009688
44	0xbc9ca5be	-0.019122
45	0x3ccde29a	0.025132466
46	0x3cd86ad5	0.026418129
47	0xbc9f453e	-0.019442197
48	0xbb69c082	-0.0035667722
49	0x3d1cf482	0.03831912
50	0xbc8a6e9b	-0.016898444
51	0xbc96b524	-0.018396921
52	0xbc97b426	-0.018518519
53	0xbc9fc4cc	-0.01950302
54	0x3bfdc8f0	0.007744901
55	0x3cf223d3	0.029558098
56	0x3c603fff	0.013687133
57	0xbcdd5685	-0.027018795
58	0x3c9dfa0f	0.019284276
59	0x3b2cd45f	0.00263717
60	0x3d3c08e3	0.045906913
61	0xbd1074de	-0.035267703
62	0x3c662702	0.014047386
63	0xba862159	-0.0010233327
64	0xbaaae980	-0.0013039559
65	0x3c68e0f2	0.014213787
66	0xbc767dc0	-0.01504463
67	0x3c2af191	0.0104335705
68	0xbbd7257b	-0.0065657473
69	0x3c22be80	0.009933114
70	0x3bcb2f84	0.0062007327
71	0x3d19364f	0.03740531
72	0x3d0f921e	0.035051458
73	0xbc3ff888	-0.011716969
74	0xbc733f0d	-0.014846575
75	0x3b0909ba	0.0020910338
76	0x3c9e6ef1	0.01934001
77	0xbc6cff60	-0.014465183
78	0x3c948107	0.018127931
79	0x3cc2b6b8	0.023768768
80	0x3c577f7d	0.013152954
81	0x3c36895d	0.011141148
82	0xbb769ee0	-0.0037631318
83	0x3c99c7b9	0.018771993
84	0x3caec30f	0.021333246
85	0x3c806100	0.015671253
86	0xbcd2803a	-0.025695909
87	0x3c89c5e7	0.016818
88	0x3c7888df	0.015169351
89	0xbc0db809	-0.008649834
90	0x3c8495e1	0.01618475
91	0x3c0286a6	0.007966673
92	0xbbed2b9a	-0.0072378637
93	0x3bfe3dd3	0.007758835
94	0x3babe0db	0.0052453107
95	0x3c668075	0.0140687125
96	0x3c20a76f	0.009805544
97	0xbb23ed40	-0.0025013238
98	0xbbfdfaa7	-0.0077508274
99	0xbce11515	-0.027475873
100	0x3cd07f0f	0.025451211
101	0xbc788f2f	-0.015170856
102	0x3cb3262f	0.021868793
103	0x3a754e87	0.000935771
104	0xbc150577	-0.009095541
105	0xbb34cb78	-0.0027587097
106	0x3c4d4728	0.012529172
107	0x3c1a250a	0.009408245
108	0x3c619725	0.013768946
109	0x3ca53632	0.020167444
110	0xbc2f74cf	-0.010709002
111	0xbbe6a1d0	-0.0070383325
112	0xbc2b7e78	-0.010467164
113	0x3c2c4e2f	0.010516687
114	0x3bf53282	0.0074828276
115	0xbc8bd67e	-0.017070051
116	0x3c7afac5	0.015318577
117	0xbc2c2787	-0.010507471
118	0x3d04234b	0.03226022
119	0x3cab2b24	0.020894594
120	0xbcf35ae8	-0.029706433
121	0x3cdb4a00	0.026768684
122	0xbc52c882	-0.012865188
123	0x3c550a30	0.013002917
124	0x3c797863	0.015226456
125	0xbd1a2b89	-0.037639175
126	0xbc840714	-0.016116656
127	0xbcab43a6	-0.02090628
128	0xbc6cec77	-0.0144606745
129	0x3c019d88	0.0079110935
130	0xbcc1ec91	-0.023672374
131	0x3ccc9e23	0.02497775
132	0xbc30e932	-0.010797786
133	0xbcf68d43	-0.030096656
134	0xbba03650	-0.004889287
135	0x3b4403e5	0.0029909548
136	0xbbb82e7c	-0.0056207757
137	0x3bf36945	0.0074283206
138	0x39895272	0.00026192103
139	0x3ca48adf	0.02008575
140	0x3cbf719a	0.0233696
141	0x3c16d8e3	0.009206983
142	0xbc8bde81	-0.017073872
143	0x3cc14137	0.023590667
144	0xbc8dc70f	-0.017306833
145	0xbcaba998	-0.020954892
146	0xbc02663a	-0.007958943
147	0xbc9e43d3	-0.01931945
148	0xbbf6c030	-0.0075302348
149	0xba318b9f	-0.00067728193
150	0xbc2e1057	-0.010624013
151	0xbcc634c3	-0.02419508
152	0x3c3c49e7	0.011492229
153	0xbd182f80	-0.037154675
154	0xbcfaea82	-0.0306294
155	0xbc3650bd	-0.011127648
156	0xbbc437d9	-0.005988103
157	0x3c96a513	0.01838926
158	0x3c8ac6ba	0.016940463
159	0x3c852fc3	0.016258126
160	0x3bdf7243	0.006819041
161	0xbbcc766e	-0.006239704
162	0x3c819933	0.015820121
163	0x3b05bcaf	0.0020406654
164	0x3c31497c	0.010820743
165	0x3bb6024f	0.0055544744
166	0xbc4a5793	-0.012349981
167	0xbc667f0d	-0.014068377
168	0xbc1975b7	-0.009366444
169	0xbcc6eca2	-0.024282757
170	0xbd0e7cf0	-0.03478712
171	0x3ab56299	0.0013838588
172	0x3cb11813	0.021617925
173	0xbbf1eef5	-0.007383222
174	0xbca196cb	-0.019725224
175	0xbbc89907	-0.006121758
176	0xbbf06273	-0.007335955
177	0xbc0ca68d	-0.008584631
178	0xbcb08347	-0.021546973
179	0x3cd36a97	0.025807662
180	0x3c9e7417	0.019342465
181	0x3aff82f3	0.0019493982
182	0x3c7ea5d2	0.015542464
183	0x3bf1b37b	0.007376132
184	0xbb1076f4	-0.0022043558
185	0x3c4d9d68	0.012549736
186	0xbc459ab8	-0.012060814
187	0x3cffa2dd	0.031205589
188	0xbc73bf1b	-0.014877106
189	0xbb838f11	-0.0040148576
190	0xbc02786d	-0.007963282
191	0x3c86810a	0.016418952
192	0xbbe26918	-0.006909501
193	0x3cbf01c3	0.02331627
194	0xbc28b661	-0.010297389
195	0x3b2692d9	0.0025417118
196	0xbc81f3d4	-0.015863337
197	0x3b9668a4	0.004590111
198	0x3c9bc2f9	0.019013869
199	0xbd12be36	-0.03582593
200	0xbc9522c1	-0.018205049
201	0xbb8a2d27	-0.0042168084
202	0xbbc296fb	-0.0059384084
203	0xbb272ef1	-0.0025510157
204	0xbbe6f21f	-0.007047906
205	0xbc842488	-0.0161307
206	0xbcef7f85	-0.02923561
207	0xbc3cdddb	-0.011527504
208	0xbbada2ab	-0.0052989325
209	0xbba896f0	-0.0051449463
210	0xbba8945d	-0.0051446394
211	0x3c5d03d8	0.013489686
212	0x3ce651db	0.028115204
213	0x3cde017d	0.027100319
214	0xbaa6034c	-0.0012665777
215	0xbc00e68d	-0.007867468
216	0x3c3c3430	0.011487052
217	0xbad3dbb3	-0.0016163498
218	0x3c290793	0.010316747
219	0xbc25b5bb	-0.010114129
220	0x3ceb1957	0.028698606
221	0x3cc59e50	0.02412334
222	0x3c8a5a09	0.016888635
223	0x3c6967fb	0.014245982
224	0x3bed4ce8	0.007241834
225	0x3ad322cb	0.0016108392
226	0xbd039dd1	-0.032132927
227	0xbb609018	-0.0034265574
228	0xbcb12817	-0.021625562
229	0x3c696c1f	0.0142469695
230	0xbb264a53	-0.002537389
231	0x3bd884f5	0.0066076466
232	0xba01508f	-0.00049329636
233	0x3b2bd373	0.0026218563
234	0xbb2137fc	-0.002460002
235	0xbc2a10f2	-0.010380017
236	0x3ced25fb	0.028948775
237	0xbc64f81a	-0.013975168
238	0xbc7fcfba	-0.015613491
239	0x3c93ed30	0.018057436
240	0x3c873473	0.016504502
241	0xbcaf10d1	-0.021370323
242	0x3c85053f	0.016237853
243	0xbc876f53	-0.016532576
244	0xbb8371f7	-0.0040113884
245	0xbcd8db1a	-0.026471663
246	0x3d15e79e	0.03659784
247	0x3c4b37be	0.012403427
248	0xbad04577	-0.0015889843
249	0x3d2dc2f7	0.04242226
250	0xba3856c3	-0.00070319715
251	0xbc039634	-0.008031417
252	0xbb468d24	-0.0030296529
253	0x3cc4a9fc	0.024006836
254	0x3c8b6397	0.017015262
255	0x3ceeb01a	0.029136706

action_model._continuous_distribution.mu.bias f4 [6]
0	0x00000000	0.0
1	0x00000000	0.0
2	0x00000000	0.0
3	0x00000000	0.0
4	0x00000000	0.0
5	0x00000000	0.0

network_body._body_endoder.seq_layers.0.weight f4 [128, 396]
0	0xbdbd85bb	-0.09254023
1	0x3ca257e1	0.019817295
2	0xbcde011f	-0.027100144
3	0xbb9dae4e	-0.0048120385
4	0xbcac35d4	-0.021021761
5	0x3db273f8	0.087135255
6	0xbd3295b9	-0.043599818
7	0x3d837690	0.064190984
8	0x3c2c7386	0.01052559
9	0xbd49adc6	-0.04923799
10	0x3d905baa	0.070487335
11	0xbcb2a31c	-0.021806292
12	0xbd77d67f	-0.060507294
13	0x3cd215ff	0.025645254
14	0x3a68f7fe	0.00088870514
15	0x3d69c130	0.057069004
16	0xbcabe328	-0.02098234
17	0xbc875f75	-0.01652501
18	0xbbce0da6	-0.006288248
19	0xbd183f77	-0.0371699
20	0x3d76f137	0.060288634
21	0xbd59f6c5	-0.053213853
22	0xbb8ebfe3	-0.004356371
23	0x3a8c5c40	0.0010708645
24	0xbb7ae3e2	-0.0038282801
25	0xbdb2fb97	-0.08739393
26	0x3db43a4c	0.08800182
27	0xbcbc512f	-0.02298793
28	0x3d55c69f	0.052191373
29	0xbd07d962	-0.033166297
30	0x3d5a8ded	0.053358007
31	0x3d38066e	0.044928007
32	0x3d3859e5	0.045007605
33	0xbc80652c	-0.015673243
34	0xbcd411b1	-0.025887342
35	0xbdaeed4c	-0.085413545
36	0x3d11e204	0.035615936
37	0x3c12e8fc	0.008966681
38	0x3c984ed3	0.018592274
39	0xbce62af1	-0.028096648
40	0xbd482fd6	-0.048873745
41	0xb9392d47	-0.00017659842
42	0xbdc00310	-0.09375584
43	0xbd2f982e	-0.04286974
44	0xbd9158eb	-0.07097038
45	0x3d52a514	0.051426962
46	0xbcaa1664	-0.02076263
47	0xbd097330	-0.033557117
48	0xbe0e7186	-0.13910493
49	0x3d52ce8b	0.051466506
50	0xbd4b2a53	-0.04960091
51	0x3cbf08e2	0.023319665
52	0x3c3cd5fb	0.011525626
53	0xbcedb7c6	-0.029018294
54	0x3c01fc1d	0.007933644
55	0xbcf76b6c	-0.03020259
56	0x3d36ae39	0.044599745
57	0x3dc39a2c	0.0955089
58	0xbd80d6e1	-0.06290985
59	0x3c5a5915	0.013326903
60	0x3cc33d0b	0.023832818
61	0xbd5570da	-0.052109577
62	0xbcc0ece4	-0.023550458
63	0x3e2b6abf	0.16739939
64	0xbc87d1ac	-0.016579472
65	0xbd604a5e	-0.054758422
66	0xbcd89524	-0.026438303
67	0x3da2745f	0.07932352
68	0xbc4e111d	-0.012577322
69	0xbd0ff98b	-0.035150092
70	0x3d6116b9	0.05495331
71	0x3da1921f	0.078891985
72	0xbd4ba731	-0.049719993
73	0xbd4e1e5e	-0.05032193
74	0x3cb9dce8	0.022688344
75	0xbd14d191	-0.03633267
76	0x3dbc1fa2	0.09185721
77	0x3db40333	0.08789673
78	0xbd1d6af8	-0.03843209
79	0xbdb45a12	-0.08806242
80	0xbd688a3e	-0.056772463
81	0xbcb87771	-0.022517892
82	0xbbb4af43	-0.005514057
83	0x3ce6bc3b	0.028165927
84	0x3bd80494	0.0065923426
85	0x3d8989d8	0.06715745
86	0x38dfcbea	0.000106714506
87	0x3d00ca97	0.031443205
88	0x3d7ac18e	0.061219744
89	0x3d46ac90	0.048504412
90	0x3cd1a170	0.025589675
91	0xbb9f0894	-0.0048533175
92	0x3d000cab	0.03126208
93	0xbca86819	-0.02055745
94	0xbcaa398b	-0.020779392
95	0x3cbc6f57	0.02300231
96	0x3cd22b8e	0.025655534
97	0xbc176506	-0.009240394
98	0x39c369c1	0.0003727209
99	0x3c258e76	0.010104766
100	0x3c7b3404	0.015332226
101	0xbd86eb8f	-0.06587898
102	0x3d53ebdc	0.051738605
103	0x3c363d1e	0.01112297
104	0x3c38adc0	0.011271894
105	0xbd0487b0	-0.032355964
106	0xbd3e26b1	-0.046423618
107	0x3ce21e74	0.027602412
108	0x3cd8a31f	0.02644497
109	0xbd47f119	-0.048813913
110	0xbd470f4a	-0.048598565
111	0xbd9a8ba6	-0.07546167
112	0xbcc9b121	-0.024620594
113	0x3d9a1eca	0.07525404
114	0x3d851f76	0.06500141
115	0x3d7ef491	0.062244955
116	0xbdd2cb7d	-0.102927186
117	0x3dc2a5ea	0.09504302
118	0x3c42f0a2	0.011898192
119	0x3c6974b1	0.014249013
120	0xbbf27a26	-0.007399815
121	0xbd9e0b40	-0.077169895
122	0x3da3e05b	0.08001777
123	0x3d11e2fe	0.035616867
124	0xbca18841	-0.019718291
125	0xbd41c123	-0.04730333
126	0xbd2c4ed4	-0.042067364
127	0xbda437dc	-0.08018467
128	0xbcd40973	-0.025883412
129	0x3d98eb39	0.0746674
130	0x3cac3bd4	0.021024622
131	0x3de08c50	0.109642625
132	0x3d41fa1d	0.047357667
133	0xbb2606ec	-0.0025333716
134	0xbc84d6a3	-0.016215628
135	0xbd970309	-0.07373626
136	0xbb7e7ba6	-0.0038831024
137	0x3c82f033	0.015983677
138	0xbb3bee87	-0.002867611
139	0xbd921292	-0.07132448
140	0xbd807298	-0.06271857
141	0xbc589292	-0.013218539
142	0x3d6b9d41	0.057523016
143	0x3c0e7e6b	0.008697133
144	0x3d3c5bbc	0.045985922
145	0x3cb85406	0.022501003
146	0x3aea7215	0.0017886782
147	0x3c1d6df6	0.009608736
148	0xb9176cb0	-0.00014440971
149	0xbda68221	-0.08130289
150	0xbc9d0a56	-0.019169968
151	0x3d84a3ed	0.06476579
152	0xbab8f0c3	-0.0014109839
153	0x3cea8695	0.028628627
154	0xbcd252d1	-0.025674256
155	0x3b966abb	0.00459036
156	0x3d3e33aa	0.04643599
157	0xbd1705e9	-0.03687087
158	0x3c61dfdd	0.013786283
159	0xbc877b87	-0.016538395
160	0xbc8f69aa	-0.01750644
161	0xbcf0edc2	-0.029410247
162	0xbd771fbe	-0.060333006
163	0xbdb8bc9e	-0.09020351
164	0x3cb9de49	0.022689002
165	0x3a9fd0d4	0.0012192973
166	0xbd55dd6e	-0.052213125
167	0x3d874b3f	0.06606149
168	0x3a9c4769	0.0011923137
169	0xbd926ca3	-0.07149627
170	0x3cc2b399	0.02376728
171	0xbd322dd9	-0.043500755
172	0xbba9884f	-0.00517372
173	0xbd8315db	-0.06400653
174	0x3d241e03	0.040067684
175	0xbd019cfc	-0.031643853
176	0xbc5e8524	-0.013581548
177	0x3d80290c	0.06257829
178	0x3d3589f0	0.044321
179	0x3d2ee67d	0.04270028
180	0x3c3fa639	0.011697345
181	0x3d0e25d2	0.034704037
182	0xbcd71a9b	-0.026257804
183	0xbd791886	-0.060814403
184	0x3d3bd177	0.045854058
185	0x3bc63a55	0.006049434
186	0xbb390ff5	-0.002823827
187	0x3b0b743d	0.0021279
188	0xbcd6f8cb	-0.02624168
189	0x3c05e842	0.00817305
190	0x3a460b60	0.00075547956
191	0x3ce592eb	0.028024158
192	0x3c83f39e	0.016107377
193	0xbd0e6352	-0.034762688
194	0x3cc86e0a	0.024466533
195	0x3ba26900	0.0049563646
196	0xbdbeccbd	-0.093163945
197	0xbc7c5ab8	-0.015402488
198	0x3c424e1e	0.011859445
199	0xbb859cd4	-0.0040775333
200	0xbd8200fb	-0.06347843
201	0xbcd6f26b	-0.02623864
202	0xbcdf1a3d	-0.027234191
203	0x3d811e9a	0.06304665
204	0x3dc46cf9	0.095910974
205	0xbcd3dd2e	-0.025862303
206	0x3cd3aff5	0.025840739
207	0xbcf4ed50	-0.029898316
208	0x3d44fa1f	0.048090097
209	0xbd1a10c1	-0.037613634
210	0xbc738d3c	-0.014865216
211	0xbd492fc5	-0.049117822
212	0x3ce63b92	0.028104577
213	0x3dc3d5ec	0.09562287
214	0x3d7d3e2d	0.061826874
215	0xbd197bd8	-0.037471622
216	0xbce6158c	-0.028086446
217	0xb97b911d	-0.00023991284
218	0x3dbd13d5	0.09232298
219	0x3d1ed10e	0.03877359
220	0xbd2c8cda	-0.042126514
221	0x3c8763ca	0.016527075
222	0xbd8235f2	-0.063579455
223	0xbcdd84ea	-0.027040917
224	0x3c60e1cc	0.013725709
225	0x3cd4f119	0.02599387
226	0xbc658473	-0.014008629
227	0x3d9f1f12	0.07769598
228	0xbaf4df3f	-0.0018682255
229	0x3d4be1b4	0.049775794
230	0xbd4f8f50	-0.050673783
231	0x3ceb7ce6	0.02874608
232	0xbc92785b	-0.017879656
233	0x3d003b8c	0.03130679
234	0x3d628572	0.055303045
235	0xbd5d3acc	-0.05401115
236	0xbda8e3c5	-0.082465686
237	0x3dd0d3ea	0.101966694
238	0x3b8770dd	0.0041333274
239	0xbdecb89b	-0.11558648
240	0xbd4fb57f	-0.050710198
241	0x3c949e83	0.01814199
242	0xbbf6fb40	-0.0075372756
243	0xbb08c6bb	-0.0020870406
244	0xbd06a9f3	-0.03287692
245	0x3bc12039	0.005893734
246	0xbc693818	-0.014234565
247	0xbce6da8f	-0.028180389
248	0xbbb554a9	-0.005533774
249	0xbcb5b1d5	-0.022179523
250	0xbd7ae6f6	-0.061255418
251	0x3d42f012	0.04759223
252	0xbd0ac440	-0.033878565
253	0xbd27efb6	-0.04100009
254	0x3b1e6b53	0.0024172857
255	0x3d4c3802	0.0498581

network_body._body_endoder.seq_layers.0.bias f4 [128]
0	0x00000000	0.0
1	0x00000000	0.0
2	0x00000000	0.0
3	0x00000000	0.0
4	0x00000000	0.0
5	0x00000000	0.0
6	0x00000000	0.0
7	0x00000000	0.0
8	0x00000000	0.0
9	0x00000000	0.0
10	0x00000000	0.0
11	0x00000000	0.0
12	0x00000000	0.0
13	0x00000000	0.0
14	0x00000000	0.0
15	0x00000000	0.0
16	0x00000000	0.0
17	0x00000000	0.0
18	0x00000000	0.0
19	0x00000000	0.0
20	0x00000000	0.0
21	0x00000000	0.0
22	0x00000000	0.0
23	0x00000000	0.0
24	0x00000000	0.0
25	0x00000000	0.0
26	0x00000000	0.0
27	0x00000000	0.0
28	0x00000000	0.0
29	0x00000000	0.0
30	0x00000000	0.0
31	0x00000000	0.0
32	0x00000000	0.0
33	0x00000000	0.0
34	0x00000000	0.0
35	0x00000000	0.0
36	0x00000000	0.0
37	0x00000000	0.0
38	0x00000000	0.0
39	0x00000000	0.0
40	0x00000000	0.0
41	0x00000000	0.0
42	0x00000000	0.0
43	0x00000000	0.0
44	0x00000000	0.0
45	0x00000000	0.0
46	0x00000000	0.0
47	0x00000000	0.0
48	0x00000000	0.0
49	0x00000000	0.0
50	0x00000000	0.0
51	0x00000000	0.0
52	0x00000000	0.0
53	0x00000000	0.0
54	0x00000000	0.0
55	0x00000000	0.0
56	0x00000000	0.0
57	0x00000000	0.0
58	0x00000000	0.0
59	0x00000000	0.0
60	0x00000000	0.0
61	0x00000000	0.0
62	0x00000000	0.0
63	0x00000000	0.0
64	0x00000000	0.0
65	0x00000000	0.0
66	0x00000000	0.0
67	0x00000000	0.0
68	0x00000000	0.0
69	0x00000000	0.0
70	0x00000000	0.0
71	0x00000000	0.0
72	0x00000000	0.0
73	0x00000000	0.0
74	0x00000000	0.0
75	0x00000000	0.0
76	0x00000000	0.0
77	0x00000000	0.0
78	0x00000000	0.0
79	0x00000000	0.0
80	0x00000000	0.0
81	0x00000000	0.0
82	0x00000000	0.0
83	0x00000000	0.0
84	0x00000000	0.0
85	0x00000000	0.0
86	0x00000000	0.0
87	0x00000000	0.0
88	0x00000000	0.0
89	0x00000000	0.0
90	0x00000000	0.0
91	0x00000000	0.0
92	0x00000000	0.0
93	0x00000000	0.0
94	0x00000000	0.0
95	0x00000000	0.0
96	0x00000000	0.0
97	0x00000000	0.0
98	0x00000000	0.0
99	0x00000000	0.0
100	0x00000000	0.0
101	0x00000000	0.0
102	0x00000000	0.0
103	0x00000000	0.0
104	0x00000000	0.0
105	0x00000000	0.0
106	0x00000000	0.0
107	0x00000000	0.0
108	0x00000000	0.0
109	0x00000000	0.0
110	0x00000000	0.0
111	0x00000000	0.0
112	0x00000000	0.0
113	0x00000000	0.0
114	0x00000000	0.0
115	0x00000000	0.0
116	0x00000000	0.0
117	0x00000000	0.0
118	0x00000000	0.0
119	0x00000000	0.0
120	0x00000000	0.0
121	0x00000000	0.0
122	0x00000000	0.0
123	0x00000000	0.0
124	0x00000000	0.0
125	0x00000000	0.0
126	0x00000000	0.0
127	0x00000000	0.0

network_body._body_endoder.seq_layers.2.weight f4 [128, 128]
0	0xbdd1c06e	-0.10241781
1	0x3a5d9d57	0.00084539264
2	0xbbcae5ed	-0.00619196
3	0xbd2d5999	-0.042321775
4	0x3d412cb7	0.047161784
5	0xbd9f8f34	-0.07790986
6	0x39325ae4	0.00017009262
7	0x3c6f05b5	0.014588763
8	0xbd508cd5	-0.050915558
9	0x3d8c08a8	0.068375885
10	0xbd86765c	-0.06565544
11	0x3c272279	0.01020109
12	0xbdf41619	-0.11918277
13	0xbc0d6758	-0.008630596
14	0xbd8f1303	-0.06986048
15	0xbc3935f3	-0.011304366
16	0x3c7aa999	0.015299224
17	0xbad5c020	-0.0016307868
18	0xbd846d41	-0.06466151
19	0x3d99adf2	0.075038806
20	0x3d28d88f	0.04122215
21	0x3c992ac0	0.018697143
22	0xbd4c3c6d	-0.049862314
23	0xbe4c1792	-0.19930866
24	0xbcb42d2f	-0.021994201
25	0xbda4e1f1	-0.080509074
26	0xbd80d0a3	-0.06289794
27	0x3da5e6bf	0.08100652
28	0xbc03b018	-0.0080375895
29	0x3e1f0377	0.15528665
30	0xbe1c7f48	-0.15282929
31	0xbd36de01	-0.044645313
32	0x3b5b8f3b	0.003350212
33	0xbe695b2e	-0.22788689
34	0xbd5e902c	-0.05433671
35	0x3c7c02d3	0.015381533
36	0x3cf1415d	0.029450113
37	0x3d27eff5	0.041000325
38	0x3e038bcb	0.12846296
39	0xbdccc402	-0.09998323
40	0x3dcb9733	0.09940948
41	0xbd3552bd	-0.04426836
42	0xbd79d9ad	-0.060998607
43	0xbcc51cd0	-0.02406159
44	0x3d1980d3	0.037476372
45	0xbe1ec61f	-0.15505265
46	0x3c0030b1	0.007824109
47	0xbdabcbb0	-0.0838846
48	0xbd8c423e	-0.06848572
49	0xbdc6995c	-0.0969722
50	0xbda82b01	-0.08211327
51	0x3ce991d4	0.02851192
52	0xbd045d47	-0.03231552
53	0x3db39ce2	0.087701574
54	0xbe19b4cd	-0.15010376
55	0xbd25946b	-0.040424746
56	0xbddafe5c	-0.106930465
57	0x3dab1501	0.083536156
58	0xbe2c0e04	-0.16802222
59	0x3ca64af9	0.020299422
60	0x3c4689de	0.012117831
61	0x3ccbce30	0.024878591
62	0x3de91a48	0.11381966
63	0xbc32b583	-0.010907534
64	0xbd8e83da	-0.069587424
65	0xbd83f789	-0.06443698
66	0x3d8da265	0.0691574
67	0x3cdb672c	0.026782595
68	0x3dd45990	0.10368645
69	0xbdb5286c	-0.088456005
70	0x3dd1b9e0	0.10240531
71	0x3d256564	0.040379897
72	0x3d394403	0.045230877
73	0xbcdeb16b	-0.027184209
74	0xbd52a02c	-0.051422283
75	0xbdef73ac	-0.116919845
76	0xbd69e06c	-0.05709879
77	0xbde95d13	-0.113947056
78	0x3d8a9e93	0.06768527
79	0xbd675a12	-0.056482382
80	0xbd5618fd	-0.052269924
81	0xbcfc9c64	-0.030836292
82	0x3d7fd869	0.062462244
83	0x3d13a9b7	0.036050525
84	0x3c93ea5a	0.018056083
85	0x3dabb6f4	0.08384505
86	0x3c8d044c	0.017213963
87	0x3e100a5a	0.14066449
88	0x3d4df708	0.050284415
89	0x3ad9d168	0.0016618194
90	0xbe000ad0	-0.12504125
91	0x3d434f44	0.047683015
92	0xbddd28b1	-0.10798777
93	0x3cf9f616	0.03051285
94	0xbc41e1fc	-0.011833664
95	0x3cafb3bd	0.02144801
96	0x3ce924d4	0.028459944
97	0x3dd50a21	0.104023226
98	0xb90f5a24	-0.00013671123
99	0xbccdb33b	-0.025109878
100	0xbda6e66f	-0.081494205
101	0x3e0ead4a	0.13933292
102	0xbc9b1578	-0.018931136
103	0x3e093e8d	0.13402767
104	0x3dbe4a52	0.09291519
105	0xbdf86837	-0.121292524
106	0x3dd0e50b	0.101999365
107	0xbda3f7cd	-0.080062486
108	0x3dc2f494	0.09519306
109	0xbbf8b305	-0.0075897
110	0xbd04d8de	-0.032433383
111	0xbc71dea6	-0.014762556
112	0xbc20006d	-0.0097657265
113	0x3e1af568	0.15132678
114	0xbd5ab8e0	-0.053398967
115	0xbe6a3813	-0.22872953
116	0xbd6618a8	-0.056175858
117	0xbda19131	-0.07889021
118	0xbd7f4c97	-0.0623289
119	0xbd939e76	-0.072079584
120	0xbe28d593	-0.16487722
121	0x3d972149	0.073793955
122	0x3da13bf3	0.078727625
123	0xbd7e4be1	-0.062084083
124	0x3cb12fce	0.02162924
125	0x3ac482da	0.001499261
126	0x3cd4fb2f	0.02599868
127	0xbe406fa9	-0.18792595
128	0xbddfb7e7	-0.109237485
129	0x3dfa16e5	0.12211398
130	0xbd01dedc	-0.031706676
131	0xbd7d4762	-0.061835654
132	0xbe09c069	-0.13452305
133	0x3cca0c42	0.024664048
134	0xbd9ba3f3	-0.0759963
135	0x3d27bb94	0.040950373
136	0x3de0373a	0.10948034
137	0xbda2f57e	-0.0795698
138	0x3d61c111	0.055115763
139	0x3dfb3f29	0.12267906
140	0xbe2d2233	-0.16907577
141	0xbda7e3a0	-0.08197713
142	0xbd48c178	-0.04901263
143	0xbd8a43eb	-0.067512356
144	0xbd32e600	-0.043676376
145	0x3aff0c9b	0.0019458713
146	0x3e7f17ab	0.24911372
147	0xbe0a918b	-0.13532083
148	0x3d865cf7	0.065607004
149	0x3d5f9c8c	0.054592654
150	0x3e0c537f	0.13703726
151	0x3d5d8939	0.054085944
152	0xbd938535	-0.072031416
153	0x3db493fb	0.088172875
154	0x3e444ade	0.19169185
155	0x3da55a0c	0.08073816
156	0x3d1f1cd1	0.03884584
157	0x3d6d84a4	0.057987824
158	0xbc63f8dc	-0.013914313
159	0xbc985a2f	-0.01859769
160	0x3d45ae21	0.048261765
161	0x3ddc1246	0.10745673
162	0x3daa8f07	0.083280616
163	0xbe06b6c3	-0.13155656
164	0xbcb1cc42	-0.021703843
165	0x3e1aed7f	0.1512966
166	0xbcf9cb7e	-0.03049254
167	0x3dc98db9	0.098414846
168	0xbde1d77b	-0.11027428
169	0xbcbdab3b	-0.023152938
170	0xbe206f24	-0.15667397
171	0x3d67994a	0.056542672
172	0xbd81b41a	-0.0633318
173	0xbdce009d	-0.10058711
174	0xbcc3ebde	-0.023916181
175	0xbc958fde	-0.018257078
176	0xbe49b477	-0.19697748
177	0x3ccb1786	0.02479149
178	0x3d8a5db4	0.06756154
179	0xbbae0bbd	-0.005311458
180	0xbdea3e8f	-0.11437713
181	0xbc8d9770	-0.017284125
182	0xbdc47a14	-0.09593597
183	0xbce8ff87	-0.028442157
184	0xbda88fee	-0.082305774
185	0xbd429464	-0.047504798
186	0x3daef2b3	0.08542385
187	0x3e1ce54c	0.15321845
188	0xbd6945a7	-0.05695119
189	0x3caa4747	0.02078594
190	0x3e0c47b7	0.13699232
191	0xbcbee945	-0.023304591
192	0xbe0deb80	-0.13859367
193	0x3e0a7515	0.13521226
194	0x3e2b52b9	0.16730775
195	0xbd786e09	-0.060651813
196	0x3dc4f516	0.09617059
197	0xbd84254f	-0.064524285
198	0x3e01cf69	0.12676777
199	0x3c90dda9	0.01768382
200	0x3d3de023	0.04635633
201	0xbd6b36b7	-0.057425227
202	0xbe4e6cfc	-0.20158762
203	0xbd2e41d9	-0.042543266
204	0x3dd754b5	0.105142035
205	0xbc4ab354	-0.012371857
206	0xbda98b3a	-0.082785085
207	0xbd2d823b	-0.042360526
208	0x3dd624db	0.104562484
209	0xbd8681a2	-0.06567694
210	0xbe7c889b	-0.24661486
211	0xbd6e1584	-0.058125988
212	0x3dde67b8	0.108596265
213	0x3defe963	0.11714437
214	0x3bfc7029	0.0077038
215	0x3d4f97bb	0.05068181
216	0x3e40926f	0.1880586
217	0xbdcf0bb8	-0.10109657
218	0x3dfceb8a	0.12349613
219	0x3e18e3ec	0.14930695
220	0x3cfa3a57	0.030545397
221	0xbdea48c1	-0.11439658
222	0x3ced5f14	0.028976
223	0x3da8986e	0.08232199
224	0x3d865920	0.06559968
225	0x3cc7ae8d	0.024375224
226	0xbccd31fd	-0.02504825
227	0x3e606b4c	0.2191593
228	0x3e6caaa7	0.23111974
229	0x3e1eed85	0.15520294
230	0x3cb214a3	0.021738356
231	0xbe19ab97	-0.15006863
232	0xbd6d5b16	-0.057948194
233	0x3dd67555	0.10471598
234	0xbd500217	-0.050783243
235	0xbd51c909	-0.051217113
236	0xbd88d93a	-0.06682058
237	0x3d4608fa	0.048348404
238	0xbc5a2f64	-0.013316963
239	0xbc884794	-0.016635694
240	0x3db5fd22	0.08886172
241	0xbc46c6ca	-0.012132356
242	0x3e13d8a6	0.14438114
243	0x3d540fc5	0.05177285
244	0x3cf0970a	0.029368896
245	0xbd0d51ef	-0.034501966
246	0x3e142da5	0.14470537
247	0x3d84e8d6	0.064897224
248	0x3c06ab77	0.008219591
249	0xbd320860	-0.04346502
250	0xbdf2b5d9	-0.11851091
251	0xbc9e6cfd	-0.019339079
252	0xbd5da382	-0.05411101
253	0x3dcbd467	0.09952622
254	0x3e3585e1	0.17726852
255	0x3e09c71a	0.13454857

network_body._body_endoder.seq_layers.2.bias f4 [128]
0	0x00000000	0.0
1	0x00000000	0.0
2	0x00000000	0.0
3	0x00000000	0.0
4	0x00000000	0.0
5	0x00000000	0.0
6	0x00000000	0.0
7	0x00000000	0.0
8	0x00000000	0.0
9	0x00000000	0.0
10	0x00000000	0.0
11	0x00000000	0.0
12	0x00000000	0.0
13	0x00000000	0.0
14	0x00000000	0.0
15	0x00000000	0.0
16	0x00000000	0.0
17	0x00000000	0.0
18	0x00000000	0.0
19	0x00000000	0.0
20	0x00000000	0.0
21	0x00000000	0.0
22	0x00000000	0.0
23	0x00000000	0.0
24	0x00000000	0.0
25	0x00000000	0.0
26	0x00000000	0.0
27	0x00000000	0.0
28	0x00000000	0.0
29	0x00000000	0.0
30	0x00000000	0.0
31	0x00000000	0.0
32	0x00000000	0.0
33	0x00000000	0.0
34	0x00000000	0.0
35	0x00000000	0.0
36	0x00000000	0.0
37	0x00000000	0.0
38	0x00000000	0.0
39	0x00000000	0.0
40	0x00000000	0.0
41	0x00000000	0.0
42	0x00000000	0.0
43	0x00000000	0.0
44	0x00000000	0.0
45	0x00000000	0.0
46	0x00000000	0.0
47	0x00000000	0.0
48	0x00000000	0.0
49	0x00000000	0.0
50	0x00000000	0.0
51	0x00000000	0.0
52	0x00000000	0.0
53	0x00000000	0.0
54	0x00000000	0.0
55	0x00000000	0.0
56	0x00000000	0.0
57	0x00000000	0.0
58	0x00000000	0.0
59	0x00000000	0.0
60	0x00000000	0.0
61	0x00000000	0.0
62	0x00000000	0.0
63	0x00000000	0.0
64	0x00000000	0.0
65	0x00000000	0.0
66	0x00000000	0.0
67	0x00000000	0.0
68	0x00000000	0.0
69	0x00000000	0.0
70	0x00000000	0.0
71	0x00000000	0.0
72	0x00000000	0.0
73	0x00000000	0.0
74	0x00000000	0.0
75	0x00000000	0.0
76	0x00000000	0.0
77	0x00000000	0.0
78	0x00000000	0.0
79	0x00000000	0.0
80	0x00000000	0.0
81	0x00000000	0.0
82	0x00000000	0.0
83	0x00000000	0.0
84	0x00000000	0.0
85	0x00000000	0.0
86	0x00000000	0.0
87	0x00000000	0.0
88	0x00000000	0.0
89	0x00000000	0.0
90	0x00000000	0.0
91	0x00000000	0.0
92	0x00000000	0.0
93	0x00000000	0.0
94	0x00000000	0.0
95	0x00000000	0.0
96	0x00000000	0.0
97	0x00000000	0.0
98	0x00000000	0.0
99	0x00000000	0.0
100	0x00000000	0.0
101	0x00000000	0.0
102	0x00000000	0.0
103	0x00000000	0.0
104	0x00000000	0.0
105	0x00000000	0.0
106	0x00000000	0.0
107	0x00000000	0.0
108	0x00000000	0.0
109	0x00000000	0.0
110	0x00000000	0.0
111	0x00000000	0.0
112	0x00000000	0.0
113	0x00000000	0.0
114	0x00000000	0.0
115	0x00000000	0.0
116	0x00000000	0.0
117	0x00000000	0.0
118	0x00000000	0.0
119	0x00000000	0.0
120	0x00000000	0.0
121	0x00000000	0.0
122	0x00000000	0.0
123	0x00000000	0.0
124	0x00000000	0.0
125	0x00000000	0.0
126	0x00000000	0.0
127	0x00000000	0.0

value_heads.value_heads.extrinsic.weight f4 [1, 128]
0	0xbdd10444	-0.10205892
1	0x3dc200a8	0.094727814
2	0xbdaa98fc	-0.08329961
3	0xbd367c10	-0.04455191
4	0xbd916462	-0.070992246
5	0xbe27b80f	-0.16378807
6	0x3e5ba1de	0.21448466
7	0xbda74224	-0.08166912
8	0x3d8f25e4	0.06989649
9	0x3d05bc90	0.03265053
10	0xbe5707b0	-0.20999026
11	0xbdde48a6	-0.108537
12	0xbd3bb288	-0.045824558
13	0x3dcd9b00	0.100393295
14	0x3c8e9e20	0.017409384
15	0xbd1fbe0c	-0.038999602
16	0xbd73d70c	-0.059531257
17	0x3d96c5bc	0.073619336
18	0x3e232862	0.15933374
19	0x3da58810	0.080825925
20	0x3e32a8f0	0.17447257
21	0x3e35e7ba	0.17764178
22	0xbe3fa67f	-0.18715857
23	0xbe06ceec	-0.13164872
24	0x3e2b199a	0.16708985
25	0xbe103534	-0.14082795
26	0xbd9ce6e0	-0.076612234
27	0x3b87a180	0.0041391253
28	0x3da4ca6c	0.080464214
29	0xbdf0e1d8	-0.11761826
30	0x3e21d102	0.15802386
31	0x3d7b33e0	0.06132877
32	0x3dcd1c4c	0.10015163
33	0x3da9aed4	0.08285299
34	0xbe26df0f	-0.16296028
35	0xbe348a67	-0.17630921
36	0x3e3a1012	0.18170193
37	0x3d657da8	0.05602804
38	0x3e575c66	0.21031341
39	0xbd41120c	-0.04713635
40	0x3d7281c8	0.0592058
41	0x3e3085e8	0.17238581
42	0xbba1c120	-0.0049363524
43	0x3e4f6f02	0.2025719
44	0xbd933a48	-0.07188851
45	0xbd051c9c	-0.032497987
46	0x3d824858	0.06361455
47	0xbe3457b1	-0.17611577
48	0xbc3b08b0	-0.0114156455
49	0x3e2d80c8	0.16943657
50	0x3d852248	0.06500679
51	0x3c895e28	0.01676853
52	0x3e0641f6	0.131111
53	0x3d261278	0.040544957
54	0x3de2b560	0.11069751
55	0x3de6208c	0.112366766
56	0x3de3960c	0.111126035
57	0x3db356bc	0.08756778
58	0xbd85f1b0	-0.06540239
59	0xbe446f4f	-0.19183086
60	0x3d6f0d18	0.058362097
61	0x3e11a498	0.14222944
62	0xbddead3e	-0.10872887
63	0x3cfd4c18	0.030920073
64	0xb980b200	-0.00024546683
65	0x3e51e226	0.20496425
66	0x3deab6c4	0.11460641
67	0xbe436f0d	-0.19085331
68	0x3e05162a	0.12996736
69	0x3e4cc248	0.19995987
70	0x3ca55cc8	0.020185843
71	0xbd14abd4	-0.03629668
72	0xbe1afbe0	-0.15135145
73	0x3d50c028	0.050964504
74	0x3e3c3cf2	0.18382624
75	0xbdc733ab	-0.09726652
76	0xbdc16054	-0.09442201
77	0x3e4a3476	0.19746575
78	0x3e43a2da	0.19105092
79	0x3d859848	0.06523186
80	0xbb5a5ec0	-0.0033320636
81	0xbd80cc7c	-0.06289002
82	0x3d66edb8	0.05637905
83	0x3d92a874	0.07161036
84	0x3cea8488	0.028627649
85	0xbe1f763e	-0.1557245
86	0x3d84b8bc	0.06480548
87	0xbc994a80	-0.018712282
88	0x3d0679fc	0.032831177
89	0x3d3019b0	0.042993248
90	0x3deff260	0.11716151
91	0xbe237707	-0.15963374
92	0xbd4bbe78	-0.049742192
93	0x3df8ab34	0.121420294
94	0x3e4c723c	0.19965452
95	0xbe2c779a	-0.168425
96	0xbe42c9d8	-0.1902231
97	0x3e26e9fe	0.16300198
98	0xbded056f	-0.11573302
99	0xbd224594	-0.039617136
100	0x3d8bd830	0.06828344
101	0xbb79cb00	-0.0038115382
102	0x3e500040	0.20312595
103	0x3e336850	0.17520261
104	0x3d9e9574	0.0774335
105	0xbc89bd10	-0.016813785
106	0xbd043634	-0.032278255
107	0x3e1878f6	0.14889893
108	0xbdfc519c	-0.12320253
109	0xbba0be40	-0.004905492
110	0xbe0f7d28	-0.14012587
111	0xbe37e0cf	-0.17956851
112	0xbc99cfd8	-0.018775865
113	0xbd90595c	-0.07048294
114	0x3e25f81e	0.1620793
115	0x3da0c750	0.07850516
116	0x3cbc1158	0.022957489
117	0xbe282f2b	-0.16424243
118	0xbe0c52a8	-0.13703406
119	0x3d9d2a60	0.07674098
120	0x3b7c7400	0.003852129
121	0x3e0415cc	0.1289894
122	0x3e332364	0.17493969
123	0xbbc61080	-0.0060444474
124	0xbd141de4	-0.03616132
125	0x3c8f0d30	0.017462343
126	0x3dc726dc	0.09724209
127	0xbc374700	-0.011186361
