results/EasyPlayer/EasyPlayer/EasyPlayer-1800.onnx (onnx, 274768 bytes, 6 tensors)

network_body._body_endoder.seq_layers.0.weight f4 [128, 396]
00000000: 7674 98bb dc37 373d 6023 c3bd 62a9 f7bc
00000010: b2ee 09be 490d 05bd 6da2 c93c 66e8 c6bc
00000020: 98de bfba 4c06 563d 43bc 8ebd ee97 adbd
00000030: 5054 9abd 3573 af3c 9d08 753d ca25 78bd
00000040: d378 183d 11fe a63d 0503 233c 2b77 a5bd
00000050: c52d 533d 9f82 e03b 65a6 85bb ab11 4c3d
00000060: 2fe2 9dbc da6f 0f3c 30ba 143d fda5 42bc
00000070: 25e2 b7bc bd3c debd 6fcd 10bd 7833 923c
00000080: b1e3 29bd 7e18 e53c fd90 06bc a98b 4cbd
00000090: 561c 3c3c 4be7 21bd f15c 40bd 9bed 96bd
000000a0: 46b9 8b3d 5e1f fb3c d26f 453d 7b59 f5bd
000000b0: c679 85bd edc0 26bd 94ef 8d3d 169e 2fbd
000000c0: bccd 8d3d f3d5 16bb c0da 453d 5838 e1ba
000000d0: 2da5 8a3d 7934 9dbd 5ba9 2c3b 3781 ae39
000000e0: 94be 043d ab5f af3c 769a 7e3c e8d0 9b3c
000000f0: 8fb4 cd3d 5d09 2a3d a44c 563d 89ad 71bd
00000100: f509 92bd 7e9c 16bd b3cd 223d 5bf3 9b3d
00000110: 1b58 7f3d f61d a2bc eb33 a13d e8dc b73b
00000120: 923d 59bc f80a fa3c c07d 1e3d 8604 473d
00000130: ff33 f8bc a92e dcbc a1dd 08bd 76e2 36bc
00000140: e4a0 abbd 9e2f 25bc 4441 8e3c 650b d8bc
00000150: 4436 533d 6eea 21bd 5b95 d23c 0432 263d
00000160: b50b a63d ecd6 6c3b 4c74 1db8 550f 0dbb
00000170: 561c d3bd 90ce d33b b74d 80bd 5c91 bbbc
00000180: 814e 0cbd 1465 3d3d 2539 10bd a12d a7bd
00000190: c071 5b3c e934 60bc 3956 3abc 7b47 023d
000001a0: 4f43 d0bd 13b8 04bc 3991 943d 1407 1b3d
000001b0: 3a93 53bd a91e 48bd fb7c 33bd 74bd dabc
000001c0: 2276 663c 43ba 48bb c1e9 5a3d 49c3 123c
000001d0: bef2 703d afa3 623c 574c 97bb 968d 9f3c
000001e0: b84f c23d c6db d6bc f882 9ebb 3128 b4bd
000001f0: 16db 5f3c 439e d3bc 4caf 2bbc 5bca 11bd
00000200: a7bb f4bc 9246 b43c 34fc 7039 36ac 123c
00000210: b684 513d cacf 263d c4a3 f5bb 34d4 69bd
00000220: 57e3 c63c 2e40 f03c 7dc6 2b3c 254a db3c
00000230: 9dbc d5bc c2b4 403d 5300 bc3d b449 7cbd
00000240: ef5f 81bc d349 b33c d730 ae39 5cae 0b3d
00000250: 56bb 51bd 6278 32bd 45aa ca3d 8d5a bcbd
00000260: 3f14 bdbd 6ad2 fbbc 2ddd 0a3d 54e7 0bbd
00000270: b33e d53c cc5d 3ebc 8cf2 a83c 5891 923d
00000280: 2f79 8b3d bd10 10bc 9796 db3d 185f 013d
00000290: e903 60bc 526d 3aba 9a73 483d dc44 d3bc
000002a0: e4a2 bbbd da66 acbb 60ec 4ebc 408a 873b
000002b0: e2b9 033d 7f35 a1bb efdc ba3d cd15 c53c
000002c0: ccdf 8a3c 23d8 393d f03e 683d 9778 4e3d
000002d0: 81a5 c33a 6731 cebc ae71 7d3d 38fb 963a
000002e0: d2f4 843d dd4a ca3c 1c19 7dbd ed21 3d3b
000002f0: fa71 8c3c d31d a03d 32ee d6bc dd28 5cbc
00000300: e02e ca3c fbb0 18bc 24d9 4bbd 32f7 a2bd
00000310: 35b5 58bd c4e0 a8bc d738 07bc c4a6 2ebb
00000320: ce03 26bd b83f 0cbd 63d2 443c 078b a6bd
00000330: 6b7e 4bbc 4e6a 87bc 1f6a 033e 74e0 18bc
00000340: 92ad 68bd 2597 413d 601b 90bc 0595 97bd
00000350: 6f6e 8ebd 81c1 14bd ad3d 643c 7f14 cbbc
00000360: f998 563b f9c0 d13c cc89 073d 0a25 8a3b
00000370: 1953 303d 6214 19bd ee13 4abd 898e f03b
00000380: efb4 7d3d 1bbb 723c 13b0 34bd acf1 8cbd
00000390: f2c4 943c 429b 4fbd 3772 fa3d 4dd6 1b3c
000003a0: ddeb d23c cb4b 3a3a 8e42 8abc 455b 38bd
000003b0: 8bb5 2cbd c520 983d 4eac 81bc ddf4 d83d
000003c0: cf06 043d 112b c83c 9da3 c8bb d0f2 5f3d
000003d0: 18c3 583c 3460 913d af77 1f3d 94a6 723d
000003e0: d013 aabd 9e7e c8bc 0eda 4e3c 6750 80bb
000003f0: a85c a3bb b785 d93c 653e dc3c 20e3 34bc
-0.004652555 0.044731006 -0.095282316 -0.030232135 -0.13469961 -0.032483373 0.024613583 -0.024280738
-0.0014638482 0.0522521 -0.06969502 -0.08476244 -0.075356126 0.02141724 0.059822667 -0.060582913
0.037224602 0.08153928 0.00994945 -0.0807937 0.05155732 0.0068515087 -0.0040786737 0.049821537
-0.019272892 0.008754695 0.036310375 -0.011880395 -0.022446701 -0.10851429 -0.035352167 0.017846808
-0.04147691 0.02796578 -0.008213279 -0.049937878 0.011481365 -0.03952722 -0.046963636 -0.073695384
0.068224475 0.030654605 0.048202343 -0.11979958 -0.06517367 -0.040711332 0.069304615 -0.042875372
0.06924006 -0.0023015707 0.04830432 -0.001718293 0.06769786 -0.07676024 0.002634606 0.0003328414
0.032408312 0.021407923 0.015539756 0.019020513 0.100442044 0.041512836 0.052319184 -0.059003387
-0.071308054 -0.036770336 0.03974695 0.07614776 0.062339883 -0.019789677 0.07871231 0.005611051
-0.013259308 0.030522808 0.038694143 0.0485883 -0.030298231 -0.026877718 -0.033414487 -0.011162391
-0.08380297 -0.010082154 0.017365105 -0.02637262 0.051565424 -0.03953021 0.025705984 0.040575042
0.08107702 0.0036138846 -3.7540027e-05 -0.0021524031 -0.10308139 0.006463833 -0.06264823 -0.022896461
-0.034254555 0.046238974 -0.035210747 -0.08163 0.013393819 -0.01368449 -0.011373096 0.03180645
-0.10169088 -0.008100527 0.072542615 0.037848547 -0.051654078 -0.048857365 -0.043820363 -0.026701666
0.014066251 -0.0030628599 0.05344558 0.008957692 0.058825247 0.0138329705 -0.0046172547 0.019476693
0.094878614 -0.026227843 -0.00483739 -0.087967284 0.013663074 -0.025832301 -0.010478806 -0.03559337
-0.029874636 0.022006307 0.00022982137 0.008952191 0.051151954 0.040725507 -0.007496329 -0.05708714
0.024278326 0.029327478 0.010484335 0.026768753 -0.026090914 0.047047384 0.09179749 -0.061593726
-0.015792815 0.021885788 0.00033224255 0.03410183 -0.051204048 -0.043571837 0.098957576 -0.09196959
-0.09232377 -0.030739982 0.033902336 -0.03415616 0.026030874 -0.011619043 0.020623468 0.07156628
0.06810223 -0.008793053 0.10722082 0.03158483 -0.013672807 -0.0007111627 0.04893837 -0.02578967
-0.09161928 -0.0052612843 -0.012629598 0.0041363537 0.032159694 -0.0049197073 0.09124171 0.024058247
0.016952418 0.04537214 0.056700647 0.050407972 0.0014926643 -0.025170041 0.06187599 0.0011518961
0.06492008 0.0246939 -0.061791524 0.0028859333 0.017144192 0.078181885 -0.026236627 -0.013437477
0.024680555 -0.009319539 -0.04976763 -0.07957305 -0.052907187 -0.02061499 -0.008253298 -0.0026649693
-0.040530972 -0.034240454 0.012013051 -0.08131986 -0.012420277 -0.016530182 0.1283345 -0.009330858
-0.056806155 0.047263283 -0.017591178 -0.0740147 -0.06954657 -0.036317352 0.01393072 -0.024790047
0.0032744987 0.025604712 0.033090398 0.004215841 0.043047998 -0.037372954 -0.049335413 0.0073412103
0.06194013 0.014815117 -0.04411323 -0.06882033 0.018160317 -0.050685175 0.12228816 0.0095115425
0.025747234 0.0007106631 -0.016877439 -0.045008916 -0.04216532 0.07428125 -0.015829232 0.10593579
0.032233056 0.024434598 -0.00612302 0.054674923 0.013230108 0.070984274 0.0389325 0.059240893
-0.0830456 -0.024474438 0.0126252305 -0.0039158347 -0.0049854107 0.026553018 0.02688522 -0.011040479

network_body._body_endoder.seq_layers.0.bias f4 [128]
00000000: 0000 0000 0000 0000 0000 0000 0000 0000
00000010: 0000 0000 0000 0000 0000 0000 0000 0000
00000020: 0000 0000 0000 0000 0000 0000 0000 0000
00000030: 0000 0000 0000 0000 0000 0000 0000 0000
00000040: 0000 0000 0000 0000 0000 0000 0000 0000
00000050: 0000 0000 0000 0000 0000 0000 0000 0000
00000060: 0000 0000 0000 0000 0000 0000 0000 0000
00000070: 0000 0000 0000 0000 0000 0000 0000 0000
00000080: 0000 0000 0000 0000 0000 0000 0000 0000
00000090: 0000 0000 0000 0000 0000 0000 0000 0000
000000a0: 0000 0000 0000 0000 0000 0000 0000 0000
000000b0: 0000 0000 0000 0000 0000 0000 0000 0000
000000c0: 0000 0000 0000 0000 0000 0000 0000 0000
000000d0: 0000 0000 0000 0000 0000 0000 0000 0000
000000e0: 0000 0000 0000 0000 0000 0000 0000 0000
000000f0: 0000 0000 0000 0000 0000 0000 0000 0000
00000100: 0000 0000 0000 0000 0000 0000 0000 0000
00000110: 0000 0000 0000 0000 0000 0000 0000 0000
00000120: 0000 0000 0000 0000 0000 0000 0000 0000
00000130: 0000 0000 0000 0000 0000 0000 0000 0000
00000140: 0000 0000 0000 0000 0000 0000 0000 0000
00000150: 0000 0000 0000 0000 0000 0000 0000 0000
00000160: 0000 0000 0000 0000 0000 0000 0000 0000
00000170: 0000 0000 0000 0000 0000 0000 0000 0000
00000180: 0000 0000 0000 0000 0000 0000 0000 0000
00000190: 0000 0000 0000 0000 0000 0000 0000 0000
000001a0: 0000 0000 0000 0000 0000 0000 0000 0000
000001b0: 0000 0000 0000 0000 0000 0000 0000 0000
000001c0: 0000 0000 0000 0000 0000 0000 0000 0000
000001d0: 0000 0000 0000 0000 0000 0000 0000 0000
000001e0: 0000 0000 0000 0000 0000 0000 0000 0000
000001f0: 0000 0000 0000 0000 0000 0000 0000 0000
0.0 0.0 0.0 0.0 0.0 0.0 0.0 0.0
0.0 0.0 0.0 0.0 0.0 0.0 0.0 0.0
0.0 0.0 0.0 0.0 0.0 0.0 0.0 0.0
0.0 0.0 0.0 0.0 0.0 0.0 0.0 0.0
0.0 0.0 0.0 0.0 0.0 0.0 0.0 0.0
0.0 0.0 0.0 0.0 0.0 0.0 0.0 0.0
0.0 0.0 0.0 0.0 0.0 0.0 0.0 0.0
0.0 0.0 0.0 0.0 0.0 0.0 0.0 0.0
0.0 0.0 0.0 0.0 0.0 0.0 0.0 0.0
0.0 0.0 0.0 0.0 0.0 0.0 0.0 0.0
0.0 0.0 0.0 0.0 0.0 0.0 0.0 0.0
0.0 0.0 0.0 0.0 0.0 0.0 0.0 0.0
0.0 0.0 0.0 0.0 0.0 0.0 0.0 0.0
0.0 0.0 0.0 0.0 0.0 0.0 0.0 0.0
0.0 0.0 0.0 0.0 0.0 0.0 0.0 0.0
0.0 0.0 0.0 0.0 0.0 0.0 0.0 0.0

network_body._body_endoder.seq_layers.2.weight f4 [128, 128]
00000000: e1cc 843d c00a f73d 5156 f53c 7f62 d3bd
00000010: ecaf be3d 2f17 71bd 85cd 11be 4912 13be
00000020: 37a5 04bd 556b 3bba 08fa 66bd 0c78 62bc
00000030: 82b7 e93d 5834 963d de05 bebc 4268 803d
00000040: aa8d 17bd 0f73 8dbb 183b a0bd 5b48 a33d
00000050: d472 0cbd 6b4b 013d 00ec c8bd 9ef5 88bd
00000060: c835 3abe 8300 5fbd 4aa6 783d 6380 1fbe
00000070: 5246 bbbd 4462 eebd 627c 21be fec1 233d
00000080: 1736 c0bd bcbb 0a3d 7d40 09ba da14 f8bc
00000090: 0d17 58be efb1 2e3c 7716 c83d 2044 b53d
000000a0: c3df afbd 02de 8c3d f948 9dbd 162f 3ebd
000000b0: 11f7 853d a6b7 103e 43bb 3a3e cc2d 08be
000000c0: d77d d43c 4a9e 30be 307b 7ebd f2ed deb9
000000d0: 9a38 9ebd 3e41 5e3d 6bee 17bd 4afc 543d
000000e0: 71fe 46bd 6f8e 873c 22de cf3d a458 2d3e
000000f0: bb8f 24be f9a5 66bd fe80 09be 3354 a8bd
00000100: ed5e 8ebd fc04 65bb 829b 04be 1815 123e
00000110: f2a7 30be 2a32 5dbd 696c c33c a411 303d
00000120: b5a7 183d 8040 9ebd b924 123d 2885 9ebd
00000130: a235 973e 0a45 3b3d 23cc 443d 9903 063d
00000140: 5bdb 13bd 71cc b7bd bff3 b8bd 10c6 85bc
00000150: 8498 8dbd e17d 303d b5e5 04be 0cb9 aa3d
00000160: a8e1 813c a5b9 fcbc 909d 28be fb2f 94bc
00000170: 1b08 bb3c ca7e 12bd c638 3e3d 7d15 6cbd
00000180: cd66 a3bd 0f1c f7bd 8731 20bd 88c2 263e
00000190: 912b b8bd 621e 703e 4aeb e13d 87ba a9bd
000001a0: a845 3abc 278f 963d 04f7 163e f66d f63d
000001b0: 3a50 803d 97ea 2ebd 8b81 713d 2133 a3bb
000001c0: 491f 8c3d 1940 373c 7745 64bd 5aa5 ccbc
000001d0: ca55 0a3c d4a2 083e d3e6 10be cf71 6f3e
000001e0: 2905 a93d e4fc ddbd a6f1 813d 4727 a6bc
000001f0: 6bb5 78bd 99dc d63d 67ba e93c 094f e33d
00000200: 961d acbb d8b0 4dbd 5999 613d f731 993d
00000210: cc1e 5ebb 0077 563d af2d 313d 9895 b0bc
00000220: 0673 d03d df8b 3e3d 2353 d53d 47c9 03be
00000230: 6e02 84bd c8fd fcbc f733 28bd eb9d e63d
00000240: 6020 bebd ff19 b6bd 68ee 2ebc 7b30 a4bd
00000250: 7bcd 143d 32c1 963d aa83 82bd f666 763c
00000260: ff1c 453e 54dd 433c 025c 2a3c 585f 97bd
00000270: 1d7c 63bd 4497 f33c 3d6a a2bd 7053 acbd
00000280: 7640 1d3e 2ef2 e5bd e24c 61be 226c 193d
00000290: 7595 21bc 6bb4 0dbd 45c9 abbd 94ea 4d3d
000002a0: 5bc1 013e 3dde e63c 679d 0f3e 4afd 42bc
000002b0: b4d9 18be 8429 7dbd e674 d73d 7fdb 13bb
000002c0: 35ac a3bc 17c0 0c3c 648e bebc 8947 19bd
000002d0: 2946 a83c 070a 4a3e d281 30bd de44 423d
000002e0: 351e 913d f382 a13c 4bc5 2ebe 1935 883c
000002f0: edd1 71bd 4aba a0bd b372 a33d 44fa 06be
00000300: 3007 983d 2e9b 1dbd 3a73 65bd 0102 493d
00000310: 1523 0dbe 91f4 10bd 6e9a 06bd 4b64 33bc
00000320: 9815 eb3c c1f4 853d 905b 16bc e982 0e3e
00000330: 281c c73d 83fc 7bbd bd6a 973c 9366 3c3d
00000340: 6398 9ebd 9e99 c0bd 7eef 91bd 83fe 1e3d
00000350: 759e cc3b 32ec 933d 73f6 2c3e d9a9 c7bc
00000360: 6de1 803c f33f 363d b8c3 86bd 9e41 3cbc
00000370: 51d5 1ebe 66e8 9ebd c591 3e3d 4a19 91bd
00000380: a98f bcbd 5545 2cbe 0deb 963d 3b0b dd3d
00000390: 216a 4c3e 3472 bc3d a6f4 673d 2834 f93d
000003a0: 90d4 12be ec2c 463d ad1f 6d3d 77f1 ec3b
000003b0: ce4c 92bd 7ba3 183d fa87 eeba 84da 0bbe
000003c0: cb85 64bd 4775 e6bd 677d d6bd e7c2 be3d
000003d0: 4775 a5bd ec3a 4c3e 3c98 12be 423b 9fbd
000003e0: c3e9 d23d ab45 30bd 5ead 9bbb 76c1 fdbd
000003f0: 7088 92bd 651d 5dbd e7ea 313d 783a a2bd
0.0648439 0.12062597 0.029948385 -0.10321521 0.09310898 -0.05886 -0.14238556 -0.14362444
-0.032384124 -0.00071494776 -0.056390792 -0.013822567 0.114119545 0.073342025 -0.023196157 0.062698856
-0.037000336 -0.0043166946 -0.07823771 0.07972785 -0.034289196 0.031566065 -0.098106384 -0.06687473
-0.18184578 -0.054443847 0.06070546 -0.1557632 -0.09144272 -0.116398364 -0.15770105 0.039979927
-0.09385317 0.033870444 -0.0005235745 -0.03028338 -0.21102543 0.01066254 0.0976991 0.088508844
-0.08587601 0.06878282 -0.07679934 -0.046431623 0.06541265 0.14132556 0.18235497 -0.1329872
0.025938911 -0.17247882 -0.0621292 -0.00042520423 -0.0772564 0.05426144 -0.037092607 0.051998414
-0.048582498 0.01654741 0.1014979 0.16928345 -0.16070454 -0.056310628 -0.13428113 -0.08219185
-0.069516994 -0.0034945598 -0.12949947 0.14265859 -0.17251566 -0.05400292 0.023855405 0.042985573
0.037269313 -0.07727146 0.035679553 -0.07740241 0.29533106 0.045720138 0.048046242 0.032718275
-0.036097866 -0.08974541 -0.09030866 -0.016329795 -0.06913856 0.043088797 -0.12978251 0.08336076
0.015854672 -0.030850241 -0.16466355 -0.018089285 0.022831013 -0.035765447 0.046440862 -0.05763768
-0.07978592 -0.120658986 -0.039109733 0.16285145 -0.08992685 0.2344909 0.11031206 -0.082875304
-0.011369146 0.07351523 0.14742666 0.12032692 0.06265302 -0.04270419 0.058961432 -0.0049804603
0.06841905 0.011184716 -0.05573031 -0.02498119 0.008443305 0.13343364 -0.14150552 0.23383258
0.08252937 -0.10839251 0.06344919 -0.0202824 -0.06071989 0.104912944 0.028531266 0.11099059
-0.0052525504 -0.05021748 0.055077884 0.07480233 -0.0033892868 0.05235958 0.043256458 -0.021555707
0.10178189 0.04652011 0.10416248 -0.1286975 -0.06445776 -0.030882731 -0.041065183 0.11260589
-0.09283519 -0.08891677 -0.010676958 -0.080170594 0.036328774 0.07361068 -0.06372769 0.015039196
0.19249342 0.011954624 0.010397913 -0.07391232 -0.055538286 0.029735215 -0.079304196 -0.08414352
0.15356621 -0.11227833 -0.22001985 0.03745664 -0.0098622935 -0.034595888 -0.083879985 0.05027254
0.12671416 0.028182143 0.14024888 -0.011901209 -0.14926797 -0.06180717 0.105203435 -0.002256125
-0.019979576 0.00859072 -0.023261257 -0.037421737 0.020541267 0.19730388 -0.043092556 0.047428958
0.0708584 0.019715762 -0.17067449 0.016626881 -0.05903809 -0.07848032 0.079808615 -0.13181406
0.07423246 -0.03847807 -0.05601809 0.049074177 -0.13782914 -0.035389487 -0.03286212 -0.010949205
0.02869682 0.06540824 -0.009177104 0.13917126 0.09722167 -0.06152011 0.018483514 0.04599626
-0.07743909 -0.094043 -0.07125758 0.03881694 0.0062444755 0.07222785 0.16890888 -0.024372982
0.015732491 0.04449458 -0.06580299 -0.011490254 -0.15511061 -0.0775917 0.046525735 -0.07084902
-0.092070885 -0.16823323 0.07369051 0.10793158 0.1996236 0.0920147 0.0566298 0.12168151
-0.14338899 0.048382685 0.057891537 0.0072309333 -0.071435556 0.037265282 -0.0018198483 -0.13657576
-0.055791657 -0.11252838 -0.10473137 0.093145184 -0.080790095 0.19944352 -0.14315885 -0.077749744
0.10298493 -0.04303519 -0.0047508916 -0.12390415 -0.0715493 -0.05398311 0.04343691 -0.07921308

action_model._continuous_distribution.log_sigma f4 [1, 6]
00000000: 0000 0000 0000 0000 0000 0000 0000 0000
00000010: 0000 0000 0000 0000
0.0 0.0 0.0 0.0 0.0 0.0

action_model._continuous_distribution.mu.weight f4 [6, 128]
00000000: 5a62 cf3c 1295 1c3c 73ab 06bb 4dc7 a2bc
00000010: 02f0 673c 1e1b 9b3c d4a0 b23c e45c 3b3d
00000020: c5b2 253c 156c 75bc b233 a43c 3af7 cebc
00000030: 4357 93bc 23a5 743c da41 883c 4d04 28ba
00000040: 78ae 5c3b da4a 05bd 2f82 e63c f8af d13b
00000050: dfe9 7eba 00fc b43b d100 b1bc 252c 163c
00000060: 53d7 ef3b 2f2a 22bd a2d6 983b 146b 1f39
00000070: edc5 3d3c 190b a5bb 3b40 523b c38e b63c
00000080: 84ce 40bb 7991 a03c d0c1 24bc a2ce 053d
00000090: f715 2ebb 5858 66bb 280d 4dbb cdd0 813c
000000a0: 084b 12bd 8413 1c3c 828a 073c 2847 7cbc
000000b0: fe13 0e3c 42e6 78bc b90b 043c d08a fbbb
000000c0: e3a2 db3b 209b de3c 0989 b4bb e603 9b3c
000000d0: e5ad 02bc c5f8 01bd 9f4b 2f3c bf86 56ba
000000e0: e7a5 213b e763 febb f2c5 47ba 65c5 ae3c
000000f0: 8b2b 093c bfb0 94bb d036 25bb b82d 57bc
00000100: ba75 1a3c 73dd 683c c42a 9dbb 282d 523d
00000110: 1de8 9fbc 7cca b93b 825c 72bb c719 80bc
00000120: 259a 923b b718 f33b 2365 78bc 9a47 48bc
00000130: 9386 91bc 2aa6 ad3c 25db 95bc 06aa 0bbc
00000140: 6a0f 7d3c 17c1 c73c e8a0 9b3b 9b6e 5d3b
00000150: 5372 20bc 9f2c c0bc a357 a3bb d2de 233b
00000160: 7819 1cbc 4740 e7b8 4b31 393b 7a3d 27bc
00000170: 9263 03bd c2ab 93bc 2aa0 85bc f470 84bb
00000180: c52b 723b 2da8 803c c32b 4fbb 03e6 033b
00000190: b449 87bb 498b 17bc d8e8 f3bb afd2 d3bc
000001a0: 2688 893b 32ac eb3c 2783 a63b 5705 07bc
000001b0: 661c 81bc 6c1c babb 9fcb 1fbd 1264 ebb9
000001c0: 4367 acbc b4d9 873c a4f7 473c dcd2 25bd
000001d0: 54d7 3fbc 4070 98bc 1585 173c 5a4f 3e3c
000001e0: b0eb 1a3b e3c2 38bb 445b 30bc c6fa b83c
000001f0: f073 72bc 1269 d0bc 87c9 143a c0a5 1abd
00000200: 1216 f6b9 a22f dfba b310 e93c 6886 853c
00000210: ad96 e83b 1f1e e9bc 9b75 c8bc bfe3 853b
00000220: 3b99 6c39 4418 103c 98fc 123d b54b 123c
00000230: d1af 2bbc 0ec0 083c d956 a8bc de2a 0e3d
00000240: ef5a dbbb a7cd 90bb 3499 093d fb96 293c
00000250: c693 883c a1fc 3c3c 274b 233c db78 403c
00000260: 925d e739 06ef 37b9 fb3a 043c 555e b2bb
00000270: 9531 963c 470d dd3c e39a cabb 8d3b eebb
00000280: 5f65 5f3b 9823 63bc 83a5 aa3c b8c5 d9bb
00000290: 8b26 81bc 3445 9c3c 30fd 92bb bd4f d33c
000002a0: c6fe c1bb 37e3 64bc 2fe7 d1bc 4d21 03bd
000002b0: 02c1 283c 0ced 363c 630a 06bb e8c3 5e3b
000002c0: 980d e33b 502e eb3a 4511 b6bc 726b bc3b
000002d0: 9fd3 02bc 7765 dc3c fb4d 41bc ead9 9f3c
000002e0: 48d2 a7bc 1dc3 5cbb 6d95 f83b cf5c 4a3c
000002f0: a52b 74bc 2296 d039 476c 163c 8e1c 2f3b
00000300: 3539 71bc 2ac0 713c aa6d 7d3c 09d6 c33c
00000310: 6f2e a3bc eb1f ff3c 8fb3 543c a421 94bc
00000320: 7ed7 a6ba 5731 873c cde7 5e3c 5b14 e6bc
00000330: a266 2aba 63c4 a3bb d4a9 3abd c3dc 91ba
00000340: b2f5 6bbc 78e7 efbc 8dea cebb 3aa5 6e3c
00000350: 0172 b93b 670f 803b 77c3 0d3d 68e6 46bc
00000360: 0b65 033c 6d63 1a3c 8ff6 9fbc 2f0a 3fbc
00000370: b34c ac3c b272 dbbc b346 f6bb 5941 3cbd
00000380: 9f29 983c a0eb 493c 0bab 4f3c 763a 08bd
00000390: 323f 44b9 dd06 1bbc 73ea 3ebc dd34 ffba
000003a0: 17e4 e63c 7048 6d3c 1f99 abba 61bc 03bd
000003b0: ab73 2b3c e8e1 203c ff95 ac3b 9902 803c
000003c0: 8bb2 64bb 83e8 e73c da5e ca3c 3a4a e93c
000003d0: b02d e4bb 6aa2 403d aff3 1f3c 1355 913c
000003e0: f34a 803c 0345 17bd 0762 b33c 75f3 3a3c
000003f0: c97d 323c 5b5a daba 0db9 993c 878d 7fbb
0.025315452 0.0095570255 -0.002054897 -0.019870425 0.014156343 0.018933829 0.021805204 0.045742884
0.010113423 -0.014979382 0.020044181 -0.025264371 -0.017985946 0.01493195 0.016632963 -0.0006409332
0.0033673327 -0.032542087 0.028138248 0.006399151 -0.00097241806 0.005523205 -0.021606835 0.009165798
0.00731937 -0.03959101 0.004664258 0.00015203311 0.011582834 -0.0050367233 0.0032081741 0.022284871
-0.0029419968 0.019600617 -0.010055974 0.032667764 -0.0026563385 -0.0035147872 -0.003128836 0.015846634
-0.035716087 0.009526137 0.008272769 -0.015397824 0.008671759 -0.0151916165 0.0080594355 -0.00767646
0.006702767 0.027173579 -0.0055095 0.018922757 -0.00797603 -0.031731386 0.010699182 -0.0008183531
0.0024665536 -0.007763374 -0.00076207437 0.02133436 0.008372198 -0.0045376713 -0.0025209673 -0.013133459
0.009427482 0.014212954 -0.004796358 0.051312596 -0.01951986 0.00566989 -0.0036981408 -0.015637292
0.004473942 0.0074187177 -0.015160832 -0.012224102 -0.017764365 0.021197397 -0.018292973 -0.008524423
0.0154455695 0.024384065 0.004749406 0.003378785 -0.009792882 -0.023458777 -0.0049848123 0.0025004637
-0.009527557 -0.00011026911 0.002825814 -0.010207528 -0.03207738 -0.018026236 -0.016311724 -0.0040417854
0.0036952358 0.015705192 -0.0031611777 0.0020126111 -0.004128659 -0.009249517 -0.0074435286 -0.025857298
0.0041971384 0.028768633 0.0050815525 -0.008241019 -0.015760612 -0.0056796577 -0.039012548 -0.0004489725
-0.021045333 0.016583301 0.012205038 -0.040484294 -0.011709053 -0.018608212 0.009248038 0.011615599
0.0023639016 -0.0028192333 -0.010763947 0.022580516 -0.0147981495 -0.025440726 0.0005675782 -0.037755728
-0.0004693722 -0.0017027745 0.028450346 0.016299441 0.00709804 -0.028456746 -0.024470141 0.0040859873
0.00022563797 0.008794848 0.035885423 0.008929183 -0.01047893 0.008346571 -0.020549225 0.03470885
-0.0066941897 -0.004419047 0.03359337 0.010350938 0.016672026 0.011534841 0.009966648 0.011747564
0.0004412947 -0.00017541283 0.008070703 -0.005443374 0.01833419 0.02698387 -0.0061830147 -0.0072702826
0.0034087521 -0.013863467 0.020830875 -0.0066458844 -0.015765449 0.019075967 -0.0044857487 0.025794858
-0.005920264 -0.013970188 -0.025622932 -0.03201418 0.010299923 0.011164915 -0.0020452968 0.003399128
0.0069291107 0.0017942879 -0.022225032 0.005750113 -0.007985025 0.026903851 -0.011798377 0.01951309
-0.020486012 -0.0033685633 0.0075861723 0.012351229 -0.014902984 0.0003978471 0.009181089 0.00267199
-0.014723112 0.014755288 0.0154680405 0.02390577 -0.019919602 0.03114315 0.012982263 -0.018082447
-0.0012729017 0.01650302 0.01360507 -0.028085878 -0.0006500279 -0.0049977764 -0.045572117 -0.0011128414
-0.01440184 -0.029285178 -0.0063145817 0.01456576 0.0056593423 0.003908086 0.034610238 -0.012139894
0.008019696 0.009423119 -0.019526748 -0.011660143 0.021032667 -0.02678809 -0.007515752 -0.045960758
0.018574534 0.012324244 0.012675057 -0.033258878 -0.00018715559 -0.009462086 -0.011652577 -0.001947071
0.028184934 0.0144826025 -0.0013091898 -0.032162074 0.010464589 0.009819485 0.0052669044 0.015626239
-0.003489646 0.028309112 0.024703432 0.028477777 -0.006963454 0.04702989 0.009762689 0.017740762
0.015660739 -0.03693105 0.021897329 0.011410584 0.010894247 -0.0016659008 0.018764997 -0.003899427

action_model._continuous_distribution.mu.bias f4 [6]
00000000: 0000 0000 0000 0000 0000 0000 0000 0000
00000010: 0000 0000 0000 0000
0.0 0.0 0.0 0.0 0.0 0.0
