results/EasyPlayer/EasyPlayer/EasyPlayer-1800.pt (torch, 550249 bytes, 12 tensors)

network_body._body_endoder.seq_layers.0.weight f4 [128, 396]
0	0xbb987476	-0.004652555
1	0x3d3737dc	0.044731006
2	0xbdc32360	-0.095282316
3	0xbcf7a962	-0.030232135
4	0xbe09eeb2	-0.13469961
5	0xbd050d49	-0.032483373
6	0x3cc9a26d	0.024613583
7	0xbcc6e866	-0.024280738
8	0xbabfde98	-0.0014638482
9	0x3d56064c	0.0522521
10	0xbd8ebc43	-0.06969502
11	0xbdad97ee	-0.08476244
12	0xbd9a5450	-0.075356126
13	0x3caf7335	0.02141724
14	0x3d75089d	0.059822667
15	0xbd7825ca	-0.060582913
16	0x3d1878d3	0.037224602
17	0x3da6fe11	0.08153928
18	0x3c230305	0.00994945
19	0xbda5772b	-0.0807937
20	0x3d532dc5	0.05155732
21	0x3be0829f	0.0068515087
22	0xbb85a665	-0.0040786737
23	0x3d4c11ab	0.049821537
24	0xbc9de22f	-0.019272892
25	0x3c0f6fda	0.008754695
26	0x3d14ba30	0.036310375
27	0xbc42a5fd	-0.011880395
28	0xbcb7e225	-0.022446701
29	0xbdde3cbd	-0.10851429
30	0xbd10cd6f	-0.035352167
31	0x3c923378	0.017846808
32	0xbd29e3b1	-0.04147691
33	0x3ce5187e	0.02796578
34	0xbc0690fd	-0.008213279
35	0xbd4c8ba9	-0.049937878
36	0x3c3c1c56	0.011481365
37	0xbd21e74b	-0.03952722
38	0xbd405cf1	-0.046963636
39	0xbd96ed9b	-0.073695384
40	0x3d8bb946	0.068224475
41	0x3cfb1f5e	0.030654605
42	0x3d456fd2	0.048202343
43	0xbdf5597b	-0.11979958
44	0xbd8579c6	-0.06517367
45	0xbd26c0ed	-0.040711332
46	0x3d8def94	0.069304615
47	0xbd2f9e16	-0.042875372
48	0x3d8dcdbc	0.06924006
49	0xbb16d5f3	-0.0023015707
50	0x3d45dac0	0.04830432
51	0xbae13858	-0.001718293
52	0x3d8aa52d	0.06769786
53	0xbd9d3479	-0.07676024
54	0x3b2ca95b	0.002634606
55	0x39ae8137	0.0003328414
56	0x3d04be94	0.032408312
57	0x3caf5fab	0.021407923
58	0x3c7e9a76	0.015539756
59	0x3c9bd0e8	0.019020513
60	0x3dcdb48f	0.100442044
61	0x3d2a095d	0.041512836
62	0x3d564ca4	0.052319184
63	0xbd71ad89	-0.059003387
64	0xbd9209f5	-0.071308054
65	0xbd169c7e	-0.036770336
66	0x3d22cdb3	0.03974695
67	0x3d9bf35b	0.07614776
68	0x3d7f581b	0.062339883
69	0xbca21df6	-0.019789677
70	0x3da133eb	0.07871231
71	0x3bb7dce8	0.005611051
72	0xbc593d92	-0.013259308
73	0x3cfa0af8	0.030522808
74	0x3d1e7dc0	0.038694143
75	0x3d470486	0.0485883
76	0xbcf833ff	-0.030298231
77	0xbcdc2ea9	-0.026877718
78	0xbd08dda1	-0.033414487
79	0xbc36e276	-0.011162391
80	0xbdaba0e4	-0.08380297
81	0xbc252f9e	-0.010082154
82	0x3c8e4144	0.017365105
83	0xbcd80b65	-0.02637262
84	0x3d533644	0.051565424
85	0xbd21ea6e	-0.03953021
86	0x3cd2955b	0.025705984
87	0x3d263204	0.040575042
88	0x3da60bb5	0.08107702
89	0x3b6cd6ec	0.0036138846
90	0xb81d744c	-3.7540027e-05
91	0xbb0d0f55	-0.0021524031
92	0xbdd31c56	-0.10308139
93	0x3bd3ce90	0.006463833
94	0xbd804db7	-0.06264823
95	0xbcbb915c	-0.022896461
96	0xbd0c4e81	-0.034254555
97	0x3d3d6514	0.046238974
98	0xbd103925	-0.035210747
99	0xbda72da1	-0.08163
100	0x3c5b71c0	0.013393819
101	0xbc6034e9	-0.01368449
102	0xbc3a5639	-0.011373096
103	0x3d02477b	0.03180645
104	0xbdd0434f	-0.10169088
105	0xbc04b813	-0.008100527
106	0x3d949139	0.072542615
107	0x3d1b0714	0.037848547
108	0xbd53933a	-0.051654078
109	0xbd481ea9	-0.048857365
110	0xbd337cfb	-0.043820363
111	0xbcdabd74	-0.026701666
112	0x3c667622	0.014066251
113	0xbb48ba43	-0.0030628599
114	0x3d5ae9c1	0.05344558
115	0x3c12c349	0.008957692
116	0x3d70f2be	0.058825247
117	0x3c62a3af	0.0138329705
118	0xbb974c57	-0.0046172547
119	0x3c9f8d96	0.019476693
120	0x3dc24fb8	0.094878614
121	0xbcd6dbc6	-0.026227843
122	0xbb9e82f8	-0.00483739
123	0xbdb42831	-0.087967284
124	0x3c5fdb16	0.013663074
125	0xbcd39e43	-0.025832301
126	0xbc2baf4c	-0.010478806
127	0xbd11ca5b	-0.03559337
128	0xbcf4bba7	-0.029874636
129	0x3cb44692	0.022006307
130	0x3970fc34	0.00022982137
131	0x3c12ac36	0.008952191
132	0x3d5184b6	0.051151954
133	0x3d26cfca	0.040725507
134	0xbbf5a3c4	-0.007496329
135	0xbd69d434	-0.05708714
136	0x3cc6e357	0.024278326
137	0x3cf0402e	0.029327478
138	0x3c2bc67d	0.010484335
139	0x3cdb4a25	0.026768753
140	0xbcd5bc9d	-0.026090914
141	0x3d40b4c2	0.047047384
142	0x3dbc0053	0.09179749
143	0xbd7c49b4	-0.061593726
144	0xbc815fef	-0.015792815
145	0x3cb349d3	0.021885788
146	0x39ae30d7	0.00033224255
147	0x3d0bae5c	0.03410183
148	0xbd51bb56	-0.051204048
149	0xbd327862	-0.043571837
150	0x3dcaaa45	0.098957576
151	0xbdbc5a8d	-0.09196959
152	0xbdbd143f	-0.09232377
153	0xbcfbd26a	-0.030739982
154	0x3d0add2d	0.033902336
155	0xbd0be754	-0.03415616
156	0x3cd53eb3	0.026030874
157	0xbc3e5dcc	-0.011619043
158	0x3ca8f28c	0.020623468
159	0x3d929158	0.07156628
160	0x3d8b792f	0.06810223
161	0xbc1010bd	-0.008793053
162	0x3ddb9697	0.10722082
163	0x3d015f18	0.03158483
164	0xbc6003e9	-0.013672807
165	0xba3a6d52	-0.0007111627
166	0x3d48739a	0.04893837
167	0xbcd344dc	-0.02578967
168	0xbdbba2e4	-0.09161928
169	0xbbac66da	-0.0052612843
170	0xbc4eec60	-0.012629598
171	0x3b878a40	0.0041363537
172	0x3d03b9e2	0.032159694
173	0xbba1357f	-0.0049197073
174	0x3dbadcef	0.09124171
175	0x3cc515cd	0.024058247
176	0x3c8adfcc	0.016952418
177	0x3d39d823	0.04537214
178	0x3d683ef0	0.056700647
179	0x3d4e7897	0.050407972
180	0x3ac3a581	0.0014926643
181	0xbcce3167	-0.025170041
182	0x3d7d71ae	0.06187599
183	0x3a96fb38	0.0011518961
184	0x3d84f4d2	0.06492008
185	0x3cca4add	0.0246939
186	0xbd7d191c	-0.061791524
187	0x3b3d21ed	0.0028859333
188	0x3c8c71fa	0.017144192
189	0x3da01dd3	0.078181885
190	0xbcd6ee32	-0.026236627
191	0xbc5c28dd	-0.013437477
192	0x3cca2ee0	0.024680555
193	0xbc18b0fb	-0.009319539
194	0xbd4bd924	-0.04976763
195	0xbda2f732	-0.07957305
196	0xbd58b535	-0.052907187
197	0xbca8e0c4	-0.02061499
198	0xbc0738d7	-0.008253298
199	0xbb2ea6c4	-0.0026649693
200	0xbd2603ce	-0.040530972
201	0xbd0c3fb8	-0.034240454
202	0x3c44d263	0.012013051
203	0xbda68b07	-0.08131986
204	0xbc4b7e6b	-0.012420277
205	0xbc876a4e	-0.016530182
206	0x3e036a1f	0.1283345
207	0xbc18e074	-0.009330858
208	0xbd68ad92	-0.056806155
209	0x3d419725	0.047263283
210	0xbc901b60	-0.017591178
211	0xbd979505	-0.0740147
212	0xbd8e6e6f	-0.06954657
213	0xbd14c181	-0.036317352
214	0x3c643dad	0.01393072
215	0xbccb147f	-0.024790047
216	0x3b5698f9	0.0032744987
217	0x3cd1c0f9	0.025604712
218	0x3d0789cc	0.033090398
219	0x3b8a250a	0.004215841
220	0x3d305319	0.043047998
221	0xbd191462	-0.037372954
222	0xbd4a13ee	-0.049335413
223	0x3bf08e89	0.0073412103
224	0x3d7db4ef	0.06194013
225	0x3c72bb1b	0.014815117
226	0xbd34b013	-0.04411323
227	0xbd8cf1ac	-0.06882033
228	0x3c94c4f2	0.018160317
229	0xbd4f9b42	-0.050685175
230	0x3dfa7237	0.12228816
231	0x3c1bd64d	0.0095115425
232	0x3cd2ebdd	0.025747234
233	0x3a3a4bcb	0.0007106631
234	0xbc8a428e	-0.016877439
235	0xbd385b45	-0.045008916
236	0xbd2cb58b	-0.04216532
237	0x3d9820c5	0.07428125
238	0xbc81ac4e	-0.015829232
239	0x3dd8f4dd	0.10593579
240	0x3d0406cf	0.032233056
241	0x3cc82b11	0.024434598
242	0xbbc8a39d	-0.00612302
243	0x3d5ff2d0	0.054674923
244	0x3c58c318	0.013230108
245	0x3d916034	0.070984274
246	0x3d1f77af	0.0389325
247	0x3d72a694	0.059240893
248	0xbdaa13d0	-0.0830456
249	0xbcc87e9e	-0.024474438
250	0x3c4eda0e	0.0126252305
251	0xbb805067	-0.0039158347
252	0xbba35ca8	-0.0049854107
253	0x3cd985b7	0.026553018
254	0x3cdc3e65	0.02688522
255	0xbc34e320	-0.011040479

network_body._body_endoder.seq_layers.0.bias f4 [128]
0	0x00000000	0.0
1	0x00000000	0.0
2	0x00000000	0.0
3	0x00000000	0.0
4	0x00000000	0.0
5	0x00000000	0.0
6	0x00000000	0.0
7	0x00000000	0.0
8	0x00000000	0.0
9	0x00000000	0.0
10	0x00000000	0.0
11	0x00000000	0.0
12	0x00000000	0.0
13	0x00000000	0.0
14	0x00000000	0.0
15	0x00000000	0.0
16	0x00000000	0.0
17	0x00000000	0.0
18	0x00000000	0.0
19	0x00000000	0.0
20	0x00000000	0.0
21	0x00000000	0.0
22	0x00000000	0.0
23	0x00000000	0.0
24	0x00000000	0.0
25	0x00000000	0.0
26	0x00000000	0.0
27	0x00000000	0.0
28	0x00000000	0.0
29	0x00000000	0.0
30	0x00000000	0.0
31	0x00000000	0.0
32	0x00000000	0.0
33	0x00000000	0.0
34	0x00000000	0.0
35	0x00000000	0.0
36	0x00000000	0.0
37	0x00000000	0.0
38	0x00000000	0.0
39	0x00000000	0.0
40	0x00000000	0.0
41	0x00000000	0.0
42	0x00000000	0.0
43	0x00000000	0.0
44	0x00000000	0.0
45	0x00000000	0.0
46	0x00000000	0.0
47	0x00000000	0.0
48	0x00000000	0.0
49	0x00000000	0.0
50	0x00000000	0.0
51	0x00000000	0.0
52	0x00000000	0.0
53	0x00000000	0.0
54	0x00000000	0.0
55	0x00000000	0.0
56	0x00000000	0.0
57	0x00000000	0.0
58	0x00000000	0.0
59	0x00000000	0.0
60	0x00000000	0.0
61	0x00000000	0.0
62	0x00000000	0.0
63	0x00000000	0.0
64	0x00000000	0.0
65	0x00000000	0.0
66	0x00000000	0.0
67	0x00000000	0.0
68	0x00000000	0.0
69	0x00000000	0.0
70	0x00000000	0.0
71	0x00000000	0.0
72	0x00000000	0.0
73	0x00000000	0.0
74	0x00000000	0.0
75	0x00000000	0.0
76	0x00000000	0.0
77	0x00000000	0.0
78	0x00000000	0.0
79	0x00000000	0.0
80	0x00000000	0.0
81	0x00000000	0.0
82	0x00000000	0.0
83	0x00000000	0.0
84	0x00000000	0.0
85	0x00000000	0.0
86	0x00000000	0.0
87	0x00000000	0.0
88	0x00000000	0.0
89	0x00000000	0.0
90	0x00000000	0.0
91	0x00000000	0.0
92	0x00000000	0.0
93	0x00000000	0.0
94	0x00000000	0.0
95	0x00000000	0.0
96	0x00000000	0.0
97	0x00000000	0.0
98	0x00000000	0.0
99	0x00000000	0.0
100	0x00000000	0.0
101	0x00000000	0.0
102	0x00000000	0.0
103	0x00000000	0.0
104	0x00000000	0.0
105	0x00000000	0.0
106	0x00000000	0.0
107	0x00000000	0.0
108	0x00000000	0.0
109	0x00000000	0.0
110	0x00000000	0.0
111	0x00000000	0.0
112	0x00000000	0.0
113	0x00000000	0.0
114	0x00000000	0.0
115	0x00000000	0.0
116	0x00000000	0.0
117	0x00000000	0.0
118	0x00000000	0.0
119	0x00000000	0.0
120	0x00000000	0.0
121	0x00000000	0.0
122	0x00000000	0.0
123	0x00000000	0.0
124	0x00000000	0.0
125	0x00000000	0.0
126	0x00000000	0.0
127	0x00000000	0.0

network_body._body_endoder.seq_layers.2.weight f4 [128, 128]
0	0x3d84cce1	0.0648439
1	0x3df70ac0	0.12062597
2	0x3cf55651	0.029948385
3	0xbdd3627f	-0.10321521
4	0x3dbeafec	0.09310898
5	0xbd71172f	-0.05886
6	0xbe11cd85	-0.14238556
7	0xbe131249	-0.14362444
8	0xbd04a537	-0.032384124
9	0xba3b6b55	-0.00071494776
10	0xbd66fa08	-0.056390792
11	0xbc62780c	-0.013822567
12	0x3de9b782	0.114119545
13	0x3d963458	0.073342025
14	0xbcbe05de	-0.023196157
15	0x3d806842	0.062698856
16	0xbd178daa	-0.037000336
17	0xbb8d730f	-0.0043166946
18	0xbda03b18	-0.07823771
19	0x3da3485b	0.07972785
20	0xbd0c72d4	-0.034289196
21	0x3d014b6b	0.031566065
22	0xbdc8ec00	-0.098106384
23	0xbd88f59e	-0.06687473
24	0xbe3a35c8	-0.18184578
25	0xbd5f0083	-0.054443847
26	0x3d78a64a	0.06070546
27	0xbe1f8063	-0.1557632
28	0xbdbb4652	-0.09144272
29	0xbdee6244	-0.116398364
30	0xbe217c62	-0.15770105
31	0x3d23c1fe	0.039979927
32	0xbdc03617	-0.09385317
33	0x3d0abbbc	0.033870444
34	0xba09407d	-0.0005235745
35	0xbcf814da	-0.03028338
36	0xbe58170d	-0.21102543
37	0x3c2eb1ef	0.01066254
38	0x3dc81677	0.0976991
39	0x3db54420	0.088508844
40	0xbdafdfc3	-0.08587601
41	0x3d8cde02	0.06878282
42	0xbd9d48f9	-0.07679934
43	0xbd3e2f16	-0.046431623
44	0x3d85f711	0.06541265
45	0x3e10b7a6	0.14132556
46	0x3e3abb43	0.18235497
47	0xbe082dcc	-0.1329872
48	0x3cd47dd7	0.025938911
49	0xbe309e4a	-0.17247882
50	0xbd7e7b30	-0.0621292
51	0xb9deedf2	-0.00042520423
52	0xbd9e389a	-0.0772564
53	0x3d5e413e	0.05426144
54	0xbd17ee6b	-0.037092607
55	0x3d54fc4a	0.051998414
56	0xbd46fe71	-0.048582498
57	0x3c878e6f	0.01654741
58	0x3dcfde22	0.1014979
59	0x3e2d58a4	0.16928345
60	0xbe248fbb	-0.16070454
61	0xbd66a5f9	-0.056310628
62	0xbe0980fe	-0.13428113
63	0xbda85433	-0.08219185
64	0xbd8e5eed	-0.069516994
65	0xbb6504fc	-0.0034945598
66	0xbe049b82	-0.12949947
67	0x3e121518	0.14265859
68	0xbe30a7f2	-0.17251566
69	0xbd5d322a	-0.05400292
70	0x3cc36c69	0.023855405
71	0x3d3011a4	0.042985573
72	0x3d18a7b5	0.037269313
73	0xbd9e4080	-0.07727146
74	0x3d1224b9	0.035679553
75	0xbd9e8528	-0.07740241
76	0x3e9735a2	0.29533106
77	0x3d3b450a	0.045720138
78	0x3d44cc23	0.048046242
79	0x3d060399	0.032718275
80	0xbd13db5b	-0.036097866
81	0xbdb7cc71	-0.08974541
82	0xbdb8f3bf	-0.09030866
83	0xbc85c610	-0.016329795
84	0xbd8d9884	-0.06913856
85	0x3d307de1	0.043088797
86	0xbe04e5b5	-0.12978251
87	0x3daab90c	0.08336076
88	0x3c81e1a8	0.015854672
89	0xbcfcb9a5	-0.030850241
90	0xbe289d90	-0.16466355
91	0xbc942ffb	-0.018089285
92	0x3cbb081b	0.022831013
93	0xbd127eca	-0.035765447
94	0x3d3e38c6	0.046440862
95	0xbd6c157d	-0.05763768
96	0xbda366cd	-0.07978592
97	0xbdf71c0f	-0.120658986
98	0xbd203187	-0.039109733
99	0x3e26c288	0.16285145
100	0xbdb82b91	-0.08992685
101	0x3e701e62	0.2344909
102	0x3de1eb4a	0.11031206
103	0xbda9ba87	-0.082875304
104	0xbc3a45a8	-0.011369146
105	0x3d968f27	0.07351523
106	0x3e16f704	0.14742666
107	0x3df66df6	0.12032692
108	0x3d80503a	0.06265302
109	0xbd2eea97	-0.04270419
110	0x3d71818b	0.058961432
111	0xbba33321	-0.0049804603
112	0x3d8c1f49	0.06841905
113	0x3c374019	0.011184716
114	0xbd644577	-0.05573031
115	0xbccca55a	-0.02498119
116	0x3c0a55ca	0.008443305
117	0x3e08a2d4	0.13343364
118	0xbe10e6d3	-0.14150552
119	0x3e6f71cf	0.23383258
120	0x3da90529	0.08252937
121	0xbdddfce4	-0.10839251
122	0x3d81f1a6	0.06344919
123	0xbca62747	-0.0202824
124	0xbd78b56b	-0.06071989
125	0x3dd6dc99	0.104912944
126	0x3ce9ba67	0.028531266
127	0x3de34f09	0.11099059
128	0xbbac1d96	-0.0052525504
129	0xbd4db0d8	-0.05021748
130	0x3d619959	0.055077884
131	0x3d9931f7	0.07480233
132	0xbb5e1ecc	-0.0033892868
133	0x3d567700	0.05235958
134	0x3d312daf	0.043256458
135	0xbcb09598	-0.021555707
136	0x3dd07306	0.10178189
137	0x3d3e8bdf	0.04652011
138	0x3dd55323	0.10416248
139	0xbe03c947	-0.1286975
140	0xbd84026e	-0.06445776
141	0xbcfcfdc8	-0.030882731
142	0xbd2833f7	-0.041065183
143	0x3de69deb	0.11260589
144	0xbdbe2060	-0.09283519
145	0xbdb619ff	-0.08891677
146	0xbc2eee68	-0.010676958
147	0xbda4307b	-0.080170594
148	0x3d14cd7b	0.036328774
149	0x3d96c132	0.07361068
150	0xbd8283aa	-0.06372769
151	0x3c7666f6	0.015039196
152	0x3e451cff	0.19249342
153	0x3c43dd54	0.011954624
154	0x3c2a5c02	0.010397913
155	0xbd975f58	-0.07391232
156	0xbd637c1d	-0.055538286
157	0x3cf39744	0.029735215
158	0xbda26a3d	-0.079304196
159	0xbdac5370	-0.08414352
160	0x3e1d4076	0.15356621
161	0xbde5f22e	-0.11227833
162	0xbe614ce2	-0.22001985
163	0x3d196c22	0.03745664
164	0xbc219575	-0.0098622935
165	0xbd0db46b	-0.034595888
166	0xbdabc945	-0.083879985
167	0x3d4dea94	0.05027254
168	0x3e01c15b	0.12671416
169	0x3ce6de3d	0.028182143
170	0x3e0f9d67	0.14024888
171	0xbc42fd4a	-0.011901209
172	0xbe18d9b4	-0.14926797
173	0xbd7d2984	-0.06180717
174	0x3dd774e6	0.105203435
175	0xbb13db7f	-0.002256125
176	0xbca3ac35	-0.019979576
177	0x3c0cc017	0.00859072
178	0xbcbe8e64	-0.023261257
179	0xbd194789	-0.037421737
180	0x3ca84629	0.020541267
181	0x3e4a0a07	0.19730388
182	0xbd3081d2	-0.043092556
183	0x3d4244de	0.047428958
184	0x3d911e35	0.0708584
185	0x3ca182f3	0.019715762
186	0xbe2ec54b	-0.17067449
187	0x3c883519	0.016626881
188	0xbd71d1ed	-0.05903809
189	0xbda0ba4a	-0.07848032
190	0x3da372b3	0.079808615
191	0xbe06fa44	-0.13181406
192	0x3d980730	0.07423246
193	0xbd1d9b2e	-0.03847807
194	0xbd65733a	-0.05601809
195	0x3d490201	0.049074177
196	0xbe0d2315	-0.13782914
197	0xbd10f491	-0.035389487
198	0xbd069a6e	-0.03286212
199	0xbc33644b	-0.010949205
200	0x3ceb1598	0.02869682
201	0x3d85f4c1	0.06540824
202	0xbc165b90	-0.009177104
203	0x3e0e82e9	0.13917126
204	0x3dc71c28	0.09722167
205	0xbd7bfc83	-0.06152011
206	0x3c976abd	0.018483514
207	0x3d3c6693	0.04599626
208	0xbd9e9863	-0.07743909
209	0xbdc0999e	-0.094043
210	0xbd91ef7e	-0.07125758
211	0x3d1efe83	0.03881694
212	0x3bcc9e75	0.0062444755
213	0x3d93ec32	0.07222785
214	0x3e2cf673	0.16890888
215	0xbcc7a9d9	-0.024372982
216	0x3c80e16d	0.015732491
217	0x3d363ff3	0.04449458
218	0xbd86c3b8	-0.06580299
219	0xbc3c419e	-0.011490254
220	0xbe1ed551	-0.15511061
221	0xbd9ee866	-0.0775917
222	0x3d3e91c5	0.046525735
223	0xbd91194a	-0.07084902
224	0xbdbc8fa9	-0.092070885
225	0xbe2c4555	-0.16823323
226	0x3d96eb0d	0.07369051
227	0x3ddd0b3b	0.10793158
228	0x3e4c6a21	0.1996236
229	0x3dbc7234	0.0920147
230	0x3d67f4a6	0.0566298
231	0x3df93428	0.12168151
232	0xbe12d490	-0.14338899
233	0x3d462cec	0.048382685
234	0x3d6d1fad	0.057891537
235	0x3becf177	0.0072309333
236	0xbd924cce	-0.071435556
237	0x3d18a37b	0.037265282
238	0xbaee87fa	-0.0018198483
239	0xbe0bda84	-0.13657576
240	0xbd6485cb	-0.055791657
241	0xbde67547	-0.11252838
242	0xbdd67d67	-0.10473137
243	0x3dbec2e7	0.093145184
244	0xbda57547	-0.080790095
245	0x3e4c3aec	0.19944352
246	0xbe12983c	-0.14315885
247	0xbd9f3b42	-0.077749744
248	0x3dd2e9c3	0.10298493
249	0xbd3045ab	-0.04303519
250	0xbb9bad5e	-0.0047508916
251	0xbdfdc176	-0.12390415
252	0xbd928870	-0.0715493
253	0xbd5d1d65	-0.05398311
254	0x3d31eae7	0.04343691
255	0xbda23a78	-0.07921308

network_body._body_endoder.seq_layers.2.bias f4 [128]
0	0x00000000	0.0
1	0x00000000	0.0
2	0x00000000	0.0
3	0x00000000	0.0
4	0x00000000	0.0
5	0x00000000	0.0
6	0x00000000	0.0
7	0x00000000	0.0
8	0x00000000	0.0
9	0x00000000	0.0
10	0x00000000	0.0
11	0x00000000	0.0
12	0x00000000	0.0
13	0x00000000	0.0
14	0x00000000	0.0
15	0x00000000	0.0
16	0x00000000	0.0
17	0x00000000	0.0
18	0x00000000	0.0
19	0x00000000	0.0
20	0x00000000	0.0
21	0x00000000	0.0
22	0x00000000	0.0
23	0x00000000	0.0
24	0x00000000	0.0
25	0x00000000	0.0
26	0x00000000	0.0
27	0x00000000	0.0
28	0x00000000	0.0
29	0x00000000	0.0
30	0x00000000	0.0
31	0x00000000	0.0
32	0x00000000	0.0
33	0x00000000	0.0
34	0x00000000	0.0
35	0x00000000	0.0
36	0x00000000	0.0
37	0x00000000	0.0
38	0x00000000	0.0
39	0x00000000	0.0
40	0x00000000	0.0
41	0x00000000	0.0
42	0x00000000	0.0
43	0x00000000	0.0
44	0x00000000	0.0
45	0x00000000	0.0
46	0x00000000	0.0
47	0x00000000	0.0
48	0x00000000	0.0
49	0x00000000	0.0
50	0x00000000	0.0
51	0x00000000	0.0
52	0x00000000	0.0
53	0x00000000	0.0
54	0x00000000	0.0
55	0x00000000	0.0
56	0x00000000	0.0
57	0x00000000	0.0
58	0x00000000	0.0
59	0x00000000	0.0
60	0x00000000	0.0
61	0x00000000	0.0
62	0x00000000	0.0
63	0x00000000	0.0
64	0x00000000	0.0
65	0x00000000	0.0
66	0x00000000	0.0
67	0x00000000	0.0
68	0x00000000	0.0
69	0x00000000	0.0
70	0x00000000	0.0
71	0x00000000	0.0
72	0x00000000	0.0
73	0x00000000	0.0
74	0x00000000	0.0
75	0x00000000	0.0
76	0x00000000	0.0
77	0x00000000	0.0
78	0x00000000	0.0
79	0x00000000	0.0
80	0x00000000	0.0
81	0x00000000	0.0
82	0x00000000	0.0
83	0x00000000	0.0
84	0x00000000	0.0
85	0x00000000	0.0
86	0x00000000	0.0
87	0x00000000	0.0
88	0x00000000	0.0
89	0x00000000	0.0
90	0x00000000	0.0
91	0x00000000	0.0
92	0x00000000	0.0
93	0x00000000	0.0
94	0x00000000	0.0
95	0x00000000	0.0
96	0x00000000	0.0
97	0x00000000	0.0
98	0x00000000	0.0
99	0x00000000	0.0
100	0x00000000	0.0
101	0x00000000	0.0
102	0x00000000	0.0
103	0x00000000	0.0
104	0x00000000	0.0
105	0x00000000	0.0
106	0x00000000	0.0
107	0x00000000	0.0
108	0x00000000	0.0
109	0x00000000	0.0
110	0x00000000	0.0
111	0x00000000	0.0
112	0x00000000	0.0
113	0x00000000	0.0
114	0x00000000	0.0
115	0x00000000	0.0
116	0x00000000	0.0
117	0x00000000	0.0
118	0x00000000	0.0
119	0x00000000	0.0
120	0x00000000	0.0
121	0x00000000	0.0
122	0x00000000	0.0
123	0x00000000	0.0
124	0x00000000	0.0
125	0x00000000	0.0
126	0x00000000	0.0
127	0x00000000	0.0

action_model._continuous_distribution.log_sigma f4 [1, 6]
0	0x00000000	0.0
1	0x00000000	0.0
2	0x00000000	0.0
3	0x00000000	0.0
4	0x00000000	0.0
5	0x00000000	0.0

action_model._continuous_distribution.mu.weight f4 [6, 128]
0	0x3ccf625a	0.025315452
1	0x3c1c9512	0.0095570255
2	0xbb06ab73	-0.002054897
3	0xbca2c74d	-0.019870425
4	0x3c67f002	0.014156343
5	0x3c9b1b1e	0.018933829
6	0x3cb2a0d4	0.021805204
7	0x3d3b5ce4	0.045742884
8	0x3c25b2c5	0.010113423
9	0xbc756c15	-0.014979382
10	0x3ca433b2	0.020044181
11	0xbccef73a	-0.025264371
12	0xbc935743	-0.017985946
13	0x3c74a523	0.01493195
14	0x3c8841da	0.016632963
15	0xba28044d	-0.0006409332
16	0x3b5cae78	0.0033673327
17	0xbd054ada	-0.032542087
18	0x3ce6822f	0.028138248
19	0x3bd1aff8	0.006399151
20	0xba7ee9df	-0.00097241806
21	0x3bb4fc00	0.005523205
22	0xbcb100d1	-0.021606835
23	0x3c162c25	0.009165798
24	0x3befd753	0.00731937
25	0xbd222a2f	-0.03959101
26	0x3b98d6a2	0.004664258
27	0x391f6b14	0.00015203311
28	0x3c3dc5ed	0.011582834
29	0xbba50b19	-0.0050367233
30	0x3b52403b	0.0032081741
31	0x3cb68ec3	0.022284871
32	0xbb40ce84	-0.0029419968
33	0x3ca09179	0.019600617
34	0xbc24c1d0	-0.010055974
35	0x3d05cea2	0.032667764
36	0xbb2e15f7	-0.0026563385
37	0xbb665858	-0.0035147872
38	0xbb4d0d28	-0.003128836
39	0x3c81d0cd	0.015846634
40	0xbd124b08	-0.035716087
41	0x3c1c1384	0.009526137
42	0x3c078a82	0.008272769
43	0xbc7c4728	-0.015397824
44	0x3c0e13fe	0.008671759
45	0xbc78e642	-0.0151916165
46	0x3c040bb9	0.0080594355
47	0xbbfb8ad0	-0.00767646
48	0x3bdba2e3	0.006702767
49	0x3cde9b20	0.027173579
50	0xbbb48909	-0.0055095
51	0x3c9b03e6	0.018922757
52	0xbc02ade5	-0.00797603
53	0xbd01f8c5	-0.031731386
54	0x3c2f4b9f	0.010699182
55	0xba5686bf	-0.0008183531
56	0x3b21a5e7	0.0024665536
57	0xbbfe63e7	-0.007763374
58	0xba47c5f2	-0.00076207437
59	0x3caec565	0.02133436
60	0x3c092b8b	0.008372198
61	0xbb94b0bf	-0.0045376713
62	0xbb2536d0	-0.0025209673
63	0xbc572db8	-0.013133459
64	0x3c1a75ba	0.009427482
65	0x3c68dd73	0.014212954
66	0xbb9d2ac4	-0.004796358
67	0x3d522d28	0.051312596
68	0xbc9fe81d	-0.01951986
69	0x3bb9ca7c	0.00566989
70	0xbb725c82	-0.0036981408
71	0xbc8019c7	-0.015637292
72	0x3b929a25	0.004473942
73	0x3bf318b7	0.0074187177
74	0xbc786523	-0.015160832
75	0xbc48479a	-0.012224102
76	0xbc918693	-0.017764365
77	0x3cada62a	0.021197397
78	0xbc95db25	-0.018292973
79	0xbc0baa06	-0.008524423
80	0x3c7d0f6a	0.0154455695
81	0x3cc7c117	0.024384065
82	0x3b9ba0e8	0.004749406
83	0x3b5d6e9b	0.003378785
84	0xbc207253	-0.009792882
85	0xbcc02c9f	-0.023458777
86	0xbba357a3	-0.0049848123
87	0x3b23ded2	0.0025004637
88	0xbc1c1978	-0.009527557
89	0xb8e74047	-0.00011026911
90	0x3b39314b	0.002825814
91	0xbc273d7a	-0.010207528
92	0xbd036392	-0.03207738
93	0xbc93abc2	-0.018026236
94	0xbc85a02a	-0.016311724
95	0xbb8470f4	-0.0040417854
96	0x3b722bc5	0.0036952358
97	0x3c80a82d	0.015705192
98	0xbb4f2bc3	-0.0031611777
99	0x3b03e603	0.0020126111
100	0xbb8749b4	-0.004128659
101	0xbc178b49	-0.009249517
102	0xbbf3e8d8	-0.0074435286
103	0xbcd3d2af	-0.025857298
104	0x3b898826	0.0041971384
105	0x3cebac32	0.028768633
106	0x3ba68327	0.0050815525
107	0xbc070557	-0.008241019
108	0xbc811c66	-0.015760612
109	0xbbba1c6c	-0.0056796577
110	0xbd1fcb9f	-0.039012548
111	0xb9eb6412	-0.0004489725
112	0xbcac6743	-0.021045333
113	0x3c87d9b4	0.016583301
114	0x3c47f7a4	0.012205038
115	0xbd25d2dc	-0.040484294
116	0xbc3fd754	-0.011709053
117	0xbc987040	-0.018608212
118	0x3c178515	0.009248038
119	0x3c3e4f5a	0.011615599
120	0x3b1aebb0	0.0023639016
121	0xbb38c2e3	-0.0028192333
122	0xbc305b44	-0.010763947
123	0x3cb8fac6	0.022580516
124	0xbc7273f0	-0.0147981495
125	0xbcd06912	-0.025440726
126	0x3a14c987	0.0005675782
127	0xbd1aa5c0	-0.037755728
128	0xb9f61612	-0.0004693722
129	0xbadf2fa2	-0.0017027745
130	0x3ce910b3	0.028450346
131	0x3c858668	0.016299441
132	0x3be896ad	0.00709804
133	0xbce91e1f	-0.028456746
134	0xbcc8759b	-0.024470141
135	0x3b85e3bf	0.0040859873
136	0x396c993b	0.00022563797
137	0x3c101844	0.008794848
138	0x3d12fc98	0.035885423
139	0x3c124bb5	0.008929183
140	0xbc2bafd1	-0.01047893
141	0x3c08c00e	0.008346571
142	0xbca856d9	-0.020549225
143	0x3d0e2ade	0.03470885
144	0xbbdb5aef	-0.0066941897
145	0xbb90cda7	-0.004419047
146	0x3d099934	0.03359337
147	0x3c2996fb	0.010350938
148	0x3c8893c6	0.016672026
149	0x3c3cfca1	0.011534841
150	0x3c234b27	0.009966648
151	0x3c4078db	0.011747564
152	0x39e75d92	0.0004412947
153	0xb937ef06	-0.00017541283
154	0x3c043afb	0.008070703
155	0xbbb25e55	-0.005443374
156	0x3c963195	0.01833419
157	0x3cdd0d47	0.02698387
158	0xbbca9ae3	-0.0061830147
159	0xbbee3b8d	-0.0072702826
160	0x3b5f655f	0.0034087521
161	0xbc632398	-0.013863467
162	0x3caaa583	0.020830875
163	0xbbd9c5b8	-0.0066458844
164	0xbc81268b	-0.015765449
165	0x3c9c4534	0.019075967
166	0xbb92fd30	-0.0044857487
167	0x3cd34fbd	0.025794858
168	0xbbc1fec6	-0.005920264
169	0xbc64e337	-0.013970188
170	0xbcd1e72f	-0.025622932
171	0xbd03214d	-0.03201418
172	0x3c28c102	0.010299923
173	0x3c36ed0c	0.011164915
174	0xbb060a63	-0.0020452968
175	0x3b5ec3e8	0.003399128
176	0x3be30d98	0.0069291107
177	0x3aeb2e50	0.0017942879
178	0xbcb61145	-0.022225032
179	0x3bbc6b72	0.005750113
180	0xbc02d39f	-0.007985025
181	0x3cdc6577	0.026903851
182	0xbc414dfb	-0.011798377
183	0x3c9fd9ea	0.01951309
184	0xbca7d248	-0.020486012
185	0xbb5cc31d	-0.0033685633
186	0x3bf8956d	0.0075861723
187	0x3c4a5ccf	0.012351229
188	0xbc742ba5	-0.014902984
189	0x39d09622	0.0003978471
190	0x3c166c47	0.009181089
191	0x3b2f1c8e	0.00267199
192	0xbc713935	-0.014723112
193	0x3c71c02a	0.014755288
194	0x3c7d6daa	0.0154680405
195	0x3cc3d609	0.02390577
196	0xbca32e6f	-0.019919602
197	0x3cff1feb	0.03114315
198	0x3c54b38f	0.012982263
199	0xbc9421a4	-0.018082447
200	0xbaa6d77e	-0.0012729017
201	0x3c873157	0.01650302
202	0x3c5ee7cd	0.01360507
203	0xbce6145b	-0.028085878
204	0xba2a66a2	-0.0006500279
205	0xbba3c463	-0.0049977764
206	0xbd3aa9d4	-0.045572117
207	0xba91dcc3	-0.0011128414
208	0xbc6bf5b2	-0.01440184
209	0xbcefe778	-0.029285178
210	0xbbceea8d	-0.0063145817
211	0x3c6ea53a	0.01456576
212	0x3bb97201	0.0056593423
213	0x3b800f67	0.003908086
214	0x3d0dc377	0.034610238
215	0xbc46e668	-0.012139894
216	0x3c03650b	0.008019696
217	0x3c1a636d	0.009423119
218	0xbc9ff68f	-0.019526748
219	0xbc3f0a2f	-0.011660143
220	0x3cac4cb3	0.021032667
221	0xbcdb72b2	-0.02678809
222	0xbbf646b3	-0.007515752
223	0xbd3c4159	-0.045960758
224	0x3c98299f	0.018574534
225	0x3c49eba0	0.012324244
226	0x3c4fab0b	0.012675057
227	0xbd083a76	-0.033258878
228	0xb9443f32	-0.00018715559
229	0xbc1b06dd	-0.009462086
230	0xbc3eea73	-0.011652577
231	0xbaff34dd	-0.001947071
232	0x3ce6e417	0.028184934
233	0x3c6d4870	0.0144826025
234	0xbaab991f	-0.0013091898
235	0xbd03bc61	-0.032162074
236	0x3c2b73ab	0.010464589
237	0x3c20e1e8	0.009819485
238	0x3bac95ff	0.0052669044
239	0x3c800299	0.015626239
240	0xbb64b28b	-0.003489646
241	0x3ce7e883	0.028309112
242	0x3cca5eda	0.024703432
243	0x3ce94a3a	0.028477777
244	0xbbe42db0	-0.006963454
245	0x3d40a26a	0.04702989
246	0x3c1ff3af	0.009762689
247	0x3c915513	0.017740762
248	0x3c804af3	0.015660739
249	0xbd174503	-0.03693105
250	0x3cb36207	0.021897329
251	0x3c3af375	0.011410584
252	0x3c327dc9	0.010894247
253	0xbada5a5b	-0.0016659008
254	0x3c99b90d	0.018764997
255	0xbb7f8d87	-0.003899427

action_model._continuous_distribution.mu.bias f4 [6]
0	0x00000000	0.0
1	0x00000000	0.0
2	0x00000000	0.0
3	0x00000000	0.0
4	0x00000000	0.0
5	0x00000000	0.0

network_body._body_endoder.seq_layers.0.weight f4 [128, 396]
0	0xbd6d3484	-0.05791141
1	0xbc2ccf60	-0.010547489
2	0xbceb7799	-0.028743552
3	0x3d484250	0.048891366
4	0xbb734e70	-0.003712561
5	0xbb9b9383	-0.0047478094
6	0x3cb55986	0.022137415
7	0xbd694e52	-0.056959458
8	0xbc32c274	-0.010910619
9	0xbd8ade7f	-0.06780719
10	0x3b97a825	0.0046281987
11	0x3d33aaa1	0.043863896
12	0xbb6d1eab	-0.003618161
13	0x3d637fc0	0.055541754
14	0x3c16b1a0	0.009197623
15	0x3d6506df	0.055914756
16	0xbd12e41f	-0.035862084
17	0xbcb20524	-0.021730967
18	0x3cf24bfd	0.02957725
19	0xbd68f929	-0.056878243
20	0xbdcd18f4	-0.10014525
21	0x3c9a2ec1	0.018821122
22	0xbc29ebea	-0.010371188
23	0x3ce2a22b	0.027665218
24	0x3d1d3362	0.03837908
25	0xbd04f5cf	-0.032460984
26	0xbca393cb	-0.019967934
27	0x3dba23d4	0.09088865
28	0xbd00e130	-0.031464756
29	0xbc4f7cc5	-0.012664025
30	0x3cb40f73	0.021980023
31	0xbd6fe790	-0.058570445
32	0xbcb0482e	-0.021518793
33	0x3d6a2b54	0.057170227
34	0x3d2e9bf8	0.042629212
35	0x3c564619	0.013078236
36	0xbd8436ea	-0.064557865
37	0xbdbad055	-0.091217674
38	0xbd33c20f	-0.04388624
39	0xbbc1b2e2	-0.005911217
40	0x3d819c45	0.06328634
41	0x3d3bdb7c	0.045863613
42	0xbc83a112	-0.016068015
43	0xbd158ed5	-0.03651317
44	0xbd05d47f	-0.032673355
45	0x3ade9e5e	0.0016984453
46	0xbcaad978	-0.02085565
47	0xbc291f2e	-0.010322375
48	0x3e43ea95	0.19132455
49	0x3d6f7900	0.058465004
50	0x3d2c4c88	0.042065173
51	0x3cb7610d	0.022385145
52	0x3dd9aeed	0.106290676
53	0xbc611d7a	-0.013739938
54	0xbc501d4b	-0.0127022965
55	0xbd9971b5	-0.07492391
56	0x3c6dd1dc	0.014515366
57	0xbd3181ac	-0.043336555
58	0xbc49b406	-0.012310987
59	0x3c8bea50	0.017079502
60	0xbc787b54	-0.0151661225
61	0xbcdde44c	-0.0270864
62	0xbc10d474	-0.008839715
63	0xbc92a28a	-0.01789977
64	0xbce06cc2	-0.02739561
65	0x3d0d6dc7	0.03452852
66	0x3ce587a1	0.028018774
67	0x3d105a4b	0.03524236
68	0x3da08e0b	0.078395925
69	0xbd8381a3	-0.064212106
70	0xbd91c730	-0.0711807
71	0xbca6a3cc	-0.020341776
72	0x3d1d06f1	0.038336698
73	0xbc2580db	-0.010101522
74	0x3d0f625b	0.03500591
75	0x3d48188f	0.048851546
76	0x3b098cd3	0.0020988479
77	0x3e29ae1b	0.16570322
78	0xbd639f65	-0.055571932
79	0x3bcca96b	0.006245782
80	0x3d9e745a	0.07737036
81	0x3cddf626	0.027094912
82	0x3d7c8624	0.061651364
83	0xbd1c7aca	-0.03820304
84	0x3de29af8	0.11064714
85	0xbd146aaa	-0.036234535
86	0x3c0ce606	0.008599764
87	0x3d2315fe	0.039815895
88	0xbc72aac6	-0.014811223
89	0xbd36af64	-0.04460086
90	0xbbac3718	-0.005255591
91	0x3c88c3fc	0.016695015
92	0x3cf9e7a5	0.030505965
93	0xbb07399c	-0.0020633703
94	0xbc4cba7f	-0.012495636
95	0xbc846cad	-0.016165102
96	0x3ca4013e	0.020020124
97	0xbdc41d99	-0.09575958
98	0xbd234fe7	-0.039871123
99	0xbbc8fa67	-0.006133366
100	0x3ccc60d4	0.024948515
101	0x3c8094eb	0.01569601
102	0xbbe52413	-0.006992826
103	0x3c53443e	0.012894688
104	0x3d455510	0.048176825
105	0x3c608bf9	0.013705247
106	0xbd80b471	-0.062844165
107	0x3caafb2a	0.020871717
108	0xbdfccc1e	-0.1234362
109	0xbcd1a0d3	-0.025589382
110	0xbaa6e7e2	-0.0012733901
111	0x3c38280b	0.011240016
112	0xbb4937d8	-0.0030703451
113	0x3ccf4b24	0.025304385
114	0xbc04fd18	-0.008116983
115	0xbc1c336a	-0.009533742
116	0x3ccd6ef2	0.025077317
117	0x3cf82d02	0.030294899
118	0xbd39055e	-0.045171134
119	0xbccc2414	-0.024919547
120	0xbc81d783	-0.015849834
121	0x3cac53ce	0.021036055
122	0xbc81577f	-0.015788792
123	0x3d952315	0.07282082
124	0xbd0c8c45	-0.03431346
125	0x3d129b10	0.03579241
126	0xbd12428b	-0.03570799
127	0xbd5cf21d	-0.053941835
128	0xbdb71a98	-0.08940619
129	0xbd6ff540	-0.058583498
130	0x3bf1e16f	0.00738161
131	0x3c7b45b6	0.015336445
132	0x3da8781b	0.08226033
133	0x3d469c20	0.048488736
134	0xbcf2d0c5	-0.029640565
135	0xbd5c1a55	-0.05373605
136	0x3c787a31	0.015165851
137	0x3c24980e	0.010046018
138	0xbc8874f5	-0.016657332
139	0xbe030a98	-0.1279701
140	0x3d9afea2	0.075680986
141	0xbbadaea9	-0.005300362
142	0xbdc80938	-0.09767383
143	0x3d08e18b	0.03341822
144	0x3c896687	0.016772522
145	0x3ce83694	0.028346337
146	0x3c92f66a	0.017939765
147	0xbd3de452	-0.04636032
148	0xbd877f99	-0.06616134
149	0xbd1f8441	-0.038944487
150	0xbcc117e5	-0.023570964
151	0x3d59aa01	0.053140644
152	0x3c49661b	0.01229241
153	0xbceb532a	-0.02872618
154	0xb91f204f	-0.00015175458
155	0xbc8064dc	-0.015673093
156	0xbda6d4c3	-0.0814605
157	0x3d78e34d	0.060763646
158	0xbc137533	-0.00900011
159	0xbde3af2c	-0.11117396
160	0x3c266874	0.0101567395
161	0x3c8a886a	0.01691075
162	0xbca8a7cd	-0.020587826
163	0x3cfcd3c5	0.030862698
164	0xbd432de2	-0.04765118
165	0x3d99c4e7	0.07508259
166	0xbc74adc2	-0.014934005
167	0x3d4a5251	0.04939491
168	0x3d6ed884	0.058311954
169	0xbdba497e	-0.09096049
170	0xbbd9b76f	-0.0066441814
171	0x3b7d3288	0.0038634855
172	0xbc04b6b0	-0.008100197
173	0xbcc115d0	-0.023569971
174	0xbd0a1d46	-0.033719324
175	0x3d1dd7a4	0.03853573
176	0x3c2a8048	0.010406561
177	0x3d182608	0.037145644
178	0xbd37dfdc	-0.044891223
179	0x3d79d1b4	0.060991004
180	0x3cb76f70	0.022392005
181	0xbd1477ad	-0.036246944
182	0xbd180ec2	-0.03712345
183	0x3ac2d6ca	0.0014865038
184	0xbd50fe28	-0.051023632
185	0x3ccee963	0.025257772
186	0xbe10cf6f	-0.1414163
187	0xbd81dcb9	-0.06340928
188	0xbc5d7966	-0.013517713
189	0x3d9557b2	0.07292117
190	0xbd714437	-0.058902945
191	0xbcd71a31	-0.026257606
192	0xbdc479dd	-0.09593556
193	0x3d8add61	0.06780506
194	0xbd4c3548	-0.0498555
195	0xbc4a0924	-0.012331281
196	0x3cb1b6e5	0.021693656
197	0x3e02cb59	0.12772883
198	0xbd7fd8da	-0.062462665
199	0xbd9daf3a	-0.076994374
200	0xbd0ce36d	-0.034396578
201	0xbc3b8f66	-0.011447763
202	0xbd639edb	-0.05557142
203	0x3cbd4f5d	0.023109132
204	0x3c0de7d0	0.008661225
205	0x3d52ea95	0.051493246
206	0x3d2c51d6	0.042070232
207	0x3d08754b	0.033314984
208	0xbcc9b635	-0.024623016
209	0xbdcfe7b0	-0.10151613
210	0xbd6713ac	-0.056415245
211	0x3c1e7d29	0.009673395
212	0x3d175025	0.036941666
213	0xbbf6a136	-0.007526542
214	0x3cc062f5	0.023484686
215	0xbc8c95be	-0.017161246
216	0x3c951c69	0.018202024
217	0x3d9a59ff	0.07536697
218	0xbcc5b180	-0.02413249
219	0x3dc31449	0.095253535
220	0x3ab3c47d	0.0013715174
221	0xbc1f894f	-0.009737327
222	0x3d9f95ae	0.07792221
223	0xbdabb580	-0.08384228
224	0x3d6719c3	0.056421053
225	0xbb267812	-0.0025401157
226	0x3d6cad32	0.05778236
227	0x3d870c58	0.06594151
228	0xbb3fa58f	-0.0029242968
229	0xbb52baf3	-0.0032154887
230	0xbd12a94a	-0.035805978
231	0x3c67e7f7	0.014154426
232	0x3d11c611	0.03558928
233	0xbccbcb31	-0.024877163
234	0xbd2d052c	-0.04224126
235	0xbca1d37b	-0.019754162
236	0x3dc1df4b	0.09466418
237	0xbd7d0118	-0.06176862
238	0xbc94cb11	-0.018163236
239	0x3c868679	0.016421543
240	0x3da355bb	0.07975336
241	0xbd78724e	-0.060655884
242	0x3d048c0c	0.03236012
243	0xbbbca258	-0.0057566576
244	0xbdb4f514	-0.088358074
245	0x3d34ba05	0.044122715
246	0xbd919579	-0.07108588
247	0x3c8588c6	0.01630057
248	0x3d74f75d	0.059806217
249	0x3d9b78e7	0.0759142
250	0xbd3aa10a	-0.045563735
251	0xb90fac0d	-0.00013701637
252	0x3cfbb3d2	0.030725393
253	0x3d92ba17	0.071644
254	0x3d99b08f	0.07504379
255	0xbd85b4b6	-0.065286085

network_body._body_endoder.seq_layers.0.bias f4 [128]
0	0x00000000	0.0
1	0x00000000	0.0
2	0x00000000	0.0
3	0x00000000	0.0
4	0x00000000	0.0
5	0x00000000	0.0
6	0x00000000	0.0
7	0x00000000	0.0
8	0x00000000	0.0
9	0x00000000	0.0
10	0x00000000	0.0
11	0x00000000	0.0
12	0x00000000	0.0
13	0x00000000	0.0
14	0x00000000	0.0
15	0x00000000	0.0
16	0x00000000	0.0
17	0x00000000	0.0
18	0x00000000	0.0
19	0x00000000	0.0
20	0x00000000	0.0
21	0x00000000	0.0
22	0x00000000	0.0
23	0x00000000	0.0
24	0x00000000	0.0
25	0x00000000	0.0
26	0x00000000	0.0
27	0x00000000	0.0
28	0x00000000	0.0
29	0x00000000	0.0
30	0x00000000	0.0
31	0x00000000	0.0
32	0x00000000	0.0
33	0x00000000	0.0
34	0x00000000	0.0
35	0x00000000	0.0
36	0x00000000	0.0
37	0x00000000	0.0
38	0x00000000	0.0
39	0x00000000	0.0
40	0x00000000	0.0
41	0x00000000	0.0
42	0x00000000	0.0
43	0x00000000	0.0
44	0x00000000	0.0
45	0x00000000	0.0
46	0x00000000	0.0
47	0x00000000	0.0
48	0x00000000	0.0
49	0x00000000	0.0
50	0x00000000	0.0
51	0x00000000	0.0
52	0x00000000	0.0
53	0x00000000	0.0
54	0x00000000	0.0
55	0x00000000	0.0
56	0x00000000	0.0
57	0x00000000	0.0
58	0x00000000	0.0
59	0x00000000	0.0
60	0x00000000	0.0
61	0x00000000	0.0
62	0x00000000	0.0
63	0x00000000	0.0
64	0x00000000	0.0
65	0x00000000	0.0
66	0x00000000	0.0
67	0x00000000	0.0
68	0x00000000	0.0
69	0x00000000	0.0
70	0x00000000	0.0
71	0x00000000	0.0
72	0x00000000	0.0
73	0x00000000	0.0
74	0x00000000	0.0
75	0x00000000	0.0
76	0x00000000	0.0
77	0x00000000	0.0
78	0x00000000	0.0
79	0x00000000	0.0
80	0x00000000	0.0
81	0x00000000	0.0
82	0x00000000	0.0
83	0x00000000	0.0
84	0x00000000	0.0
85	0x00000000	0.0
86	0x00000000	0.0
87	0x00000000	0.0
88	0x00000000	0.0
89	0x00000000	0.0
90	0x00000000	0.0
91	0x00000000	0.0
92	0x00000000	0.0
93	0x00000000	0.0
94	0x00000000	0.0
95	0x00000000	0.0
96	0x00000000	0.0
97	0x00000000	0.0
98	0x00000000	0.0
99	0x00000000	0.0
100	0x00000000	0.0
101	0x00000000	0.0
102	0x00000000	0.0
103	0x00000000	0.0
104	0x00000000	0.0
105	0x00000000	0.0
106	0x00000000	0.0
107	0x00000000	0.0
108	0x00000000	0.0
109	0x00000000	0.0
110	0x00000000	0.0
111	0x00000000	0.0
112	0x00000000	0.0
113	0x00000000	0.0
114	0x00000000	0.0
115	0x00000000	0.0
116	0x00000000	0.0
117	0x00000000	0.0
118	0x00000000	0.0
119	0x00000000	0.0
120	0x00000000	0.0
121	0x00000000	0.0
122	0x00000000	0.0
123	0x00000000	0.0
124	0x00000000	0.0
125	0x00000000	0.0
126	0x00000000	0.0
127	0x00000000	0.0

network_body._body_endoder.seq_layers.2.weight f4 [128, 128]
0	0x3cfb8467	0.030702783
1	0x3d3cde74	0.046110585
2	0xbd4b7096	-0.049667917
3	0xbd25df8a	-0.040496387
4	0xbc7d220b	-0.015450011
5	0x3db1f516	0.086893246
6	0x3be1bdaf	0.006889067
7	0x3e323eea	0.17406812
8	0x3d080a61	0.033213023
9	0x3d38516f	0.044999536
10	0xbcf1c66a	-0.029513557
11	0xbd2aabc9	-0.041667733
12	0xbdd9964d	-0.10624371
13	0x3cb1760b	0.021662733
14	0xbd047b2d	-0.032344032
15	0x3cb194dc	0.021677427
16	0x3c6bd086	0.014392978
17	0xbd96487a	-0.073380426
18	0x3c27934c	0.010227989
19	0xbdf164b9	-0.117867894
20	0xbd4df405	-0.050281543
21	0x3c7ada23	0.015310797
22	0xbbb36b40	-0.0054754317
23	0xbde8fa9b	-0.11375924
24	0xbd8d258b	-0.068919264
25	0x3d48ec66	0.049053572
26	0x3df01cea	0.11724265
27	0x3dba7f00	0.091062546
28	0xbd6aab9a	-0.05729256
29	0x3b2cd73f	0.0026373414
30	0xbdd17036	-0.10226481
31	0xbe06be42	-0.13158515
32	0x3d0460e5	0.03231897
33	0x3d36619f	0.044526692
34	0xbd864379	-0.06555838
35	0x3dc20ceb	0.0947512
36	0xbd7e7bae	-0.06212967
37	0xbdf0c0a1	-0.11755491
38	0xbe54308e	-0.20721647
39	0xbd17448a	-0.0369306
40	0x3d267045	0.040634412
41	0x3e2ae594	0.1668914
42	0xbdcdd731	-0.1005081
43	0x3d218748	0.039435655
44	0x3d58f337	0.052966323
45	0x3cb890c4	0.022529967
46	0xbe3d464b	-0.18483846
47	0x3e4122a2	0.18860868
48	0x3d663110	0.056199133
49	0xbc3afebb	-0.011413272
50	0xbdc4920c	-0.09598169
51	0xbbb412f1	-0.005495422
52	0x3d92d20d	0.0716897
53	0x3c36ecd2	0.011164861
54	0x3bf9cf2f	0.007623575
55	0x3d112e08	0.03544429
56	0x3dbe5fc5	0.0929561
57	0x3cd4cfc2	0.025977973
58	0xbdf86c22	-0.1213
59	0xbd9ad70a	-0.07560547
60	0xbdc3edc0	-0.095668316
61	0x3d0de7b4	0.034644797
62	0xbbb35afa	-0.0054734917
63	0xbe0e566e	-0.13900158
64	0x3dc98618	0.098400295
65	0x3d1b3015	0.03788765
66	0x3dc9187e	0.09819125
67	0xbdb6965c	-0.089153975
68	0xbaac1326	-0.0013128265
69	0x3d3465d5	0.044042427
70	0x3bd6ccce	0.0065551763
71	0xb87dd773	-6.0520553e-05
72	0x3cca456f	0.024691312
73	0xbc5d2b0b	-0.013499032
74	0xbe7fe6aa	-0.24990335
75	0xbdb9e0f2	-0.09076108
76	0x3d07b42c	0.03313081
77	0xbad8d07a	-0.0016541623
78	0xbd7e3565	-0.06206264
79	0xbcfb1596	-0.030649941
80	0xbe273d15	-0.16331895
81	0x3e49cf2f	0.1970794
82	0x3e75702a	0.23968568
83	0x3c639817	0.0138912415
84	0xbe366b4b	-0.17814367
85	0xbdbc665e	-0.091992125
86	0x3dd434e7	0.10361653
87	0xbd1f0e21	-0.038831834
88	0x3da06fd9	0.07833833
89	0x3ccc092c	0.024906717
90	0x3cccedf7	0.025015814
91	0xbdf719e3	-0.120654844
92	0xbe169a3f	-0.14707278
93	0x3db62fbb	0.088958226
94	0xbdc8c4bf	-0.09803151
95	0xbda762ef	-0.08173167
96	0x3d7ba7dd	0.061439384
97	0xbd1989c5	-0.037484903
98	0x3cf37419	0.029718446
99	0x3e012c84	0.12614638
100	0x3d9bd8dd	0.07609723
101	0xbdc9a39a	-0.09845658
102	0xbd7bbd68	-0.06145993
103	0xbd64cdf2	-0.055860467
104	0x3d8681ad	0.065677024
105	0x3e0ffae1	0.14060546
106	0x3e2763cb	0.16346662
107	0x3d1bdae2	0.03805054
108	0x3cc1d1e3	0.023659652
109	0xbe22e9b1	-0.15909459
110	0xbd449d50	-0.048001587
111	0xbd4199dc	-0.047265872
112	0x3d520e5d	0.05128323
113	0x3d827e77	0.063717775
114	0xbc0486af	-0.008088752
115	0x3b3a2717	0.0028404647
116	0xbe53098b	-0.20609109
117	0x3cf2f71c	0.029658847
118	0xbd7981d1	-0.06091482
119	0x3d757070	0.059921682
120	0xbdc0da32	-0.094166175
121	0xbd72b194	-0.059251383
122	0xbdf11872	-0.11772241
123	0x3d4df2c4	0.050280347
124	0x3e43387f	0.1906452
125	0xbe140f9c	-0.1445908
126	0x3d1d7e66	0.03845062
127	0xbb6bdfb1	-0.0035991485
128	0xbda2dd73	-0.07952394
129	0x3dc0b166	0.09408836
130	0x3d006b0a	0.03135208
131	0xbcb361b6	-0.021897178
132	0x39d39afb	0.00040360526
133	0xbdbb0081	-0.091309555
134	0x3e23ca76	0.15995201
135	0x3d6b20c0	0.05740428
136	0xbd461432	-0.048359104
137	0xbd1eed18	-0.03880033
138	0x3db388e6	0.08766346
139	0xbb430bba	-0.0029761628
140	0xbcce5c32	-0.025190447
141	0x3db52f8f	0.08846962
142	0xbd96191e	-0.073290095
143	0xbcd67be0	-0.026182115
144	0x3d362d90	0.044477046
145	0xbd8370df	-0.06418013
146	0xbd7fcc37	-0.062450614
147	0x3e6aaf96	0.22918543
148	0x3e03d075	0.12872489
149	0x3c7c23df	0.015389412
150	0x3d76f8c4	0.060295835
151	0xbd4bf781	-0.049796585
152	0x3d8b4cdd	0.0680177
153	0x3d0db526	0.034596585
154	0xbd166d58	-0.036725372
155	0x3bd7b504	0.006582858
156	0x3d4a9ee9	0.049467955
157	0xbc733523	-0.014844212
158	0x3dea7be2	0.1144941
159	0xbd6ab386	-0.057300113
160	0xbe539f1b	-0.20666163
161	0x3cf62406	0.030046474
162	0xbdab1964	-0.08354452
163	0x3d6ca7ee	0.057777338
164	0x3daaff8f	0.08349525
165	0x3ddf0ce8	0.108911335
166	0x3d79d62c	0.060995266
167	0x3df8e3c7	0.1215282
168	0xbd9a5c33	-0.07537117
169	0x3dc4e7e8	0.09614545
170	0x3cae26f1	0.021258803
171	0x3cbe96d6	0.023265284
172	0x3c387ffd	0.0112609835
173	0xbd800318	-0.0625059
174	0x3885e568	6.3846644e-05
175	0x3e580d1d	0.21098752
176	0xbc3e12e1	-0.011601181
177	0x3ceb8c8f	0.028753547
178	0xbd0fe0e4	-0.03512658
179	0xbdb8621d	-0.090030886
180	0xbcfff657	-0.031245394
181	0xbd81393f	-0.06309747
182	0xbd8932a3	-0.06699111
183	0xbcb04d93	-0.021521365
184	0x3d142f09	0.03617767
185	0x3dd61cff	0.10454749
186	0x3d6bb693	0.057547163
187	0xbc96cabb	-0.018407216
188	0x3d950363	0.072760366
189	0x3dc5cc9b	0.09658166
190	0x3cb36463	0.021898454
191	0x3d8bcca6	0.06826143
192	0x3d43cb0c	0.047801062
193	0x3da84f8e	0.08218299
194	0xbd861e5b	-0.065487586
195	0x3e2823f6	0.16419968
196	0xbca00b86	-0.019536745
197	0xbc587354	-0.01321109
198	0xbd7c04ce	-0.06152802
199	0x3dd7f852	0.1054541
200	0xbd7e2159	-0.06204352
201	0xbd4cf42c	-0.050037548
202	0x3bc6e93d	0.0060702846
203	0xbe29e6cb	-0.16591947
204	0x3c9103dc	0.017702036
205	0xbdda7776	-0.106673166
206	0x3cbd19ef	0.023083655
207	0x3d7737d3	0.060355972
208	0x3dea4dcc	0.1144062
209	0xbe105518	-0.1409496
210	0xbe0bb2d0	-0.1364243
211	0x3daa9415	0.08329026
212	0x3d097102	0.03355504
213	0x3e79d432	0.24397352
214	0xbd3ada12	-0.045618124
215	0x3d687aee	0.05675786
216	0x3e049a1e	0.12949416
217	0xbd3dea97	-0.0463663
218	0x3ce50659	0.027957128
219	0x3da32569	0.0796612
220	0xbd02031b	-0.031741243
221	0xbc9be5f7	-0.019030554
222	0xbd49596d	-0.04915755
223	0x3c4372d3	0.011929232
224	0x3c6f4aa5	0.014605199
225	0x3d5c83ed	0.05383675
226	0xbd6ff10a	-0.058579482
227	0xbceb4977	-0.028721554
228	0x3bcda325	0.006275552
229	0xbde91eb2	-0.11382808
230	0xbc9f86a0	-0.019473374
231	0xbd88f9ee	-0.06688295
232	0xbb4b172a	-0.0030989149
233	0xbd958913	-0.073015355
234	0x3d33d49a	0.043903925
235	0xbd3a5387	-0.045489814
236	0xbcbc2fd7	-0.02297203
237	0x3d4f2aaa	0.050577797
238	0xbd5150bd	-0.05110239
239	0x3c89f2b6	0.016839366
240	0x3e25dd0d	0.16197605
241	0x3c67b978	0.01414334
242	0xbc8bd676	-0.017070036
243	0xbe265d16	-0.16246447
244	0x3d93ff63	0.072264455
245	0x3c346509	0.011010417
246	0xbc524783	-0.012834433
247	0xbd8aaeac	-0.06771597
248	0x3c3f580b	0.011678706
249	0x3de99965	0.11406211
250	0x3e071851	0.1319287
251	0x3d0e7341	0.034777883
252	0x3d16b4dc	0.036793575
253	0x3dce9b40	0.10088205
254	0xbd968ae8	-0.07350713
255	0xbda7711e	-0.08175872

network_body._body_endoder.seq_layers.2.bias f4 [128]
0	0x00000000	0.0
1	0x00000000	0.0
2	0x00000000	0.0
3	0x00000000	0.0
4	0x00000000	0.0
5	0x00000000	0.0
6	0x00000000	0.0
7	0x00000000	0.0
8	0x00000000	0.0
9	0x00000000	0.0
10	0x00000000	0.0
11	0x00000000	0.0
12	0x00000000	0.0
13	0x00000000	0.0
14	0x00000000	0.0
15	0x00000000	0.0
16	0x00000000	0.0
17	0x00000000	0.0
18	0x00000000	0.0
19	0x00000000	0.0
20	0x00000000	0.0
21	0x00000000	0.0
22	0x00000000	0.0
23	0x00000000	0.0
24	0x00000000	0.0
25	0x00000000	0.0
26	0x00000000	0.0
27	0x00000000	0.0
28	0x00000000	0.0
29	0x00000000	0.0
30	0x00000000	0.0
31	0x00000000	0.0
32	0x00000000	0.0
33	0x00000000	0.0
34	0x00000000	0.0
35	0x00000000	0.0
36	0x00000000	0.0
37	0x00000000	0.0
38	0x00000000	0.0
39	0x00000000	0.0
40	0x00000000	0.0
41	0x00000000	0.0
42	0x00000000	0.0
43	0x00000000	0.0
44	0x00000000	0.0
45	0x00000000	0.0
46	0x00000000	0.0
47	0x00000000	0.0
48	0x00000000	0.0
49	0x00000000	0.0
50	0x00000000	0.0
51	0x00000000	0.0
52	0x00000000	0.0
53	0x00000000	0.0
54	0x00000000	0.0
55	0x00000000	0.0
56	0x00000000	0.0
57	0x00000000	0.0
58	0x00000000	0.0
59	0x00000000	0.0
60	0x00000000	0.0
61	0x00000000	0.0
62	0x00000000	0.0
63	0x00000000	0.0
64	0x00000000	0.0
65	0x00000000	0.0
66	0x00000000	0.0
67	0x00000000	0.0
68	0x00000000	0.0
69	0x00000000	0.0
70	0x00000000	0.0
71	0x00000000	0.0
72	0x00000000	0.0
73	0x00000000	0.0
74	0x00000000	0.0
75	0x00000000	0.0
76	0x00000000	0.0
77	0x00000000	0.0
78	0x00000000	0.0
79	0x00000000	0.0
80	0x00000000	0.0
81	0x00000000	0.0
82	0x00000000	0.0
83	0x00000000	0.0
84	0x00000000	0.0
85	0x00000000	0.0
86	0x00000000	0.0
87	0x00000000	0.0
88	0x00000000	0.0
89	0x00000000	0.0
90	0x00000000	0.0
91	0x00000000	0.0
92	0x00000000	0.0
93	0x00000000	0.0
94	0x00000000	0.0
95	0x00000000	0.0
96	0x00000000	0.0
97	0x00000000	0.0
98	0x00000000	0.0
99	0x00000000	0.0
100	0x00000000	0.0
101	0x00000000	0.0
102	0x00000000	0.0
103	0x00000000	0.0
104	0x00000000	0.0
105	0x00000000	0.0
106	0x00000000	0.0
107	0x00000000	0.0
108	0x00000000	0.0
109	0x00000000	0.0
110	0x00000000	0.0
111	0x00000000	0.0
112	0x00000000	0.0
113	0x00000000	0.0
114	0x00000000	0.0
115	0x00000000	0.0
116	0x00000000	0.0
117	0x00000000	0.0
118	0x00000000	0.0
119	0x00000000	0.0
120	0x00000000	0.0
121	0x00000000	0.0
122	0x00000000	0.0
123	0x00000000	0.0
124	0x00000000	0.0
125	0x00000000	0.0
126	0x00000000	0.0
127	0x00000000	0.0

value_heads.value_heads.extrinsic.weight f4 [1, 128]
0	0xbe10e1be	-0.14148614
1	0x3e165b52	0.14683273
2	0xbd970fae	-0.073760375
3	0x3c0e2180	0.008674979
4	0xbc8b3ed0	-0.016997725
5	0x3dc82a4c	0.097736925
6	0x3d6c1b58	0.057643265
7	0x3dbfa4b4	0.093575865
8	0xbe35514e	-0.17706797
9	0x3e454e64	0.19268185
10	0xbb33ef80	-0.0027455986
11	0x3deec100	0.116579056
12	0xbd10b71c	-0.035330877
13	0xbddced1e	-0.10787414
14	0x3e4ab706	0.1979638
15	0x3e5ad31e	0.21369597
16	0xbdecf8e6	-0.11570911
17	0x3cbc8978	0.023014769
18	0xbdbddb10	-0.092702985
19	0x3e17edaa	0.14836755
20	0xbd3665c0	-0.04453063
21	0xbe15480a	-0.14578262
22	0x3e5142a6	0.2043558
23	0xbde40525	-0.11133794
24	0x3e0ab27e	0.13544652
25	0x3e15a50a	0.14613739
26	0xbd983384	-0.07431701
27	0x3cd825f8	0.026385292
28	0x3d93d4a8	0.07218295
29	0xbe222795	-0.15835412
30	0xbe199887	-0.14999591
31	0xbdfd9424	-0.12381771
32	0x3e56e17c	0.20984453
33	0x3e272c24	0.16325432
34	0xbe06403e	-0.13110444
35	0xbd2b7b6c	-0.04186575
36	0xbe30c5b4	-0.17262918
37	0xbcd86838	-0.026416883
38	0x3e580542	0.21095756
39	0x3e0104e8	0.12599528
40	0x3c379e60	0.011207193
41	0xbdb054e6	-0.08609943
42	0x3dacb2f4	0.0843257
43	0x3da0080c	0.07814035
44	0x3d9d6628	0.076855004
45	0x3e5abd34	0.21361238
46	0x3e562fd0	0.20916677
47	0x3cdef2e0	0.027215421
48	0x3caf7f48	0.021422997
49	0xbc62c260	-0.013840288
50	0xbc48d6e0	-0.012258261
51	0xbd325914	-0.043541983
52	0x3c46b160	0.01212725
53	0x3d119d10	0.035550177
54	0xbd5019d0	-0.050805867
55	0xbd1d2a58	-0.03837046
56	0x3dde20b4	0.108460814
57	0xbe215972	-0.15756777
58	0xbc3a1430	-0.011357352
59	0xbb6b4480	-0.0035898983
60	0x3dfc14cc	0.12308654
61	0xbe5782de	-0.21046016
62	0x3e200980	0.15628624
63	0x3e357440	0.17720127
64	0xbd28f984	-0.04125358
65	0x3d79fa30	0.061029613
66	0xbe371eba	-0.17882815
67	0x3d281c58	0.041042656
68	0x3e4e995e	0.20175692
69	0x3c5a7520	0.013333589
70	0x3e3d7ec4	0.18505388
71	0x3d85af5c	0.06527588
72	0xbd02e028	-0.031952053
73	0x3dcb4278	0.09924787
74	0x3d382fc8	0.044967443
75	0xbe019054	-0.12652713
76	0x3c8b5230	0.017006963
77	0xbe08f3a1	-0.13374187
78	0xbe4e0525	-0.2011915
79	0x3e153c9c	0.14573902
80	0xbda83938	-0.082140386
81	0x3d050834	0.032478526
82	0x3dbc17d8	0.09184235
83	0x3e2ec462	0.17067102
84	0xbe0fe7ff	-0.14053343
85	0xbd775148	-0.06038025
86	0xbd9b2300	-0.07575035
87	0x3c806c88	0.015676752
88	0xbd9fe400	-0.078071594
89	0xbdb334ce	-0.08750306
90	0xbe18b532	-0.1491287
91	0xbe0fad08	-0.1403085
92	0xbdc6a734	-0.0969986
93	0xbd8869ce	-0.06660806
94	0xbe2df18f	-0.16986679
95	0xbd57c344	-0.052676454
96	0x3e4eee66	0.2020813
97	0x3d9b652c	0.075876564
98	0xbe5509d7	-0.20804535
99	0xbd8e7c64	-0.069573194
100	0xbe4dff37	-0.20116888
101	0xbe1e414c	-0.15454596
102	0x3d0cc7c0	0.034370184
103	0x3e042fb0	0.12908816
104	0x3d8db398	0.069190204
105	0xbe03825d	-0.12842698
106	0xbdabe310	-0.08392918
107	0xbd8e25a4	-0.06940773
108	0xbe2308e4	-0.1592136
109	0xbe2e1bcc	-0.17002791
110	0xbd59aa9c	-0.05314122
111	0xbc6c5a40	-0.014425814
112	0x3e071c90	0.1319449
113	0xbe17de0e	-0.14830801
114	0x3e1cd2dc	0.15314811
115	0x3e17b9ea	0.14817014
116	0x3e195f04	0.14977652
117	0xbe3ac993	-0.18240957
118	0x3c466a10	0.012110248
119	0x3e4ccd0c	0.20000094
120	0x3c070010	0.008239761
121	0xbd23aa50	-0.039957345
122	0x3d09609c	0.0335394
123	0x3e3e8c60	0.18608236
124	0x3d016258	0.03158793
125	0x3e3dfc42	0.1855326
126	0xbe573899	-0.21017684
127	0xbcc99ed8	-0.024611875
