results/PlayerAgentTest/MediumPlayer/MediumPlayer-66071.onnx (onnx, 275220 bytes, 7 tensors)

network_body._body_endoder.seq_layers.0.weight f4 [128, 396]
000000 f1 3f 86 bd 12 38 77 bd b3 6c 8c 3d 6e 94 b4 bc
       -0.065551646 -0.060356207 0.0685667 -0.022043433
000010 00 9a bf 3d 3d 73 f4 b9 ef c1 b2 bd 70 ee 49 3d
       0.09355545 -0.00046625166 -0.08728396 0.049299657
000020 a6 7e e2 3b 0a ce 98 bd 53 7e 56 bd 16 ed cd bd
       0.0069120703 -0.07461174 -0.052366566 -0.10054986
000030 92 a4 e6 bc 90 7c 4d bd 3c 51 92 bd 93 3d 90 3c
       -0.028154645 -0.05016762 -0.071444005 0.017607486
000040 87 5f b2 3c b5 e9 70 bc 99 a4 2a bd f8 a1 48 3c
       0.021774067 -0.014704158 -0.04166088 0.012245648
000050 55 e3 93 bc c6 84 c9 bb f4 27 04 be 9d 00 0e 3d
       -0.018052736 -0.006149861 -0.12905866 0.034668554
000060 0b e7 07 bd 29 19 e3 3b a9 ce 8b bd eb 82 1c 3d
       -0.033179324 0.0069304896 -0.06826527 0.03821079
000070 f3 58 0b 3d 0b 18 3e bd ff f6 9d 3c 23 19 67 bd
       0.034020375 -0.046409648 0.019282816 -0.056420457
000080 ee a0 f5 3c 61 1b 93 bd 88 be 31 bd 01 84 80 3c
       0.029983964 -0.071829565 -0.043394595 0.015687944
000090 19 c2 e9 3c bc 31 3f bd d9 d2 2f bd 21 6d b4 3d
       0.028534936 -0.04667829 -0.04292569 0.08809877
0000a0 b8 ad 7c 3d 55 93 9a 3b 9b c9 bf 3d 6c 8a 91 3d
       0.06168911 0.0047172704 0.09364625 0.0710648
0000b0 f4 df 2f 3d ff 25 23 3c 10 30 e0 bd 46 e9 87 bd
       0.042938188 0.009957789 -0.10946667 -0.0663629
0000c0 58 62 a1 3d aa ff 4c 3d d4 e0 f2 bb 89 79 70 bd
       0.07880086 0.050048508 -0.0074120555 -0.058709655
0000d0 d9 a5 57 bd 4b 16 b4 3c 18 70 0f bd 11 bb 95 bd
       -0.0526484 0.021983286 -0.03501901 -0.07311071
0000e0 a8 5c b0 3c b4 05 55 bd 6e 37 34 bd 98 eb 26 3e
       0.021528557 -0.052007392 -0.043998174 0.1630081
0000f0 d3 58 06 3e 06 48 4b bd bd 5c 0c bc 89 6c 22 3d
       0.13119821 -0.049629234 -0.008567032 0.03965429
000100 71 58 13 3c 88 33 9f 3d 96 26 82 3c 04 55 6c 3d
       0.008993254 0.07773501 0.01588754 0.057698265
000110 6a d6 56 bc 2d 5d 25 bc 78 fb 08 bd 22 d0 82 bd
       -0.013112644 -0.010093016 -0.033442944 -0.063873544
000120 6c 74 41 bb 85 43 8b 3d 33 24 c6 bc 76 23 b4 bc
       -0.0029518856 0.06799988 -0.024187183 -0.021989565
000130 14 7f d9 3d 21 19 c3 3c 6e 41 77 bb dc d8 70 3d
       0.10619941 0.023815693 -0.0037728208 0.058800563
000140 f3 80 92 3b bf 96 d1 bc f7 db cc bc 78 a7 04 bd
       0.0044709384 -0.025584577 -0.025007231 -0.032386273
000150 42 02 37 bb 06 ac a8 bb c1 3c d1 bc b3 ad cd 3d
       -0.002792493 -0.00514746 -0.025541665 0.10042896
000160 cb c2 61 bc 99 84 0d 3c a6 61 27 bd 82 c8 10 bd
       -0.013779352 0.008637571 -0.04086461 -0.03534747
000170 55 40 e3 bd 50 29 b5 3c 25 eb df bb 9b 51 f5 bc
       -0.11096255 0.022114426 -0.0068334513 -0.02994614
000180 c7 0d f0 bc 7e 10 08 3d b1 ee bd 3c 8b d9 63 3d
       -0.029303445 0.033218853 0.023185106 0.055627387
000190 29 54 c6 3b 47 4e 2f bc 07 f7 72 3d 09 6d ad bc
       0.006052513 -0.010699815 0.059317615 -0.021170156
0001a0 b1 c3 ea 3c 68 ff c6 bd 57 da 16 bd 06 70 fd 3d
       0.028657766 -0.097166836 -0.03682932 0.123748824
0001b0 39 d1 51 bd 3d 1a 5d 3d a5 c8 6d 3b e4 31 20 bd
       -0.05122492 0.0539801 0.0036282924 -0.03911008
0001c0 32 8c 27 bb e7 0d 0c 3d f3 5c 46 3a 62 ae 49 bc
       -0.002556574 0.034192946 0.0007566951 -0.0123096425
0001d0 56 0a 19 3c 06 b6 a1 bd 83 e0 df 3c 16 65 cd bd
       0.009340843 -0.07896046 0.027328735 -0.10029046
0001e0 01 37 d4 bd d2 6b 3c bd 23 8b 3d 3d 7b fe 5c 3c
       -0.10362054 -0.046001263 0.04627527 0.013488407
0001f0 a1 65 af bc 2b 39 96 3c 04 87 98 3d 35 1a 1b bd
       -0.021410765 0.018337807 0.07447627 -0.03786679
000200 0d b9 cd bd 2e ae 62 bd f7 41 90 3c fa f2 82 3d
       -0.10045061 -0.055341892 0.01760958 0.06394
000210 11 aa 62 3c 47 f1 e1 bd 06 70 3e bd 14 d1 83 3b
       0.013834492 -0.11032348 -0.046493553 0.004022727
000220 d2 54 8f bd 9d 0c 96 3c f7 f8 58 bd 09 ba 87 3d
       -0.069986 0.018316561 -0.052971806 0.0662728
000230 e3 59 d5 3b 16 a9 63 3d f2 c4 82 bd b9 89 7d 3d
       0.0065109595 0.055581175 -0.063852206 0.06189892
000240 f4 1f 1a bd 47 18 9a 3c 8b 98 ab 3b a9 5e d2 3d
       -0.03762813 0.018810404 0.0052366904 0.10271961
000250 3a bd 00 3d 53 dc 5d bd 10 80 67 bd ea 5e 17 bd
       0.03143046 -0.054165196 -0.056518614 -0.03695575
000260 6f f9 9e ba 51 2d 54 3b f3 e0 72 3b 21 22 39 bc
       -0.001212878 0.0032375643 0.003706035 -0.011299641
000270 7d 7b bd 3c 7d 19 93 bd b6 ba 65 bd 42 05 16 3d
       0.023130173 -0.07182596 -0.056086265 0.036626108
000280 27 db 46 bd dd 64 5c 3c 2a 05 ff bb cb 2d 84 bd
       -0.048548844 0.013451782 -0.007782598 -0.06454047
000290 79 a5 41 3c 8f 28 8d bd 88 84 04 bd dd b7 80 bc
       0.011819237 -0.068925016 -0.032352954 -0.015712673
0002a0 ef 72 84 bb dc 54 e4 3c 52 94 4a bd a0 08 f8 bc
       -0.0040420215 0.027872495 -0.049457856 -0.03027755
0002b0 29 16 7c 3c 09 18 bd bc f9 a1 20 bd 47 78 1b 3d
       0.015386143 -0.02308275 -0.03921697 0.037956502
0002c0 7f 8c 10 3d cb 42 a3 bd e0 84 10 bd 8c 2e 8d bd
       0.035290238 -0.07971724 -0.03528297 -0.06893644
0002d0 42 9d 12 3d c2 c2 b3 3c 67 92 93 bb 52 ae 10 bd
       0.035794504 0.021943454 -0.0045035365 -0.035322495
0002e0 a8 55 09 bd 1b a1 8c bc bd 2c c1 bc 62 a1 b1 bd
       -0.033528954 -0.017166665 -0.023580903 -0.086733595
0002f0 20 c9 0f 3d 42 17 1a be 79 62 27 3c e1 b0 c0 bc
       0.035103917 -0.15047935 0.010216349 -0.023521842
000300 f6 ef 83 bb 47 2f 43 bd 4c ee b0 bb c6 1d 16 3d
       -0.0040264083 -0.04765251 -0.005399501 0.036649488
000310 ab 82 48 3c f3 47 2f 3d 91 6f 1f bc be 8e 4c bd
       0.012238185 0.042793225 -0.009731189 -0.049940817
000320 38 9f 3d bb 0c c3 0a bc 9a 52 b5 bd e3 b3 e4 bc
       -0.0028934013 -0.008469354 -0.088536456 -0.027917808
000330 55 68 8d 3b 60 59 5c bd 8c 0c 13 bc a2 35 bc 3d
       0.004315416 -0.053796172 -0.008975159 0.09189917
000340 47 35 b8 bc 1b 0d df 3c fe 27 29 bc 4b e4 96 bd
       -0.022486342 0.027227929 -0.010324476 -0.07367762
000350 54 a9 ba 3b 81 6c 09 bd a4 84 29 bb ae 6e b9 bd
       0.005696455 -0.033550743 -0.0025866413 -0.090543136
000360 63 2e 30 3c d5 f9 71 3d 38 0a ee bb e3 df 56 3d
       0.010753247 0.05907615 -0.0072644018 0.05245961
000370 25 d8 c9 3c 14 13 f5 bd d5 f4 1b 3d 1d 6b 87 bd
       0.024639199 -0.119665295 0.038075287 -0.06612227
000380 50 21 73 3d b8 52 a1 3d 9d 95 1c bd 91 c7 dd 3b
       0.05935794 0.078771055 -0.03822862 0.006768175
000390 b2 ad 1e bb 36 56 ba 3c d1 ac 98 bc 62 48 e2 3c
       -0.0024212417 0.022746187 -0.018637093 0.027622405
0003a0 db b4 c3 bc a1 6c f6 3d ea 22 da bc 9a 3b 18 bc
       -0.02388995 0.12032438 -0.026627976 -0.009291554
0003b0 24 36 a8 bc 94 d7 9b bd e0 bc 8e 3d 31 61 3d bc
       -0.020533629 -0.07609478 0.06969619 -0.011558817
0003c0 9c 60 a3 3c d2 3e 89 bd 56 c9 04 3c 36 1e 64 bc
       0.019943528 -0.06701435 0.008104643 -0.0139232185
0003d0 e6 b8 c3 3a a6 93 30 3d 1a eb 93 3a e7 4b 0d 3c
       0.0014932423 0.04310956 0.0011285276 0.008624054
0003e0 57 66 d0 bc 02 75 fc bc ab f3 0c bd 35 e8 63 3c
       -0.025439424 -0.030817512 -0.034412067 0.013910343
0003f0 12 bd 70 3c d6 02 97 3c 15 17 54 3c e3 35 aa bd
       0.014693515 0.01843397 0.012944956 -0.08311059

network_body._body_endoder.seq_layers.0.bias f4 [128]
000000 41 be 02 bc 62 7e 70 3b a8 bb 45 bb d5 f1 b1 bb
       -0.00797993 0.0036696424 -0.0030171666 -0.00543044
000010 48 84 26 bb c8 5f 19 b8 8a e4 dc 3a 6d 19 0f 3a
       -0.0025408436 -3.6567246e-05 0.0016852778 0.0005458806
000020 47 89 d1 3b c7 21 85 ba d4 57 86 3b 34 66 28 bb
       0.0063945386 -0.0010157161 0.0040998254 -0.0025695683
000030 f3 58 67 b9 24 51 6f ba e2 3b bd 3b 9b b5 95 b9
       -0.00022063013 -0.00091292174 0.005774961 -0.000285548
000040 ce 70 b9 3a 5b 11 8c bb dc 65 1f 3b 11 f1 49 3c
       0.0014147998 -0.00427453 0.0024322188 0.012325541
000050 8f f5 b5 b9 d3 77 d7 bb bb 5e cc b9 cf 7f ce 39
       -0.00034705966 -0.0065755635 -0.00038980492 0.00039386607
000060 11 44 e6 ba a0 3d da bb 42 93 9c 3b db 8a 87 bb
       -0.0017567893 -0.0066601783 0.0047782967 -0.004136426
000070 87 22 a4 3a 1d e7 28 39 4b 75 79 38 37 e3 72 bb
       0.0012522497 0.00016107825 5.9475464e-05 -0.00370617
000080 a4 69 3a ba 57 d8 2d 3c d8 7c 75 bb 94 73 92 3a
       -0.00071110786 0.0106106615 -0.0037458446 0.0011173361
000090 b1 33 dc 3a 6d 77 1b bc ee 5e 96 3b 03 36 29 38
       0.0016800073 -0.009488923 0.004588953 4.0343042e-05
0000a0 1a 6f 92 ba e1 80 89 bb 2b 0b 1e bb c9 8b c4 3b
       -0.0011172027 -0.0041962718 -0.0024115543 0.005998109
0000b0 aa 4e c7 39 57 ed 05 3c 23 a1 90 3a 0c 59 19 bb
       0.00038014847 0.008174262 0.0011034351 -0.0023399023
0000c0 f0 c4 4a bb 2e 8b b3 3b 8d 69 6d ba f8 06 fe 3a
       -0.0030940138 0.005479238 -0.0009056561 0.0019380739
0000d0 7c 28 22 3b 87 a7 12 3b dd fb 3f 39 5e 55 bf 3a
       0.002474337 0.0022377686 0.00018309006 0.0014597585
0000e0 9a f3 fc 3a 2f ec d5 bb 38 01 11 bb 7e 47 43 bb
       0.0019298673 -0.0065283994 -0.002212597 -0.0029797251
0000f0 39 98 b1 3b 63 51 95 bb 54 96 f7 3a 20 6c 94 bb
       0.0054197577 -0.004556821 0.0018889406 -0.004529491
000100 43 40 6e bb 5c 6e 96 3b a6 53 5e bb e9 0b bb bb
       -0.003635422 0.0045907926 -0.003392437 -0.005708207
000110 0f 71 c1 3b bd 40 55 bb d1 61 2a b9 6b 5f b1 b8
       0.00590337 -0.0032539808 -0.00016248903 -8.457791e-05
000120 59 5f 85 3a 78 48 cf ba 53 e6 1a 3c c3 96 75 bb
       0.001017551 -0.0015814444 0.009454328 -0.0037473894
000130 e0 32 47 3a e4 e1 72 bb 97 d0 8d 3a fc ba 8e ba
       0.00075988285 -0.003706091 0.0010819611 -0.0010889466
000140 c9 0f 6b 3b 66 74 a8 bb 99 4e 32 bb de 9d 0c 3b
       0.0035867563 -0.005140829 -0.0027207492 0.00214564
000150 05 f9 8c bb 2d 6b 47 39 7f 47 67 bb 02 6d 8f ba
       -0.0043021464 0.00019018045 -0.0035290418 -0.0010942521
000160 9b 30 3e ba 8d 40 18 3b d4 98 8d 3a b4 c5 c5 ba
       -0.00072551676 0.0023231835 0.0010802993 -0.0015088827
000170 d5 45 40 bb 00 c4 c9 ba 8d b3 d2 ba 89 bc 2b bb
       -0.0029338498 -0.0015393496 -0.0016075239 -0.0026204905
000180 78 c4 2a ba 4c d4 a1 3a 67 b7 9e bb 98 89 ef ba
       -0.00065142615 0.0012346595 -0.0048436406 -0.0018275259
000190 af 74 8b bb c4 00 83 3a 70 30 a3 3a 0f b9 3c bc
       -0.004255853 0.0009994735 0.0012450349 -0.011518731
0001a0 5b fa 23 3a c9 27 46 3b a8 1b 5e 3b 3f f3 8e 3b
       0.00062552624 0.0030236116 0.0033890996 0.0043624933
0001b0 7a a3 af 39 bf 99 b4 ba a8 97 fa bb be 65 96 bb
       0.000335004 -0.001377873 -0.0076474734 -0.0045897653
0001c0 d0 7c 3c bb 99 19 3f 3b 69 e5 8a 3b 35 ad 24 bb
       -0.0028760917 0.0029159545 0.0042387736 -0.0025127653
0001d0 6a 72 95 bb 1e 7d 38 bb 03 ee b1 3b 86 52 bb ba
       -0.0045607584 -0.0028150748 0.0054299845 -0.0014291562
0001e0 41 2a e2 3a 30 e7 50 3a 40 92 94 39 c5 a3 90 ba
       0.0017255024 0.000796902 0.00028337725 -0.0011035135
0001f0 3e 90 1e 3c 89 40 81 3b 55 94 1d bb 6a 04 c1 bb
       0.009677945 0.003944461 -0.0024044712 -0.005890419

network_body._body_endoder.seq_layers.2.weight f4 [128, 128]
000000 ce a7 0c be 1f cd 68 3b 37 d8 06 3c 32 49 c6 bd
       -0.13735887 0.0035522652 0.008230261 -0.0968193
000010 ae 29 35 be 4b 47 f0 bc f1 16 0d bd a7 96 62 3a
       -0.17691681 -0.02933087 -0.034445707 0.0008643665
000020 c5 86 d0 bc 88 5d 8a 3d 8b d7 84 bd e8 5d 12 bd
       -0.025454888 0.06756121 -0.06486424 -0.035734087
000030 e6 1a e9 3d 64 32 c3 3b 94 a0 3d 3b b1 ae f7 bd
       0.113820836 0.0059569348 0.0028934823 -0.120938666
000040 91 dd 9a bd cd ea 9b 3d b7 d3 00 bd 39 9c f0 3d
       -0.07561792 0.07613144 -0.031451907 0.11748547
000050 bb 0c 99 bd 35 70 ae bc 65 b2 5c bd b8 0c 9b bc
       -0.07473131 -0.021293739 -0.053881068 -0.018926963
000060 ab 12 4a 3e c3 fd 7f 3c 97 45 92 bd ae b7 11 be
       0.19733684 0.015624466 -0.071421795 -0.14230224
000070 82 07 85 3d 51 68 d6 3d b4 6b a7 bc e4 7e 33 be
       0.064955726 0.104691155 -0.020437099 -0.17528874
000080 49 75 91 3d 79 a4 15 be 85 5e 81 3d 44 15 d4 bb
       0.071024485 -0.14613523 0.06316856 -0.0064722616
000090 ea 37 19 be dd af 01 3e ca 41 c6 3d ad 99 c7 bd
       -0.14962736 0.12664743 0.09680517 -0.09746108
0000a0 1d 8d 21 bd 79 33 40 bd db 23 fb 3d ad 08 5e 3d
       -0.039441217 -0.04692409 0.12262698 0.054207493
0000b0 9b 47 a7 3d a4 73 ad bd 63 44 96 3d 97 b9 90 3d
       0.081679545 -0.08469322 0.073372625 0.070666485
0000c0 11 a2 42 3d bd 0f c0 3c eb f0 80 bd bc 27 cf bc
       0.04751784 0.023445005 -0.062959515 -0.025287502
0000d0 25 c2 36 bd f6 99 05 bd fc 83 e1 3b 18 70 7b bd
       -0.044618744 -0.03261753 0.006882189 -0.061386198
0000e0 d2 94 ac 3d 94 26 46 3d 09 97 df bc 9c 99 98 bd
       0.08426823 0.048376635 -0.027293699 -0.07451174
0000f0 2a 39 c5 3d 34 da 2a 3e 64 bc 26 bd f0 d8 91 3d
       0.09630044 0.166848 -0.040707007 0.07121456
000100 91 35 6c 3d 42 e7 08 3c 83 a9 c5 bd 6d 6a d8 bd
       0.057668272 0.008355917 -0.096514724 -0.10567174
000110 2f 29 2b be 8b 64 bd bc f2 c1 6e bd 17 35 43 3d
       -0.16714929 -0.023119232 -0.05829043 0.047658052
000120 af cb 52 bd 35 6e 1e bd 03 7c 2a bd 67 a9 2f 3a
       -0.05146378 -0.03867932 -0.041622173 0.0006700963
000130 c4 ab f5 bd 90 8a 39 be 3e 3f 90 bd a0 81 f2 bb
       -0.11995652 -0.18119264 -0.070433125 -0.0074007064
000140 5e 3c f7 bd ba 2e 77 3d 8e 81 27 3a 76 cb 12 3e
       -0.12072061 0.060347296 0.00063898496 0.14335427
000150 20 28 42 3e bf f8 5b 3d 90 29 5a bd 91 8b 94 3d
       0.18960619 0.05370402 -0.053262293 0.07253183
000160 9e a0 80 bd f6 be 8d bc 32 72 1a 3e 8c 9c 05 bd
       -0.06280635 -0.017302971 0.15082625 -0.032619998
000170 bc 0b 93 bd c2 04 26 3c 8d f6 37 3e 71 23 31 be
       -0.071799725 0.01013297 0.17965145 -0.17298676
000180 12 62 d5 3d 1a ca 74 bd d2 f9 76 3c a1 41 d0 bc
       0.10419096 -0.05976305 0.01507421 -0.02542192
000190 e1 29 07 3e 81 2a c4 3c 0c ba 8f bd 9e bd 03 3e
       0.1319957 0.023946049 -0.070179075 0.12865302
0001a0 f1 c8 57 be 1f f0 23 be 12 c8 a1 3d 92 75 9a bc
       -0.21072747 -0.16009568 0.078994885 -0.01885489
0001b0 e1 a5 22 bc 2f 4a 2d bd 25 68 d2 3b 23 4b 9f 3c
       -0.009927244 -0.042307075 0.0064211064 0.019445008
0001c0 ee 40 00 3c 67 47 c8 bd b1 8c ff bd b2 f5 a8 3b
       0.00782798 -0.09779244 -0.12478007 0.0051562423
0001d0 e1 2a c4 bc b9 1d 5f bd 17 09 80 bd 2b a7 e9 3c
       -0.023946228 -0.054471705 -0.06251734 0.028522095
0001e0 f5 2f 56 bd c7 fe e7 3c 99 08 ce 3c e3 8c 0a 3c
       -0.05229183 0.02831973 0.025150584 0.008456442
0001f0 d9 d8 89 3d da 63 0f bc 00 9c a2 3d 8f a0 d5 bd
       0.067308135 -0.008751834 0.07939911 -0.10431015
000200 e0 23 6b 3d 25 97 d5 3c 80 b0 ee 3b bb f7 27 bd
       0.05740726 0.026073048 0.007284224 -0.04100774
000210 f7 c4 9f bc d9 82 82 bd eb 62 2e be a0 db 8c bd
       -0.0195031 -0.063726135 -0.17029922 -0.06877828
000220 f7 05 44 bd 53 28 06 be 82 39 6e 3d ee c6 22 bd
       -0.04785725 -0.1310132 0.058160312 -0.039740495
000230 fa be 07 3e 0b 89 1a 3d 87 41 26 bc 96 2c 60 bd
       0.13256446 0.03772835 -0.010147459 -0.05473002
000240 d3 5b 4d 3e 5f 26 a0 3c a2 20 bc bc be 3d 9b 3b
       0.2005456 0.019549547 -0.02296478 0.004737585
000250 61 b2 05 3d 0f 96 d5 bd f1 53 0c be e8 9f f8 3d
       0.03264082 -0.10429012 -0.13703896 0.12139875
000260 c4 0a b7 3d 56 26 0d be 3b 10 e8 3d 85 7d 1d be
       0.089376 -0.13784155 0.11331221 -0.15379913
000270 66 a6 ce bd f0 d3 77 bd 7b e1 6d 3d 7a 9e 0c 3e
       -0.10090332 -0.060504854 0.058076363 0.13732329
000280 a5 1f 8e 3d 21 38 e2 3c 71 19 a2 bd d7 7d 19 3e
       0.069396295 0.027614655 -0.07915009 0.1498941
000290 0f 20 11 be 11 a3 6e be be 05 72 bc 1a a6 e5 bb
       -0.14172386 -0.23304392 -0.014771877 -0.0070083262
0002a0 15 bd bb 3d 01 fa 00 bc 69 62 77 3d a5 02 e5 3d
       0.09166924 -0.007872106 0.060396586 0.11182145
0002b0 00 a9 c2 bd 17 c8 55 3e 06 c5 c2 3d 2e a4 24 bd
       -0.095048904 0.2087711 0.095102355 -0.040195636
0002c0 a3 47 c1 bd e4 11 4e 3d ce 9b 18 bd b1 9e 87 3d
       -0.09437492 0.05031003 -0.037257962 0.06622065
0002d0 19 3f 89 bd dc 59 7d 3b ea b2 b8 bc 92 19 12 3d
       -0.06701488 0.0038658297 -0.02254625 0.035668917
0002e0 dc 2b f7 3c 22 e6 24 3d 16 5e 13 3c 90 24 83 3d
       0.030172281 0.040258534 0.0089946 0.06403458
0002f0 9f f6 b1 bb 56 0c fa 3d 16 3f 66 bd 73 9f a8 3b
       -0.005431011 0.12209384 -0.056212507 0.005145961
000300 a1 7c 4f 3b f4 91 be 3d 7a 97 0e 3e 6b d1 72 3d
       0.0031659978 0.09305182 0.13924971 0.059281748
000310 95 c5 9c 3d 9e 02 b4 bd be a2 8f bd ce 6b 27 bd
       0.07654873 -0.08789562 -0.070134625 -0.040874295
000320 a4 31 f0 bc 04 5a 32 3d 69 85 67 3d 60 00 ec bd
       -0.029320545 0.043542877 0.056523714 -0.11523509
000330 2c c7 09 3d 21 95 d2 3d 24 01 86 bd 50 55 93 3c
       0.03363721 0.1028235 -0.06543186 0.017985016
000340 35 fa 3e bd 92 e5 00 be a3 56 c2 3d 4a 82 db bd
       -0.046625335 -0.12587574 0.09489181 -0.1071821
000350 3a f0 f9 bd 83 0c 26 3e ac 8c ce bb 9d e8 fa 3c
       -0.12204023 0.1621571 -0.0063033905 0.030628497
000360 c9 b5 bd bc 2b 88 fe bd 53 92 9a 3c 04 74 fa 3d
       -0.023157971 -0.12428316 0.018868601 0.122291595
000370 3f d4 18 3d 58 5b 00 3e f1 92 15 3d dd ed 2b bd
       0.03731179 0.12534845 0.036517087 -0.04197489
000380 25 22 a1 3c 96 e9 41 3e c8 cb 30 bd 32 57 68 bc
       0.019669602 0.18936762 -0.04316309 -0.014180945
000390 2f dc 45 3e 80 5f 10 3d f3 b3 db 3d f6 e6 21 3d
       0.19322275 0.035247326 0.10727682 0.039526902
0003a0 65 c6 6e bd 28 6c d8 3d 44 df 42 be a7 04 80 3c
       -0.058294673 0.10567504 -0.19030482 0.015627218
0003b0 4a e9 fb bd 0d 60 c9 bc db c5 8b bd 7b 93 c8 3d
       -0.12300356 -0.024581933 -0.06824847 0.09793755
0003c0 bd 66 6c 3c 07 50 61 be d5 81 24 3c ac 30 86 3d
       0.014428792 -0.22003184 0.01004072 0.06552252
0003d0 ab 4d 8b ba d7 3a a9 bd 27 36 b8 bd d9 c1 f0 3d
       -0.0010628005 -0.08263176 -0.08994704 0.117557235
0003e0 b0 58 b1 bc dd ea 18 be 5b ed ac bd 8c 06 76 bd
       -0.021648735 -0.14933343 -0.084437095 -0.060064837
0003f0 2e 86 0e bd bb 2b 8d bc c9 a1 06 3c b1 51 a7 bd
       -0.034795932 -0.017232766 0.0082172835 -0.08169878

network_body._body_endoder.seq_layers.2.bias f4 [128]
000000 f2 48 ef ba 2f a5 b0 bb a3 86 9f 3b f2 1e a9 3a
       -0.0018255992 -0.005390785 0.004868345 0.0012902899
000010 20 58 94 3a 9f 21 7b bb 30 58 c8 ba bc 98 ea bb
       0.0011317767 -0.00383196 -0.0015285071 -0.0071593206
000020 dd ca d7 3a 1e c3 d9 ba ef 6b 98 b8 a7 9f ca b9
       0.0016463656 -0.0016613936 -7.268029e-05 -0.00038647393
000030 b2 e5 15 bb d2 0d 54 3b dc f9 94 bb 92 bf 38 3b
       -0.0022872505 0.003235687 -0.004546387 0.0028190357
000040 a5 cc 28 3b f6 65 19 3b 62 eb fe 3a 30 76 d9 3b
       0.0025756743 0.002340672 0.0019448812 0.0066364035
000050 f7 73 47 3b bb 79 a5 3a a2 53 15 bb 7a 6c cb 3b
       0.003043411 0.001262478 -0.0022785445 0.006208
000060 01 ad a4 ba 9e 33 9e bb b2 c4 8b bb 78 e9 99 ba
       -0.0012563766 -0.0048279306 -0.0042653913 -0.0011742553
000070 ff 52 6c 3c 82 87 e9 3a ca 1e 4c 39 f7 df b8 3a
       0.014424085 0.0017816874 0.00019466426 0.0014104833
000080 7e b4 9c ba cf dc 8d b8 e1 59 28 bb 05 d8 7b ba
       -0.0011955646 -6.764533e-05 -0.0025688338 -0.00096070796
000090 ef 67 f7 bb f4 85 fe b7 1c 1b 32 bb af 1d 0e bb
       -0.0075502316 -3.0341536e-05 -0.0027176803 -0.0021685173
0000a0 be 71 39 ba 67 00 4b ba 2e f3 ad 3b f2 0a e5 ba
       -0.0007074139 -0.00077438954 0.0053085303 -0.0017474575
0000b0 b2 7d a9 ba ec 93 8a 3b ea 5e 8d bb 51 57 26 bb
       -0.0012931137 0.0042290594 -0.004314293 -0.0025381634
0000c0 cb 93 45 bb 22 28 82 3b af ac a2 bb ad 82 86 3a
       -0.0030147906 0.0039720694 -0.004964433 0.0010262333
0000d0 d6 63 71 3b f7 22 5b 3b 22 bf 0c bb a1 98 12 bb
       0.0036833188 0.0033437589 -0.0021476229 -0.0022368806
0000e0 51 45 a1 3b ca 61 a7 3a 93 eb e8 3a d5 a7 d9 ba
       0.0049215932 0.0012770232 0.0017770402 -0.0016605804
0000f0 6c ef 63 3b 3f b9 ff 3b 6d ef 6f 3a e2 9d ec bb
       0.0034780158 0.0078040655 0.00091528037 -0.0072209695
000100 1f ab 9d ba c0 df 71 3b 90 13 bf ba 1b a9 32 3b
       -0.0012029147 0.0036907047 -0.0014577974 0.002726144
000110 3b 53 54 bb d6 b3 37 bb 49 a1 c0 ba 1f cc ee 3a
       -0.0032398242 -0.0028030775 -0.0014696504 0.0018218792
000120 47 fd 36 3b 3c ba ac 3a 88 27 1e bb 6a 57 49 bb
       0.002792196 0.0013178061 -0.002413245 -0.003072227
000130 e1 e1 a3 3a f1 e5 8a 3a e2 19 d0 38 02 77 90 b8
       0.001250323 0.0010597092 9.923034e-05 -6.888622e-05
000140 4e 07 7c 3a ec 6e 73 bb 41 8c da 39 cc 26 6c ba
       0.00096141256 -0.0037144972 0.00041684697 -0.0009008467
000150 04 4f c4 3a 9d 46 54 ba e0 69 a4 3b fe 5f df 39
       0.0014977162 -0.00080976804 0.005017504 0.00042605394
000160 9c 33 fe ba c5 5a 99 b9 d2 b8 50 3a 9a 64 00 3b
       -0.0019394043 -0.00029250063 0.00079621107 0.0019591213
000170 a0 61 21 bb 33 72 68 3b b8 cd 91 3a d4 67 3c 3b
       -0.002462484 0.0035468459 0.0011123931 0.002874841
000180 02 91 bf bb 18 fa 28 3b f3 96 b0 39 7f 29 39 3b
       -0.0058461437 0.0025783833 0.00033681802 0.0028253493
000190 ec 2c 94 ba 6f b7 5b bb 83 34 0c 3c d8 b0 cc ba
       -0.0011304892 -0.0033526083 0.008557442 -0.0015616668
0001a0 3b fd 95 3b e9 98 8f bc 44 9d 93 3b e6 be 98 bb
       0.0045773066 -0.017528968 0.0045048315 -0.0046614287
0001b0 b8 fb 65 3a 37 76 87 3b 5d b8 16 3b e1 7e dd ba
       0.0008773166 0.0041339654 0.0022998073 -0.0016898775
0001c0 be 3c 0c 3b 3e 2c e3 b9 c1 6c 73 3b 11 2f bf 3a
       0.002139851 -0.00043329777 0.003714368 0.001458617
0001d0 a1 4e 14 3b 46 f4 d2 3a b0 9b 7e 3a a1 15 b2 ba
       0.0022629874 0.0016094528 0.00097125303 -0.0013586768
0001e0 9b 61 68 3b bc c5 db 3a 83 2e 87 bb e5 f3 dc 3a
       0.0035458568 0.0016767303 -0.0041254177 0.0016857354
0001f0 1f 4f 15 b9 a2 e1 1c 3a b4 c5 c3 ba 25 b7 9f 3b
       -0.00014239222 0.00059845496 -0.001493624 0.0048741275

action_model._continuous_distribution.log_sigma f4 [1, 6]
000000 42 de e1 bb 54 c9 8b bc 39 e2 a5 bb d4 29 9f bb
       -0.0068929503 -0.017063774 -0.005062368 -0.004857281
000010 cc cd 1a ba 16 7d 03 3c
       -0.00059053 0.008025428

action_model._continuous_distribution.mu.weight f4 [6, 128]
000000 60 ef 98 3c 7f 34 2b 3c 5b db 94 3b 95 e6 3b 3c
       0.01866883 0.010449528 0.004542751 0.011468549
000010 4e 20 bc bc b4 68 7b ba 06 d9 1b bb de 2f 0f bc
       -0.022964623 -0.0009590492 -0.002378048 -0.00873944
000020 da b2 53 bc d4 bd b4 3c 77 94 11 bd 49 76 87 3c
       -0.0129210595 0.022063173 -0.035541978 0.016535895
000030 c5 67 be bc 8e bb ed 3b 1b 4f f2 bc 32 a0 09 3c
       -0.02324284 0.0072550243 -0.029578736 0.00840001
000040 12 b5 80 3b 0b eb 17 3d ba d1 f2 bb a0 cf 33 b9
       0.0039278353 0.03708939 -0.0074102553 -0.00017148117
000050 89 57 4f 3b fb 50 00 3d 1f 1e 11 bc 5e c0 85 bc
       0.0031637868 0.03132723 -0.008857279 -0.01632708
000060 88 2d 19 bd 26 29 02 3c f2 8e 57 3c 35 7a 20 39
       -0.037396938 0.007944381 0.013156639 0.00015304315
000070 dc a3 b7 ba 73 eb 66 bb b3 a7 4b bb 73 dc a3 3c
       -0.0014010626 -0.0035235554 -0.0031075298 0.02000258
000080 46 6b a3 3c 1f 3b 74 3c c7 d9 9e 3c 34 c2 3b 3c
       0.019948613 0.014906674 0.019390954 0.011459876
000090 34 b5 8f 3b 00 37 41 bc c0 fa a1 bb de 6e df bc
       0.004385615 -0.011792898 -0.004943222 -0.027274545
0000a0 7e 4b 1c ba d9 41 42 3c b1 0d c6 3a f3 da c7 3c
       -0.0005962177 0.01185652 0.0015110282 0.024396395
0000b0 7f 25 93 3c dc 49 a8 3b 08 72 ff b9 91 41 ac bc
       0.017962215 0.005135758 -0.0004872235 -0.021027358
0000c0 89 2d 93 bc bc cd 42 bb a0 bc 5e 3c f6 7e c6 bb
       -0.017966049 -0.0029724678 0.013594776 -0.0060576154
0000d0 8e a9 85 3c 3c 6c 53 bc 19 cb bf 3c b7 8d 95 3c
       0.016316202 -0.012904223 0.023412274 0.018256051
0000e0 8c 5f 29 bc 41 19 1e 3d e4 76 8f bc 2c f8 b0 3c
       -0.010337722 0.038598303 -0.017512746 0.021602713
0000f0 06 e5 cf 3c 5a de 4c 3c 96 cc 0c 3d 27 d6 d0 3b
       0.025377762 0.012504185 0.034374796 0.006373185
000100 1e 24 a2 bc a9 87 3e bc 31 5f 77 3c cb 1b 94 bc
       -0.019792613 -0.011629024 0.015098379 -0.018079659
000110 b2 b2 49 bc bf 93 0f bb ef 99 04 bc ae 94 10 3d
       -0.012310671 -0.0021908132 -0.008093341 0.035298042
000120 6f 93 5b bc 1c 30 5c 3c 25 a1 9d 3c eb 7e 2e bc
       -0.01340185 0.013439205 0.019241879 -0.010650377
000130 a3 75 fa bc 36 e8 7b bc 49 d3 21 bc a2 15 c9 bc
       -0.030573672 -0.015375188 -0.009877034 -0.024546448
000140 95 37 79 3a 1e 64 13 bc 94 8e 26 3b 7f 44 80 bc
       0.00095068786 -0.008996038 0.0025414573 -0.015657661
000150 78 d4 e1 3c e7 1a ee 3c 66 12 1c bc 74 85 01 3b
       0.027567133 0.029065562 -0.009525871 0.0019763382
000160 1f c0 9c bc 31 7d e1 bb 3a e4 77 bc 6a 2e 3d bc
       -0.01913458 -0.006881379 -0.015130097 -0.0115467105
000170 d8 ac 08 bd ad bd 1c 3a a4 48 a7 3c 0e 6d cc bb
       -0.03336796 0.00059791916 0.02042038 -0.0062385863
000180 34 6a 88 3c 54 23 13 3c fc c4 f1 3c 76 23 11 bc
       0.016652204 0.008980591 0.029512875 -0.008858552
000190 1d c8 6c 3c b6 65 46 bb 76 1d 74 bc 78 56 63 3c
       0.014452008 -0.0030273027 -0.014899602 0.013875596
0001a0 4f 3f 04 bc 37 f5 70 ba c5 14 a5 3c f5 69 f4 bb
       -0.008071735 -0.00091918133 0.020151505 -0.00745892
0001b0 7d 6a f6 bb c4 a6 f7 bb 06 d8 a8 bc 1f e5 e1 bc
       -0.0075200186 -0.007557722 -0.02061082 -0.027575074
0001c0 03 48 2c 3b 97 36 c1 bb a7 22 d8 3c 98 8f d0 bc
       0.002628804 -0.0058964 0.026383711 -0.025459096
0001d0 f5 76 8b 3c f1 7a d1 bb 0b 8d 0c 3b 5b 27 83 3c
       0.017024497 -0.0063928296 0.0021446373 0.016009977
0001e0 1b 50 d4 3b 53 90 a7 bc 28 62 dc ba 5b db fc 3b
       0.006479276 -0.020454561 -0.0016813921 0.007716579
0001f0 e5 7f 10 3d 96 21 99 3c 81 1b 18 3c 07 9e af 3b
       0.03527822 0.018692773 0.009283901 0.0053594145
000200 e1 17 3a 3b b5 59 1a ba f4 47 68 bc 5a 44 52 bc
       0.002839558 -0.0005888001 -0.014177311 -0.012833679
000210 b5 2d d8 3c 36 b2 a3 3c 9b 9c 0e 3b 88 0e df 39
       0.026388982 0.019982439 0.0021760825 0.000425447
000220 d7 9e 75 bb a6 08 25 b9 93 49 73 3b 6b d4 29 bc
       -0.003747871 -0.00015738848 0.003712271 -0.010365586
000230 77 ae b8 3c bf 54 64 bc 74 20 20 bb cf e1 f7 3c
       0.022544129 -0.013936221 -0.0024433406 0.030259041
000240 2c 3e b1 bc e2 ed 36 bd 14 e0 91 3a 5b 1d bc bc
       -0.021636091 -0.044660456 0.0011129403 -0.022963217
000250 92 73 d6 3c 4d e6 99 3c f3 45 ba bc 3e ab 3f 3d
       0.026178155 0.018786574 -0.022738433 0.04679417
000260 41 12 0d 3b 5a e3 65 3b 7b a1 64 bc 14 ca 02 bc
       0.0021525773 0.003507814 -0.013954516 -0.0079827495
000270 11 11 49 bd 09 f0 2d bc c4 4a b2 bc 44 61 33 bd
       -0.04908854 -0.010616311 -0.021764167 -0.04379393
000280 9c bf 22 3c 16 c5 e5 3b 10 4f df bb 35 49 b3 3b
       0.009933379 0.00701202 -0.006814845 0.0054713734
000290 f5 27 de bc 38 0e e1 bc 14 98 7e bc 31 9c 5e bb
       -0.027118662 -0.0274726 -0.015539188 -0.003396761
0002a0 c1 c6 24 bb a9 7a 87 3c b3 ac 7c bd 25 a8 b7 3b
       -0.002514288 0.016537981 -0.061688136 0.005604761
0002b0 5b 6c d6 bc 34 56 16 3d 12 49 b3 bb c4 f4 29 3c
       -0.026174715 0.036703303 -0.005471357 0.010373298
0002c0 2d 67 30 3c 25 91 9c bc 0c 09 8b 3b da 67 83 bc
       0.0107667865 -0.019112179 0.004243022 -0.016040731
0002d0 ec 5b 30 bc 29 60 0c 3d 96 e6 87 3c 31 55 f1 bb
       -0.010764103 0.034271393 0.016589444 -0.007364892
0002e0 27 48 e6 3c 23 74 85 3c be 83 61 3c 99 8f f8 bb
       0.028110577 0.01629073 0.01376432 -0.0075854775
0002f0 44 3e ca bc b2 91 86 3d 52 e7 93 bc f9 5a e3 3c
       -0.024687894 0.06570758 -0.018054638 0.02775334
000300 79 ab 2c 3c f7 f5 fc bb 66 be bb 3b 7f a9 1d bc
       0.010538929 -0.007719751 0.0057294844 -0.009622931
000310 e2 6a 99 ba 91 ab 3f 3c 92 4b 79 3c d3 44 8c bc
       -0.0011704827 0.011698619 0.015215771 -0.017122662
000320 7d 23 fb bc 41 23 a6 3c bc 6c 8b bc bb 90 0c bd
       -0.03065657 0.020280482 -0.017019622 -0.034317713
000330 0d 11 0c 39 93 f4 09 bc 92 0e c8 bb b6 cf ec bc
       0.00013357792 -0.008420127 -0.0061052525 -0.028907638
000340 58 a6 a2 bc 3d e9 d7 3c 78 ce 96 3c d5 99 1e bc
       -0.01985471 0.026356334 0.018408999 -0.009680231
000350 82 4d 29 3d f5 8f 7a bc bc 11 06 bd 1a a1 fd bc
       0.041333683 -0.015293111 -0.032731757 -0.030960608
000360 f5 63 29 bc 52 55 8d 3c d4 6c 69 3c 03 ad 77 3c
       -0.010338773 0.017252598 0.014247138 0.015116933
000370 a5 d5 6e bb d1 72 c7 3c 92 76 56 3c 3a 91 8d 3c
       -0.003644326 0.02434674 0.013089793 0.017281163
000380 3a b6 18 bc 4d 4b a1 3c a2 f9 41 3c e7 4d 5e 3c
       -0.00932079 0.019689227 0.011839302 0.013568378
000390 10 68 6a 3c ea 63 c1 bb 6f 73 dd 3c cf 3d 0c 38
       0.014307037 -0.0059018033 0.027032582 3.3436165e-05
0003a0 22 85 78 bc 4b fa 0b bd 77 79 bb 3c 30 ad 5b bb
       -0.01516846 -0.034174245 0.022885067 -0.0033519976
0003b0 86 cc 1b bc 1d 33 5a 3d d2 80 1a 3d 48 b3 84 3c
       -0.009509211 0.0532714 0.03772051 0.01619877
0003c0 9b 41 58 3b 5e a8 84 3a 88 fa 41 bc 20 16 86 3b
       0.0032998088 0.0010120978 -0.011839516 0.004091993
0003d0 6e fd 73 3b 15 a9 83 3c fb d6 03 3d a2 7e 4c 3c
       0.0037229913 0.016071836 0.032187443 0.0124813635
0003e0 7f 41 ef bc da fb 2f bd df 47 ef bb 9f 13 b1 bc
       -0.029206036 -0.042964794 -0.007302269 -0.021615801
0003f0 93 de 3d 3b 44 a0 f1 3c ef 64 67 3c 3e 68 29 bd
       0.0028971776 0.029495366 0.014123186 -0.04135918

action_model._continuous_distribution.mu.bias f4 [6]
000000 b1 08 d0 3a 56 46 c7 3a 70 13 c1 3b bd 48 3f 3a
       0.0015871731 0.0015203457 0.0058922097 0.00072969106
000010 11 01 37 3b 22 e8 8e ba
       0.002792422 -0.0010902921
