results/PlayerAgentTest/MediumPlayer/MediumPlayer-351983.onnx (onnx, 275220 bytes, 7 tensors)

network_body._body_endoder.seq_layers.0.weight f4 [128, 396]
000000 87 eb e1 3c c8 c9 75 bd 96 65 60 3d 12 4d a5 3d
       0.027578129 -0.060006887 0.05478438 0.080713406
000010 45 2c 34 3d 5e c1 55 bd e3 75 2f bc 3a c0 87 3c
       0.04398753 -0.052186362 -0.010709259 0.016571153
000020 f9 94 d3 bd 80 3c 98 bc 06 0e df 3b 11 7e 7c 3d
       -0.10331149 -0.018583536 0.0068070916 0.061643664
000030 ac fe b4 bd c6 46 7c 3d b8 30 9c 3d 00 8c 4a bd
       -0.08837637 0.061590932 0.0762648 -0.04944992
000040 e6 76 8e bd 8e a7 8c 3c 54 bb e6 3b 52 02 38 bc
       -0.06956272 0.01716974 0.007041374 -0.011231022
000050 a5 3f cf bd b8 f9 15 bd 5e 5e 90 3d 14 4a d9 bb
       -0.10119561 -0.036615103 0.07049249 -0.0066311453
000060 6a e1 de bd 86 cc b7 bd 45 ed 19 bd db 75 43 bb
       -0.10882838 -0.089745566 -0.037579793 -0.0029824886
000070 36 69 96 3d 5a 22 e3 bc 10 da 0f 3c 2b a1 17 bd
       0.07344286 -0.027726341 0.0087800175 -0.037018936
000080 a4 61 2c 3d 26 bb 74 bc 11 66 17 3c 8e 32 9b 3d
       0.042085305 -0.014937198 0.009240643 0.07578002
000090 d8 ed 2d 3d 68 a9 0f 3d 70 ee 22 3d 04 5a 54 bd
       0.042463154 0.035073668 0.039778173 -0.051843658
0000a0 92 1d cb 3c 36 8b 7a bd b4 b3 60 3c 51 3b 6f bd
       0.024794374 -0.06116792 0.01371472 -0.058406178
0000b0 51 ea b3 3c 9c b9 9c bd 04 5c f8 3d e0 07 a5 bc
       0.021962317 -0.0765259 0.121269256 -0.020145357
0000c0 e2 0c 26 bc bd 7b 2c bd ff 59 94 bd 48 0b ac bc
       -0.010134907 -0.042110194 -0.07243728 -0.021001473
0000d0 2a 9c e8 3c 0a 59 b9 3c 83 47 6e 3d 95 a3 93 3d
       0.028394777 0.022625465 0.058173668 0.07208935
0000e0 b1 fe 02 bd ec f8 7c 3d 4c c6 29 3d 6c 7a e6 bb
       -0.031981174 0.061760828 0.041448876 -0.007033637
0000f0 08 2e 25 bd 7a be 15 bd 15 4c be bc 5f ac 9d 3d
       -0.040327102 -0.036558606 -0.023229638 0.07698893
000100 f8 08 a5 bd 91 d6 8d bb 55 43 95 bd 0f ab 4f 3b
       -0.08058351 -0.004328557 -0.07288233 0.0031687652
000110 4a 3a de 3c 04 61 ab bb b1 b8 18 bd b5 79 23 3c
       0.027127404 -0.005230071 -0.03728551 0.009977748
000120 1b b1 af 3c 91 1a a7 3d d6 09 18 bd 63 24 c5 3c
       0.021446755 0.08159364 -0.037118755 0.024065202
000130 45 56 7b bc a6 c6 68 3d ed 32 ab bd 77 8b 85 bc
       -0.0153403925 0.05683007 -0.08359323 -0.016301854
000140 c6 62 1e bc 91 66 01 3d 1d be 12 bd 48 8f 33 3d
       -0.009667104 0.031591956 -0.035825837 0.043837816
000150 61 32 8c bd 6d 78 35 bd 36 87 fc ba 76 f2 38 3d
       -0.068455465 -0.0443043 -0.001926637 0.045153104
000160 ef 6c 26 3b 67 1e 2b bd 04 14 b0 3a 04 44 23 3d
       0.002539452 -0.04177704 0.00134337 0.039859787
000170 ae 2a ad 3d 12 97 bd bb 90 c3 18 bd f1 46 7d 3d
       0.08455406 -0.0057858313 -0.037295878 0.061835233
000180 e4 c7 a0 ba 84 d4 17 bd 61 7c 78 bd 54 92 b6 3d
       -0.0012266603 -0.037067905 -0.060665492 0.089146286
000190 04 13 7d bd e8 e2 b2 bd 71 db c9 3b 03 3f 67 bd
       -0.061785713 -0.08734685 0.0061601927 -0.056456577
0001a0 6e 4c ab 3d 1c 89 28 bd ac a5 14 bd 48 89 b2 bd
       0.08364187 -0.041146383 -0.03629081 -0.087175906
0001b0 81 38 c7 bc dc 97 9e bb 89 d9 4d 3d c0 3b d0 bc
       -0.024318935 -0.0048398804 0.050256286 -0.025419116
0001c0 0a 67 47 bd 9c 86 d6 bc ba dd 86 bd b6 d7 0e bd
       -0.04868225 -0.026187234 -0.0658526 -0.034873687
0001d0 f4 dd 92 3b 0a fa a4 3b 24 30 9d bd f7 bd 1c bd
       0.0044820253 0.00503469 -0.07675198 -0.038267102
0001e0 5e c4 fd bc aa 5b c2 3c fb 08 b5 3d 91 8a 95 3d
       -0.030977424 0.02372535 0.088396035 0.0730182
0001f0 a4 33 9b 3d 3e 30 ec ba c3 ec 89 bb 6d 9d 07 bd
       0.07578209 -0.0018019748 -0.0042091324 -0.033109117
000200 c8 2c 3e 3d 59 e6 9d 3b 94 ec a0 3b f7 34 27 3d
       0.046429425 0.0048187193 0.004911015 0.040821996
000210 b1 39 be 3c 13 08 94 bb 0f 01 47 3d 1f dd 95 3d
       0.023220869 -0.004517564 0.048584994 0.07317566
000220 92 a0 06 3d b4 68 11 bd 83 78 b5 bc 73 b2 80 bc
       0.032867976 -0.035500243 -0.022152191 -0.015710091
000230 99 5d de 3c 62 af c0 3b 46 ef fa bd 84 51 b3 bd
       0.02714424 0.0058802823 -0.12252669 -0.08755782
000240 5b ab 64 bd 8a 10 75 bd 2b cf c4 3d 3b b6 64 bd
       -0.05582748 -0.059830226 0.09609827 -0.05583785
000250 ca ff 27 bd 29 de 05 3d 2d a6 c6 3d 23 7d d3 bc
       -0.041015424 0.03268257 0.09699664 -0.025816506
000260 dc d2 0a 3d de 91 96 bd f2 f2 be bd 20 94 0d bd
       0.033892497 -0.07352041 -0.09323682 -0.03456509
000270 a8 1f 64 bd cc ed 04 bc ee 93 87 3d 6b 82 d7 bc
       -0.055694252 -0.008113336 0.06620012 -0.026307305
000280 5d f8 5c 3d 65 16 10 bd df 34 27 bd a5 b6 7b bd
       0.053947795 -0.035177607 -0.040821906 -0.06145348
000290 dd df 03 be b8 36 9d bc 08 b4 53 bd a1 5b 15 3d
       -0.12878366 -0.019191131 -0.051685363 0.036464337
0002a0 83 cd 58 3b c5 18 d0 bd f4 20 24 bd c4 51 8e 3b
       0.003308148 -0.101609744 -0.04007049 0.0043432433
0002b0 5d c1 7b 3d d1 9a 49 3a 1e 60 8c bd 13 3d af bc
       0.061463702 0.0007690611 -0.068542704 -0.021391427
0002c0 08 fc 7e bb 77 1b a7 3c 18 b8 dc bc 1e 35 8a 3c
       -0.0038907547 0.020398838 -0.026943251 0.016871031
0002d0 5b 6b 9c 3d 20 50 1a bd 7c db 04 bc b0 87 33 3d
       0.07637664 -0.03767407 -0.00810897 0.043830574
0002e0 5a 4f df 3c fa a8 2d 3d 8a 31 9b bd c2 d0 1a bd
       0.027259517 0.042397477 -0.07577808 -0.037796743
0002f0 dd f8 26 3d 19 de a9 bc 6a 5b 40 3b 77 96 66 bd
       0.04076468 -0.020735787 0.0029351362 -0.05629584
000300 ec fb e0 3b 87 bb 31 3d ee 58 3d 3d 2f 1d bf bd
       0.006865969 0.04339173 0.046227388 -0.09331738
000310 e8 23 e9 3c bc a1 8e 3d fa e9 82 bc e5 5d 5c bd
       0.028459504 0.06964442 -0.01598071 -0.053800482
000320 d2 90 17 3c c0 24 82 bd 60 93 bd bb bd d5 0b bd
       0.009250836 -0.06354666 -0.0057853907 -0.034139384
000330 80 0d 3e 3d d0 46 83 3d 0f 20 a3 bc 2d c2 b3 bb
       0.046399593 0.06409991 -0.019912748 -0.005485794
000340 10 67 b1 bc 01 46 55 bd 7d 74 f1 3a 7e bc 6d 3d
       -0.02165559 -0.052068714 0.0018421557 0.05804109
000350 db 51 0a 3c 7c f8 90 bc a3 6d 26 3c a0 dc 8e bc
       0.008442367 -0.017696612 0.010157975 -0.017439187
000360 6b 95 20 3d cc 88 aa 3c 05 90 11 bd 0c d9 6a 3d
       0.039204996 0.020817183 -0.03553774 0.0573359
000370 94 f0 8b 3d 1e ef dd bb 5e 65 39 3d af 61 15 3e
       0.06832996 -0.0067728898 0.045262687 0.14588045
000380 ad 56 7a 3d df 0f ee bc d8 e6 0e bd 08 eb 27 bd
       0.061117817 -0.029060302 -0.03488812 -0.040995628
000390 fe 3c 48 bd 6e ad 91 bd d4 8c cd bc 93 62 03 3d
       -0.04888629 -0.07113157 -0.025091566 0.03207643
0003a0 f5 15 4b 3c 1c 3d 14 3d 65 eb 91 bc 96 ea 10 bd
       0.012395372 0.03619109 -0.01781244 -0.03537997
0003b0 a4 f5 87 3d 49 03 c0 3d 68 cb 9b 3c 66 6a 4c bd
       0.06638649 0.093756266 0.01901789 -0.049906157
0003c0 3b 0a db bb aa cf 37 bd 71 79 2d 3d 2e b4 4c 3d
       -0.006684569 -0.04487578 0.042352144 0.04997652
0003d0 ee bc 8d bc cd 5f 3f bc de 1a 09 bd 24 b1 b4 3c
       -0.017302003 -0.0116805555 -0.03347289 0.022057123
0003e0 f0 d0 22 bc 27 76 0a bd 8e 3f 8a 3c cc 89 c0 bd
       -0.00993751 -0.033804085 0.016876008 -0.09401283
0003f0 e9 3e 86 bd 7b 02 71 3b 65 65 9e bd e6 bc f0 3c
       -0.06554968 0.003677516 -0.07734183 0.029386949

network_body._body_endoder.seq_layers.0.bias f4 [128]
000000 e1 2e 7f bb 25 c4 11 b8 b6 18 20 bb be b2 b2 3b
       -0.0038937854 -3.4753368e-05 -0.0024428791 0.0054534366
000010 85 37 96 3b 38 99 18 bc 81 fc 56 bb f8 cf ef bb
       0.004584255 -0.009313874 -0.0032804313 -0.007318493
000020 ec 4d b3 bb 15 b9 14 bc be 89 b8 3b 1f d7 2a 3c
       -0.0054719355 -0.00907733 0.0056316545 0.010427265
000030 bd 85 89 b8 6c 6d b1 bb 39 a6 2b 3c 26 ea b9 3b
       -6.55758e-05 -0.0054146554 0.010476642 0.0056736646
000040 02 da aa bb 8f 0d 20 3b 3e 61 14 39 e9 7c 85 3c
       -0.005213977 0.0024422144 0.00014150605 0.016294913
000050 aa d6 83 bc d4 5d d7 3b 32 33 c3 3b 5e 38 14 3c
       -0.01609357 0.0065724645 0.0059570307 0.009046642
000060 8b 1e 17 3c d1 cd e2 bb af c9 46 bb 46 9c db bb
       0.009223591 -0.006921508 -0.0030332615 -0.006701979
000070 0a 9e 87 3b 31 f3 24 b9 f7 bc 0e 3c 1c 89 83 bb
       0.004138713 -0.00015730855 0.008712045 -0.0040141474
000080 7e c1 31 bb cb f4 a2 ba a1 e7 34 ba 26 cc 28 bb
       -0.0027123387 -0.0012432573 -0.00069009705 -0.0025756448
000090 1d 17 84 3b 8c 5e 30 3c de 77 f8 bb 46 fa da bb
       0.0040310756 0.010764729 -0.0075826487 -0.006682667
0000a0 58 28 c5 bb 7c fe 98 3c 02 a2 ac bb 31 06 9f bb
       -0.0060167722 0.018676035 -0.0052683363 -0.004853033
0000b0 5d d2 7a bb 93 2d 86 3b 29 36 2a 3c d8 0f 24 bc
       -0.003827236 0.0040947883 0.010388889 -0.010013543
0000c0 81 13 02 bc c4 98 fb ba d5 82 41 3b 7f d6 41 bb
       -0.00793922 -0.0019195308 0.0029527445 -0.0029577313
0000d0 b2 6d d3 bb 8d 05 86 bb 9f 00 4a bb a7 71 97 3b
       -0.0064522857 -0.004090017 -0.0030823124 0.0046217027
0000e0 5b 5c 51 ba 54 cf 1c 39 e1 dc 8f 3b a3 1b 1b bb
       -0.00079864793 0.00014954555 0.0043903445 -0.0023667596
0000f0 9f d7 af bb d7 84 ef 3b 6b 26 16 3c 02 e2 6a bb
       -0.00536628 0.007309537 0.009164433 -0.0035840278
000100 fa a9 08 3c 27 54 8c bb 0e 97 d8 ba 6e be 9a bb
       0.008341307 -0.0042824927 -0.001652451 -0.004722408
000110 25 35 13 bc 0a 83 0d bb 77 58 19 ba 0d d8 6e bb
       -0.008984839 -0.0021592998 -0.0005849669 -0.0036444694
000120 96 45 b2 3b d3 f6 93 3c 30 a3 f7 3b 4b 92 7f bb
       0.005440424 0.01806203 0.0075572953 -0.003899711
000130 50 98 52 b9 99 80 2f 3c 84 63 3f 3c fb 0c fb b9
       -0.00020083901 0.010711812 0.011681441 -0.00047884122
000140 24 3a af 3b 91 32 22 bc 94 45 ca ba cc 47 a4 bb
       0.005347507 -0.009899751 -0.0015432113 -0.0050134417
000150 ee 1f fd bb 69 38 08 3c 76 8f 1e bc dd 5b a7 bb
       -0.0077247536 0.0083142305 -0.009677758 -0.0051073865
000160 49 79 bc bb b4 68 92 3a dc 69 19 bb bf 70 6d 3c
       -0.005751763 0.001117012 -0.0023409044 0.014492213
000170 12 5a b0 3b 20 99 46 3a 95 a9 4d bb f2 a2 35 bc
       0.005381831 0.0007575918 -0.0031381596 -0.0110862125
000180 37 cb 08 3c 35 a9 50 bb 0c 8f ea 3b 63 ab 8d 3c
       0.008349231 -0.0031839136 0.007158166 0.017293638
000190 d5 31 fc bb de 22 d2 bb 20 f7 95 bb 4b ee 75 3c
       -0.00769637 -0.006412848 -0.0045765787 0.015010427
0001a0 d9 6e ae ba b6 b7 aa ba 0c 40 06 3a 55 95 a4 bb
       -0.0013308182 -0.0013024721 0.0005121238 -0.0050226846
0001b0 0a bf 32 3c 43 78 ef bb b2 44 fa bb 23 cd d4 bb
       0.010909805 -0.0073080375 -0.0076375837 -0.0064941808
0001c0 30 06 97 3c 5e 57 4d bc 08 4a e3 ba c7 b2 63 3c
       0.018435568 -0.012533037 -0.0017340789 0.013897604
0001d0 6e 0d d2 ba 3b c0 12 bb 32 e1 b6 3b ab ef 1e bb
       -0.0016025731 -0.002239241 0.0055810446 -0.002425174
0001e0 f7 be d0 ba 91 e8 7c 3c 36 ad 81 bc e8 ff 92 3c
       -0.0015926053 0.0154363075 -0.015829664 0.017944291
0001f0 a6 6b 0c bb c7 ae 86 3a 38 c3 26 3c 97 cd f6 bb
       -0.0021426468 0.0010275476 0.01017838 -0.0075318324

network_body._body_endoder.seq_layers.2.weight f4 [128, 128]
000000 b7 42 22 bd d4 87 c7 3d fb 66 9c be 81 a5 50 bd
       -0.039614405 0.09742704 -0.30547318 -0.050939087
000010 3c 04 2f bd d2 75 c1 3c 10 02 bd bc c9 59 4f bd
       -0.042728648 0.023615751 -0.023072273 -0.050622735
000020 14 c0 a7 bd 49 09 32 3d a3 ed 9c 3d 40 de 05 3e
       -0.08190933 0.043465886 0.07662513 0.13073063
000030 3a f3 16 bd fd bb e6 bd 48 43 0d 3e 49 88 36 bd
       -0.036853053 -0.11266325 0.13795197 -0.044563565
000040 b7 47 89 3d f3 84 6b be 23 fc 82 bc 6a 93 10 3e
       0.06703132 -0.22999935 -0.015989369 0.14118734
000050 f7 ab ae 3b 86 64 b3 3d 45 6e b8 3d 0f a4 b8 bd
       0.0053305584 0.08759408 0.09005407 -0.09015667
000060 58 6d 6f 3d 6e 49 5d be 30 d6 a9 bd ac 70 a9 bd
       0.058453888 -0.21610042 -0.08292806 -0.082734436
000070 83 0f 43 3e db 57 57 bd e8 11 53 3d 29 5d b5 bd
       0.19048886 -0.05257402 0.05153075 -0.088556595
000080 20 a5 a4 3d f5 40 d1 3d f1 13 d6 3c d4 d7 e7 bd
       0.080393076 0.10217468 0.026132556 -0.11320463
000090 1a 46 36 3e 38 f7 08 3e 1a 3a 08 be 27 06 e5 bd
       0.17800179 0.13375556 -0.13303414 -0.11182814
0000a0 e7 c5 b8 bc 29 1f 23 3c d1 50 58 3d fd 56 f9 bd
       -0.022555305 0.00995616 0.052811448 -0.12174795
0000b0 1e 96 15 be fb ae 54 bd 7d dc 48 3e 84 7b 9f bd
       -0.14608046 -0.051924687 0.1961536 -0.077872306
0000c0 3d db 31 bd 76 10 e3 3d 40 74 17 3e c3 8f f4 3d
       -0.043421973 0.11087124 0.1479044 0.11941483
0000d0 04 64 ff bc ac d6 a9 3d 11 25 27 3c 71 c6 c5 bd
       -0.03117562 0.082928985 0.010201708 -0.0965699
0000e0 8e e8 3d 3e 0f f0 6b bd 72 cb 18 3d 8f b1 91 bd
       0.18545744 -0.057601985 0.037303396 -0.07113945
0000f0 c0 a6 bc 3d b4 a7 21 be 51 3f 26 3d 4e 3d a3 bd
       0.092114925 -0.1578663 0.040587727 -0.07970677
000100 91 3e 51 3d d6 d7 dc 3c 9c 39 e2 3d 9c 7c 97 be
       0.05108506 0.026958387 0.11046144 -0.29587257
000110 91 6c b6 3d ea a7 2e bd 04 49 1b 3e 40 2a 1e be
       0.08907426 -0.042640604 0.15164572 -0.15445805
000120 76 c8 48 3c 2f 2a c0 bb 5b f0 cb 3c e3 ca 70 3d
       0.012254825 -0.0058644037 0.024894884 0.058787238
000130 41 c5 88 bc 02 85 f4 3d 44 0e 96 3d f9 19 21 bd
       -0.01669562 0.11939432 0.0732694 -0.03933141
000140 82 5b cd 3c 14 cb b1 bd 6a 6c 7d 3c 43 53 a3 bd
       0.025068048 -0.08681312 0.015467742 -0.07974865
000150 ac 37 fc 3c 18 68 17 3d 56 d3 45 bd 91 c9 c6 3c
       0.030788265 0.036964506 -0.04829725 0.024266036
000160 0c 65 af bd 65 67 01 3e 60 c0 b7 bc ae 7b 82 3e
       -0.08564195 0.12637098 -0.022430599 0.25484985
000170 e4 08 5f bd 46 ef 87 bd 57 8c 49 be 49 f4 10 be
       -0.054451838 -0.06637435 -0.19682442 -0.14155687
000180 e2 f2 c8 bd 4b ec fb 3c 17 42 56 3d e8 07 3b 3d
       -0.09811951 0.030752322 0.052309122 0.045661837
000190 fe 2b 1e 3c 41 3c 99 bd 57 30 10 bd dd b7 10 be
       0.009654043 -0.07482196 -0.03520235 -0.14132638
0001a0 23 ab 11 bb ed e2 8e 3d 55 ae 06 be b0 77 b1 bd
       -0.002222725 0.069768764 -0.1315244 -0.08665407
0001b0 59 ea cb bd 00 3e e1 bd b7 c1 8d bc c7 dd eb bd
       -0.09956808 -0.10998154 -0.017304284 -0.1151691
0001c0 37 62 df 3d 28 65 4e bd a8 03 b8 bd cf b6 61 3d
       0.10907405 -0.05038944 -0.089850724 0.05510598
0001d0 97 e8 40 3d 88 d1 18 bd 7a aa b2 bb 14 10 a5 3d
       0.047096815 -0.0373092 -0.0054524513 0.08059707
0001e0 2c 53 09 be 07 bb 59 3d 00 68 ff bd 5a f9 33 3e
       -0.13410634 0.05315688 -0.12471008 0.17575589
0001f0 66 90 1c bd 55 16 a6 38 37 78 51 3d 8c 10 0c 3e
       -0.038223647 7.9196565e-05 0.051140036 0.13678187
000200 fa 2c 22 3d 65 ac 8e bd 1b bc ab bc 2e cc 6e bd
       0.039593674 -0.069664754 -0.02096372 -0.05830019
000210 1d 89 c4 be 21 e7 4e 3e eb 15 4a bd d9 81 ef 3b
       -0.3838586 0.20205356 -0.04933731 0.00730918
000220 e8 3e 88 bb 28 48 9d 3c 9f ce cf bb f5 0b 13 be
       -0.0041578896 0.019199446 -0.00634177 -0.1436003
000230 95 6c 45 bc 89 7f 24 be d5 2c 86 be 17 df b3 bd
       -0.012049814 -0.16064276 -0.2620608 -0.087827854
000240 d4 cb c9 3b 6a ef 43 3d 38 27 52 bd 60 5b 11 3e
       0.0061583314 0.047835745 -0.051306933 0.14195013
000250 22 b0 01 be 86 2e 38 bb 67 4b 99 3d b5 02 4c bd
       -0.12664846 -0.0028103902 0.07485085 -0.04980727
000260 ac 65 1a 3d a0 91 46 3e 62 88 d4 bb 50 0a 3e bc
       0.037694618 0.19391489 -0.0064859847 -0.011599138
000270 b9 72 57 bd a8 d8 ec bc 98 2b db bd 49 06 71 3d
       -0.052599642 -0.028911904 -0.10701674 0.058843885
000280 a5 96 21 3d 25 2f 99 3c 6c 7a 88 bd 5a 1a 47 3c
       0.039450306 0.018699238 -0.06663975 0.012152279
000290 54 3f 60 3d 1c 24 1f 3d c6 02 cd 3b 70 79 a2 bd
       0.054747894 0.038852796 0.006256434 -0.079333186
0002a0 99 d5 5c 3d 7b 72 cb bc 09 fa ee bc 50 a7 36 3d
       0.05391464 -0.024834862 -0.02917196 0.044593155
0002b0 8b 8e 0e 3e e2 13 9d bc d1 41 24 3e ad ed e0 bd
       0.13921563 -0.01917452 0.16040732 -0.10982833
0002c0 63 b8 8e bd 94 98 f0 bd c1 6d 26 bd dc b9 1e bd
       -0.06968763 -0.11747852 -0.040632013 -0.038751468
0002d0 78 b5 c9 bd d3 ad 2b bb 20 9d 9f bd f6 12 1d 3e
       -0.098490655 -0.0026196137 -0.07793641 0.15339264
0002e0 21 c1 91 3d d5 d7 a6 bd 28 d3 76 3d 72 1b 2d 3e
       0.071169145 -0.081466354 0.060259968 0.16905001
0002f0 e0 84 3b 3e f6 98 3b 3e 8d a8 84 3d cb b1 2f bd
       0.18312407 0.18320069 0.06477461 -0.042894166
000300 ad 36 a0 bd 4d c1 78 bd 04 04 6c bc be 9a dc bd
       -0.078229286 -0.06073122 -0.014405254 -0.10771702
000310 d6 a0 85 bd f8 8d c2 3d 46 44 bd bd 97 d5 77 3d
       -0.06524818 0.09499735 -0.09241538 0.06050643
000320 af df b5 bd d5 24 11 be 8b ef c2 bc be cd 92 3d
       -0.08880555 -0.14174207 -0.023795864 0.071681485
000330 62 be 34 bc 5f 92 80 3d 97 42 2b 3e 4a b0 a3 3c
       -0.011031719 0.06277918 0.16724621 0.019981522
000340 28 b2 b3 3b 2f 77 4d be 25 ce a6 3d f4 0f 98 3c
       0.0054838844 -0.20064996 0.08144788 0.018562295
000350 70 cb be 3d 55 3c bc bd 61 e3 0c be c5 af 72 3e
       0.093161464 -0.09191195 -0.13758613 0.23699863
000360 63 5b 7a bd 99 f8 9f bd d3 33 53 3d bc 14 0d be
       -0.06112231 -0.07811088 0.051563095 -0.13777441
000370 22 ad 39 bb 49 40 2c 3e 5f f6 91 3c 47 7f d1 bd
       -0.0028331955 0.16821398 0.017817674 -0.10229354
000380 93 12 51 3d 61 43 b0 bc 03 62 66 3e d0 86 12 3e
       0.051043104 -0.021516504 0.22498326 0.1430924
000390 76 ef ad 3c 3b bc 38 bd ec 03 c7 bd 3f a3 e6 bd
       0.021232348 -0.045101386 -0.09717545 -0.112616055
0003a0 e8 b3 de bd b6 f4 ef 3b 1f 81 cf 3c 67 db bd bc
       -0.10874158 0.007322873 0.025330124 -0.023175908
0003b0 bc 2d 59 bd 84 9d 88 3d 16 fc 50 bd 58 69 87 bc
       -0.05302213 0.06670669 -0.051021658 -0.016529724
0003c0 5f 09 14 3d ed 26 0e be 75 99 25 bc fd 6d e0 3d
       0.03614175 -0.13882037 -0.010107388 0.109584786
0003d0 ab 60 7c 3d f1 ca b3 bc 67 f0 eb bc 79 6d 87 bd
       0.061615627 -0.021947356 -0.028801156 -0.06612677
0003e0 26 87 e3 bc aa 20 09 bd 56 4c e0 bc bc 92 55 3e
       -0.027774405 -0.033478417 -0.02738015 0.20856756
0003f0 1f 61 9b bc 2b fe 8c bd 5e e0 d4 bd ad 88 0d 3d
       -0.01896721 -0.06884416 -0.10394357 0.034554172

network_body._body_endoder.seq_layers.2.bias f4 [128]
000000 e6 88 63 3c e2 b7 4f 3c 44 b9 26 3c 3c f9 19 3a
       0.01388762 0.012678118 0.010176007 0.00058736256
000010 ec b5 fe 3b 50 c3 a4 3b 1e 4c 1a bc 85 4d 8f 3a
       0.0077731516 0.005028166 -0.009417562 0.0010933137
000020 75 d4 a2 3c 12 f7 b1 3b 26 0a 57 bc f3 03 ab 3a
       0.019876698 0.0054310644 -0.013124978 0.0013047442
000030 a2 67 3a bb 1b a2 86 bb f9 ba 7c bc 3a 28 72 bb
       -0.0028443118 -0.00410868 -0.015425437 -0.0036950246
000040 c0 0c 97 3c ae 50 21 3b 85 3d a0 3b 92 51 27 bc
       0.018438697 0.002461474 0.004890146 -0.010212319
000050 e0 84 43 bc a6 08 7c bc f8 6a 0f b9 5d 95 47 bb
       -0.011933535 -0.015382921 -0.00013677392 -0.0030454018
000060 ef 96 6f 3b 0c 94 dd bb ed 44 04 3c d3 dc c4 bb
       0.003655847 -0.0067620333 0.008073074 -0.0060077696
000070 17 e5 d2 bb a1 a2 0f bb 9a 79 45 3c 1b b2 0c bc
       -0.006436001 -0.0021917003 0.012052918 -0.0085873855
000080 e0 54 3c 3c 9b cc d0 bb 06 fb 61 3c f7 45 24 3c
       0.011494845 -0.006372047 0.013792759 0.010026447
000090 8f 58 0d ba ca 4f 54 bc df ca 42 3b 5f 1e 9e b9
       -0.00053919194 -0.012958476 0.0029722971 -0.00030158737
0000a0 9f f5 40 bb 18 0d 92 bb a2 09 4a 3b cf 4e 06 3b
       -0.0029443277 -0.0044571273 0.0030828496 0.002049375
0000b0 72 07 2c bc 6a 23 af bb 49 7a 91 38 52 d1 18 bc
       -0.010499822 -0.005344798 6.936916e-05 -0.00932725
0000c0 82 98 96 3b 1b 61 18 3c cf 96 14 3c 50 92 45 bc
       0.004595817 0.0093004955 0.009069159 -0.012058809
0000d0 a4 1b a6 3b 66 b0 ff 38 32 39 45 3c bd ed 2e bb
       0.005069213 0.00012192204 0.012037562 -0.0026691996
0000e0 d5 00 ab 3b 80 b6 70 3a 20 ab 36 3a 45 c2 89 bb
       0.005218605 0.0009182468 0.00069682486 -0.004204067
0000f0 fa c9 94 3c df 6c 20 3c 2c 17 04 3b 7b 07 e0 bb
       0.018162716 0.009791582 0.0020155413 -0.0068368292
000100 84 54 1b bb 02 e1 36 bb f7 ab 8f 3b fe 19 24 3c
       -0.0023701498 -0.0027905111 0.0043845135 0.010015963
000110 47 9e b3 bb 70 75 c1 3a 7f 59 11 bc 1c 7c c0 bb
       -0.0054815146 0.001475973 -0.008871435 -0.00587417
000120 c6 6d 8b bb 51 f2 e9 ba e4 a8 31 ba c9 6d 06 bc
       -0.0042550294 -0.0017848705 -0.0006777181 -0.008204886
000130 fa 35 57 3c e8 d7 90 3c df 9d 56 3b 37 7f 42 3b
       0.013135428 0.017681077 0.0032747907 0.0029677877
000140 3f a0 04 3b 9c 1e cb 3b 0a 37 c1 3b 32 42 66 3b
       0.0020237116 0.0061987173 0.0058964537 0.003513467
000150 fa 36 53 bb e3 ea 40 3c f2 b5 8b 39 51 35 4d 3c
       -0.0032228814 0.011774751 0.00026647706 0.012524919
000160 4f 9e 9a bb e4 67 86 bb 09 2d f5 3b f4 89 84 3c
       -0.004718579 -0.00410174 0.0074821752 0.016179062
000170 26 01 69 3c cb d0 36 3c ae 86 6a 3b f2 a0 a9 bb
       0.014221465 0.011158179 0.0035785842 -0.005176657
000180 c0 17 22 39 1e 6d a6 3c 64 10 63 3a 3d d1 39 3c
       0.00015458371 0.020315703 0.0008661805 0.01134139
000190 1d 55 88 3c ba b4 3e bc 46 11 5e bb 47 81 6f 3c
       0.016642148 -0.011639768 -0.0033884807 0.014618224
0001a0 5b 82 f3 bb d6 be 8d 3a 65 5a 0a 3c 83 81 59 3b
       -0.007431311 0.001081432 0.008444403 0.0033188767
0001b0 c9 3e 4b 3c c5 24 bc bb 68 86 09 3c 6c 5f 77 3b
       0.012405106 -0.005741688 0.008393861 0.0037746085
0001c0 60 19 46 3c 92 34 b0 3a ec 4e e1 bb 57 f7 30 3c
       0.012091011 0.0013443402 -0.0068758633 0.010801158
0001d0 f8 63 41 bc 13 ba 4b 3a 10 4d b2 3b f3 56 90 bb
       -0.01180362 0.00077715627 0.0054413155 -0.0044048964
0001e0 4d d7 84 3c 5c 25 db ba 10 62 92 3b 43 12 3c bc
       0.016215945 -0.0016719508 0.0044672564 -0.011478963
0001f0 fb 93 28 3c 4f 87 5a bc de 05 2e 3c 7e 22 1e bc
       0.010289188 -0.013337924 0.010621516 -0.009651778

action_model._continuous_distribution.log_sigma f4 [1, 6]
000000 2e 6a 89 bd 12 a4 e0 bd 29 19 03 bd 2a 93 4e bb
       -0.06709705 -0.10968794 -0.032006416 -0.0031520822
000010 d1 1c cb 3b 8c 6c 68 3b
       0.0061985035 0.003546509

action_model._continuous_distribution.mu.weight f4 [6, 128]
000000 13 e8 97 3c 3a 8c 91 bd af 08 c3 39 ac 62 b1 bc
       0.018543279 -0.07106824 0.00037199768 -0.021653496
000010 d1 5b ff 3c c7 6e 25 3d 64 d2 a4 3c ba 0d 2a 3a
       0.031171711 0.04038885 0.020119853 0.0006487031
000020 79 a9 85 3b 32 a4 68 bc 8b 48 7c 3c d6 e1 87 3b
       0.0040790406 -0.014199303 0.015398155 0.004146795
000030 98 f7 94 bb 45 e8 8d bc de 63 ed 3a ea fd d4 3a
       -0.004546117 -0.017322669 0.0018111428 0.0016249989
000040 d0 03 d5 3c 4f fa 2a 3c cd ac b2 bb 11 77 c0 bc
       0.026002795 0.010435655 -0.0054527284 -0.023494275
000050 13 a9 b7 ba a0 f9 b5 bc e9 3c 87 bc 9f 7b 56 bd
       -0.001401218 -0.022213757 -0.016508536 -0.052363988
000060 00 20 4f 3c ee ed 56 bc 8e 01 ea 3c 30 ab c8 bc
       0.012641907 -0.01311825 0.028565194 -0.024495691
000070 e7 15 ac bc 28 f3 91 bc c9 b8 da bc 52 17 53 3c
       -0.021006538 -0.017816141 -0.02669944 0.012883978
000080 97 6f 29 bc 88 3d b4 3c 4f 40 10 3d 85 8b 19 bd
       -0.0103415465 0.022001997 0.03521758 -0.03748657
000090 8d 4f 6a bc 79 11 ab 3b 41 26 dd 3c e7 20 fa 3a
       -0.014301193 0.0052205888 0.02699578 0.0019083292
0000a0 d4 fe 33 bb 28 a6 fd 3c a2 8b 09 bd b2 d9 12 3d
       -0.0027465122 0.030963019 -0.03358043 0.03585214
0000b0 f1 a1 51 bc c6 82 a7 3b 98 1e 2d bb 31 18 4f 3b
       -0.0127949575 0.005112025 -0.002641594 0.0031600113
0000c0 5c 59 6d 3c 6c 2b d5 3c a6 55 76 bd 5c 86 5b bb
       0.014486637 0.026021682 -0.060140274 -0.0033496832
0000d0 e9 ac 40 bc 7b 28 fc 3a b7 c9 88 3b e7 e8 21 39
       -0.011759975 0.0019238138 0.004174437 0.0001544092
0000e0 63 74 37 bc fc 95 89 3c e1 c5 05 bd a8 8a a6 3c
       -0.011197182 0.016795151 -0.032659415 0.020329788
0000f0 bd 57 ec 3b 5f 09 40 bb d2 bc be bb 9a cf ba 3c
       0.0072126077 -0.002930246 -0.005820849 0.02280407
000100 2e 30 aa bc 17 61 03 bd fa 63 b4 3c 4f ce 3d 3d
       -0.020774927 -0.032075014 0.022020329 0.04633933
000110 0d 71 a1 bc 64 89 32 3d 64 fa cf bb 48 91 7d bb
       -0.019707227 0.043588057 -0.0063469876 -0.003869133
000120 f7 d3 38 3c fd f3 00 bd 9d 03 2a bd d2 cb 4f bc
       0.011281005 -0.031482685 -0.041507352 -0.012682872
000130 63 00 83 bd 39 91 4a bd 90 1e 1c bb ab 45 00 3c
       -0.06396558 -0.0494549 -0.0023821928 0.00782911
000140 14 5b f8 3c e1 ab 15 3c 10 93 05 bd 92 67 9c 3b
       0.030316867 0.009135217 -0.032610953 0.0047730887
000150 56 60 a1 bc 25 02 00 3d 03 ac dd bc 50 a5 f4 3a
       -0.019699257 0.031252045 -0.02705956 0.001866499
000160 8d 84 8b 39 4a 5e 85 bb 63 39 0e 3d dc 18 f9 3c
       0.00026610904 -0.004070078 0.034722697 0.030407362
000170 9f 37 0b bd d3 5a 48 bc fd 82 3b bd 7e 15 b0 3c
       -0.03398859 -0.012228685 -0.045779217 0.021494623
000180 32 aa 06 3c 02 55 b1 bc 70 25 12 3c 95 77 f5 3b
       0.008219289 -0.02164698 0.008920059 0.007491062
000190 29 9d 11 3d ef 8c a8 39 6a a8 6e 3a f3 8b 8d bb
       0.03555027 0.0003214846 0.0009104075 -0.0043196618
0001a0 e6 1d 96 bc 21 f8 2c bc ff 04 98 bb 76 3b 44 3d
       -0.018324804 -0.010557205 -0.0046392675 0.04790827
0001b0 3f 39 1c bd 93 c1 1e bc 33 5a 89 bc c9 3f 64 ba
       -0.03814053 -0.009689706 -0.016766643 -0.00087070145
0001c0 ac f4 3f bd 65 6a 18 bd fd f6 00 3d 1a 5d 4a bd
       -0.046864197 -0.03721084 0.031485546 -0.049405195
0001d0 30 5b e4 3a 22 21 e7 bc 4f 0f 64 bc 25 d2 16 bc
       0.0017422196 -0.028214041 -0.0139196655 -0.009205376
0001e0 91 b9 d9 bb 39 fb f6 ba 0b ac 37 3d f3 cd 09 bc
       -0.0066444357 -0.0018843181 0.044841807 -0.0084109185
0001f0 e2 72 4c 3c d8 bd a8 3a f4 0f 2e bb 2c 7d b2 bb
       0.012478562 0.0012873961 -0.0026559802 -0.0054470506
000200 09 c4 48 3d 87 c8 8b bb cb 3e 0e 3d 23 49 44 bc
       0.04901508 -0.004265848 0.034727853 -0.011980328
000210 1a 1e 00 3c db 3c dc 3c bb 8a 01 bd fa 5f 82 3c
       0.007819677 0.026884487 -0.031626444 0.015914906
000220 27 8c 0f 3d 83 df bd 3c 94 72 94 bc 85 fa 39 bc
       0.03504577 0.023177868 -0.018121041 -0.011351232
000230 d1 24 26 3c 59 77 84 bc ca d7 b5 bc 7f a7 f8 bc
       0.010140614 -0.01617019 -0.022197623 -0.030353306
000240 03 67 17 3d 5d fa 47 ba 6a 53 0d 3c ae aa 06 bc
       0.036963474 -0.00076285546 0.0086258445 -0.008219404
000250 37 28 b5 bc 6f f0 5a bc f9 fb 98 bc da 04 a1 bc
       -0.022113902 -0.013362988 -0.018674837 -0.019655634
000260 7d 6c f1 bb 28 0b 64 bc fd 34 cc 3c 17 5f 1d bd
       -0.007367669 -0.0139186755 0.02492761 -0.038420763
000270 b7 0d 78 bc 6e c9 f0 bb 04 5f a0 3c a4 fa 04 bc
       -0.015139989 -0.007348231 0.019576557 -0.008116398
000280 fb 5f 6e 3c 27 f9 e8 3a a9 ee e3 3c ed c3 eb 3a
       0.014549251 0.0017774448 0.027823763 0.0017987468
000290 e1 73 cb 3b 28 72 89 bb 19 42 87 3c 23 97 e4 b9
       0.006208882 -0.0041945167 0.01651101 -0.00043600154
0002a0 0b 4b 94 bc 33 6a 73 3b 96 e0 43 3c 79 18 3d bc
       -0.01810219 0.0037142157 0.011955401 -0.011541479
0002b0 a4 8c 8b bc e3 aa 41 bd 5c 17 6a ba c8 b8 d8 bc
       -0.017034836 -0.04728211 -0.00089298724 -0.026455298
0002c0 6e ef cf 3b d9 1a 52 3b d7 f0 38 bc 27 13 9e bc
       0.006345681 0.003205946 -0.011287889 -0.019296242
0002d0 02 df 1a 3c 36 03 8c 3c 49 18 a7 3c bd ab a4 bc
       0.009452583 0.017091375 0.020397322 -0.020101422
0002e0 03 36 b0 3c 6f b4 8f 3c 1f c5 40 3c e2 3e 44 bc
       0.02151013 0.017542092 0.011765747 -0.011977883
0002f0 86 55 20 3d b8 ef 8c 3c 0d b9 1a bd aa e3 54 bc
       0.03914406 0.01720415 -0.037774134 -0.0129937325
000300 cb 77 0d 3c d4 89 73 bc 6a e2 f8 3c c9 d0 75 3c
       0.008634518 -0.014864404 0.0303814 0.015003392
000310 f3 b2 1b bd 5c a3 ab bc 96 40 22 bd 0a 8f 96 bc
       -0.038012456 -0.02095192 -0.039612375 -0.018378753
000320 a6 32 88 bc 3a 76 92 bb f2 ec 80 ba 51 9e 65 bc
       -0.016625714 -0.00446966 -0.000983624 -0.014014796
000330 aa ec 15 3d 85 c2 49 3c 82 9a a1 3c f5 e4 39 bc
       0.036602654 0.0123144435 0.019726995 -0.0113460915
000340 63 f3 fa 3c 7c 82 76 3b 66 01 da 3c 47 9c 02 3d
       0.030633634 0.0037614396 0.026611995 0.03188732
000350 2f 08 37 bc 03 a3 b0 3c c8 fd 87 bc ef 8b fd 3c
       -0.011171385 0.021562105 -0.016600505 0.030950515
000360 f3 cd e9 bb 09 bc 80 bd ae e3 cb 3c 54 a2 9f 3c
       -0.0071351468 -0.06285865 0.02488884 0.019486584
000370 fc 70 04 3c c7 ca 21 3d b2 ae 92 3a 71 b9 49 bd
       0.008083578 0.039500024 0.0011190979 -0.049249116
000380 b0 81 d1 3c e8 be c4 bc ff 0f 0f 3c b6 63 0e 3d
       0.025574535 -0.024016812 0.008731841 0.03476306
000390 aa 29 00 3d db 10 0a bd 94 c1 bf ba 83 62 bb 3c
       0.031289734 -0.03370748 -0.0014629834 0.022874122
0003a0 77 1e 46 bd b2 c4 cc 3c a0 95 69 3c 63 35 96 bb
       -0.048368897 0.024996135 0.014256865 -0.004584001
0003b0 b7 d8 10 bd ec 95 45 bc 09 b9 e3 3c 79 08 41 bc
       -0.035362925 -0.01205967 0.027798193 -0.011781805
0003c0 76 21 37 3c 4a 68 07 bd 74 fe 19 bc d1 40 af 3c
       0.011177411 -0.033058442 -0.009399045 0.021393212
0003d0 5c 3f ba bc 62 8f 70 3c 8c 97 02 bd d8 47 55 bc
       -0.02273529 0.014682623 -0.031882808 -0.013017617
0003e0 88 a4 22 3d 7f 0e 0c bc ac 77 da bb 6a 34 cd bc
       0.03970769 -0.008548378 -0.006667098 -0.025049407
0003f0 a9 30 9a 3b 8c 7e 19 bd d1 d6 48 3c 4e 8a 3c bc
       0.004705508 -0.0374742 0.0122582475 -0.011507584

action_model._continuous_distribution.mu.bias f4 [6]
000000 f9 1a a6 3a d5 96 86 3c 39 e1 25 3c 46 5e b4 bb
       0.0012672833 0.016429344 0.010124498 -0.0055044023
000010 54 ae 42 3b 6c 34 a6 bb
       0.0029705958 -0.005072167
