results/PlayerAgentTest/MediumPlayer/MediumPlayer-499978.onnx (onnx, 275220 bytes, 7 tensors)

network_body._body_endoder.seq_layers.0.weight f4 [128, 396]
000000 19 b4 f3 bc 8d 06 c6 bc b4 af b2 3c f4 27 cc bd
       -0.029748963 -0.024173046 0.021812297 -0.09968558
000010 ee be 4f 3c 6c 18 dd 3c 60 ef cf bd 09 ed 88 3d
       0.0126797985 0.026989184 -0.10153079 0.06685836
000020 c9 91 25 bd 63 70 19 bd 7b 1d a8 bd 05 76 0f 3d
       -0.040422235 -0.037460696 -0.08208748 0.03502466
000030 24 8a 2c 3d 66 2a db bd 07 9e 34 3d 33 fd 41 3d
       0.04212393 -0.10701446 0.04409602 0.04736061
000040 fd 3b 4b bd ad 82 04 3c fb b8 db 3d c3 d0 ed 3c
       -0.049617756 0.008087796 0.107286416 0.02903021
000050 d9 d4 dc 3b a4 39 b1 bd cf b9 9c 3d 25 25 26 3c
       0.0067392406 -0.08653572 0.07652628 0.010140692
000060 58 5e 83 3c b1 05 59 3d b8 c1 a4 bc 0e 29 d4 bc
       0.016036198 0.052983943 -0.020111904 -0.025898483
000070 4b 35 75 bc a6 85 c3 3d 88 24 54 3d 33 f1 b1 bc
       -0.014966319 0.09546976 0.05179265 -0.021721458
000080 5f 7e 4a bc c5 4c a5 3c 58 f4 f2 3c 44 42 f0 3c
       -0.012359231 0.020178208 0.029657528 0.029328473
000090 6a 1c 63 bd 50 d8 99 3c 5a 7a 2c 3d 50 b0 80 3c
       -0.05544702 0.018779904 0.04210887 0.015709072
0000a0 bf ba 54 bd a1 76 62 3b 16 53 3e bd 53 41 23 bd
       -0.051935907 0.0034555572 -0.046465956 -0.03985722
0000b0 03 36 ac 3b f7 24 65 bc c1 d4 3d 3b e0 dd ee ba
       0.005255462 -0.013985864 0.0028965923 -0.0018224083
0000c0 31 b7 77 3b 09 80 e1 ba 36 d4 67 3c 23 7a c9 bc
       0.00377984 -0.0017204295 0.014149716 -0.024594372
0000d0 3d 7d 96 3c 1b ae 87 3c c6 82 27 bd d3 77 0c 3d
       0.018370265 0.016562512 -0.0408962 0.03429396
0000e0 7a 6f ee 3c 78 96 9b bd c9 57 39 bc 36 fc bd 3c
       0.02910589 -0.07597059 -0.0113124335 0.023191553
0000f0 91 4a b1 3d 8b 54 49 3d 6d 10 e5 3b 5b fb 33 bd
       0.086568005 0.049152892 0.0069904835 -0.043940883
000100 60 35 fc bc 81 e4 c8 3c 4d 00 6e 3c b9 41 31 bd
       -0.03078717 0.024523022 0.014526439 -0.04327557
000110 3f b7 a7 3d 00 03 a4 3d 9b 0f c6 bc eb cb a2 ba
       0.08189248 0.08008385 -0.024177363 -0.0012420391
000120 d8 34 0a bd ab fb 12 3d d3 8f 0b 3d ee 9d 80 3b
       -0.033741802 0.03588454 0.03407271 0.0039250767
000130 23 39 18 bd 74 46 81 3d aa c6 8f bd 0b 1b 12 3d
       -0.037163865 0.06312266 -0.07020314 0.03567032
000140 8f 50 0e bd 84 b9 c6 bc 73 8a a7 3b 64 c8 f2 3c
       -0.034744795 -0.024258383 0.00511294 0.02963657
000150 f1 63 46 3c 1c 0f d4 3d e8 a7 aa 3d ae 25 15 3d
       0.012108789 0.103544444 0.08332807 0.036412887
000160 39 db 54 3c 2c b2 a8 3d 19 7f 29 bd 27 49 6e bb
       0.01299172 0.082371086 -0.041380975 -0.003635952
000170 e4 5c 8a bd bd b4 f5 3c 3f 13 38 bd 26 ea e6 bd
       -0.06755999 0.02999341 -0.04494023 -0.11275129
000180 d2 e9 4b bc 3b 16 06 3d 50 96 b5 bb 6d 94 10 3c
       -0.012445884 0.032736044 -0.0055416003 0.00882445
000190 2f f7 08 3a 50 ed b0 3c b5 1d 83 3d ed 94 d7 bc
       0.00052248215 0.021597534 0.064021505 -0.02631613
0001a0 26 f1 9e bb 65 97 7e 3d cd 22 8a 3c 4a fd a0 3c
       -0.0048505245 0.0621561 0.016862297 0.019652028
0001b0 dc a7 13 bd 84 52 81 bd 89 36 f9 3c 5b 94 c9 3c
       -0.036048755 -0.06314567 0.030421512 0.024606874
0001c0 7a 6f 1b bd cd 99 dd bd 5f 9e a8 bd 49 c2 54 3d
       -0.03794811 -0.10820351 -0.08233332 0.051943097
0001d0 b8 43 22 bd 52 82 95 ba 1a 5c 12 3b df a9 b4 bc
       -0.039615363 -0.0011406636 0.002233273 -0.022053657
0001e0 34 d1 02 bc 13 6a 38 3d 5e af e0 3d 9a 19 b4 bc
       -0.007984448 0.045023035 0.10970949 -0.021984864
0001f0 45 73 33 bd 2e 04 b3 bd 54 c0 54 3d 1d 95 89 bb
       -0.0438111 -0.087410316 0.05194123 -0.004198684
000200 68 6f 8c bd c6 39 f3 bd c0 55 7e bc c5 a0 6f bd
       -0.068571866 -0.11876254 -0.015523374 -0.05850293
000210 5c 71 87 bd 11 5e 06 3c c0 2a 3c bd c8 9c 73 3d
       -0.066134185 0.008201138 -0.045939207 0.05947569
000220 c9 c1 34 be 2f 02 92 bc 67 d2 1f bd cb 5c c0 bb
       -0.17652048 -0.017823307 -0.039019015 -0.005870437
000230 2d de e1 bc 67 c8 84 bd 97 64 c0 3c 9f 20 d1 bb
       -0.027571762 -0.06483536 0.023485465 -0.0063820626
000240 b5 b0 2b 3b 8c b6 5d 3c 48 b5 6b 3b 4f e5 53 bd
       0.0026197855 0.013532292 0.0035966206 -0.051732358
000250 b5 1a 0c 3d ed 20 b8 bd 8f 85 3f bc c4 36 ed 3c
       0.034205157 -0.08990655 -0.011689558 0.028956778
000260 b9 05 4f bd ce 56 fd 3c 5a ae c0 bc c6 02 03 bd
       -0.050542567 0.03092518 -0.023520637 -0.031985067
000270 1c 89 9c bd 8e ec 40 3d f0 6e 38 bd 53 32 74 bb
       -0.07643339 0.047100596 -0.045027673 -0.003726144
000280 b0 cd 30 bc 05 cf b9 bd f7 8a 87 bb db 78 a3 3d
       -0.010791227 -0.09072689 -0.004136439 0.07982036
000290 30 5d c3 3c 4b 17 93 bc 41 f2 c6 bc ae 85 8c 3c
       0.023848146 -0.017955443 -0.024285438 0.017153587
0002a0 51 23 ff 3c bf 9d 1a bd ad 44 82 3d 28 95 83 3c
       0.03114477 -0.037748095 0.06360755 0.016062334
0002b0 3c 93 26 3c 19 02 84 bd 10 94 37 bd f1 f1 92 3c
       0.010166939 -0.064457126 -0.044818938 0.017937632
0002c0 3e 74 be 3c 49 22 22 3d 57 7a 8b 3c e5 bd 76 bc
       0.023248788 0.039583478 0.01702611 -0.015059923
0002d0 eb 63 f8 bc b9 11 54 3d 60 17 50 bd 55 60 31 bd
       -0.030321082 0.051774714 -0.050803542 -0.04330476
0002e0 db 42 56 bd f0 88 29 bd 82 d0 28 bd 27 65 9a bc
       -0.052309852 -0.04139036 -0.041214474 -0.018847061
0002f0 3f 0b 4d 3b a7 51 aa bc cc 86 c0 bc c9 87 c9 bb
       0.003128722 -0.020790888 -0.023501776 -0.00615022
000300 36 48 ee bc ad 15 d1 bc ef 9e 44 3d 14 1b 94 bd
       -0.029087167 -0.025523031 0.048003133 -0.07231727
000310 9d fe d4 bb d9 bc 6d bd 92 2d b0 bb ea 53 b2 3d
       -0.006500079 -0.058041427 -0.005376526 0.087074116
000320 05 0a a4 bc 80 99 7c bd f9 e5 8f bd e7 d5 93 3b
       -0.020024309 -0.061669827 -0.07026286 0.004511583
000330 6e 53 8e bb 93 ee 02 3d 9e 3b 20 bd 25 56 88 bd
       -0.0043434417 0.031965803 -0.039119355 -0.06657056
000340 e7 fa 9e bd 24 e3 e5 bc f6 fc c2 3c 41 54 41 bc
       -0.077626996 -0.02806241 0.023802262 -0.011799873
000350 ed 91 98 3c d9 35 76 3d 69 6c 9b 3c 99 6e 32 bd
       0.01862427 0.060109947 0.018972592 -0.043562505
000360 2a 13 7f bd c6 e5 43 ba 51 2b d5 3d f8 f4 34 bd
       -0.062274136 -0.00074728986 0.104086526 -0.044178933
000370 99 6b 78 bd 9f 96 25 bd 95 40 8d 3d c1 49 93 3c
       -0.060649488 -0.040426847 0.06897084 0.017979505
000380 bb 72 b2 3c 7a 9a 11 bd 0a 6b bf bc fa f2 08 bc
       0.021783223 -0.03554771 -0.02336647 -0.008358711
000390 9c d2 46 bd 4c 95 29 bc 9c eb 1b bc 5d 5e 10 3d
       -0.048540697 -0.010350537 -0.009516623 0.03524624
0003a0 b1 d0 6d bc 7e 61 68 3c 0e 97 4e 3c 4c 47 25 3c
       -0.014515088 0.0141834 0.012609256 0.010087799
0003b0 a9 fc 0b 3d bb 0f a0 3c de 0f 38 bc 7f 64 0e 3d
       0.034176502 0.01953875 -0.011234252 0.03476381
0003c0 79 ab 68 bd 6f ca 4f bd 98 4b e1 bb 6d e8 16 3d
       -0.056804154 -0.050730165 -0.0068754666 0.036842752
0003d0 02 7a 41 bc 5b 85 c7 3d 45 70 5d bd d0 fc b5 bc
       -0.011808874 0.097422324 -0.054062147 -0.022215277
0003e0 a2 0e af 3c 82 32 c9 3c 10 5e 87 3c 76 0c 73 3d
       0.021369282 0.024560217 0.016524345 0.059338056
0003f0 f5 1b 8c bd 62 8c 6e bc e6 8c 9b 3d 86 46 9b bc
       -0.0684127 -0.014559837 0.075952336 -0.018954527

network_body._body_endoder.seq_layers.0.bias f4 [128]
000000 c2 69 32 bc 05 5a 6d 3a 33 eb f7 ba 18 34 5b bc
       -0.010889472 0.00090542465 -0.0018914699 -0.013379119
000010 35 fb 31 3a fa d1 85 3b 3f 08 df 3b b6 00 1b 3c
       0.0006789447 0.004083869 0.006806403 0.009460619
000020 fe 1b 42 3c c2 6c 77 bb 97 53 5d 3c 1b d1 14 3c
       0.011847494 -0.0037754034 0.013508699 0.009083058
000030 29 07 6a bb 8f 6f 8d bb 32 7c 17 bc 2d 68 91 bb
       -0.0035709834 -0.0043162773 -0.009245919 -0.0044374675
000040 d2 82 21 3c 66 9c 9c bb e0 0c 0c b9 2a b6 f9 3a
       0.00985785 -0.0047793863 -0.00013356237 0.0019051482
000050 25 7d 2a 3c 4d 62 c2 bb 02 46 7b 3c 33 cc 4a bc
       0.010405813 -0.0059321285 0.015336515 -0.012377786
000060 f1 33 0d bb a1 ab 8e 3b 90 2c 87 3c 78 9b d4 bb
       -0.0021545852 0.004353956 0.016500741 -0.00648826
000070 fd 8d 38 bc 27 1a f6 bb 6b 11 35 bc 38 5c e8 3b
       -0.011264321 -0.007510442 -0.011051516 0.0070910715
000080 78 7e a6 ba cc a6 dc bb a0 19 ab 3c 5a 00 bf bb
       -0.0012702486 -0.006733751 0.020886242 -0.0058288993
000090 23 be de 3b a8 4d 54 ba ca f5 86 bb b4 b2 d2 bb
       0.0067975684 -0.000809873 -0.004118656 -0.0064299945
0000a0 77 fe 21 3c d1 e1 47 3b 82 58 80 bb 53 03 4e 3c
       0.009887329 0.0030499587 -0.003916801 0.012574035
0000b0 a2 8b 3a 3c a4 92 18 bc c9 93 ab 3b bc 82 b3 bb
       0.01138583 -0.009312306 0.005236123 -0.0054782312
0000c0 12 73 d2 ba e8 27 80 bb 10 31 63 bb 93 4f 04 38
       -0.0016056022 -0.003911007 -0.0034666695 3.154536e-05
0000d0 b5 63 c3 bb c9 a4 a8 3c 76 49 15 3b 24 13 ce ba
       -0.0059628137 0.020586388 0.0022779382 -0.0015722257
0000e0 3d 24 66 ba 05 d2 72 3c bb 0f 1f 3c 9b 63 7e 3c
       -0.00087792036 0.01482058 0.00970834 0.0155266775
0000f0 f5 31 1c bc 09 f6 39 3a c3 e9 95 39 0f 87 6a bb
       -0.009533395 0.0007093852 0.0002859366 -0.0035786068
000100 96 47 82 3a 41 45 a2 3b 77 c7 ff 3b 5a 3f d5 39
       0.0009939547 0.0049521034 0.0078057605 0.00040673726
000110 9a 9f 06 bb 80 53 52 bb 6a e0 a0 bb 1c f0 67 3c
       -0.0020541907 -0.0032093227 -0.0049095647 0.014156368
000120 a6 c4 1c bc a7 c6 43 3b 7f aa 4d 3c 73 78 3e bc
       -0.009568369 0.0029873045 0.0125528565 -0.011625397
000130 f9 8d 4a 3c da 9f 05 3b 32 4b 67 ba 6f ec ce bb
       0.0123629505 0.0020389468 -0.00088231557 -0.006314806
000140 7d 45 37 bb 17 c0 71 3c 7f 8c 05 bc 10 db 47 bc
       -0.0027965002 0.01475527 -0.008151173 -0.012198225
000150 71 be 12 bc 57 85 85 3b e4 21 17 bc a2 74 16 3c
       -0.008956538 0.0040747332 -0.009224389 0.009183081
000160 b4 0a cb bb 0e 35 d8 ba cc 1a 04 bc b8 b0 d3 bb
       -0.0061963443 -0.0016495304 -0.0080630295 -0.0064602755
000170 68 89 33 bb fc 18 fb bb 99 28 7e 3c 9a 98 13 3c
       -0.0027395133 -0.0076628905 0.015512609 0.009008551
000180 54 9b c7 3b f2 6c 41 3c e4 33 d9 b9 c4 af 4d 3a
       0.0060915146 0.01180576 -0.00041428127 0.00078463205
000190 15 9f f0 3a 71 db 24 3c fe 73 e7 bb c0 50 1b 3b
       0.0018357957 0.0100620845 -0.007063388 0.0023699254
0001a0 64 81 dc bb 4f 52 44 3b 0e ab db ba 05 a6 4a 3c
       -0.0067292918 0.0029956286 -0.0016759352 0.012368684
0001b0 50 38 85 3b c4 ba 86 ba 19 d7 00 bb 07 eb fd bb
       0.004065551 -0.0010279049 -0.0019659458 -0.0077489647
0001c0 90 c0 3d 3c fc a2 ab 3b c3 5e 84 bb e5 6f 85 3c
       0.011581555 0.005237935 -0.004039617 0.016288707
0001d0 aa a5 34 3c 96 19 b8 bb 90 52 ca 3a cd 97 94 b9
       0.0110258255 -0.0056182845 0.0015435982 -0.0002834186
0001e0 70 17 c8 3b bd 11 4c 3c 20 d8 ea 3b 3c 8f fa 3b
       0.0061063096 0.012455401 0.0071668774 0.0076464694
0001f0 61 27 81 3c c5 d3 e2 3b 49 ca 2d 3c e9 27 38 bc
       0.015765848 0.0069222176 0.010607311 -0.011239984

network_body._body_endoder.seq_layers.2.weight f4 [128, 128]
000000 69 fd 33 be db 75 59 bd c6 a9 91 bd 5a e3 be ba
       -0.17577137 -0.05309091 -0.0711246 -0.0014563606
000010 35 0e a1 bd 6e eb 84 bd 00 d4 69 bc 9c 42 97 3d
       -0.07864038 -0.06490217 -0.014271736 0.073857516
000020 82 7b 4c bd 25 05 10 be 1f ad bb 3d 50 4d f6 bd
       -0.049922474 -0.14064462 0.091638796 -0.12026465
000030 0e 8b 8b 3d f3 b8 23 3d a1 38 c5 bb 4b 7d 35 bd
       0.06813632 0.039971303 -0.0060187136 -0.04430894
000040 67 e6 c4 bc fe a0 e3 bd fb 5b 7d 3d 21 06 4b bd
       -0.024035646 -0.11114691 0.061855298 -0.04956639
000050 62 83 27 3e 64 69 37 bd 2b 16 7a bd db 56 d2 bc
       0.16358712 -0.044778243 -0.061056297 -0.025676182
000060 55 ea 12 3e a2 61 20 3c 34 e1 88 3d 9c 0c 89 3c
       0.14347203 0.0097889025 0.06683579 0.016729645
000070 ae 07 bd 3d 65 be b1 3d 41 24 a6 3a 7c 44 28 3e
       0.092299804 0.08678893 0.00126756 0.16432375
000080 85 58 f4 bd aa b5 ab bd 00 cf 81 bd 0a 3a 5f bd
       -0.11930946 -0.08384259 -0.0633831 -0.05449871
000090 09 36 eb bd 6f f2 d9 3c 14 c9 3e bd 20 e4 af bd
       -0.11484916 0.02660486 -0.04657848 -0.08588433
0000a0 74 30 8b 3c 42 6a cf 3d 2f 85 78 3d a4 ab 82 bd
       0.016990878 0.10127689 0.06067389 -0.06380394
0000b0 38 50 b8 3d 39 37 9b 3d 2f 31 51 be 3a 35 92 bd
       0.089996755 0.07578892 -0.20428918 -0.071390584
0000c0 2f 50 4e 3d 26 27 1d be 1f 02 b1 3c eb 64 38 bb
       0.050369438 -0.15346965 0.021607457 -0.0028136324
0000d0 7d ea 5e bd fd 7f da 3d d0 23 16 3d b7 0a 81 3d
       -0.054422844 0.10668943 0.036655247 0.06300872
0000e0 32 4e 47 bc cf 02 35 3e 04 8c 87 3d 3a cb b6 3d
       -0.012164639 0.17676853 0.06618503 0.08925481
0000f0 52 fd 39 be 5e d3 56 be f4 df e3 3c 82 48 90 3d
       -0.1816304 -0.20979068 0.02781675 0.0704508
000100 b7 4a a7 3c a1 50 aa bd 86 2e 58 3d 6d 12 20 bd
       0.020421369 -0.0831616 0.052778743 -0.039080072
000110 e9 33 b1 bc 56 a8 19 be 11 80 e6 3c 25 1f 88 3d
       -0.021631198 -0.15005621 0.028137239 0.06646565
000120 8e 71 af bd 79 8b df bb 92 2c 5b 3d 35 4a 47 bd
       -0.08566581 -0.0068220464 0.053509302 -0.048654754
000130 d4 fa 00 3c 59 6e 27 3e ed 46 88 bb 89 14 4d bb
       0.007872302 0.16350688 -0.0041588456 -0.0031292757
000140 8e a7 f1 3d 23 1a b5 bd 90 a8 02 3e a1 17 b9 bd
       0.11799537 -0.08842876 0.12759614 -0.0903771
000150 f6 e2 02 3d 24 61 e0 bc b7 a8 95 be 4d 4f d0 bd
       0.031954728 -0.02739007 -0.29230282 -0.101713754
000160 de 32 5e bc 72 6f 3e 3e 1c c7 ab bc b6 8b 48 bd
       -0.013561932 0.185972 -0.020968966 -0.048961364
000170 a2 10 f4 3b 09 9e 13 bd 4a c3 1a 3e 6c 76 da bd
       0.007448272 -0.036039386 0.1511356 -0.106671184
000180 b7 e4 8c bd 8b 16 f4 3c e3 fb 11 bc 6a 4a a5 3d
       -0.068795614 0.029795906 -0.008910152 0.08070834
000190 e2 1c f3 3c e2 01 85 bb 67 9d af 3d 4f 70 8d bd
       0.029676858 -0.0040590623 0.08574944 -0.06906187
0001a0 af 7a d9 bd ad 32 48 3d ef c3 06 be a3 64 65 bb
       -0.10619103 0.048876453 -0.1316068 -0.003500261
0001b0 d5 54 c8 3d 08 0d 23 3d 39 46 7a 3c 18 7b 0b be
       0.097818054 0.03980735 0.015275531 -0.13621175
0001c0 c8 6e ab 3d 5c 84 3c 3d 12 b8 8f bd 97 74 fc 3d
       0.08370739 0.046024665 -0.070175305 0.12326925
0001d0 5c c1 2f be 4b 5d de bd 14 db 7e 3d 04 b3 e0 bd
       -0.17163604 -0.10857638 0.062220648 -0.109716445
0001e0 8b 4b 8b bd 58 ac af 3d 8e f5 93 3d 47 4b 92 3b
       -0.06801518 0.08577794 0.0722457 0.00446454
0001f0 87 b7 30 3e 9e 62 9c 3d 3a 6d 3d 3d e4 ce 95 3c
       0.1725751 0.07635997 0.046246745 0.01828713
000200 63 5f c8 3d 8c e9 13 be 84 0b 42 3e f8 b9 8f bd
       0.097838186 -0.1444456 0.18949705 -0.070178926
000210 89 5c 0e 3d f4 35 41 3c 55 8e 9a bc 1c a4 32 bd
       0.034756217 0.011792649 -0.018866697 -0.04361354
000220 a0 b2 8a bd 6d e2 ac 3d 07 47 81 3d 62 b7 ee 3d
       -0.06772351 0.08441625 0.063123755 0.11656071
000230 d8 d9 62 3d 7d 60 26 be ad ff 9a 3d dc a3 b1 3d
       0.055383533 -0.16247745 0.075682975 0.08673832
000240 a4 60 0e be 2b cd 13 3e 51 9d 9a bd 9c e8 2d bc
       -0.13904053 0.14433734 -0.07549537 -0.01061454
000250 12 5b 9d bd 51 33 2e 3e 28 9f 04 bd f2 fa 8b be
       -0.07683386 0.17011763 -0.032378346 -0.27339894
000260 59 e3 12 3e 7e 60 96 bd f1 69 ac bd 45 ff e1 3b
       0.14344539 -0.07342623 -0.08418644 0.0068968856
000270 34 2a be bd f5 d9 22 be ab 9c 11 3b 87 a5 3f be
       -0.09285393 -0.15903457 0.0022218626 -0.18715487
000280 6d bf e0 3d 83 3f 21 be b5 80 f1 bc 0b 49 0d 3e
       0.109740116 -0.15746884 -0.029480318 0.13797395
000290 dd 3c ce bd 1a 97 24 bd 54 16 99 3d 62 93 01 bd
       -0.100702025 -0.040183164 0.07474962 -0.031634696
0002a0 dd fa 9a 3c 7a 01 ec 3c ac 10 e2 bb a3 cd 20 bc
       0.018918449 0.028809298 -0.00689896 -0.009814653
0002b0 a8 6f 2e be 7a 40 6e 3d a2 9a fc 3b c6 9e 10 bd
       -0.17034781 0.05816696 0.0077088634 -0.03530767
0002c0 08 5c 19 3c af dc f6 bd bb ae d0 bd 96 b6 c9 3d
       0.009360321 -0.12053811 -0.10189577 0.09849279
0002d0 24 ed 08 be 66 5c 11 be f1 f5 03 bd 88 06 79 bd
       -0.13371712 -0.14195403 -0.03221697 -0.060797244
0002e0 da 96 f7 3c f4 be 7b bd 2c ef 5e 3c f2 83 92 bd
       0.030223299 -0.061461404 0.013606828 -0.07154073
0002f0 0e 85 4c 3c 42 61 40 3e 13 62 a6 bd cf 2b 5c bd
       0.012482895 0.18787101 -0.08124175 -0.053752717
000300 bc f4 2e bd 46 ab db bd ef a8 32 be 69 9d e9 3d
       -0.042713866 -0.10726027 -0.17447256 0.11406977
000310 04 f9 e4 bd 78 7f d2 3d 3b 4c 73 bd 9e c2 49 3e
       -0.111803085 0.10278219 -0.05939887 0.19703147
000320 b0 7d d6 3c 32 06 c3 3d 45 82 0a be 7e 4d c0 3d
       0.02618298 0.09522666 -0.13526256 0.093897805
000330 ca d3 17 be 8f 1b 84 3e 8c 56 a4 bc 78 4f 9f bc
       -0.14826885 0.25802276 -0.0200608 -0.019447073
000340 fd 9c c4 bd 07 c9 10 be d4 8e 1f 3d 81 57 14 3e
       -0.09600256 -0.14139186 0.03895457 0.14486505
000350 2d c2 2a 3b 6a 4c 1a be 5c fb fa 3c f6 42 37 bd
       0.002605568 -0.15068212 0.030637436 -0.044741593
000360 f6 92 4d 3d dd 5c 49 bb c9 c4 32 bd 08 50 4c 3d
       0.05018898 -0.0030725517 -0.0436447 0.04988101
000370 ea 7c 07 3e e4 0b 98 bd 7c a0 07 bc fd d4 61 3e
       0.13231245 -0.07424143 -0.008278009 0.22053905
000380 c8 d8 88 3d 0a 21 e5 3d 5f 29 28 3e a4 4c 1e bd
       0.06681973 0.11187942 0.16422032 -0.03864731
000390 f2 ed 1e be cc 72 26 b8 3b 15 7d bd 15 a2 cd bb
       -0.15520456 -3.9684397e-05 -0.061787825 -0.006275425
0003a0 e0 8a 21 bc ca 1c 24 3d 3f 78 44 be 29 72 f3 bd
       -0.009859771 0.040066518 -0.19186495 -0.11887009
0003b0 72 0f 23 bd fe 1c e4 3d 47 db bf bd e7 fd 44 3d
       -0.03980965 0.11138342 -0.09367996 0.048093703
0003c0 8e 27 03 3e 53 95 7b 3c 25 2f e3 3d 5d 2a 8c bc
       0.12808058 0.015355426 0.110929765 -0.017110044
0003d0 9f 7f 03 bd 7a 77 b9 bc 34 dd bd 3c cb ff 16 3d
       -0.03210413 -0.022639979 0.023176767 0.036865037
0003e0 6f 97 ef bd c1 1b 61 be 16 20 32 bd b4 64 ed 3d
       -0.116988055 -0.21983244 -0.04348763 0.11591473
0003f0 0e 66 d5 3c 6c e0 ff bd 4f 20 9e bd d4 74 0d be
       0.02604964 -0.12493977 -0.07721006 -0.13814098

network_body._body_endoder.seq_layers.2.bias f4 [128]
000000 4d b7 3c 3c 99 b0 8a 3b 99 02 13 b9 5f 9c 66 bb
       0.011518312 0.004232478 -0.0001401998 -0.003518842
000010 38 51 30 bb db b2 0c bc 63 a6 a1 ba ad 04 99 3b
       -0.002690388 -0.008587564 -0.0012332912 0.004669747
000020 38 f8 bf bb 2e 2c cc 3a a6 13 8a bb 13 26 6c 3c
       -0.0058584474 0.0015577131 -0.004213768 0.0144133745
000030 93 f6 e5 bb 81 27 d5 ba 13 72 51 3c 7a e9 f8 bb
       -0.0070179193 -0.0016262383 0.012783545 -0.007596192
000040 5f 40 b3 ba 64 fd d6 bb 89 29 c6 bb 26 bf 80 bb
       -0.00136758 -0.0065609682 -0.006047432 -0.0039290367
000050 64 d9 03 bb 6f f6 75 ba 33 8d 84 3b 35 d0 07 bc
       -0.0020118589 -0.000938273 0.0040451526 -0.0082893865
000060 c6 70 e6 3b c8 c8 b6 3b 8f 06 1e bc f6 37 a4 bb
       0.0070324866 0.005578134 -0.009645118 -0.005011554
000070 8f 38 ba bb ba 6a d1 3c ec 8e 7d bb c4 5d ca 3c
       -0.005683012 0.025563587 -0.0038689924 0.024702914
000080 a0 45 e8 ba ed 5b ac bb 1c 52 9e bb fe f7 1b 3c
       -0.0017720945 -0.005259982 -0.0048315655 0.009519575
000090 46 6e d4 3a 7b b6 d5 bb 75 dd a7 bb a4 36 07 3c
       0.001620718 -0.0065219975 -0.0051228353 0.008252773
0000a0 0e 54 8f bb 27 ef d9 ba 7e 8d e5 3b 06 0e 54 3b
       -0.004374034 -0.0016627059 0.0070053926 0.0032356991
0000b0 a9 b3 a2 3b 32 1b 86 3b d9 ef ae ba 2f bd 28 3c
       0.004965265 0.0040925974 -0.0013346627 0.010299011
0000c0 a4 06 0f 3c a6 71 3a bb 4f f3 20 bc ab b3 62 bb
       0.008729611 -0.0028449087 -0.009823634 -0.0034591954
0000d0 59 3d 00 3a 05 97 ef bb 2f 21 da bb 4e 33 cb 3a
       0.0004891954 -0.007311704 -0.006656788 0.0015502961
0000e0 d2 d5 79 3a 70 e4 7e 3a f0 24 e9 3c 17 7f 60 3c
       0.0009530458 0.0009723371 0.028459996 0.013702176
0000f0 8b 55 37 3c 97 ca 51 ba 9e 3a bd ba 95 08 04 bc
       0.011189829 -0.00080029055 -0.0014437025 -0.008058687
000100 67 f5 e8 bb d2 79 42 3b b4 41 d9 bb 5c 86 2d 3c
       -0.0071093324 0.0029674661 -0.006630147 0.010591116
000110 32 c7 32 bb 9b 4e f5 bb 75 68 98 b9 8b 0f 0c bc
       -0.0027279374 -0.007486177 -0.00029069526 -0.008548628
000120 12 43 aa b9 7b ed 4c 3b 7c 2d f2 3b 65 7f 42 3b
       -0.00032474898 0.003126948 0.007390676 0.0029677984
000130 e1 2f 08 bc 29 c2 21 bc 9e 65 17 bc 58 cc 3f 3c
       -0.0083121965 -0.009872952 -0.009240536 0.011706434
000140 aa a3 dd 3b c0 f5 b8 bb 2c 63 33 3c a7 40 0e bb
       0.006763895 -0.00564453 0.010948937 -0.0021706016
000150 20 3f e8 bb b7 0e a4 ba 5d 56 90 bb 34 b0 a8 ba
       -0.007087603 -0.0012516592 -0.0044048266 -0.0012869895
000160 c2 44 54 bb 7a 26 4b bc e8 09 e9 ba f8 c1 ae 3a
       -0.0032389616 -0.01239931 -0.0017779442 0.0013332954
000170 30 03 82 bb 63 d8 94 3b 65 8d 3b 3c bf a4 31 bb
       -0.003967665 0.004542397 0.011447285 -0.0027106253
000180 4e 3f 8a 3b b8 c5 d0 3a a0 d9 0a 3c 4f 81 9e 3b
       0.0042189723 0.0015928065 0.008474737 0.004837192
000190 e3 c1 f4 bb d3 1d 9a 3b d7 40 00 3c a0 54 45 3a
       -0.007469402 0.0047032624 0.007827959 0.0007527564
0001a0 fa d8 d4 bb 8c a4 2f 3c 84 10 01 ba 38 e2 70 3c
       -0.006495592 0.010720383 -0.00049234205 0.014702372
0001b0 8e 09 ca bb 70 97 f8 3a cd 53 04 bc 74 63 cd bb
       -0.00616569 0.001896603 -0.00807662 -0.0062679593
0001c0 63 62 89 3b 8e d8 ee bb 1f eb 85 bc fd 32 90 bb
       0.004192637 -0.007288999 -0.016347466 -0.0044006095
0001d0 d7 b0 50 3c 8c f6 c8 ba 31 94 f9 bb 8e 09 5d 3c
       0.012737474 -0.0015332266 -0.0076165427 0.013491048
0001e0 19 a8 18 bb e8 79 14 3c 91 4e 05 bc 91 a1 14 3c
       -0.0023293553 0.009062268 -0.0081364075 0.009071724
0001f0 cf 55 0f 3b 88 4c da bb 0a be 1a bb ca b8 62 3c
       0.0021871214 -0.0066619553 -0.0023611807 0.013838002

action_model._continuous_distribution.log_sigma f4 [1, 6]
000000 64 11 ae bd d9 79 df bd 19 6a 8e bc f2 41 13 3c
       -0.08499411 -0.109119125 -0.017384576 0.008987891
000010 d5 64 a8 b9 8a 76 cf 3b
       -0.00032118583 0.0063312696

action_model._continuous_distribution.mu.weight f4 [6, 128]
000000 01 8c 2b 3c 86 00 1b bd d2 0f 48 bd d0 1a 90 bc
       0.010470391 -0.037842296 -0.048843212 -0.01759091
000010 2c a0 a1 bc b3 aa 8e bc 7b fc 22 bc 7c 12 58 bd
       -0.019729696 -0.01741538 -0.009947891 -0.052752003
000020 65 00 04 3c 92 10 79 bd 87 72 f9 bc 86 3e c0 3c
       0.008056735 -0.06080682 -0.030450119 0.023467313
000030 46 1c 81 bc 3b 55 54 3c 05 7f d3 ba 16 78 03 bd
       -0.015760552 0.012959774 -0.0016135877 -0.032096945
000040 1e 9d a4 3c a0 89 a4 bb 80 ea 17 bc cc b1 95 bc
       0.02009445 -0.005021289 -0.009272218 -0.018273257
000050 99 df 05 bd 92 a1 37 bd 29 03 f3 bc 39 bf 00 bd
       -0.032683942 -0.04483182 -0.029664593 -0.031432364
000060 1f 57 1a bc 27 14 41 bd 12 a5 24 3b 7e b8 2e bd
       -0.009420185 -0.04713836 0.0025122804 -0.042656414
000070 92 74 46 b9 bb f0 cd 3c 1c d5 47 bc 11 d0 3e 3d
       -0.00018926177 0.025139203 -0.012196805 0.046585146
000080 bf 6e f6 bb eb 09 80 bc 85 ab 83 bc 6f 68 39 3d
       -0.007520526 -0.01562973 -0.016072998 0.04526561
000090 a6 d3 6e bd 1e e4 f6 bb 93 87 ca bc a2 76 e4 3c
       -0.058307312 -0.007534518 -0.02472285 0.0278886
0000a0 b4 93 62 bc a5 2b 4d bb 8f 4e 9b bc 37 35 16 3d
       -0.0138291605 -0.0031306532 -0.018958358 0.036671843
0000b0 f5 20 d3 3c 4a d1 88 3c f8 48 1f bc b1 4a bb bc
       0.025772551 0.01670136 -0.009721987 -0.022862764
0000c0 a4 1c 5a bd 50 96 23 bd 76 25 16 3c 95 63 d1 bc
       -0.05324997 -0.03993827 0.009164205 -0.02556018
0000d0 4b 83 67 bd 95 2a 5c bc e2 32 a8 bb ab 5c ea bc
       -0.056521695 -0.013437887 -0.005133019 -0.02860864
0000e0 6e 27 7a 3b 77 2e e0 3c 72 82 3d 3d 57 94 48 bd
       0.0038170475 0.027365906 0.04626698 -0.048969593
0000f0 c6 4d bd 3c b1 6b f4 bc 73 a6 93 bc 20 9a e2 bb
       0.023108374 -0.029836508 -0.018023705 -0.006915346
000100 eb f8 81 bd 73 ca 45 bc 1a af 1f bd 78 5e 11 3c
       -0.063463055 -0.012072193 -0.03898535 0.008872621
000110 5e b1 29 3a 44 53 5b 3c 5d c5 5b bc 36 35 2c 3b
       0.0006473268 0.013386551 -0.013413754 0.0026276833
000120 76 bf ce bc 4e 1b be 3c 67 57 22 bd f7 ca 1e bd
       -0.02523778 0.02320638 -0.039634135 -0.03876778
000130 33 0b e4 3b d3 4a 1a bd 98 cf b1 bb 1d 8e 56 3d
       0.006959343 -0.037669014 -0.0054263584 0.052381624
000140 0f 82 0f bc 3d 42 1f 3d 09 45 81 3c c0 7a a9 bc
       -0.008759036 0.03888153 0.015779989 -0.020688415
000150 19 ab 3d 3c dc ba 72 ba 74 6c 39 bd 6f 90 6e bd
       0.011576437 -0.00092594116 -0.045269445 -0.05824321
000160 fc 03 ee 3c f7 f9 b3 bc 75 fc 41 bb cf 08 e6 bc
       0.029054634 -0.021969778 -0.002959994 -0.028080372
000170 d4 7a 24 bd 5e 43 26 bc c8 f7 6e bc a8 fc cb bc
       -0.0401562 -0.0101478975 -0.014585443 -0.02490075
000180 e2 87 6a bd e1 cb 73 bc b8 41 1c 3c 64 b6 6c 3c
       -0.057258494 -0.0148801515 0.009537153 0.014447782
000190 87 e9 aa 3b 8c 95 4b bd dd 60 61 bd 5f a7 31 3c
       0.005215827 -0.049703166 -0.055024017 0.010843127
0001a0 a8 b4 92 bc 1e ba 17 3b a5 6b 7c bc 61 56 72 3c
       -0.01790841 0.0023151706 -0.015406524 0.014791102
0001b0 c1 bd f0 bc 03 ff 31 bd 57 50 f4 3b 63 d1 1a 3c
       -0.029387357 -0.04345609 0.0074558663 0.009449336
0001c0 cc 28 ee 3c 9d 7c 9e 3c e0 af 37 bc 7e f2 df bc
       0.029072188 0.01934653 -0.011211365 -0.027337309
0001d0 2a 3c 9d bb 2e f8 74 bc d5 1a 10 3d c4 94 df ba
       -0.004798432 -0.014951749 0.03518184 -0.0017057885
0001e0 12 ee 1c bc 71 18 87 3c 94 5b 02 3c 8b c0 b8 3c
       -0.009578245 0.016491147 0.007956404 0.02255275
0001f0 f7 e1 26 bd 62 58 a3 bc f1 8f 75 bc 41 c4 d9 3b
       -0.04074284 -0.019939605 -0.014987932 0.0066457097
000200 38 03 21 3d dd 5c f2 bc 51 41 a8 3c 09 50 3a bc
       0.03930971 -0.029585296 0.020538958 -0.011371621
000210 93 3c 58 bd 2f ef b9 bb 08 e2 06 bc 6a e4 39 3c
       -0.052792143 -0.005674265 -0.008232601 0.011345962
000220 fa da 2c bc 75 96 7e 3a d3 3a 1b bb 88 f0 30 3d
       -0.010550255 0.0009711751 -0.0023686185 0.04319814
000230 33 1d fc bc b1 df 8f 3a 0c 80 2c 3d ab c2 2e bc
       -0.030775642 0.0010976699 0.042114303 -0.01066653
000240 41 32 0b bc 59 4d 3b bd 5b 7d 19 bd de 82 b4 3b
       -0.008495868 -0.04572806 -0.037473064 0.0055087646
000250 94 73 eb 3a d8 ae 48 bc 5d 27 5a 3c 5f 13 61 bc
       0.0017963522 -0.012248717 0.013315049 -0.013737529
000260 04 db d6 3c 2c 15 82 bb a3 cc bf bc dc 40 f5 bc
       0.026227482 -0.003969809 -0.023413008 -0.029938154
000270 ba 4a b0 bc 38 0b 57 3d c6 42 22 bd 6e c0 ee bb
       -0.021520007 0.052500933 -0.03961446 -0.007286123
000280 01 d7 4e bb ab 5f 09 3c 59 fa 08 bd fe 33 f2 3c
       -0.0031561258 0.008384625 -0.033441875 0.029565807
000290 af 4b 7e bb 48 90 6a bc 13 c9 93 bc 70 09 85 3c
       -0.0038802435 -0.014316626 -0.018040216 0.016239852
0002a0 1b 08 ef bc 34 45 2e bc 78 50 06 3d d3 d3 ac bc
       -0.02917867 -0.0106366165 0.032791585 -0.0210971
0002b0 5d 0b f6 3c 75 d0 16 3d d2 f8 88 3b 9a dd e5 bc
       0.030034715 0.036819894 0.0041800523 -0.02805977
0002c0 da 29 e2 3b 62 31 4d 3c 69 e2 9e bb 93 9e f0 bc
       0.0069019618 0.012523981 -0.0048487675 -0.02937249
0002d0 72 50 c8 bc e0 33 41 bd 18 2c 29 bd 99 83 14 bd
       -0.024452422 -0.047168612 -0.041301817 -0.036258314
0002e0 70 27 2d 3c e0 4d d5 bc 15 14 2a 3b 01 69 4e 3c
       0.010568485 -0.02603811 0.0025951911 0.012598277
0002f0 cf 1a 0c 3d 39 c8 5f 3c 79 e2 b2 bc 09 2e f2 bc
       0.034205254 0.013658577 -0.021836506 -0.029562967
000300 89 b9 01 bc ff 17 af 3c 1d 34 f6 bc 50 c3 d2 3c
       -0.00791777 0.021373747 -0.030054146 0.025727898
000310 70 cb df bc 73 64 e0 bc de 3c 93 3c 8f cb 60 bc
       -0.027318686 -0.027391648 0.01797336 -0.013720407
000320 86 f8 38 3b a0 45 f1 3b 9a 60 a4 3c c9 a4 a1 bb
       0.0028224303 0.0073630363 0.020065594 -0.004932974
000330 51 f1 4a bc 67 0d 99 bc 50 4d 4a bd d6 4e f5 3a
       -0.012386636 -0.018683149 -0.049390137 0.0018715512
000340 a1 c7 93 3c f7 52 11 3a 5d 50 ae 3c bc 0a 56 3c
       0.018039526 0.0005543674 0.021278555 0.013064083
000350 7f a4 bf bc 3a 29 84 bd 73 a9 3a 3c 15 cd 24 bc
       -0.023393868 -0.06453176 0.011392939 -0.010058661
000360 07 ba 0c bd 3f 30 a3 bc 17 f2 08 bc 11 2f 95 3c
       -0.034357097 -0.019920466 -0.0083585 0.01821092
000370 51 c1 94 bc 63 86 ce 3c cb 0c 6a 3c b2 21 12 bc
       -0.018158587 0.025210565 0.014285277 -0.008919166
000380 8b cd 3e bb 3e cb 67 bd c6 be f1 3c f0 c1 ef 3c
       -0.0029114212 -0.05659031 0.029509913 0.029267281
000390 f8 04 2d bd d9 4e 03 3c bf 97 65 ba 39 59 63 bb
       -0.042241067 0.008014404 -0.00087582687 -0.0034690632
0003a0 2f b1 b3 bc 06 48 19 3d 4d 82 90 3c 94 31 ba 3c
       -0.021935074 0.037422203 0.017640257 0.022728719
0003b0 db a5 46 bb 89 c8 86 bb 3f 26 b2 3b 3a bc 5c bc
       -0.003031126 -0.004113261 0.005436688 -0.013472611
0003c0 d4 ee 97 3c 12 20 4a bb 8f 82 f1 bc 1d 65 ad bc
       0.0185465 -0.003084187 -0.0294812 -0.021166379
0003d0 95 f6 1a 3d 41 de 7c bc 96 34 cf bc 77 7c 7b 3d
       0.037832815 -0.015433849 -0.02529363 0.061397996
0003e0 b1 fd 13 bd f1 86 14 3d 25 80 f1 bc a8 04 41 bc
       -0.03613061 0.036261503 -0.02948005 -0.011780895
0003f0 a5 6f 6e bc 51 2b 0f bd ef c6 12 3b 6a bf 1a 3d
       -0.014552985 -0.03495342 0.0022396406 0.037780203

action_model._continuous_distribution.mu.bias f4 [6]
000000 ab 63 21 3b ed 6e 67 3c da e0 c6 3b 36 a1 29 3a
       0.0024626057 0.014125568 0.006069285 0.00064708607
000010 29 6a 97 b9 d2 e2 6b ba
       -0.0002888006 -0.00089983374
