results/PlayerAgentTest/MediumPlayer/MediumPlayer-499976.onnx (onnx, 275220 bytes, 7 tensors)

network_body._body_endoder.seq_layers.0.weight f4 [128, 396]
-0.04725768 0.07963555 0.012012881 -0.025369434 -0.054575954 -0.0060154516 0.07505327 0.07168015
0.013015244 -0.04947826 0.043107923 -0.024072975 0.1226237 0.031060325 0.017973796 -0.028264793
-0.057634655 -0.005495238 0.0321897 -0.068045445 -0.00013482236 0.008124354 0.023129731 -0.111398675
-0.046123322 -0.05598554 -0.021627793 0.05709309 0.062301207 0.009417293 -0.0011618203 -0.00034748268
-0.03309555 -0.023110146 0.064184405 0.016393501 -0.021334872 0.026649924 -0.011716981 0.037447434
0.029808387 0.012456602 -0.010938673 0.031067243 -0.013380162 -0.014339821 0.06271641 0.05795377
-0.009795402 0.0045292103 -0.02816206 -0.071554735 0.015719125 -0.044422615 0.044797193 -0.031779274
0.004239094 0.039264757 0.0388898 -0.02742284 -0.047288332 -0.014893343 0.019057553 -0.025240906
0.034230378 -0.04194667 -0.079410166 0.006027858 -0.0062575713 -0.016139347 0.044929687 -0.0012368731
0.050786804 0.016646147 0.051073894 -0.013069772 0.09301628 0.029790863 -0.09760066 -0.049505867
-0.108294785 -0.07351154 0.033965517 0.085404135 -0.088468425 0.058982763 -0.06131831 -0.026222648
-0.05942676 0.035868872 -0.0017957541 -0.022308873 -0.021254266 0.026028078 -0.039380427 -0.033419523
-0.027514992 0.020168146 -0.04363538 -0.0023873746 -0.050029557 -0.07176863 -0.0051454776 -0.025841916
-0.005566417 -0.072073795 0.022206686 -0.03770935 -0.033661984 0.036919534 -0.015550663 0.0047181197
0.043558706 -0.048945803 0.031652555 0.015333454 -0.089582615 0.02561541 0.043504875 0.037125323
0.024772236 0.030317312 -0.008855308 0.050602198 -0.0414623 0.010794074 -0.0026452402 -0.05497268
0.011607506 -0.0023288657 0.0038542948 -0.043068614 0.020427307 -0.033367906 0.02731181 -0.051744007
0.013409176 -0.12034403 -0.007025286 0.076333225 -0.008426368 -0.048992198 -0.0069669094 0.027137157
-0.031881057 -0.008141542 -0.080904104 0.039022114 0.010386945 0.013891111 -0.008128271 0.05471792
-0.08075151 0.040594026 -0.05859497 0.05912287 -0.046000507 -0.009948084 -0.06423225 -0.05824642
0.031847283 0.014137537 0.036682494 -0.052983884 0.08848303 0.008451972 0.017332677 -0.018182762
0.015686983 -0.02541841 -0.061990306 0.031861376 0.018856434 0.005892447 0.04757086 -0.021530068
-0.00944543 -0.11553026 -0.11871511 -0.040634166 0.04375754 1.3785759e-05 -0.04577657 -0.06264933
0.027332924 -0.06201033 -0.05312381 0.06292424 0.030994732 0.0018272311 0.040493395 0.064355455
0.023970086 0.031862725 0.026770776 -0.0061484394 0.12793213 -0.006453231 -0.07415476 0.022760123
0.02418227 0.00029270822 0.06026641 -0.08545305 -0.07507958 -0.05395866 0.03896233 -0.013201836
-0.0585368 -0.00011562438 -0.05527085 0.060183357 -0.06418487 0.056730315 -0.009952729 -0.019844446
0.023274656 -0.015569301 -0.058267582 -0.0005608154 -0.032424722 0.059771556 0.052250043 0.15106821
0.04059928 -0.02740679 0.054261077 0.07885562 0.0018407607 -0.04561907 0.00858667 -0.022455772
0.115935154 0.04506899 0.090885654 -0.13195188 -0.028793743 -0.10493664 -0.038498294 0.07196427
0.048319962 0.06372105 -0.037825037 -0.0385661 0.025839511 -0.012243816 -0.0069788424 -0.08403947
-0.10044775 5.4481483e-05 -0.03557035 0.08307608 -0.0069055115 -0.07178543 -0.006576617 0.02860194
00000000: 4591 41bd f717 a33d add1 443c 8fd3 cfbc
00000010: 098b 5fbd 441d c5bb 87b5 993d 0bcd 923d
00000020: e43d 553c b7a9 4abd ef91 303d b034 c5bc
00000030: 2222 fb3d 3972 fe3c c83d 933c 918b e7bc
00000040: 5112 6cbd 6611 b4bb 59d9 033d 695b 8bbd
00000050: 1a5f 0db9 031c 053c 907a bd3c fd24 e4bd
00000060: cfeb 3cbd 1851 65bd c52c b1bc 72da 693d
00000070: 8d2f 7f3d fd4a 1a3c 3848 98ba 562e b6b9
00000080: 338f 07bd 7d51 bdbc 1d73 833d aa4b 863c
00000090: 78c6 aebc f150 da3c 95f8 3fbc 7b62 193d
000000a0: b830 f43c c716 4c3c 1f38 33bc bb80 fe3c
000000b0: 7838 5bbc 92f1 6abc 7671 803d ef60 6d3d
000000c0: e57c 20bc c569 943b 1fb4 e6bc 4a8b 92bd
000000d0: 65c5 803c 7df4 35bd 437d 373d fc2a 02bd
000000e0: 19e8 8a3b 15d4 203d e94a 1f3d dda5 e0bc
000000f0: 69b1 41bd 3503 74bc 961e 9c3c 04c6 cebc
00000100: 2735 0c3d 45d0 2bbd cca1 a2bd 5685 c53b
00000110: 500c cdbb aa36 84bc 3108 383d 931e a2ba
00000120: d305 503d 805d 883c dc32 513d 9922 56bc
00000130: 527f be3d f80b f43c dbe2 c7bd aac6 4abd
00000140: a8c9 ddbd 388d 96bd 6d1f 0b3d 5de8 ae3d
00000150: ef2e b5bd e997 713d e928 7bbd e1d0 d6bc
00000160: 7969 73bd 3deb 123d 825f ebba 19c1 b6bc
00000170: 6d1d aebc d638 d53c 5f4d 21bd e9e2 08bd
00000180: 1f67 e1bc ab37 a53c 03bb 32bd 8075 1cbb
00000190: cbeb 4cbd 6efb 92bd 659b a8bb 6db2 d3bc
000001a0: 7d66 b6bb 6d9b 93bd ccea b53c 1f75 1abd
000001b0: 26e1 09bd f038 173d 35c8 7ebc 759a 9a3b
000001c0: 9d6a 323d 657b 48bd 1ca6 013d 2b39 7b3c
000001d0: 1777 b7bd 69d7 d13c 2b32 323d b910 183d
000001e0: 25ef ca3c 035c f83c db15 11bc 4044 4f3d
000001f0: 5fd4 29bd a1d9 303c c45b 2dbb 082b 61bd
00000200: 692d 3e3c e29f 18bb 5698 7c3b b768 30bd
00000210: 2b57 a73c c9ac 08bd 04bd df3c 86f1 53bd
00000220: 29b2 5b3c ee76 f6bd 5f34 e6bb 9854 9c3d
00000230: c00e 0abc 0bac 48bd ac4a e4bb be4e de3c
00000240: b695 02bd 1a64 05bc 0db1 a5bd a7d5 1f3d
00000250: 012e 2a3c 8b97 633c 712c 05bc e61f 603d
00000260: 0c61 a5bd ec45 263d 4701 70bd d32a 723d
00000270: 076b 3cbd 4afd 22bc 338c 83bd cc93 6ebd
00000280: 4c72 023d 21a1 673c 6240 163d a105 59bd
00000290: 9736 b53d 247a 0a3c 42fd 8d3c 04f4 94bc
000002a0: fd81 803c 453a d0bc 8ce9 7dbd 1381 023d
000002b0: cf78 9a3c 6e15 c13b a9d9 423d d35f b0bc
000002c0: 01c1 1abc 219b ecbd e820 f3bd 0370 26bd
000002d0: 1b3b 333d 6249 6737 3680 3bbd 4b4e 80bd
000002e0: 4ce9 df3c 8bfe 7dbd 5a98 59bd 6dde 803d
000002f0: aae8 fd3c b47f ef3a 67dc 253d cbcc 833d
00000300: ea5c c43c 7d82 023d 634e db3c d978 c9bb
00000310: a400 033e a075 d3bb 73de 97bd 7073 ba3c
00000320: e519 c63c a276 9939 e9d9 763d 0202 afbd
00000330: 53c3 99bd c203 5dbd f796 1f3d 834c 58bc
00000340: 49c4 6fbd 5e7b f2b8 b063 62bd d382 763d
00000350: 5b73 83bd 0c5e 683d c510 23bc d290 a2bc
00000360: 7eaa be3c 6216 7fbc fda9 6ebd af03 13ba
00000370: c9cf 04bd 05d3 743d 2404 563d a0b1 1a3e
00000380: 6e4b 263d 3484 e0bc dd40 5e3d 0e7f a13d
00000390: ae45 f13a 10db 3abd 1baf 0c3c 2bf5 b7bc
000003a0: 696f ed3d 439a 383d 4222 ba3d 651e 07be
000003b0: dbe0 ebbc 05e9 d6bd 63b0 1dbd 0162 933d
000003c0: 27eb 453d 2f80 823d 6dee 1abd 7df7 1dbd
000003d0: 62ad d33c 499a 48bc c6ae e4bb e31c acbd
000003e0: 8db7 cdbd 0c83 6438 37b2 11bd cb23 aa3d
000003f0: a147 e2bb 3d04 93bd a980 d7bb 9e4e ea3c

network_body._body_endoder.seq_layers.0.bias f4 [128]
-7.8665886e-05 -0.0064284457 -0.00030887444 0.00488086 0.01026795 0.020941766 0.015007074 -0.008952024
-0.003014175 0.007783642 0.005916743 0.0029430075 0.017509464 0.0058029527 0.014731811 0.0046143234
-0.0008872389 -0.010556556 0.011323215 0.0038439066 0.010085284 0.002089323 -0.009167956 0.0069164787
0.015854193 0.008058744 -0.00455181 0.006093017 -0.00938364 0.011010016 -0.008079976 -0.008896738
0.00611507 0.0023439138 0.0051913382 0.008550781 0.010008197 0.0039556776 0.00042919692 -0.0036847035
-0.0065168845 0.010573178 0.013838201 0.014507349 -0.005927684 0.010026175 -0.0033320258 -0.012248861
-0.009383723 -0.0060959673 -0.0090849595 -0.0016468434 0.001736583 -0.00066558126 -0.0042427056 0.012142157
0.0030151943 0.006291614 0.014426862 0.01398312 -0.005659596 0.003211933 0.0017171681 -0.007868078
-0.006249481 0.012016778 0.016105752 -0.005657562 0.010662115 -0.008802264 -0.001876576 0.014026704
-0.0023581511 0.007126444 0.00054190005 -0.006820026 -0.0054183383 0.0052397 0.010149871 -0.01125313
-0.011120362 -0.010470485 -0.0059254705 -0.0011547019 0.013651178 0.009850099 -0.0029562276 0.0023613237
0.0028279815 0.0049833492 -0.003723897 -0.0008179104 0.00055060076 0.0022942624 0.0013108032 0.015026894
0.0059296354 0.007277026 0.0028407895 -0.0008545503 0.010581227 -0.017433513 -0.00016302036 -0.008977861
-0.0042384714 -0.012945776 -0.005838559 -0.007823592 0.007831252 -0.0012381583 0.015732009 0.00085443055
0.018053701 0.0045690867 -0.001219758 -0.002642057 -0.006032168 0.006477725 -0.005798301 0.0003346215
0.010199262 0.008119023 -0.0011113756 -0.002676885 0.0012780253 0.006429114 0.0021119388 -0.0059373635
00000000: 6df9 a4b8 b6a5 d2bb 6df0 a1b9 9fef 9f3b
00000010: e73a 283c 118e ab3c 3be0 753c 83ab 12bc
00000020: 7789 45bb ec0d ff3b 3de1 c13b 79df 403b
00000030: 0270 8f3c b226 be3b b25d 713c c033 973b
00000040: 9895 68ba 68f5 2cbc 0285 393c 0dea 7b3b
00000050: bf3c 253c 06ed 083b 3235 16bc a1a3 e23b
00000060: a7e0 813c d208 043c 5a27 95bb eea7 c73b
00000070: d7bd 19bc 5b63 343c e061 04bc a0c3 11bc
00000080: ed60 c83b 599c 193b 1a1c aa3b 9318 0c3c
00000090: 6cf9 233c a19e 813b d605 e139 117b 71bb
000000a0: 978b d5bb 1f3b 2d3c 9fb9 623c 3bb0 6d3c
000000b0: 043d c2bb d344 243c 1e5e 5abb 72af 48bc
000000c0: 30be 19bc aec0 c7bb 15d9 14bc e5da d7ba
000000d0: 0e9e e33a 677a 2eba 6506 8bbb e6ef 463c
000000e0: 919a 453b e229 ce3b a55e 6c3c 7519 653c
000000f0: 2274 b9bb 4b7f 523b 9a12 e13a 1ce9 00bc
00000100: 72c8 ccbb 05e2 443c 36f0 833c 1263 b9bb
00000110: 27b0 2e3c 5f37 10bc 71f7 f5ba 43d0 653c
00000120: 368b 1abb f284 e93b 4c0e 0e3a 867a dfbb
00000130: 518c b1bb cab1 ab3b a54b 263c 0c5f 38bc
00000140: 2e32 36bc 668c 2bbc 732a c2bb 5e59 97ba
00000150: 31a9 5f3c 4f62 213c 45bd 41bb 70c0 1a3b
00000160: a855 393b 5d4b a33b a00c 74bb 0a69 56ba
00000170: 3156 103a 565b 163b 42cf ab3a 5d33 763c
00000180: 634d c23b 1e74 ee3b 8a2c 3a3b e603 60ba
00000190: e25c 2d3c bad0 8ebc 72f0 2ab9 e117 13bc
000001a0: e0e2 8abb 851a 54bc 6251 bfbb 862e 00bc
000001b0: a74e 003c b349 a2ba 6ae0 803c ddfb 5f3a
000001c0: 5be5 933c 47b8 953b 49e0 9fba 5c26 2dbb
000001d0: 7ea9 c5bb 1943 d43b adff bdbb 2370 af39
000001e0: ce1a 273c a705 053c 94ab 91ba ae6e 2fbb
000001f0: 6a83 a73a 51ab d23b 7468 0a3b 378e c2bb

network_body._body_endoder.seq_layers.2.weight f4 [128, 128]
-0.046401512 0.12421145 -0.03538621 0.03554123 -0.08585315 0.04184303 -0.074258715 0.07398997
0.07440912 0.05202613 0.10149239 -0.0031909444 0.036798876 -0.037346732 -0.018474093 0.19501609
-0.17785147 -0.11160913 -0.12470121 0.018687036 -0.008318045 -0.19638604 -0.03778724 0.0846497
0.05255379 -0.2411338 0.058692522 0.038712796 0.11541646 0.074646875 0.027901009 -0.05249166
-0.066154696 0.02303787 0.02935413 0.07256277 -0.07857606 -0.07418775 -0.049245305 0.058218293
-0.06853736 -0.05006516 0.22609305 0.067364365 -0.09680514 -0.021332314 0.0243371 -0.18042052
-0.09437869 0.11301682 -0.13900736 -0.0038911267 -0.036015753 0.067929395 0.11417173 -0.014517714
0.009245472 0.074676655 0.017908836 -0.021701574 0.03317975 -0.08175863 -0.03528807 -0.14939347
0.07725535 -0.042509727 0.0716257 0.037465815 -0.018969825 -0.05736802 0.06977193 0.16968022
-0.051951524 0.03280774 0.032020487 0.032152336 -0.1139702 0.0032892188 -0.0023553614 -0.08478685
0.038238216 -0.067554235 0.107832804 -0.059119638 0.1721375 0.09022908 0.1746476 -0.182843
-0.10984561 -0.073851764 0.15025792 -0.072981834 0.051077437 -0.018442065 0.17943543 -0.018885974
0.05085263 0.019713243 -0.043317895 -0.17925142 0.085368104 -0.059241362 -0.06681274 -0.06217505
-0.07667343 -0.01458508 -0.19793624 -0.12323569 -0.14672628 -0.06178743 0.08460346 -0.061403967
0.058291573 0.0024331133 -0.047787156 0.060484473 0.0087934695 0.1110657 -0.044586383 -0.06667397
-0.017642701 0.005211347 0.07349878 -0.12722665 -0.050115615 -0.12462968 -0.021242648 -0.14173406
-0.10301661 -0.046219278 0.08464966 -0.11096818 0.038231444 0.096558265 -0.015454695 0.049094997
0.14179671 -0.008088384 0.016444858 -0.054142576 0.004684526 0.03444742 -0.020553844 0.07347972
-0.0614903 -0.20898238 0.025244841 0.09697912 0.07454206 0.08418475 0.008147626 -0.056303322
-0.048281644 0.15214983 0.09512071 0.09149332 0.03223868 -0.027430484 -0.12480102 -0.10545008
0.03648959 0.023380538 0.029170705 -0.056676395 0.03301262 -0.025767503 0.1072751 0.020500584
-0.011102389 -0.19515797 -0.030308811 -0.091197826 -0.09254677 0.068776585 -0.07952459 0.007616955
-0.032007985 -0.07542907 0.03567056 -0.040131394 -0.0035365724 -0.062223047 -0.010437646 -0.07475959
-0.06468604 -0.057472754 0.04979757 0.009049522 -0.0634343 -0.033224452 -0.007118962 -0.030838752
0.040953875 -0.05757637 0.029881302 0.13883798 0.040280305 0.010177342 -0.05842185 -0.030388081
-0.14637518 0.16406843 0.00790198 0.012772344 -0.12500592 -0.0011313597 0.009679114 0.06411189
-0.11434644 -0.14411333 -0.029989267 0.20879234 0.1037039 0.11916755 0.03316918 -0.1042718
0.16328338 -0.22050563 -0.07882734 -0.18562004 0.013671184 0.029074075 0.051182307 0.04321349
-0.0077522867 0.111271575 0.06365 -0.02881482 -0.062190432 -0.015487301 0.028044758 0.08275932
0.07306207 0.1547239 -0.029580828 0.033523764 -0.21104929 0.07815267 -0.12651324 -0.1336566
-0.010632644 -0.0974677 0.13260944 -0.060257506 0.15996876 0.02459209 -0.09193736 -0.03028792
0.04428156 -0.132802 -0.09456334 -0.09002398 -0.09564412 0.009054538 -0.0114415195 -0.109456226
00000000: 830f 3ebd 9362 fe3d 21f1 10bd ae93 113d
00000010: c7d3 afbd 9963 2b3d f414 98bd 0e88 973d
00000020: cf63 983d 5a19 553d 3edb cf3d 2a1f 51bb
00000030: 6bba 163d e3f8 18bd fb56 97bc 4cb2 473e
00000040: b21e 36be 5493 e4bd 5963 ffbd 8e15 993c
00000050: 6948 08bc 6c19 49be cbc6 1abd d25c ad3d
00000060: a542 573d c7eb 76be 9267 703d 4f91 1e3d
00000070: 775f ec3d 76e0 983d a890 e43c 7f01 57bd
00000080: 1d7c 87bd eab9 bc3c 1378 f03c ca9b 943d
00000090: 7cec a0bd bfef 97bd 72b5 49bd 4e76 6e3d
000000a0: 515d 8cbd 2011 4dbd f084 673e 54f6 893d
000000b0: c641 c6bd 1bc1 aebc 995e c73c 28c0 38be
000000c0: 9d49 c1bd 5d75 e73d f257 0ebe 4602 7fbb
000000d0: 4185 13bd 911e 8b3d ded2 e93d b5db 6dbc
000000e0: 527a 173c 13f0 983d 8db5 923c 80c7 b1bc
000000f0: 7de7 073d 1271 a7bd 398a 10bd 9afa 18be
00000100: 0e38 9e3d ae1e 2ebd 7fb0 923d c175 193d
00000110: 9b66 9bbc bbfa 6abd 96e4 8e3d a7c0 2d3e
00000120: 1fcb 54bd 6961 063d ea27 033d 2bb2 033d
00000130: 3569 e9bd ef8f 573b 685c 1abb baa4 adbd
00000140: ad9f 1c3d e059 8abd 72d7 dc3d 6f27 72bd
00000150: d044 303e 06ca b83d d2d6 323e 323b 3bbe
00000160: bcf6 e0bd 983f 97bd 36dd 193e 8077 95bd
00000170: 9336 513d d013 97bc ecbd 373e c2b6 9abc
00000180: d94a 503d ab7d a13c 1b6e 31bd af8d 37be
00000190: 79d5 ae3d 12a7 72bd 1ed5 88bd 44ab 7ebd
000001a0: f606 9dbd 42f6 6ebc ccaf 4abe fe62 fcbd
000001b0: 6a3f 16be d114 7dbd 9444 ad3d ba82 7bbd
000001c0: 25c3 6e3d de74 1f3b 77bc 43bd 91be 773d
000001d0: 7c12 103c 6a76 e33d 36a0 36bd 5d8c 88bd
000001e0: 6d87 90bc f2c3 aa3b 8786 963d b447 02be
000001f0: 0846 4dbd d83d ffbd 1005 aebc bc22 11be
00000200: 5ffa d2bd 6d50 3dbd cd5c ad3d 4943 e3bd
00000210: 9398 1c3d 57c0 c53d b035 7dbc d617 493d
00000220: 2833 113e 2485 04bc 5eb7 863c 9bc4 5dbd
00000230: a780 993b bd18 0d3d 8960 a8bc 897c 963d
00000240: 41dd 7bbd 7aff 55be 45ce ce3c fd9c c63d
00000250: 82a9 983d 0e69 ac3d 9f7d 053c 509e 66bd
00000260: f9c2 45bd 2acd 1b3e a6ce c23d da60 bb3d
00000270: b50c 043d e5b5 e0bc ad97 ffbd 36f6 d7bd
00000280: 1c76 153d 8b88 bf3c 67f7 ee3c 8225 68bd
00000290: 3e38 073d 5f16 d3bc 0cb3 db3d d7f0 a73c
000002a0: cbe6 35bc 7ed7 47be 2f4a f8bc edc5 babd
000002b0: 2989 bdbd bdda 8c3d cadd a2bd a697 f93b
000002c0: ce1a 03bd 8e7a 9abd 4b1b 123d d160 24bd
000002d0: d7c5 67bb 98dd 7ebd a902 2bbc 8e1b 99bd
000002e0: 1d7a 84bd 8d68 6bbd 89f8 4b3d 7244 143c
000002f0: d8e9 81bd 5d16 08bd 2e46 e9bb 8da1 fcbc
00000300: 40bf 273d 33d5 6bbd a2c9 f43c 8b2b 0e3e
00000310: f6fc 243d debe 263c c04b 6fbd 6df0 f8bc
00000320: 60e3 15be 8e01 283e 4e77 013c 1843 513c
00000330: 8d01 00be 224a 94ba 2695 1e3c 184d 833d
00000340: 772e eabd 7292 13be 0dac f5bc a9cd 553e
00000350: b662 d43d 1e0e f43d 68dc 073d 748c d5bd
00000360: c233 273e 3acc 61be 3a70 a1bd 2e13 3ebe
00000370: 1afd 5f3c c12c ee3c 8aa4 513d a100 313d
00000380: e506 febb 5ae2 e33d ee5a 823d 0f0d ecbc
00000390: 65bb 7ebd 73be 7dbc 1fbe e53c b87d a93d
000003a0: 91a1 953d f16f 1e3e 7e53 f2bc 3750 093d
000003b0: 4e1d 58be 820e a03d b08c 01be 47dd 08be
000003c0: 8b34 2ebc 259d c7bd c5ca 073e 93d0 76bd
000003d0: dace 233e 5a75 c93c a849 bcbd 5f1e f8bc
000003e0: 9560 353d 3ffd 07be 6daa c1bd 7e5e b8bd
000003f0: 10e1 c3bd 7c59 143c 3675 3bbc 962a e0bd

network_body._body_endoder.seq_layers.2.bias f4 [128]
0.012724124 0.0042555756 0.0041021467 0.004668045 -0.002745692 -0.0047957157 -0.011749845 0.014757608
0.014977807 -0.0026761056 -0.0027724358 -0.003981333 0.015724175 0.002512917 -0.0028053543 0.0036292188
-0.004743198 -0.012359785 0.009935482 0.001927704 0.0014196945 0.0037491329 -0.008293818 0.004158231
-0.0027578173 0.0014511561 -0.004789145 0.01318169 0.004571846 0.014196981 0.014551099 0.001582174
-0.0025396764 0.00026159867 0.012878713 0.0042928997 -0.004676289 -0.00406705 -0.022539007 0.0003095249
0.007795067 0.0149174705 0.002576826 0.005942002 0.005067535 -0.0064653205 0.00033457458 -0.006510016
0.0035429043 0.0023860838 -0.0047524 0.003595515 0.0038293274 5.8392543e-05 -0.014963097 0.013814077
-0.003325005 0.011638692 -0.007976415 -0.004639726 -0.001630197 -0.0044234195 -0.00564303 0.0047835824
-0.0020170456 0.0081340885 0.007950421 -0.002213038 -0.00891883 -0.004345925 0.016430788 0.013897175
0.0045184363 -0.018801732 0.0029808986 -0.0023493208 0.011083592 0.0017568828 -0.0043165935 0.0012182244
-0.01538019 -0.009399038 -0.00027987405 -0.014631799 -0.004904929 0.012014469 -0.0052533094 0.019432656
0.025849923 0.011273505 0.0015737864 -0.004857621 -0.003390759 -0.007769553 0.0091375895 0.004934977
0.009637098 -0.00086096214 0.005861556 0.004509394 0.011705374 0.013066156 0.008320636 0.0128236795
0.010896496 0.0014801912 -0.005022023 -0.005070781 -0.0026149799 0.0045626964 -0.0075761904 -0.004441301
0.016162902 0.014756736 0.016071524 0.0049389955 -0.0038104614 0.005719425 -0.00039865292 0.0071169594
0.0058734803 0.005411908 0.0022653928 0.016281728 -0.0077612046 -0.01986528 -0.00023689766 0.010777582
00000000: d878 503c 5b72 8b3b 4d6b 863b 66f6 983b
00000010: 11f1 33bb 6125 9dbb 6c82 40bc e5c9 713c
00000020: 7a65 753c 9a61 2fbb c1b1 35bb d875 82bb
00000030: fccf 803c c0af 243b 09da 37bb 30d8 6d3b
00000040: d46c 9bbb b280 4abc 6fc8 223c 03ab fc3a
00000050: 0b15 ba3a 03b4 753b cbe2 07bc c541 883b
00000060: 7fbc 34bb b834 be3a 43ee 9cbb 04f8 573c
00000070: 6dcf 953b 749a 683c bc67 6e3c f360 cf3a
00000080: b370 26bb 2e27 8939 3d01 533c 74ab 8c3b
00000090: 8e3b 99bb e344 85bb b9a3 b8bc bb47 a239
000000a0: c36d ff3b 6868 743c f7df 283b 20b5 c23b
000000b0: 910d a63b 0adb d3bb d769 af39 f951 d5bb
000000c0: 1230 683b d85f 1c3b 05ba 9bbb bba2 6b3b
000000d0: 74f5 7a3b 84ea 7438 c727 75bc 7054 623c
000000e0: 54e8 59bb 36b0 3e3c 82af 02bc d808 98bb
000000f0: 56ac d5ba 55f2 90bb 2be9 b8bb 99bf 9c3b
00000100: 6930 04bb d744 053c 7c42 023c 9e08 11bb
00000110: 4920 12bc 4368 8ebb dc99 863c fab0 633c
00000120: 640f 943b 1706 9abc 2e5b 433b 10f7 19bb
00000130: f497 353c 3447 e63a 3672 8dbb d4ac 9f3a
00000140: 31fd 7bbc 6cfe 19bc 0fbc 92b9 37ba 6fbc
00000150: 87b9 a0bb 56d8 443c f423 acbb 3c31 9f3c
00000160: 38c3 d33c 82b4 383c 8247 ce3a ae2c 9fbb
00000170: 7f37 5ebb bc97 febb d4b5 153c 96b5 a13b
00000180: ebe4 1d3c 31b2 61ba 4c12 c03b 8ac3 933b
00000190: e6c7 3f3c 6e13 563c 4753 083c 691a 523c
000001a0: 3787 323c fa02 c23a c88f a4bb cb28 a6bb
000001b0: 1560 2bbb ac82 953b b141 f8bb 5588 91bb
000001c0: 1068 843c 3dc6 713c 6ea8 833c 4cd7 a13b
000001d0: efb8 79bb 046a bb3b 4a02 d1b9 6235 e93b
000001e0: 5376 c03b 6056 b13b fc76 143b 4261 853c
000001f0: b451 febb 83bc a2bc bb67 78b9 7594 303c

action_model._continuous_distribution.log_sigma f4 [1, 6]
-0.07321293 -0.11831281 -0.0029211242 0.01319137 -0.0012916211 0.014515919
00000000: a9f0 95bd fd4d f2bd 5570 3fbb 9e20 583c
00000010: 9d4b a9ba 2dd4 6d3c

action_model._continuous_distribution.mu.weight f4 [6, 128]
0.021586185 0.012398879 0.031186791 -0.049346056 0.012006294 0.0024263656 0.0020143266 -0.06650289
-0.015005529 0.023369791 0.021620665 0.009375395 -0.0026522086 -0.032888804 -0.005665261 -0.035970178
-0.021043133 -0.003555422 -0.013101419 -0.028644444 -0.044980645 -0.055644713 -0.036086258 -0.033361387
-0.004046037 0.019555707 0.0154963005 -0.045567434 -0.029456414 -0.073241524 0.052203566 -0.043139398
-0.0075515974 0.01834684 0.02043169 -0.023537451 0.013537302 0.017839408 0.03592735 -0.011797599
0.047443297 -0.048380636 0.03633886 -0.04019612 0.0054286355 -0.01036421 0.001074714 -0.010164635
-0.034497317 -0.005852528 0.016369017 0.04003915 -0.02309722 -0.029827448 0.010662343 -0.0151430825
-0.011488774 0.029149551 -0.007931316 0.02167588 -0.008345231 -0.049498912 -0.016151993 0.026878025
-0.001455717 0.008339697 -0.047408782 -0.040368594 0.016817072 0.01070701 -0.042441204 0.014929101
-0.05379992 0.030145993 0.006463672 -0.0011781475 -0.020818962 -0.008875633 -0.020327255 0.032356
0.027104603 -0.008707224 -0.028283581 0.024911549 -0.023881955 0.01612814 0.012591728 -0.058267817
-0.06543891 0.008888369 -0.033899296 -0.010333063 0.011784324 -0.019319912 -0.014458262 0.0064302976
0.04383929 -0.029261451 0.02586576 0.027168186 0.017667519 -0.040543932 0.0062483335 -0.06334026
-0.0050552837 -0.008244371 0.0096832495 -0.034603804 0.011083342 -0.029194767 -0.012507798 -0.0045697214
-0.016693316 0.058538675 0.008388382 -0.042841382 -0.0022030647 0.044585254 -0.014672312 -0.04189515
-0.045488395 0.053823844 0.007942595 -0.020758709 -0.009077188 0.018393468 -0.019684259 0.033719897
-0.020527398 -0.030549522 0.0122465165 0.025816534 0.02227431 -0.003406985 0.008150151 -0.050146826
-0.036571126 -0.004504261 0.012085729 0.019545007 -0.032588094 -0.009816331 0.04434338 0.00428934
0.023981065 0.019275721 -0.014645912 -0.015083371 -0.012282146 0.017899057 0.034146536 -0.0066873296
0.00396364 0.0377873 0.014423013 -0.04685395 0.0078247115 0.0014940827 -0.014851029 0.03180085
0.019270923 -0.028314583 -0.030597078 -0.043741625 0.019214822 0.065196164 0.0071792547 0.008347561
-0.010320347 0.026760027 0.05486856 -0.012725359 -0.0063983253 0.02404621 0.027896482 0.02476164
0.030773709 0.018316299 -4.5818947e-06 0.0051468816 -0.020689784 -0.0037156772 0.03133121 -0.04066059
0.022789009 -0.051890112 0.019881397 -0.019867994 0.033670936 -0.016409874 -0.006936885 0.0384055
0.043723673 -0.035923958 0.027936617 0.004737056 0.02725825 -0.00493034 -0.025235392 -0.032005765
-0.008941469 0.04292201 0.0067575113 0.013786443 -0.011365064 0.036103643 0.021372246 0.032469604
0.026721666 -6.0082933e-05 -0.014435747 0.02918959 -0.022439912 -0.023149772 -0.0054935385 0.027168574
-0.0064533628 -0.03369439 0.017706636 0.008274281 0.0057251714 0.015603368 -0.028353907 0.005101284
0.030034238 0.02776252 -0.0023076606 -0.018503439 -0.032447547 -0.007263441 0.03785104 0.020082071
-0.02755796 0.03127608 0.003718631 0.0006139828 0.021694545 -0.0009238578 0.020702062 -0.0060016923
-0.048441157 -0.016172513 -0.056079134 0.017417602 -0.010349265 -0.020234503 -0.01448953 0.04252447
-0.011019959 -0.02642871 -0.023105688 -0.05340078 0.04624406 0.023124404 0.020444535 -0.022436056
00000000: 83d5 b03c ab24 4b3c 717b ff3c 171f 4abd
00000010: 0cb6 443c a903 1f3b cb02 043b ab32 88bd
00000020: c0d9 75bc 0172 bf3c d21d b13c 429b 193c
00000030: add0 2dbb 69b6 06bd a7a3 b9bb 7755 13bd
00000040: a662 acbc 1502 69bb 56a7 56bc c1a7 eabc
00000050: a03d 38bd b6eb 63bd 2fcf 13bd f3a5 08bd
00000060: 9e94 84bb 4a33 a03c 32e4 7d3c eba4 3abd
00000070: 944e f1bc a7ff 95bd 68d3 553d f0b2 30bd
00000080: 6473 f7bb 1d4c 963c 5c60 a73c 9dd1 c0bc
00000090: 8fcb 5d3c f323 923c 8f28 133d b74a 41bc
000000a0: e753 423d c62a 46bd 0ed8 143d b0a4 24bd
000000b0: b2e2 b13b a6ce 29bc 6bdd 8c3a 9289 26bc
000000c0: 0f4d 0dbd 90c6 bfbb 5118 863c 1700 243d
000000d0: 6236 bdbc b158 f4bc 1cb1 2e3c b11a 78bc
000000e0: 693b 3cbc 0acb ee3c 5af2 01bc 9d91 b13c
000000f0: 70ba 08bc 5fbf 4abd 2f51 84bc 4e2f dc3c
00000100: c2cd beba 39a3 083c b62f 42bd 8a59 25bd
00000110: f5c3 893c 746c 2f3c d4d6 2dbd 3099 743c
00000120: 4e5d 5cbd bbf4 f63c 36cd d33b 126c 9aba
00000130: 878c aabc 1a6b 11bc 5885 a6bc ba87 043d
00000140: 790a de3c bfa8 0ebc f8b2 e7bc 4e13 cc3c
00000150: 17a4 c3bc 291f 843c 894d 4e3c 3caa 6ebd
00000160: d604 86bd 86a0 113c fdd9 0abd 024c 29bc
00000170: 0a13 413c cb44 9ebc 59e2 6cbc 3fb5 d23b
00000180: d490 333d b6b5 efbc 6ee4 d33c d18f de3c
00000190: 79bb 903c 6511 26bd d2be cc3b 8ab8 81bd
000001a0: cba6 a5bb 6613 07bc 7ea6 1e3c b8bc 0dbd
000001b0: e896 353c dd29 efbc 82ed 4cbc 9abd 95bb
000001c0: 6cc0 88bc 40c6 6f3d 6d6f 093c 727a 2fbd
000001d0: 4b61 10bb 079f 363d 2364 70bc 409a 2bbd
000001e0: 0a52 3abd 6476 5c3d a821 023c 2b0e aabc
000001f0: 7cb8 14bc e6ad 963c e240 a1bc e01d 0a3d
00000200: 1329 a8bc fe42 fabc 9da5 483c 327d d33c
00000210: 9d78 b63c b947 5fbb 3688 053c c266 4dbd
00000220: 9bcb 15bd 7b98 93bb 3903 463c da1c a03c
00000230: 187b 05bd add4 20bc 67a1 353d 988d 8c3b
00000240: f073 c43c 1ee8 9d3c 68f5 6fbc 3e20 77bc
00000250: 0e3b 49bc 0ba1 923c 3ddd 0b3d 6321 dbbb
00000260: 6ce1 813b dbc6 1a3d 804e 6c3c ede9 3fbd
00000270: 3833 003c 19d5 c33a bb51 73bc 9c41 023d
00000280: 0ede 9d3c fcf3 e7bc b9a6 fabc 6b2a 33bd
00000290: 6768 9d3c 9185 853d f43f eb3b 35c4 083c
000002a0: ac16 29bc d837 db3c dbbd 603d 067e 50bc
000002b0: 0ba9 d1bb 8ffc c43c 2a87 e43c ecd8 ca3c
000002c0: 2519 fc3c 100c 963c 2dbe 99b6 2ca7 a83b
000002d0: 9f7d a9bc b882 73bb 2855 003d b88b 26bd
000002e0: 04b0 ba3c ba8a 54bd 50de a23c 34c2 a2bc
000002f0: 89ea 093d 006e 86bc cf4e e3bb 164f 1d3d
00000300: 9817 333d 0025 13bd 55db e43c 4e39 9b3b
00000310: b24c df3c b18e a1bb 74ba cebc 7a18 03bd
00000320: 3d7f 12bc fdce 2f3d 1d6e dd3b 88e0 613c
00000330: 8934 3abc 6ae1 133d d914 af3c d9fe 043d
00000340: 65e7 da3c 8f01 7cb8 e983 6cbc 021f ef3c
00000350: e8d3 b7bc 97a4 bdbc 2403 b4bb a190 de3c
00000360: bb76 d3bb 2103 0abd 820d 913c da90 073c
00000370: 389a bb3b 45a5 7f3c 7446 e8bc ac28 a73b
00000380: 5d0a f63c 396e e33c 1f3c 17bb 8694 97bc
00000390: b8e7 04bd 2902 eebb b109 1b3d 2883 a43c
000003a0: 3bc1 e1bc 591b 003d 47b4 733b b0f3 203a
000003b0: c2b8 b13c 0c2f 72ba 5f97 a93c d8a9 c4bb
000003c0: 3c6a 46bd 387c 84bc 3cb3 65bd 5caf 8e3c
000003d0: f78f 29bc d4c2 a5bc 7e65 6dbc 232e 2e3d
000003e0: 0f8d 34bc 0681 d8bc 2448 bdbc c7ba 5abd
000003f0: 696a 3d3d 646f bd3c 4c7b a73c d2cb b7bc

action_model._continuous_distribution.mu.bias f4 [6]
-0.0004817798 -0.009937225 0.012882503 0.0027976225 -0.0006009208 0.0028225495
00000000: 6497 fcb9 becf 22bc 2211 533c 5158 373b
00000010: 1d87 1dba 86fa 383b
