results/PlayerAgentTest/MediumPlayer/MediumPlayer-368714.onnx (onnx, 275220 bytes, 7 tensors)

network_body._body_endoder.seq_layers.0.weight f4 [128, 396]
000000 5b 11 36 bd 30 4c 4a bc 4f 02 67 3c c9 d9 68 3d
       -0.044450145 -0.012347266 0.0140996715 0.05684832
000010 b4 cd 89 3c 4a 1f 84 3c e3 ac 9f 3c e3 8b 21 3a
       0.01682172 0.016128201 0.019491618 0.00061625073
000020 a1 81 fb bc 15 ad 98 bd 60 10 06 3e 4b 63 3b bd
       -0.03070146 -0.07454888 0.13092184 -0.04574899
000030 9f f6 7e 3d 36 0b c5 bc cb 8e 91 bd 72 87 1c 3d
       0.062246915 -0.024053197 -0.07107314 0.03821511
000040 07 4b 49 3d 99 29 03 3c 71 41 a5 bc 51 95 91 ba
       0.049143817 0.008005523 -0.020172806 -0.0011107122
000050 e7 5c 4d bd de 2f b1 bc 84 18 61 3c 20 33 c6 bc
       -0.050137427 -0.02162927 0.013738755 -0.0241943
000060 b6 18 95 3c e0 cc 41 bd 9c 6c f6 3c 0c e0 51 bd
       0.01820026 -0.047314525 0.030081086 -0.05123906
000070 7d b5 45 bd 99 34 10 bd e2 35 1b 3c e1 1c 71 bc
       -0.048268784 -0.03520641 0.009473296 -0.014716358
000080 7f a1 4f bd 6d d9 2a bd 41 17 0a be 9d 5c 41 3d
       -0.050691124 -0.04171126 -0.13485433 0.047207464
000090 7d fb 24 bd 59 68 80 3b ed 77 6e 3c 63 23 88 3d
       -0.0402789 0.003918689 0.01455496 0.066473745
0000a0 be 9a 92 bd 8d 38 5a bd bd c6 81 bc 23 7c fa bc
       -0.07158421 -0.053276587 -0.015841836 -0.030576771
0000b0 1b bb a8 bc f1 df ad 3c a8 a5 d0 bd dd d7 57 bc
       -0.020597031 0.021224948 -0.101878464 -0.013174024
0000c0 9a 61 10 3d cd df 1f 3c 57 76 30 bc 62 50 d4 3d
       0.03524933 0.009757948 -0.010770402 0.10366894
0000d0 95 cb d5 bd e6 3d be 3c 43 ba 84 bb 35 7e 8d bc
       -0.10439221 0.023222875 -0.0040505244 -0.017272094
0000e0 d5 e8 54 3c 79 7e 57 3d 2c 19 77 3b 91 9d 22 bd
       0.012994965 0.052610848 0.0037704213 -0.03970105
0000f0 ff 4f 24 3c d9 ba a6 3c eb 0d 29 3c f9 84 dc 3b
       0.010028838 0.020352768 0.01031826 0.0067297188
000100 ff 2b 21 3d 03 90 d6 3b 09 29 00 3d f1 86 05 bc
       0.0393486 0.0065479293 0.031289134 -0.008149848
000110 7b 60 d4 3c 57 2e b2 3d 59 49 28 3d 55 1c 88 bc
       0.025924912 0.08700245 0.041085575 -0.016615072
000120 0c 9c be 3b c1 1b 9b 3d e7 ee ad 3c b0 f2 15 bc
       0.005816942 0.07573653 0.021232082 -0.0091520995
000130 1f 3f 5d bc 31 57 74 bd 7b c8 dd 3d a5 3d 02 be
       -0.013503819 -0.059653465 0.10829254 -0.12718828
000140 02 1c 81 bd e1 de 0a 3c 5f d1 6c 3c c7 8e bc 3d
       -0.0630417 0.00847599 0.014454215 0.0920692
000150 10 fe a9 3d 48 79 b7 3b 0f 87 e3 bc 47 6a 62 3b
       0.08300412 0.0055991746 -0.027774362 0.003454821
000160 33 c1 0a bd 8c 37 9b bc 8b 9a 33 3d 8e b6 a6 3c
       -0.033875655 -0.018947385 0.043848556 0.02035072
000170 72 6d af 3d 47 00 dc bc dc 3f ab 3d 44 c1 82 bd
       0.08565797 -0.026855601 0.083617896 -0.06384519
000180 64 d4 cb 3c 78 d4 1d 3d b5 3c c0 ba 97 23 06 3d
       0.02488155 0.038532704 -0.001466653 0.032748785
000190 d1 14 46 bd 6c a5 9b bc 78 15 47 3d f7 6d 6a 3d
       -0.048359696 -0.018999778 0.04860446 0.057233777
0001a0 82 96 8e 3c a1 20 ab bc c7 9b b1 bd 31 24 76 bd
       0.017405752 -0.020889582 -0.0867229 -0.06009311
0001b0 69 c3 30 3d 77 2c 24 bb ea e9 da 3c 40 21 92 3a
       0.043155108 -0.0025050917 0.026722867 0.0011148825
0001c0 be 7b f2 3a 35 85 6c bd 99 4d 33 bd 64 fc 12 bd
       0.0018500013 -0.057744224 -0.043775175 -0.03588523
0001d0 d4 36 94 3d 90 1e f3 3c 67 a4 2a bc 6e ee b2 3c
       0.0723702 0.02967766 -0.010415173 0.021842208
0001e0 fe 27 0f 3d cd 01 ce 3d 97 19 3b 3d 85 b9 da 3b
       0.03495025 0.10058937 0.0456787 0.0066749477
0001f0 b4 4e 82 bd 0b 1c dc bb 65 0f 19 3d af 0f ff bc
       -0.06362668 -0.00671721 0.037368197 -0.031135408
000200 4f 76 5d bd 0b 94 ef 3b bd 29 e8 bb 2f b1 9f bd
       -0.054067906 0.0073113493 -0.0070850537 -0.07797467
000210 3b 3a 97 3c 0f 16 b4 bd 8b 17 42 3b f7 05 e0 3b
       0.018460384 -0.0879327 0.0029616083 0.0068366486
000220 8e 66 86 bc 92 66 fb 3c f5 11 75 bc 53 ff bc 3d
       -0.016406324 0.030688558 -0.014957895 0.09228387
000230 ff 8f 14 3c 99 28 1c bd 0f 41 4c bd c5 ac 64 bc
       0.0090675345 -0.038124654 -0.049866732 -0.013957207
000240 de 17 88 bd ab 95 25 bd 39 6b ad 3d 28 00 0c bc
       -0.06645177 -0.040425938 0.08467717 -0.008544959
000250 5e b3 ac 3c d6 79 4e 3a 46 d5 74 bd 62 3f ad 3c
       0.021081623 0.00078764313 -0.059773706 0.021148387
000260 b7 49 86 3c d3 92 62 bc 3d 66 8a bd a0 5d ac bd
       0.016392572 -0.013828951 -0.06757782 -0.08416295
000270 53 c8 e3 3c f1 a2 59 bc f6 4d 24 3d b4 d2 e6 bb
       0.027805483 -0.013283477 0.04011341 -0.0070441607
000280 0f c2 e7 bb ff 12 7c 3d a8 02 9a 3c 1a e3 88 bc
       -0.007072694 0.061541554 0.018800095 -0.016709853
000290 c1 8a 7c 3b c9 2f 30 bc e3 87 49 bd aa 3c 03 be
       0.0038534852 -0.01075358 -0.049201857 -0.1281611
0002a0 e9 95 9e bc 14 25 03 bd bc 9f ce bd d9 e8 43 bd
       -0.019358592 -0.032017782 -0.10089061 -0.047829483
0002b0 92 b1 c6 bc c9 7a 19 3d 91 f0 49 bd 28 fc e1 3c
       -0.024254594 0.037470613 -0.049301688 0.027586058
0002c0 2a 33 d6 bc 41 7f 8d bc 8f 50 00 bd 13 a0 30 bd
       -0.026147444 -0.017272593 -0.031326827 -0.04312141
0002d0 9b 65 92 3d be 38 a0 3c 30 49 df bd 6f 3a 85 3d
       0.07148286 0.019558307 -0.10902631 0.06505286
0002e0 dd 72 24 bc 87 d5 5e bc f6 c5 5b 3d a5 da c7 3d
       -0.010037151 -0.013600714 0.053655587 0.097585
0002f0 af c6 e5 bc ad 02 9a 3d af 30 75 3c 2f 5d 1f 3d
       -0.028048841 0.075200416 0.01496522 0.038907226
000300 1c 97 a7 bc 6f ed c9 bd 9b cf e4 ba 7f 5d d4 3d
       -0.020457797 -0.0985974 -0.0017456891 0.103693955
000310 d3 42 5e bc 5a b6 fb bc a1 a8 ab 3d ab db 31 3c
       -0.013565737 -0.0307266 0.08381773 0.010855596
000320 aa f9 9c 3d 6e 98 6e bd f1 ca 42 bd 4e e5 02 bc
       0.07664807 -0.058250837 -0.04755682 -0.007989241
000330 ae 95 94 3c b4 6e 80 bd 71 6e b1 3d 6a 64 82 3c
       0.01813778 -0.06271115 0.08663643 0.015917022
000340 1e c9 86 3d 20 c4 a8 39 02 e1 44 bd bd 61 da 3c
       0.06581329 0.00032189582 -0.048066147 0.026657933
000350 cf 43 25 bc b3 6e 48 3d fb c9 04 bb 72 59 9e 3c
       -0.010086968 0.048933696 -0.0020261991 0.01932976
000360 36 12 90 3c 39 b3 ef bc 97 65 0d bb d0 74 03 bc
       0.017586809 -0.029260265 -0.0021575445 -0.008023456
000370 9d f4 81 bb e9 da 34 bc c5 ff d8 bc ba a0 af 3c
       -0.0039659278 -0.01103852 -0.026489148 0.021438945
000380 02 32 91 bd c0 76 1b 3d a6 28 99 3d f3 04 21 bd
       -0.07089616 0.037955046 0.07478456 -0.03931136
000390 6e 19 23 3b 62 f6 99 3b b0 a4 80 3d fe 2f d4 3d
       0.0024886983 0.0046985606 0.06281412 0.10360716
0003a0 32 01 e9 bd 33 89 03 3d e1 76 89 3b 4d 5e 83 3d
       -0.11377181 0.032113265 0.0041950797 0.06414471
0003b0 a8 56 a5 bb cd 63 4a bc 0a 09 92 bc 9e 25 9b bd
       -0.0050457306 -0.012352896 -0.017826576 -0.07575534
0003c0 67 17 e0 bc 86 73 30 bd a3 af 4c bc 1a 10 6a bc
       -0.02735491 -0.04307892 -0.012493047 -0.0142860655
0003d0 41 3b 82 3b 1b ae 19 3d 23 96 41 bc 9e cc 87 3d
       0.003974349 0.037519556 -0.011815581 0.066308245
0003e0 cd da fb bc 00 7c 94 bc 4f 5f 5e 3d a0 b6 e6 bc
       -0.03074398 -0.018125534 0.054290112 -0.028163254
0003f0 12 46 56 bc 50 18 d3 3c 06 0a eb bc 45 1b ef bc
       -0.0130782295 0.025768429 -0.028691303 -0.029187808

network_body._body_endoder.seq_layers.0.bias f4 [128]
000000 d8 99 88 bb d6 1c a0 3c 24 62 4d bc fd 02 45 3c
       -0.00416873 0.019545 -0.012535606 0.012024638
000010 19 9d 19 bc 8d 91 93 3a 07 99 02 3c 95 0e fd ba
       -0.009375834 0.0011258587 0.007971055 -0.0019306714
000020 d7 0a 4b bb 59 8b 54 bb cf a9 3e b9 29 69 20 3c
       -0.0030981803 -0.003243169 -0.0001818307 0.009790697
000030 3b be 98 3b 3b 03 f1 3b dd a1 28 b9 4c a1 11 bb
       0.004661349 0.0073551214 -0.00016082027 -0.0022221385
000040 01 7f 9f 3b 9c 9f 12 3b 3e 29 5c bc 0b 74 05 bc
       0.004867435 0.0022372967 -0.013437567 -0.008145343
000050 66 fc 99 38 54 aa 26 bb 46 99 4d bb 5f 3f 47 bb
       7.3426214e-05 -0.0025431113 -0.0031371876 -0.0030402762
000060 47 a2 81 3b 6d 51 17 3c 75 41 c8 3b b8 f2 b4 bb
       0.0039561125 0.009235722 0.0061113187 -0.0055220984
000070 4b 53 4c bb ae 63 db 3b ee ea 13 3c 18 5e ac bb
       -0.0031177576 0.0066952324 0.00902818 -0.0052602403
000080 09 a4 0b 3c 5e ef 90 bb 49 15 2c 3c 59 40 1f bc
       0.008522996 -0.004423066 0.010503122 -0.0097199315
000090 a1 b0 80 ba 9c 93 20 3c 46 b8 08 3b b8 fc 07 bc
       -0.0009818265 0.009800818 0.0020861789 -0.008299999
0000a0 7b d0 94 3c 2d 18 cf 3b 73 df 0c bc b7 e4 8d ba
       0.018165817 0.0063200206 -0.008598196 -0.0010825609
0000b0 b9 24 33 3c 44 d0 21 3c ec b7 dc ba 3e 13 3c 3b
       0.010934048 0.009876315 -0.0016839481 0.0028697993
0000c0 14 51 26 bc ed 3c 1b 3c e4 21 3d 3c f1 18 17 bc
       -0.0101511665 0.009474975 0.011543725 -0.009222255
0000d0 14 43 10 3c 96 04 45 3a 89 ff de bb 60 04 4b 3c
       0.008805055 0.0007515637 -0.0068053645 0.01239118
0000e0 a3 6a 88 3a a9 a9 00 bb 78 41 25 bb 29 77 05 bc
       0.0010407757 -0.0019632375 -0.0025216024 -0.008146086
0000f0 7d 51 81 bc 3b 81 71 3b c9 ba 35 bb 41 a8 f5 39
       -0.015785927 0.003685071 -0.002772974 0.000468554
000100 0b 46 97 bb e1 26 e5 bb fe 09 83 3c e4 12 40 bc
       -0.004616504 -0.00699316 0.015995976 -0.011723254
000110 86 24 30 ba 0a fd 39 3c a2 ac 27 bc fa 72 58 bc
       -0.00067193096 0.011351833 -0.01023403 -0.013211006
000120 9f 42 0d bb ba 0e 1e 3c fe 91 05 bc 7d a0 49 3c
       -0.0021554602 0.009647066 -0.008152483 0.01230633
000130 d7 49 01 3c 98 68 2a 3c 98 6b e0 bb ce 0a cf ba
       0.00789114 0.010400914 -0.0068487637 -0.0015796067
000140 ce da 44 bc 17 bc c0 ba 12 50 35 ba f1 29 92 3b
       -0.012015058 -0.0014704493 -0.00069165335 0.004460566
000150 a8 df c1 bb 86 96 db 3b a1 31 0a bb 4c 16 0c 3c
       -0.0059165545 0.0067012934 -0.002108671 0.008550238
000160 a0 e4 52 3b 70 d1 c9 bb f8 fd 4e bc 68 05 9a bb
       0.0032179728 -0.006159 -0.012633793 -0.0047003515
000170 1e ad 8a bb ee b3 89 bb d8 b4 8d 3b 38 3f 20 3c
       -0.004232063 -0.0042023575 0.004324537 0.0097806975
000180 c4 fc 8f 39 7e dd 9c 3a 8b 04 53 3b 92 da 3e 3c
       0.0002746341 0.0011967865 0.0032198753 0.011648791
000190 d3 82 a9 bb 13 ff 98 bb 66 4f a4 ba ed d6 45 3b
       -0.005173066 -0.004669079 -0.001253587 0.003018792
0001a0 a8 97 41 3b 7c 77 9b bb 7f 06 5b 3b 30 13 97 b9
       0.0029539857 -0.0047444683 0.003342062 -0.0002881526
0001b0 82 9c ce bb f6 54 22 3c 39 4a 92 3b 47 78 24 bc
       -0.0063052783 0.009907952 0.0044644144 -0.010038442
0001c0 2a ac b4 3b 47 bf 1c 3c 1d 83 ea 3b 2e 25 82 3c
       0.0055136876 0.009567088 0.007156743 0.01588687
0001d0 d6 c0 7f bb a8 b0 4b bb 23 0f 06 3c ad 50 03 3c
       -0.0039024851 -0.0031080637 0.00818232 0.00801484
0001e0 d6 b3 e0 bb 72 87 8b 3b 48 5f a2 3c 38 fd 6c 3b
       -0.0068573756 0.0042580897 0.019820824 0.0036161672
0001f0 8b 00 2a 3c 7c 77 5e bc 90 0c ef bb da 89 95 bb
       0.010376106 -0.013578292 -0.0072951987 -0.0045635523

network_body._body_endoder.seq_layers.2.weight f4 [128, 128]
000000 e4 be 8b 3d 4d 73 53 bc 2d f0 87 3d 90 f5 27 be
       0.06823519 -0.012905908 0.06637607 -0.16402268
000010 2e 95 9a bd 55 f9 45 bc 8c ec 57 bd c3 ce 90 3d
       -0.07547985 -0.012083371 -0.052715823 0.07070687
000020 4a 76 0e 3c fa 31 07 bd 08 9a 35 3e 9c 8c 85 3d
       0.0086951945 -0.033006646 0.1773454 0.0652096
000030 8b a6 45 bd 25 29 8f bd f1 16 bb bd 98 18 40 bd
       -0.04825453 -0.069902696 -0.09135235 -0.046898454
000040 5f f0 ff bd 5d 74 ab bd d7 5e 49 bd 67 d2 6f bd
       -0.12497019 -0.08371804 -0.049162712 -0.058550265
000050 98 1c fa bd 7a 4b 2b bc 7b 58 19 3b 2d ca 05 3e
       -0.12212485 -0.010455007 0.0023398686 0.13065405
000060 11 a7 95 bd 8e 19 01 3e 34 bc 1e 3e 2c a0 48 bd
       -0.07307256 0.12607405 0.15501481 -0.048980877
000070 20 e3 27 3e e8 2a be bd fb 36 ac bc 68 0c 39 be
       0.16395235 -0.092855275 -0.02102231 -0.18071139
000080 5a 7d eb bc 15 80 3c 3d 30 0c 39 3d f5 4c 30 bc
       -0.028746296 0.046020586 0.04517764 -0.0107605355
000090 82 64 76 b9 d1 80 aa 3d 04 68 04 3d fd ed 91 bd
       -0.0002349783 0.08325351 0.03232576 -0.07125471
0000a0 82 d6 ab bc 76 21 cd 3d 40 aa ed bc 67 79 29 3d
       -0.020976309 0.10016148 -0.029011846 0.041375544
0000b0 34 9a c0 bb 09 97 67 3c 69 1d ce bd 75 79 b0 3c
       -0.0058777574 0.014135131 -0.10064203 0.02154229
0000c0 de 21 13 3d 7c 2a a5 3d c4 86 92 bc e2 a4 81 3d
       0.03592097 0.08064744 -0.017886527 0.06330277
0000d0 48 8f 1d 3e 32 ec 86 bd f8 f5 3b 3d 17 8c 51 3d
       0.15386689 -0.065880194 0.04588887 0.05115899
0000e0 47 46 0b be 99 1d 1d bd 89 31 45 bc 7e 32 e9 bd
       -0.13601027 -0.038358305 -0.012035736 -0.11386584
0000f0 70 d6 ab 3c ae 61 de bc a4 69 ea bd e5 56 46 bd
       0.020976275 -0.027146187 -0.114459306 -0.048422713
000100 db e9 a5 bd 9e a0 30 bd 88 a6 b2 3d a0 e2 0f 3e
       -0.08101245 -0.043121926 0.087231696 0.14051294
000110 5e fc 85 3d 8c 9c f6 3c c6 8a 88 bd d3 5f 1b bc
       0.06542276 0.030103944 -0.06667094 -0.0094832955
000120 6f 9f cf bd 92 1f 16 3e cb c6 81 3d 38 6f 5c bd
       -0.101378314 0.1466048 0.06336745 -0.053817004
000130 8d 03 13 3e de 09 97 3d bb 7f ce bc a9 e3 11 3e
       0.14356823 0.07374929 -0.025207391 0.14247002
000140 c6 5e a7 3d e3 ef 74 3d 44 eb 8a bd 17 f4 81 3d
       0.081723735 0.059799086 -0.067831546 0.063453846
000150 a2 02 91 bd 73 9d bc 3d a7 ee 3f 3c 27 e2 a6 bd
       -0.0708058 0.092097186 0.011714614 -0.08148604
000160 f1 b6 1c 3d 94 98 ff 3d 89 db f0 bd eb 4a e0 bb
       0.038260404 0.12480274 -0.11760623 -0.0068448684
000170 c8 69 b2 bd 9b 44 85 bd 6f e5 05 ba d5 85 85 3d
       -0.087115824 -0.06507226 -0.00051077356 0.06519667
000180 95 f2 02 bb 90 11 2c 3e 86 d3 8e bd cd 84 26 3e
       -0.0019981016 0.16803575 -0.06973939 0.16261597
000190 4c 82 bc 3b 69 ac e0 bd 10 1e d5 3d e2 b5 32 3e
       0.0057528373 -0.10970385 0.104061246 0.17452195
0001a0 30 a3 b6 3d 97 3e 18 3d 1e 4f 2c bd f0 10 6c bd
       0.08917844 0.037169065 -0.04206764 -0.05763334
0001b0 a5 18 17 be 00 f2 cd 3d 4c 40 39 3e e6 ad 45 3d
       -0.14755495 0.100559235 0.18090934 0.048261546
0001c0 aa 1e b2 bd 62 4b b2 3b 41 f0 78 bd 69 ff 2c 3d
       -0.08697255 0.0054411152 -0.060776 0.042235766
0001d0 06 0b d5 3b 43 39 26 3b 23 39 d4 bd 9c 53 29 3d
       0.0065015582 0.002536372 -0.103624605 0.0413395
0001e0 21 77 1f bd f1 6c f0 bc 2c 17 e7 bb ed b9 bf bd
       -0.03893197 -0.029348822 -0.007052323 -0.093616344
0001f0 c6 f4 91 3d f7 26 3a 3d 65 07 9a bd 97 36 db bd
       0.07126765 0.045447316 -0.07520942 -0.107037716
000200 28 98 2a be 1f 83 0d be da 45 2f be c2 8d 80 3c
       -0.16659606 -0.1381955 -0.1711649 0.015692595
000210 84 0b 9f bd 9b 4b 44 3d 9d 5d 64 3d fa 61 55 be
       -0.07765868 0.047923665 0.05575334 -0.20838156
000220 b0 7b e1 bb 51 4d d7 3d b2 5e 29 be bf 88 3d bc
       -0.0068812 0.10512794 -0.1654003 -0.011568247
000230 b8 29 a1 bd 86 9b d6 3d d6 d8 c8 bc 7e e5 29 3d
       -0.07869285 0.104788825 -0.024517458 0.041478626
000240 d7 c4 64 3d d5 8d 46 3b f4 b1 8a bd 2b b2 b9 bd
       0.055851784 0.003029694 -0.06772223 -0.09067186
000250 8a 56 e5 bc 30 42 03 3e d7 98 ce bd 23 50 b6 bd
       -0.027995367 0.12818217 -0.10087746 -0.089020036
000260 cf a2 09 bc e9 ac 3b bd 5f 71 b0 bc 98 55 4d 3d
       -0.008400633 -0.045819197 -0.021538435 0.050130457
000270 ea 91 35 3a 95 1a 1c bd d7 8e 15 bd 02 24 8d bc
       0.0006926345 -0.038111288 -0.036513176 -0.017229084
000280 b7 89 59 bd 84 7a a9 3d fe bf 89 bd 35 b8 24 bd
       -0.05310985 0.08275321 -0.06726073 -0.040214736
000290 5d 5a dc 3d 9a 63 c4 3d 8e 38 37 3d 41 c5 4f be
       0.10759423 0.0958931 0.04473167 -0.2029009
0002a0 f4 f7 2a 3d 46 7b d0 bd e3 d1 bd 3d d6 b2 dc 3c
       0.041740373 -0.101797625 0.09268548 0.026940744
0002b0 c1 33 00 bd 79 2d d6 3c 71 08 f6 3c 67 cc 4a bd
       -0.031299356 0.02614473 0.030033322 -0.04951134
0002c0 e1 d0 c4 bd da f9 3e 3d d1 5e fe 3d 2e fa 3f bd
       -0.09610153 0.046624996 0.124204285 -0.04686945
0002d0 45 9a a7 bc 65 60 8b bd 3e ce a5 3d e1 d3 93 3e
       -0.020459304 -0.06805495 0.08095978 0.28872588
0002e0 87 0f 0a be 0d 9d ee 3c a1 48 b5 bc 97 e2 49 3c
       -0.13482486 0.029127622 -0.022129359 0.01232209
0002f0 af 98 43 3d dd 3f 69 be a7 b4 43 3d 25 e0 07 be
       0.047753032 -0.22778268 0.047779705 -0.13269098
000300 e0 2d f9 3a e0 d3 8e 3d 91 a0 37 bd a9 fd 85 3d
       0.0019010864 0.06974006 -0.044830862 0.065425225
000310 25 f7 1c 3d fa ce c4 3c 3e 80 bd bd f1 21 b8 bc
       0.038321633 0.024024475 -0.09252976 -0.022477122
000320 bb 9e 12 bd 68 be 8f bd d9 e7 90 bd e7 6f 25 be
       -0.03579591 -0.07018739 -0.070754714 -0.16155969
000330 8c 7b 45 3c 42 fe bd 3d 4b 00 85 3c f6 98 27 3c
       0.012053382 0.092770115 0.016235491 0.01022934
000340 df 54 8d bc 7e a1 0a bc 72 e7 d2 3b 05 5c eb bc
       -0.017252384 -0.008461354 0.006436282 -0.028730402
000350 d9 3d 39 bd a4 cc f8 3d 4d 57 d5 bd 04 33 d5 3c
       -0.045225 0.12148407 -0.10417042 0.026025303
000360 70 2c 0e 3e 62 50 15 bd 59 76 d9 bd fc 1c 5e bd
       0.13884139 -0.036453612 -0.10618276 -0.05422686
000370 f1 89 4c bd 9f 7b 7b 3d e7 c6 0b 3e 69 f1 c3 bd
       -0.04993624 0.06139719 0.13650094 -0.0956753
000380 64 0c c1 bd 95 68 95 bb 9a a4 34 3e 01 f4 ac 3d
       -0.094261914 -0.0045595863 0.17640916 0.084449776
000390 a6 bd 9c bd 1a 30 1d 3e 01 d4 e0 bc 41 4b 08 3d
       -0.0765336 0.1535038 -0.027444841 0.033274893
0003a0 9a 66 a0 bd 14 d3 ac 3d 6a 95 e8 3c 79 f5 00 bd
       -0.0783207 0.084386975 0.028391559 -0.0314841
0003b0 72 c8 1e bd 0f 4a b0 3d ed b4 27 3d 34 42 d6 bd
       -0.03876538 0.086078756 0.04094403 -0.10461846
0003c0 00 97 90 bc 18 78 2f bd 38 a9 8c 3d 17 fe 33 bd
       -0.017650127 -0.04283914 0.068682134 -0.04394349
0003d0 2a 75 aa 3c 2c 96 cf 3b a1 a6 57 3d 47 58 54 3e
       0.020807821 0.0063350406 0.052649144 0.207368
0003e0 2e 64 e5 3d 2d 68 a0 3b 5f d4 1a 3c 71 74 b0 bd
       0.112007484 0.004895231 0.009450047 -0.086159594
0003f0 c8 3d 29 3e 47 2d b5 3c 52 6e b9 bb 68 69 b9 3d
       0.16527474 0.022116316 -0.005658903 0.09053308

network_body._body_endoder.seq_layers.2.bias f4 [128]
000000 18 0b ef 3a b4 ec 33 3c 90 b2 e9 3a 9b 33 17 bc
       0.0018237559 0.010981727 0.0017829705 -0.009228612
000010 08 56 21 3c c2 cd 5d 3b 0d 71 86 ba 14 76 d1 3c
       0.009847172 0.0033844565 -0.001025708 0.025569
000020 08 76 b0 bb 48 69 96 bb 96 32 44 3c 04 f5 23 3b
       -0.005385164 -0.004590187 0.011974951 0.0025017867
000030 18 b9 36 3c 07 27 8c bc a1 39 e5 3b 6d a4 40 3c
       0.011152528 -0.017108453 0.0069953953 0.011757952
000040 74 62 e7 ba e7 9f 54 3c 98 d5 4f ba a1 c6 b7 bb
       -0.0017653243 0.012977577 -0.0007928251 -0.005608395
000050 23 e5 64 3b 11 4b aa 3b 85 5d 16 3b 63 43 11 bb
       0.0034926615 0.005196937 0.0022943926 -0.002216541
000060 15 fd d0 ba 93 e0 ad bb 46 8c 17 3c a4 18 9d ba
       -0.0015944565 -0.0053063123 0.009249752 -0.0011985493
000070 7b 87 53 3c 1f 2b 8e 3b 81 a7 ba b9 d6 af d6 3a
       0.012910719 0.0043386365 -0.00035601485 0.0016379307
000080 a5 7e b4 bb 79 86 ec bb ce b5 92 3a 11 67 0f bc
       -0.0055082613 -0.007218179 0.0011193098 -0.0087526
000090 51 a5 24 bc 84 bf 9d ba 68 63 0d 3c e4 38 6b bb
       -0.01004918 -0.0012035226 0.008629657 -0.0035892064
0000a0 87 ad 14 3a 24 06 37 3c 2c a7 02 bc 15 fd 63 bb
       0.00056716095 0.011170898 -0.007974427 -0.00347883
0000b0 44 1d 7f ba f9 fe ad 3c ce 2e 54 bb 94 56 fe bb
       -0.0009731839 0.021239744 -0.003237653 -0.0077617858
0000c0 b3 5c 24 3a ef 29 75 3c 1c ba 89 ba 68 6f 90 ba
       0.0006269917 0.014963611 -0.0010507735 -0.001101953
0000d0 dd eb 0c bb 39 3a 62 bb 09 67 36 3c 04 96 19 3c
       -0.002150289 -0.0034519567 0.011132964 0.009374145
0000e0 ef 98 18 ba ca 62 8f ba 74 fc 83 bb bd d8 4f 3c
       -0.0005821129 -0.0010939476 -0.0040278975 0.012685952
0000f0 dd 70 7f bb fe 3b 6e 3b 8f a8 ac 3b 1a ee 13 3b
       -0.0038977184 0.0036351676 0.005269117 0.002257234
000100 57 3f d2 3b 7c 3c 0e bb 8d bd 40 3c 9b e6 0b bc
       0.006416242 -0.0021703532 0.011763942 -0.008538867
000110 97 a9 11 ba fa 47 91 3a ee 01 6c ba df ea 92 ba
       -0.0005556582 0.0011084073 -0.0009002973 -0.0011208913
000120 11 ce 78 bb 68 32 97 bb 1f a1 b0 3b 9e 4d 4c 3c
       -0.0037964622 -0.004614163 0.005390301 0.012469677
000130 5d 43 ca bb 2e 24 03 3a 04 fe 64 bb cb 0e ef 3b
       -0.006172581 0.00050026446 -0.0034941444 0.0072954646
000140 20 56 c3 3b fc 40 bb bb fa 0e 9b 3c a8 3e 3d bb
       0.0059611946 -0.005714534 0.01892804 -0.0028876457
000150 29 f6 15 3c 52 60 0d bb 19 f1 5e 3b 59 13 3b bc
       0.009152927 -0.0021572304 0.0034018217 -0.011418187
000160 de 07 9c bb 07 82 d1 bb 7e b0 90 ba 0c 0b 81 bb
       -0.00476168 -0.0063936743 -0.0011038927 -0.0039380845
000170 2b 20 df 3a 4d 67 90 3c 84 5d 72 3c f2 ea 87 3b
       0.0017023137 0.017627383 0.014792804 0.0041478807
000180 7c 8b 7b 3a 0b 98 00 3c d8 f0 ec 3b 14 0d da 3a
       0.0009595675 0.00784875 0.0072308592 0.0016635978
000190 d7 cd 5b 3b 43 49 07 bb 34 4e 56 3c 02 16 a4 3b
       0.0033539438 -0.0020643033 0.0130801685 0.0050075063
0001a0 1b 3e 40 3b 13 e1 23 bc 6b 5d b8 3b 2c 93 87 3b
       0.0029333893 -0.010002392 0.0056263707 0.0041374173
0001b0 9a 65 87 ba 3c 1e 80 3c 0d 92 81 3b ba 46 58 3a
       -0.0010329962 0.015639417 0.003954178 0.0008250285
0001c0 67 85 9a bb c8 9e 01 b7 e7 09 05 ba c1 cd 1f 3c
       -0.00471561 -7.725968e-06 -0.0005075023 0.009753645
0001d0 fc a7 84 39 4b b1 9d 3c 1d dc de 3b 3f 49 06 3c
       0.0002530216 0.019249579 0.006801142 0.008196174
0001e0 41 52 0b 3a 7b 08 a0 bb 62 4a 86 ba ff 46 d8 3a
       0.0005314686 -0.0048838235 -0.0010245556 0.0016500651
0001f0 d6 12 a5 bb 63 64 a2 3b 8c 9f c4 3b 94 e6 77 3c
       -0.005037646 0.0049558147 0.006000465 0.015130658

action_model._continuous_distribution.log_sigma f4 [1, 6]
000000 6a ea 81 bd ec 14 d5 bd ef 33 10 bc d3 0f 0f bc
       -0.06343539 -0.10404381 -0.008801444 -0.0087318
000010 6f 8c 56 3b b1 57 9b bc
       0.0032737514 -0.018962713

action_model._continuous_distribution.mu.weight f4 [6, 128]
000000 80 4e 1e 3d ea 03 58 3c 02 f7 5b bc 26 d1 c4 3b
       0.038649082 0.013184527 -0.0134255905 0.0060063777
000010 66 14 0c bd ac b5 ad bc 34 bc 8f 3c e3 33 1c bd
       -0.03419914 -0.021204792 0.017545797 -0.03813542
000020 a1 40 bb bc d9 73 c9 3c c3 91 7f bc 8d 96 c0 bc
       -0.022857966 0.024591373 -0.015598717 -0.023509288
000030 97 21 4d bc 8f ac ee 3b f0 6f 74 3c 62 fb c4 3c
       -0.0125202155 0.007283754 0.014919266 0.02404565
000040 86 23 60 bc b7 05 37 39 da 62 24 bd 37 71 68 3c
       -0.013680344 0.00017454369 -0.040133335 0.014187149
000050 c7 c5 62 3c 75 89 2c 3d 29 7d 93 3b 6e c6 7a bc
       0.013841099 0.042123277 0.0045010042 -0.015306098
000060 80 06 8d 3d 46 55 79 3a e0 0a 94 3c 0d dd e1 bc
       0.068860054 0.0009511303 0.018071592 -0.027571226
000070 51 8c d1 3c a9 64 be bd d4 01 32 bd 6b 18 b7 3c
       0.025579603 -0.09296543 -0.043458775 0.02235051
000080 77 d8 ca 3c f1 b2 06 3c 02 c3 3c bd 27 8c a8 3c
       0.024761422 0.008221374 -0.04608441 0.020574642
000090 89 14 f3 bb 6b 34 18 3c d2 f5 5d bc 0b 44 ac 3c
       -0.0074182195 0.009289841 -0.013547378 0.02102854
0000a0 70 cd 08 3d 68 21 32 3d 33 b5 49 bc 95 23 b5 3a
       0.033399045 0.04348889 -0.012311268 0.0013819808
0000b0 7c 3b be 3a b8 1f 55 bd db 16 ee bc 8d 53 d2 3c
       0.0014513577 -0.052032202 -0.029063633 0.025674606
0000c0 a5 de a5 bc af fb 87 3c f9 60 4f 3d 76 25 41 ba
       -0.020247767 0.016599504 0.05062959 -0.0007367948
0000d0 22 ec 3a bc 69 8a 58 3c 6b 81 9c bd 03 c0 3e 3d
       -0.0114088375 0.013216593 -0.07641872 0.046569835
0000e0 ca 5b c6 bc be f3 97 bc c1 29 27 bc 65 1d 27 bd
       -0.02421369 -0.018548843 -0.010202826 -0.040799517
0000f0 91 db b1 bb 94 14 24 bc 26 18 3e bd 1e 43 06 3c
       -0.0054277857 -0.010014672 -0.04640975 0.008194713
000100 f8 4a 42 bc 44 18 92 3c 08 64 a1 bc 6d d4 8c 3b
       -0.011858694 0.017833836 -0.019701019 0.004297784
000110 06 a9 75 bc 49 2c 54 bc 1d 5e 8e bc e3 db db 3c
       -0.014993912 -0.0129500115 -0.017378861 0.026838249
000120 b2 3a ed bc 31 f5 37 bc 11 59 68 bd b8 18 1b bd
       -0.028958652 -0.011227892 -0.056725565 -0.03786537
000130 78 7e bb bc 0f a2 98 bc 96 5f f7 bb 95 91 73 3b
       -0.022887453 -0.018631963 -0.0075492365 0.003716563
000140 28 1b 86 3c 2e 9a 3e 3c d6 36 16 bd be 4f f2 3b
       0.016370371 0.011633439 -0.03667339 0.00739476
000150 46 49 19 bc 37 00 24 bc b8 25 1f 3c 80 87 56 bc
       -0.009355849 -0.010009817 0.009713583 -0.013093829
000160 1e 40 b9 bc ee dc 34 bc 6a a5 87 bc e7 18 af 3b
       -0.022613581 -0.011039002 -0.016558368 0.0053435448
000170 8f a0 54 bc af 07 64 bd 8d c4 21 3c f6 aa ee bb
       -0.012977733 -0.05567139 0.0098735215 -0.0072835637
000180 d7 8d bc bc 06 1b 81 bc a0 98 8e 3b b1 55 b5 3b
       -0.023016853 -0.015759956 0.0043516904 0.005533897
000190 33 23 40 bd ea 3e d3 3c 30 15 7f bd 29 b3 ef 3c
       -0.04690857 0.025786836 -0.062276065 0.029260235
0001a0 13 27 ad bc b5 d1 21 3c 30 57 d0 bc 7f 40 86 bc
       -0.021136796 0.009876658 -0.0254322 -0.016388176
0001b0 55 1e 43 39 37 35 00 3d dd e3 bd 3c 9d f3 6e bd
       0.00018607949 0.03130075 0.023179943 -0.058337796
0001c0 c0 db 1f bc a1 16 f6 bc 68 57 02 bc 85 1b 3b 3d
       -0.009756982 -0.030040087 -0.00795541 0.04568054
0001d0 73 1c e1 bc b0 b8 24 bd 4a 36 f5 3c 9d 5c 52 bd
       -0.027479386 -0.040215194 0.029933114 -0.051357854
0001e0 50 0d a7 bc 37 0f 13 bd 1e 10 75 3c d3 2a 50 3c
       -0.02039209 -0.035903182 0.014957456 0.012705523
0001f0 1f 74 ec bb e8 f0 16 bd ac af 89 bd 5c 27 be 3b
       -0.007215991 -0.03685084 -0.0672296 0.005803032
000200 04 2c 6a ba f7 9d 0e 3d e7 62 c4 3c 2e a2 d7 bc
       -0.00089329504 0.034818616 0.023972942 -0.02632245
000210 d9 67 f4 3c 82 25 69 bd 90 40 18 bc df 8c 90 3c
       0.029834675 -0.056920536 -0.009292737 0.017645298
000220 44 48 0d bb 40 8d 35 bd e7 28 55 3d c2 9c 98 3c
       -0.0021557966 -0.04432416 0.05204096 0.018629435
000230 40 df 4a bd 7d 32 2e bd 6a f2 df 3c 67 29 fd 3c
       -0.049529314 -0.042528618 0.027337272 0.030903531
000240 e1 c5 04 bd 7f f9 d1 3c 42 0f b8 bc 54 e9 61 bd
       -0.032415275 0.025631664 -0.022468213 -0.05515416
000250 68 8a 90 3c ac ae 09 bc d2 e7 0a bd 58 83 74 3a
       0.017644122 -0.008403461 -0.033912487 0.0009327433
000260 d9 d4 e5 bc a3 21 a6 bd 78 89 ae ba 21 78 b2 bc
       -0.028055595 -0.081118844 -0.0013316115 -0.021785798
000270 18 a5 46 3d cc 67 05 bd 77 d3 02 bd 84 32 14 3c
       0.04849729 -0.03256969 -0.03193995 0.009045247
000280 60 18 ca bc cb 95 3b bc bb 7a 0d bc e5 b5 e4 bc
       -0.024669826 -0.011449288 -0.008635218 -0.027918765
000290 1c 82 80 bc 5b ca f6 bb 88 31 03 3d e8 7f f6 bb
       -0.015687041 -0.007531447 0.03202966 -0.007522572
0002a0 39 aa c0 3c 19 15 cc 3c 6b 14 bc bc c4 44 90 bc
       0.023518668 0.024912404 -0.022958955 -0.017610915
0002b0 05 65 65 b9 d1 9b 2f 3b 53 4a 85 bb 25 5f 78 bc
       -0.00021876775 0.0026795755 -0.004067698 -0.015159403
0002c0 57 8f 13 bd f4 16 67 3d f6 79 d9 bb ae 5d e3 bc
       -0.03602537 0.056418374 -0.0066368533 -0.02775463
0002d0 84 e4 aa bb fb 03 d8 bc c7 a2 c1 bc 1e 93 1a 3d
       -0.0052152295 -0.026369086 -0.023637189 0.037737958
0002e0 ef 09 68 bd 5d 4a 20 bc 03 69 1c bc 09 1d 11 3d
       -0.0566501 -0.009783355 -0.009546521 0.03542808
0002f0 e2 48 31 3c 27 01 af 3c 0c 25 e9 3b 25 78 1e bb
       0.010820599 0.021362854 0.007115012 -0.0024180498
000300 b3 3c c9 3c d7 3e bf bc 5e 6b b0 3c b0 60 bc bc
       0.024565076 -0.023345394 0.021535572 -0.022995323
000310 13 9b 26 bc 76 87 73 3c 57 97 90 bc 4a 39 e1 bb
       -0.0101688085 0.014863839 -0.01765029 -0.0068732845
000320 fa ee 19 bc 9d 5f 86 bc 2d bc a1 3b 08 d4 e1 3c
       -0.009395355 -0.016403014 0.0049357624 0.027566925
000330 2a b1 e6 bc fc 4e 56 bc b7 6a 96 bc f3 93 0c 3d
       -0.02816065 -0.013080355 -0.018361432 0.034320783
000340 ba 00 08 3c 78 b8 eb 3b 05 25 36 3d 1b 93 3f bc
       0.0083009545 0.0071936212 0.0444689 -0.0116927875
000350 a9 25 94 3b 28 dc fb 3b 46 d5 6e 3c c9 dd c8 bc
       0.004521091 0.007686157 0.014577216 -0.024519818
000360 f0 1a be 3b 9f 25 3d bd 15 ec ff bc 3f 84 86 bc
       0.005801551 -0.046178456 -0.031240502 -0.016420482
000370 90 5f 0a 3d d4 6d 28 bd f0 a2 8e 3d d6 59 1d 3c
       0.03378254 -0.041120365 0.069646716 0.009603938
000380 00 ca 7d 3c 40 0f 3b bd 2f c8 ae 3c 6d 44 5f 3c
       0.015490055 -0.04566884 0.02133569 0.013627154
000390 53 3b fb bb ee 09 06 bc ea 57 87 3c 64 a3 8a 3c
       -0.007666984 -0.008181078 0.016521413 0.016923614
0003a0 c6 26 09 bd 2d c6 a3 bc 10 0c ff 3c df 82 d9 3b
       -0.033484243 -0.019991959 0.031133682 0.0066379155
0003b0 12 2d b0 bb ae b2 e9 3c 9b df c4 3b 2c ec c9 bc
       -0.0053764665 0.028527584 0.006008101 -0.024648748
0003c0 9c 7c 3f bd 2f e4 99 3c 0d f9 a6 bc c6 a2 73 3c
       -0.046749696 0.018785564 -0.020382429 0.014870351
0003d0 d9 86 ba 3a cd 34 e2 3c 08 2f 74 3c f9 b2 13 3c
       0.0014230862 0.027613068 0.014903791 0.009014838
0003e0 ce a6 96 bd 90 3a ba bb 7c c5 8e bc b1 bc 46 bd
       -0.07356034 -0.0056832507 -0.017428152 -0.048519794
0003f0 e3 6c 92 bc 19 a4 0d 3d f4 d4 f2 bb 4d 4b cd 3c
       -0.017874187 0.034580324 -0.00741064 0.02506032

action_model._continuous_distribution.mu.bias f4 [6]
000000 64 2e 83 3a cc fe 5f 3c ae 0a 95 3b 85 50 e8 3a
       0.0010008332 0.013671588 0.0045483923 0.0017724192
000010 6e 35 de 3a 90 34 53 3b
       0.0016953179 0.0032227375
