results/PlayerAgentTest/TestPlayerAgent/TestPlayerAgent-164.onnx (onnx, 274768 bytes, 6 tensors)

network_body._body_endoder.seq_layers.0.weight f4 [128, 396]
000000 33 13 2a bd d9 5c cd bc 05 a2 ec 3d 53 b9 d3 bc
       -0.041522216 -0.025068687 0.1155434 -0.025845205
000010 82 e8 0b 3d b0 16 ee bd 4d e8 0e bd 3e e2 34 3d
       0.034157284 -0.11625421 -0.034889508 0.044161074
000020 7b 0f 51 bd 64 0a 83 bd d2 47 19 3d 71 fc 10 bd
       -0.051040154 -0.06398466 0.03742201 -0.035396997
000030 ff 90 92 bd ae 13 8b 38 d9 03 31 bc fc c9 26 bd
       -0.07156562 6.631702e-05 -0.01080414 -0.04071997
000040 d9 cb 3a bc 1e e8 2e bd 59 65 ed bc aa f3 c5 3c
       -0.01140114 -0.042701833 -0.02897899 0.02416404
000050 b1 9a 60 bb fc 9f e0 bd 73 88 50 3d e0 ce 07 3b
       -0.003427189 -0.109680146 0.050911378 0.0020722672
000060 1a f7 ba 3d ad 3b 28 bd 97 36 57 3d f6 9a 28 bd
       0.09129162 -0.041072536 0.052542295 -0.041163407
000070 84 17 a1 3c 53 41 29 3c 82 5c a6 3d 65 97 a9 3c
       0.019664533 0.010330516 0.08123113 0.020702073
000080 09 74 92 3d 86 04 8f 3d f6 97 3c bc 5a 02 ae bc
       0.07151038 0.06983285 -0.01151084 -0.021241356
000090 ed ae f7 bc 5a e9 b3 bd 67 0e 0f bd d0 ab 3d 3c
       -0.030234778 -0.08784743 -0.034925845 0.011576608
0000a0 f8 52 c6 bd ab 5a 8e bc 6b 8b f3 bd 9c 7b 1f 3d
       -0.09683794 -0.017377218 -0.11891826 0.038936242
0000b0 9f 70 80 bd 38 bc 79 3d 0b d2 43 bd e2 d0 88 3c
       -0.06271481 0.060970515 -0.047807734 0.016701166
0000c0 89 38 64 bc 62 0a 20 bd 75 a5 07 bd be 20 17 3d
       -0.013929495 -0.0390724 -0.033116776 0.03689646
0000d0 85 80 b2 3d 6d ec 85 3d 4e 78 c4 39 3d 43 0c bd
       0.087159194 0.06539235 0.00037473667 -0.03424381
0000e0 2a db 16 3b df 69 89 bc 2d e7 eb 3c fa 24 fa 3c
       0.0023018816 -0.016774116 0.028796757 0.03053521
0000f0 9f 7a b0 3d 86 4b 9d 3b ac dc 86 3d db 5a 80 3d
       0.08617138 0.004800263 0.065850586 0.06267329
000100 d0 ac a7 bb 32 d8 61 3d 59 b3 ff 3b 93 ac 46 3c
       -0.0051170364 0.05513782 0.0078033623 0.012126106
000110 fa 18 d0 bb b0 98 bc 3c 4b 0f 1d bd 84 d1 15 3d
       -0.0063506337 0.023022026 -0.038344663 0.036576763
000120 5f e5 c3 bb da c4 dc bb 4b e9 a6 3d d1 ea 93 3c
       -0.005978271 -0.0067373337 0.08149966 0.018056305
000130 cb 16 9b 3d 26 4e e9 bb 62 d7 44 3d fd c5 64 3d
       0.07572707 -0.0071199117 0.048056968 0.05585288
000140 15 20 fa 3c 18 d5 92 3c 54 14 c3 3d ac 93 8f 39
       0.030532876 0.017923877 0.09525362 0.0002738511
000150 74 69 07 3c cf df 1d 3d 0d e1 55 bd 82 57 f6 bd
       0.008264888 0.03854352 -0.05221658 -0.120284095
000160 fa 01 f8 3c 45 bd 77 bd 40 d3 9d 3b 2c 3b e3 3c
       0.03027438 -0.060483236 0.0048164427 0.027738176
000170 ce d8 bf 3c 4e 29 75 3d e3 aa 58 bd 37 3e 90 bb
       0.02341881 0.059853844 -0.052897345 -0.004401948
000180 18 86 01 3d d3 bb ec bd 1e 43 8c bd e6 b6 aa 3c
       0.031622022 -0.11559262 -0.06848739 0.020839166
000190 f4 9e 78 bd 39 e8 0a 3d 4b 05 cd bc 6c be 20 3c
       -0.060698465 0.03391287 -0.025026938 0.009811025
0001a0 62 bf 03 bd c2 d0 40 3d 70 4c 4c bd 9c 2f d0 ba
       -0.03216494 0.047074087 -0.049877584 -0.0015883329
0001b0 2c 5a 33 3b a2 9f 46 bd 9c 05 b8 3c e2 fb b5 bd
       0.002736698 -0.04849208 0.022463612 -0.088859335
0001c0 f1 40 d0 bb 25 77 6e 3c 16 df 21 3b a1 e4 a9 3d
       -0.006355398 0.014554773 0.002469962 0.08295561
0001d0 59 fa 26 bd 21 6a b9 3c de 94 e6 3c e2 68 c0 bd
       -0.040766094 0.022633614 0.028147157 -0.09395005
0001e0 69 bb b3 3d 80 0b 6f bd 41 67 7e 3d eb 2d 2f bc
       0.0877598 -0.058360577 0.06211019 -0.0106921
0001f0 02 b5 90 bc 4f bf 92 3c e8 91 29 bd f2 91 7a bd
       -0.017664436 0.017913489 -0.041398913 -0.06117434
000200 b6 f3 6d bd bb ac b9 bd 26 17 82 3a 34 90 5c 3c
       -0.05809375 -0.09066149 0.0009925112 0.013462115
000210 49 2c a6 bd 28 93 a6 3a b1 92 5b 3c bc be 24 3d
       -0.081139155 0.0012708651 0.013401673 0.04022096
000220 72 ea cd bc 91 00 27 3c 6b a6 44 bd f5 2f c5 3c
       -0.025136206 0.010193006 -0.04801027 0.02407072
000230 87 b5 95 bc 1b 9a 8a 3d 93 44 56 bd 18 3f 8d bd
       -0.018275036 0.067676745 -0.05231149 -0.068968
000240 9e 17 21 bd 2c 11 93 bd fb 2a 3b 3d 1e cd 77 3d
       -0.039329164 -0.0718101 0.045695286 0.06049835
000250 a4 9c 90 3c f0 5c 71 bc ac da 98 3b 26 6f 55 3d
       0.017652817 -0.014731631 0.0046647396 0.052107953
000260 40 ad 4f 3d 7e 83 32 3d ba 27 a3 bc 5a df 34 ba
       0.050702333 0.043582432 -0.019916404 -0.0006899737
000270 3f 9e 98 3d db 1d 13 bd 80 af 91 bc f0 e8 20 3d
       0.07452058 -0.035917144 -0.01778388 0.039284647
000280 59 57 01 bc 7b 1c 69 bc d9 0f 85 bd 84 2d 6b bd
       -0.00789436 -0.014227982 -0.06497163 -0.057416454
000290 6b 20 6e bd e3 88 2e bc a1 22 75 bc a5 0c a5 3c
       -0.058136385 -0.0106527535 -0.014961869 0.020147631
0002a0 e4 89 08 be 3a 96 19 bd f8 7a 69 bc aa 41 54 bd
       -0.13333851 -0.037496783 -0.014250509 -0.051820435
0002b0 e7 32 49 bd dc ac de bd f9 f7 6f 3c f8 da 18 bd
       -0.04912081 -0.10872814 0.014646524 -0.0373182
0002c0 90 e9 de 3b 6e 77 93 3b 5c 98 60 3c 42 09 2a bd
       0.006802745 0.004500321 0.0137082 -0.041512735
0002d0 b3 21 7e bb 45 66 85 bd 2c e9 e7 3b 9d 4d 46 3d
       -0.003877741 -0.06513647 0.007077357 0.04841386
0002e0 cb 0b 80 bd e9 a6 3f bd 10 ea c6 3d 91 4b ca 3d
       -0.06252249 -0.046790037 0.09712613 0.098776944
0002f0 96 7e 47 3c c4 7c 61 bd 3f c8 84 bd f5 22 9a ba
       0.0121761765 -0.055050626 -0.064835064 -0.0011759686
000300 74 e4 6c 3d f6 b9 92 bd a4 a1 82 bd 8b f3 40 3b
       0.057835057 -0.071643755 -0.06378487 0.0029442038
000310 ee ad 16 3d 49 71 96 3c 6e 34 09 bc 9c c8 92 3d
       0.036786966 0.018364565 -0.008374317 0.071671695
000320 1c 61 0b 3e aa e3 1b bd a7 9a 60 3d c2 90 1b bc
       0.13611263 -0.038058914 0.054834988 -0.009494962
000330 b1 dd db 3d f1 7e ba bd ca 1a 0e bd d9 35 9b 3d
       0.10735644 -0.091062434 -0.034693517 0.0757863
000340 47 86 47 bd 4c ad e4 3b c6 e5 0a bd c3 2f a5 bd
       -0.04871204 0.0069786664 -0.033910535 -0.080657504
000350 9b c4 69 bd 3b 25 fc bc af 8c 45 be 49 fd ed ba
       -0.057072263 -0.030779472 -0.19291948 -0.001815715
000360 c4 0f 64 bd 86 b9 85 bd 37 5f 25 bc d6 c5 0c 3d
       -0.055679098 -0.065295264 -0.010093502 0.03436836
000370 4e 94 fc 3c 63 ce 04 3d bd 12 97 bb e7 d8 dd bc
       0.030832436 0.03242339 -0.004610388 -0.027080966
000380 00 d2 bf bc 23 35 0f bd 30 96 3d bd 7c 8e 11 bd
       -0.023415565 -0.034962784 -0.046285808 -0.035536274
000390 bc eb 2a 3d 47 da 99 3c 4d cc 81 bd 88 c2 92 bd
       0.04172872 0.01878084 -0.063377954 -0.0716601
0003a0 f7 55 07 3d 36 2e 31 3d c6 93 1b bb 2a a1 f9 3c
       0.033040967 0.04325696 -0.0023739203 0.030472357
0003b0 17 d2 7e bb b7 67 83 3d a8 a6 6c 3d 9d 5b 07 3d
       -0.0038882548 0.064162664 0.057776123 0.033046354
0003c0 da ae 30 3d f4 67 b7 3d 2c cb 2f 3c 90 43 a6 3d
       0.0431355 0.08955374 0.010729592 0.08118355
0003d0 12 d0 a4 bb b8 ed 57 bd 86 c2 80 bd f9 73 c6 3b
       -0.0050296867 -0.05271694 -0.062871024 0.0060563055
0003e0 a4 96 ad bc 52 48 12 bd e9 78 ea bc 65 0f 58 bd
       -0.021189995 -0.0357135 -0.028622108 -0.052749056
0003f0 ac bd 6d 3c 77 52 8f 3d bc 99 84 bb c2 2c c5 bc
       0.014510553 0.06998151 -0.004046647 -0.024069194

network_body._body_endoder.seq_layers.0.bias f4 [128]
000000 00 00 00 00 00 00 00 00 00 00 00 00 00 00 00 00
       0.0 0.0 0.0 0.0
000010 00 00 00 00 00 00 00 00 00 00 00 00 00 00 00 00
       0.0 0.0 0.0 0.0
000020 00 00 00 00 00 00 00 00 00 00 00 00 00 00 00 00
       0.0 0.0 0.0 0.0
000030 00 00 00 00 00 00 00 00 00 00 00 00 00 00 00 00
       0.0 0.0 0.0 0.0
000040 00 00 00 00 00 00 00 00 00 00 00 00 00 00 00 00
       0.0 0.0 0.0 0.0
000050 00 00 00 00 00 00 00 00 00 00 00 00 00 00 00 00
       0.0 0.0 0.0 0.0
000060 00 00 00 00 00 00 00 00 00 00 00 00 00 00 00 00
       0.0 0.0 0.0 0.0
000070 00 00 00 00 00 00 00 00 00 00 00 00 00 00 00 00
       0.0 0.0 0.0 0.0
000080 00 00 00 00 00 00 00 00 00 00 00 00 00 00 00 00
       0.0 0.0 0.0 0.0
000090 00 00 00 00 00 00 00 00 00 00 00 00 00 00 00 00
       0.0 0.0 0.0 0.0
0000a0 00 00 00 00 00 00 00 00 00 00 00 00 00 00 00 00
       0.0 0.0 0.0 0.0
0000b0 00 00 00 00 00 00 00 00 00 00 00 00 00 00 00 00
       0.0 0.0 0.0 0.0
0000c0 00 00 00 00 00 00 00 00 00 00 00 00 00 00 00 00
       0.0 0.0 0.0 0.0
0000d0 00 00 00 00 00 00 00 00 00 00 00 00 00 00 00 00
       0.0 0.0 0.0 0.0
0000e0 00 00 00 00 00 00 00 00 00 00 00 00 00 00 00 00
       0.0 0.0 0.0 0.0
0000f0 00 00 00 00 00 00 00 00 00 00 00 00 00 00 00 00
       0.0 0.0 0.0 0.0
000100 00 00 00 00 00 00 00 00 00 00 00 00 00 00 00 00
       0.0 0.0 0.0 0.0
000110 00 00 00 00 00 00 00 00 00 00 00 00 00 00 00 00
       0.0 0.0 0.0 0.0
000120 00 00 00 00 00 00 00 00 00 00 00 00 00 00 00 00
       0.0 0.0 0.0 0.0
000130 00 00 00 00 00 00 00 00 00 00 00 00 00 00 00 00
       0.0 0.0 0.0 0.0
000140 00 00 00 00 00 00 00 00 00 00 00 00 00 00 00 00
       0.0 0.0 0.0 0.0
000150 00 00 00 00 00 00 00 00 00 00 00 00 00 00 00 00
       0.0 0.0 0.0 0.0
000160 00 00 00 00 00 00 00 00 00 00 00 00 00 00 00 00
       0.0 0.0 0.0 0.0
000170 00 00 00 00 00 00 00 00 00 00 00 00 00 00 00 00
       0.0 0.0 0.0 0.0
000180 00 00 00 00 00 00 00 00 00 00 00 00 00 00 00 00
       0.0 0.0 0.0 0.0
000190 00 00 00 00 00 00 00 00 00 00 00 00 00 00 00 00
       0.0 0.0 0.0 0.0
0001a0 00 00 00 00 00 00 00 00 00 00 00 00 00 00 00 00
       0.0 0.0 0.0 0.0
0001b0 00 00 00 00 00 00 00 00 00 00 00 00 00 00 00 00
       0.0 0.0 0.0 0.0
0001c0 00 00 00 00 00 00 00 00 00 00 00 00 00 00 00 00
       0.0 0.0 0.0 0.0
0001d0 00 00 00 00 00 00 00 00 00 00 00 00 00 00 00 00
       0.0 0.0 0.0 0.0
0001e0 00 00 00 00 00 00 00 00 00 00 00 00 00 00 00 00
       0.0 0.0 0.0 0.0
0001f0 00 00 00 00 00 00 00 00 00 00 00 00 00 00 00 00
       0.0 0.0 0.0 0.0

network_body._body_endoder.seq_layers.2.weight f4 [128, 128]
000000 c3 d6 8c bc 2c af 92 bd 48 a7 95 3d 9c c3 c6 bd
       -0.01719225 -0.07162318 0.07307297 -0.09705278
000010 ff 7b c1 3d 1c 3f 9d bd 5d d4 08 bd 4b 3b ea bd
       0.094474785 -0.07678053 -0.03340565 -0.114370905
000020 d3 7b 79 3d 71 0e cb bc fa d3 14 bd df 32 6a 3c
       0.060909104 -0.02478716 -0.03633497 0.014294355
000030 f8 04 6d 3d 7b 0a de bd 05 fa 31 3d 84 8b 4e bc
       0.057866067 -0.10841843 0.043451328 -0.012606505
000040 7c 37 a3 3d be 63 b9 3d 52 ba 16 3d 7e ab 9a bd
       0.07969567 0.090522274 0.036798783 -0.07552241
000050 08 bf 69 be 20 91 30 3d 74 0a 04 be cd 48 d1 bb
       -0.22826779 0.043107152 -0.12894613 -0.0063868524
000060 a7 70 b1 3d 5e c6 61 3c 6f 18 dd 3d 19 a3 15 be
       0.08664065 0.013780205 0.10795676 -0.14612998
000070 98 05 14 be 39 ff 08 3e 17 92 8d bb 19 e2 d2 3d
       -0.14455259 0.1337861 -0.004320394 0.10297031
000080 80 9e f0 bd 32 fa a1 bd 78 fa d3 bd de 27 74 3d
       -0.117489815 -0.07909049 -0.103505075 0.059608333
000090 32 18 09 be ec 2e 83 3d 25 49 10 3e 8f 97 cf bc
       -0.13388136 0.06405434 0.14090402 -0.025340823
0000a0 71 a6 82 3c f6 1d 25 be f4 db 43 bc 49 c4 8e bd
       0.015948506 -0.1612471 -0.011954296 -0.06971032
0000b0 f2 ee a2 bd 77 6e 84 3a 19 1c f8 bd 14 6a 10 3c
       -0.079557315 0.0010103722 -0.12114734 0.0088143535
0000c0 42 ce a5 bd fa 73 0a bd 1a ae bf ba d8 da f1 bd
       -0.08095981 -0.03380201 -0.001462403 -0.11809319
0000d0 97 c3 98 bd f3 27 80 3b 4e 90 2b be 5a 5d eb 3d
       -0.07459181 0.0039110123 -0.16754267 0.11492415
0000e0 8f 9e 75 3d 4d f0 3d 3d 91 f4 84 bc 56 3e 89 be
       0.059965666 0.046371747 -0.0162299 -0.2680537
0000f0 d2 14 b0 3d 4b 1e e6 3c 4d 2e 9c 3d f0 40 77 3d
       0.08597721 0.028090617 0.07626019 0.060364664
000100 b8 72 43 bc 5e 5f 24 bd 02 16 85 3d d1 16 f2 3d
       -0.011929207 -0.04013001 0.06498338 0.11820758
000110 92 88 ba 3d d8 61 35 bb 2a 0b af 3d d6 5d 3d be
       0.0910808 -0.0027676728 0.08547051 -0.18492827
000120 2c 6a 22 bd 93 ce 92 bd e1 13 ab 3d a8 50 76 bd
       -0.039652035 -0.07168307 0.08353401 -0.060135514
000130 63 b1 99 bd 31 17 95 3d 54 be 79 3e 58 49 bd bc
       -0.07504537 0.07279814 0.2438901 -0.023106262
000140 a8 2e f0 3b 55 2f 5c be fe 82 03 be 3b b3 e8 bc
       0.0073297806 -0.2150243 -0.12842938 -0.028405776
000150 30 86 c4 3a ac da 9e 3d 8a 56 82 bd 6e 3a 44 be
       0.0014993604 0.07756552 -0.06364162 -0.19162914
000160 0d 73 44 3d 81 0a ce 3d 4d 3c 89 bd f6 f9 ae 3c
       0.047961283 0.10060597 -0.067009546 0.021359425
000170 4c f7 08 3d 23 12 16 3e 6d 3e 80 3d f7 5b b1 bc
       0.033438966 0.14655356 0.06261907 -0.021650298
000180 d8 b9 85 3c 32 73 ff 3b 7f ae d1 3b 6d 1c 65 bc
       0.016323969 0.007795715 0.0063989754 -0.013983828
000190 a3 54 4a 3d bb 46 d2 3d 1e 77 84 3d 4b 70 19 3c
       0.049397122 0.10267397 0.06468032 0.009365152
0001a0 84 4a d8 3d 10 a8 a8 bd e5 4a 86 3d c6 05 b4 3d
       0.10561088 -0.082351804 0.06557254 0.08790164
0001b0 c4 7c 94 3d 45 84 a6 bd 8b e2 db bd cf d9 a9 3d
       0.0725036 -0.08130697 -0.10736569 0.08293497
0001c0 5e f9 0d bd 96 23 c4 bc 18 0b 48 3c 0d e0 94 3d
       -0.034661643 -0.02394275 0.012209676 0.07269297
0001d0 56 df d0 3d af fc 58 3d 5f 1a 6d bd 3e 8e 71 bd
       0.10198848 0.052975353 -0.057886478 -0.058973543
0001e0 10 f5 71 bd 6e 93 f3 bc 16 85 94 bc 4a 7c 87 bd
       -0.0590716 -0.029733386 -0.018129867 -0.06615503
0001f0 1e e4 6f bd c6 3b 37 bd 47 d4 8d 3e c9 1f 57 be
       -0.05856716 -0.04473474 0.27701017 -0.21008219
000200 80 d5 10 bd d3 65 95 bd a7 f8 a2 bb bc 62 dd bb
       -0.03535986 -0.07294812 -0.0049734893 -0.006756155
000210 7f 5c a2 bd 53 ce 5e bd ba 7b 79 be 4b a4 0b bd
       -0.079277985 -0.054395985 -0.24363604 -0.03409223
000220 e3 a6 ea bd 61 87 1a 3e 45 18 2f bc 41 f7 a8 3d
       -0.11457612 0.15090705 -0.010686939 0.08250285
000230 84 8f c0 3d 67 ac 4c 3c 1b b1 bd 3c e5 b2 9b bd
       0.094023734 0.012492276 0.02315574 -0.07602481
000240 1c b6 2e 3c 50 a6 d5 bc 5e d0 51 bc 73 06 11 be
       0.010663535 -0.02608028 -0.012806026 -0.14162616
000250 9c a3 19 be ce c8 8a 3d 5d ec 96 3d 86 ea df 3d
       -0.15003818 0.06776582 0.073693015 0.10933404
000260 7a 20 18 be 68 eb 30 3e be 49 96 bd 80 fe 11 be
       -0.14856139 0.172773 -0.07338284 -0.1425724
000270 fa 54 85 bc ea 66 f8 3d b7 b8 de 3c 67 4b eb 3c
       -0.016275872 0.12129004 0.027187688 0.028722478
000280 44 b9 d2 3d 11 6e a6 bc c7 15 82 3d b5 74 e0 38
       0.10289243 -0.020316156 0.0635181 0.00010702891
000290 a6 db ad 3d b8 ff c6 3c eb 1f fd 3c 85 fe bc 3d
       0.0848916 0.024291858 0.030899009 0.09228233
0002a0 b8 4f f3 3d 98 52 5e 3d 45 22 d5 3d 7b b0 52 3e
       0.118804395 0.054277986 0.10406927 0.20575134
0002b0 6a 7e ee bc a1 89 52 bd 6a 4b 75 3d fc 9e ff 3d
       -0.029113013 -0.051400784 0.059886374 0.12481496
0002c0 59 c9 94 bd 82 b3 af 3b 17 ae 54 bd 38 b1 be bc
       -0.072649665 0.005361975 -0.051923838 -0.023277864
0002d0 a5 90 b2 3d 79 87 7a 3d 39 e0 80 3d 66 6b f8 bd
       0.08718995 0.061164353 0.06292767 -0.121298596
0002e0 42 4f bd bb 99 b8 96 bd 5b 53 dd bd 2b 04 fa 3c
       -0.0057772705 -0.07359428 -0.108069144 0.030519566
0002f0 36 ca 8a 3d 1e 69 2d 3d 3f 2f 05 be 72 4f d3 3d
       0.0677685 0.042336576 -0.13006304 0.10317887
000300 7b 4c 29 3e 5a 39 b8 3d f3 a5 90 bd fa 0a 5a bd
       0.16533081 0.08995314 -0.07062902 -0.053233124
000310 f4 43 63 3c 05 43 71 bd 97 63 ed 3c 4e 50 0c 3e
       0.013871182 -0.058901805 0.028978152 0.13702509
000320 e8 54 9a bd f3 2d 53 bd fc 39 57 3d b1 e5 19 3e
       -0.07535726 -0.051557492 0.052545533 0.15029027
000330 14 4a 57 be 00 c1 d3 bd 69 3e 13 3d 41 a4 94 3c
       -0.21024352 -0.10339546 0.03594819 0.018144729
000340 9d 93 82 bd d7 c8 c9 bd 9a 6c 09 3e 3c 3e 24 bd
       -0.06375811 -0.0985276 0.13420334 -0.040098414
000350 fa 86 e7 bd b7 d8 19 3d dc e3 92 bd 9b e4 b2 3b
       -0.113050416 0.03756019 -0.07172367 0.005459381
000360 ec d8 e2 bd a6 68 07 3e 4f 08 30 3d e8 35 ef 39
       -0.11076531 0.13223514 0.042976674 0.00045625796
000370 4b bd d7 3d a9 e6 32 bd 5c d6 96 bd d8 b7 18 3e
       0.10534152 -0.043677006 -0.073651046 0.14913881
000380 47 6d 37 be 77 ca 30 be 54 01 67 3d 4e 3e 06 be
       -0.1791278 -0.17264734 0.05639775 -0.13109705
000390 c5 20 26 3e 5a db 1d bd 29 3e 4c 3d 73 dc d4 3c
       0.16223438 -0.038539268 0.049863968 0.025984025
0003a0 45 c8 c5 3c 3a 05 0b 3d 81 49 90 3d cf e4 17 be
       0.024143348 0.03394053 0.0704527 -0.14833377
0003b0 99 52 44 3c ac e0 5d bd 05 6a 0c 3d 13 9f cf 3c
       0.011982583 -0.054169342 0.034280796 0.025344407
0003c0 01 58 82 3d 82 86 90 bd 42 5d 3e be 69 82 1e be
       0.06364442 -0.07056905 -0.18590263 -0.15479435
0003d0 98 85 27 3c da 85 6f bd 65 4c 08 be 07 05 ef bd
       0.010224722 -0.05847726 -0.13310392 -0.11670881
0003e0 da 44 06 bd 3b 33 03 be 63 b3 33 3e dc 16 5f 3d
       -0.032780506 -0.12812512 0.175489 0.05446516
0003f0 91 2e 89 3d cf f5 4e 3d 11 55 b1 3a fe 7a b5 3d
       0.06698335 0.05052739 0.001352938 0.088613495

action_model._continuous_distribution.log_sigma f4 [1, 6]
000000 00 00 00 00 00 00 00 00 00 00 00 00 00 00 00 00
       0.0 0.0 0.0 0.0
000010 00 00 00 00 00 00 00 00
       0.0 0.0

action_model._continuous_distribution.mu.weight f4 [6, 128]
000000 a7 82 4d b9 70 7f dd 3b 68 d7 21 3c 47 2a 07 3d
       -0.00019598995 0.0067595765 0.009878017 0.032999303
000010 82 ba 41 bb a3 a4 65 3b 1f e4 a3 3c aa 8d 40 bc
       -0.002956063 0.0035040758 0.020006238 -0.011752525
000020 19 2a 98 3c 86 bc 11 3b 04 91 ac bc ad 72 96 bc
       0.018574761 0.0022237613 -0.021065243 -0.018365229
000030 f7 3b ca 3c 6e a2 b3 3c 5f ab 0c bc 00 24 fc 39
       0.024686797 0.021928038 -0.00858578 0.00048092008
000040 c6 3d c4 bc 93 94 b0 3c 51 47 b6 bc ca 7c 5c bc
       -0.023955237 0.02155522 -0.022250803 -0.013457486
000050 0f e7 4d 3c eb 38 e2 3c ba 0f 8a 3a 3b 5f 21 ba
       0.012567296 0.027615031 0.0010533251 -0.0006155853
000060 25 b8 8c 3b 95 d7 65 3c 97 6e 24 bc 8a 68 ba 3c
       0.0042944127 0.01402845 -0.010036132 0.022754926
000070 6c 17 b1 ba 2e 84 10 bc 67 a7 97 ba 83 8a e8 b8
       -0.0013511009 -0.008820577 -0.0011570276 -0.00011088422
000080 90 9f 75 bb eb 5a af bb 9e 06 2e bc f2 fc 08 ba
       -0.003747914 -0.0053514144 -0.010621695 -0.000522568
000090 0e e3 a9 bc 86 c0 9a bc 63 92 d4 3a 5b 40 98 3b
       -0.02073815 -0.01889063 0.0016217943 0.0046463436
0000a0 6b 71 ee ba d0 b6 4f bb da ad 68 bc 19 70 90 3c
       -0.001819176 -0.0031694658 -0.014201606 0.017631577
0000b0 26 cb 8b bc 2b 21 73 bb eb 59 8d 3a 60 f2 53 bc
       -0.017064642 -0.0037098627 0.0010784244 -0.012936205
0000c0 07 28 ce ba 33 64 90 3c a0 a5 38 3b ad 7b 0e bb
       -0.0015728482 0.017625904 0.0028174892 -0.0021741197
0000d0 a2 cf bb 3b c6 d4 a0 3c bd fa 46 bc 03 27 ba 3c
       0.005731539 0.019632708 -0.012144742 0.02272368
0000e0 df 44 1f bd a7 36 f8 3c ec 14 b3 bb 95 90 8e 3b
       -0.03888404 0.030299498 -0.0054651406 0.0043507316
0000f0 92 0a 92 3b 3d 87 9c 3c 6f f0 47 bc 33 d5 d7 bb
       0.0044568265 0.019107455 -0.01220332 -0.0065866946
000100 1b f7 22 bc 35 60 8a bc d7 a3 85 3c f9 c6 9e bc
       -0.00994661 -0.016891578 0.016313476 -0.019381987
000110 cb 8e 87 bc cd 46 eb 3b 5e 6a 04 3d 97 80 5d bb
       -0.016547581 0.007180071 0.032328002 -0.003379857
000120 15 43 02 bb 47 83 e6 3b 8b 22 e4 bc bf bc d5 3c
       -0.001987641 0.0070346924 -0.027848503 0.026090978
000130 65 91 d0 3b 6a f0 51 bc 2d d5 be 3c bf ff 9c bc
       0.0063649886 -0.012813667 0.02329501 -0.019164918
000140 28 51 ff ba 9b 25 ee bb f8 c2 8b 3c 55 42 e1 3a
       -0.0019479143 -0.0072676665 0.017060742 0.0017185906
000150 c3 dc 25 3b 20 34 6e bc d3 a4 ea bb 5c 86 bf ba
       0.0025308586 -0.014538795 -0.007160762 -0.0014612186
000160 ec 32 32 3c e9 56 bf ba 67 8a 80 3b 6e 2b 96 bc
       0.0108763985 -0.0014598045 0.003922749 -0.018331256
000170 05 37 fa b9 12 92 06 bd ea 7e 8c 3c bf 64 18 bc
       -0.0004772471 -0.032854147 0.017150361 -0.0093013635
000180 03 cd 8e bc ca 9d 14 bc 2d fe a3 bb 78 5d 35 bc
       -0.017431742 -0.009070823 -0.0050046653 -0.011069648
000190 88 9c ec 3a 8b ca 57 3c e5 bb f8 3b a5 9a ab bb
       0.0018052021 0.013170849 0.007590758 -0.005236941
0001a0 9f 07 41 3c 14 aa 0f 3d e2 71 81 bb 15 2c 48 3c
       0.011781602 0.03507431 -0.0039503435 0.012217541
0001b0 85 aa f1 bb 1b dd 02 bd 20 7c e7 bb 41 42 a4 37
       -0.007375064 -0.031949144 -0.0070643574 1.9581175e-05
0001c0 7e e0 04 3b ad e8 f1 3b 21 3a 1a 3d 4f 2d b7 3c
       0.002027541 0.0073824734 0.037653092 0.022360472
0001d0 50 be f8 bb 8a 1c 5f 3c 38 1d 94 bc 67 e5 e1 3b
       -0.0075910464 0.013617644 -0.018080339 0.006893802
0001e0 a8 83 33 3c 7d 2c 74 bc 47 0e d6 3c 23 1c 1f 3c
       0.010956682 -0.014903185 0.026129855 0.009711298
0001f0 bf a2 cb 3b b7 ab 95 3c e4 c3 19 bc 10 53 02 3d
       0.006214469 0.018270357 -0.009385083 0.031817496
000200 1f 38 86 3c af 27 09 bd 37 9d c0 bc 7b 34 30 3c
       0.016384182 -0.03348511 -0.023512466 0.0107547
000210 d0 d8 34 3b 13 4f 53 3c 8f 48 a7 bc a5 8e 9d 3c
       0.002759505 0.012897271 -0.02042034 0.019233057
000220 2f 28 00 bd 6d be 6a 3b 0b ee ac 3c f2 07 df bb
       -0.031288322 0.003581907 0.021109601 -0.006806367
000230 83 5b 90 3b 2b 71 37 bb 00 14 bb 3b d2 61 f3 b9
       0.0044054403 -0.0027991037 0.0057091713 -0.00046421454
000240 cb 8a 82 bb 50 c7 84 3b 4b 6b a3 3c 93 61 7d b9
       -0.0039838306 0.00405208 0.019948622 -0.0002416431
000250 8a cd 25 bc 6a 1f 3a bc 99 c9 38 39 aa cc a4 3c
       -0.010119805 -0.011360029 0.00017622708 0.020117123
000260 3a 7f cd 3c cb 5e 4a bd d7 ec 49 3d 37 56 8b bc
       0.02508508 -0.049406808 0.049298134 -0.017008884
000270 84 d3 46 3d 55 47 fa 3c 31 6a 93 bc ce aa b4 bc
       0.04854156 0.030551592 -0.017994972 -0.022054102
000280 4d 96 82 3b 6c a8 93 bb 79 7b 96 bb 59 af 04 3d
       0.0039852024 -0.0045061614 -0.004592356 0.032393787
000290 65 1d 10 bd 8d 7a 01 bb 6f 7f 00 bc df ff b8 3b
       -0.035184283 -0.0019756884 -0.007842883 0.0056457366
0002a0 97 51 a5 bc f9 60 0d bd d8 f3 f3 3a 77 10 c4 bb
       -0.020180507 -0.03451631 0.00186121 -0.005983408
0002b0 35 44 78 3c f3 46 1c 3d 84 75 21 3d dd 12 70 3c
       0.015152981 0.0381536 0.039418712 0.014652935
0002c0 b6 07 90 bb 5b dc d1 bc ec d6 b3 bb d3 78 3b bd
       -0.0043954505 -0.025617769 -0.005488267 -0.045769524
0002d0 d5 01 47 bc 5a 03 cd bc a9 36 2e bb 98 7f 52 3b
       -0.012146433 -0.025026012 -0.0026582873 0.0032119509
0002e0 7f 84 9e bc 0e d7 8a 3c 7d 7f d3 3c 43 1a ca bc
       -0.019350288 0.01694825 0.025817627 -0.024670726
0002f0 df 2d 59 3b 3c cb c7 bb 05 7f ec 3c 5c d6 b3 bc
       0.0033138914 -0.0060972255 0.028869161 -0.0219528
000300 46 0f 15 3b 34 91 1c bc e0 e2 c9 3c 27 c3 c7 3c
       0.00227447 -0.0095561035 0.024644315 0.024385048
000310 d9 a7 c1 3c 6d 47 11 3a 54 eb 81 3b 6a f7 4f 3b
       0.023639606 0.00055419543 0.003964821 0.0031733164
000320 88 60 ae 3b 73 5c d1 bc 2a 26 67 bc 5f 88 22 3d
       0.005321566 -0.025556779 -0.01410822 0.039680835
000330 fd 69 eb 3a f2 06 0c bd 17 00 a1 bc 98 90 72 3c
       0.0017960664 -0.03418631 -0.019653363 0.014804982
000340 63 85 2a 3b a0 bc 4d b8 1b 7b 5e 3b 4b 57 1f bd
       0.0026019446 -4.905148e-05 0.0033947888 -0.03890161
000350 11 39 b0 3c 9b 97 8f 3c ca 9b e1 3b 83 1e 8d 3c
       0.021511586 0.017528346 0.0068850266 0.017226463
000360 37 a2 36 3c e9 42 a5 3b a5 9b 00 bd 30 83 f9 3b
       0.0111470735 0.0050433767 -0.031398434 0.0076145157
000370 b2 3f 0f 3b af 76 11 3b dd 91 57 3c 9d 08 89 3c
       0.0021858034 0.0022195985 0.013157335 0.01672774
000380 2b 92 0f 3c de 2e 29 3c 9f f1 0c bc af 0e 9d 3c
       0.0087628765 0.010326115 -0.008602529 0.01917204
000390 b8 9a 90 bc d4 04 01 3c a4 ac 0a bd e3 29 13 3c
       -0.0176519 0.007874686 -0.03385605 0.008982155
0003a0 9f 26 68 bc ca cd df 3c fb 4f ee bc 17 aa 07 3c
       -0.014169364 0.027319808 -0.029090872 0.008280299
0003b0 c7 9e 0d bd d3 03 8c 3b 98 fb 90 bc 7e f6 31 bd
       -0.03457525 0.004272917 -0.017698094 -0.043447964
0003c0 72 24 0f bc 08 1d f0 3a 07 9c 47 bc d3 19 6f bb
       -0.008736717 0.0018319199 -0.012183196 -0.0036483898
0003d0 9a 7f 1c 3c bb 37 82 3c 9a 18 84 3c 8c 02 ad 3a
       0.009551907 0.015895715 0.016125012 0.0013199612
0003e0 ec 08 ba bc 0b 43 50 3a 09 cb 17 bb a2 07 53 bc
       -0.022709332 0.00079445605 -0.002316179 -0.012880238
0003f0 1b a8 1e bc cb 1b 5f bc 78 32 77 3b aa e8 f1 bb
       -0.009683634 -0.013617466 0.003771929 -0.007382472

action_model._continuous_distribution.mu.bias f4 [6]
000000 00 00 00 00 00 00 00 00 00 00 00 00 00 00 00 00
       0.0 0.0 0.0 0.0
000010 00 00 00 00 00 00 00 00
       0.0 0.0
