results/PlayerAgentTest/TestPlayerAgent/TestPlayerAgent-164.pt (torch, 550249 bytes, 12 tensors)

network_body._body_endoder.seq_layers.0.weight f4 [128, 396]
0	0xbd2a1333	-0.041522216
1	0xbccd5cd9	-0.025068687
2	0x3deca205	0.1155434
3	0xbcd3b953	-0.025845205
4	0x3d0be882	0.034157284
5	0xbdee16b0	-0.11625421
6	0xbd0ee84d	-0.034889508
7	0x3d34e23e	0.044161074
8	0xbd510f7b	-0.051040154
9	0xbd830a64	-0.06398466
10	0x3d1947d2	0.03742201
11	0xbd10fc71	-0.035396997
12	0xbd9290ff	-0.07156562
13	0x388b13ae	6.631702e-05
14	0xbc3103d9	-0.01080414
15	0xbd26c9fc	-0.04071997
16	0xbc3acbd9	-0.01140114
17	0xbd2ee81e	-0.042701833
18	0xbced6559	-0.02897899
19	0x3cc5f3aa	0.02416404
20	0xbb609ab1	-0.003427189
21	0xbde09ffc	-0.109680146
22	0x3d508873	0.050911378
23	0x3b07cee0	0.0020722672
24	0x3dbaf71a	0.09129162
25	0xbd283bad	-0.041072536
26	0x3d573697	0.052542295
27	0xbd289af6	-0.041163407
28	0x3ca11784	0.019664533
29	0x3c294153	0.010330516
30	0x3da65c82	0.08123113
31	0x3ca99765	0.020702073
32	0x3d927409	0.07151038
33	0x3d8f0486	0.06983285
34	0xbc3c97f6	-0.01151084
35	0xbcae025a	-0.021241356
36	0xbcf7aeed	-0.030234778
37	0xbdb3e95a	-0.08784743
38	0xbd0f0e67	-0.034925845
39	0x3c3dabd0	0.011576608
40	0xbdc652f8	-0.09683794
41	0xbc8e5aab	-0.017377218
42	0xbdf38b6b	-0.11891826
43	0x3d1f7b9c	0.038936242
44	0xbd80709f	-0.06271481
45	0x3d79bc38	0.060970515
46	0xbd43d20b	-0.047807734
47	0x3c88d0e2	0.016701166
48	0xbc643889	-0.013929495
49	0xbd200a62	-0.0390724
50	0xbd07a575	-0.033116776
51	0x3d1720be	0.03689646
52	0x3db28085	0.087159194
53	0x3d85ec6d	0.06539235
54	0x39c4784e	0.00037473667
55	0xbd0c433d	-0.03424381
56	0x3b16db2a	0.0023018816
57	0xbc8969df	-0.016774116
58	0x3cebe72d	0.028796757
59	0x3cfa24fa	0.03053521
60	0x3db07a9f	0.08617138
61	0x3b9d4b86	0.004800263
62	0x3d86dcac	0.065850586
63	0x3d805adb	0.06267329
64	0xbba7acd0	-0.0051170364
65	0x3d61d832	0.05513782
66	0x3bffb359	0.0078033623
67	0x3c46ac93	0.012126106
68	0xbbd018fa	-0.0063506337
69	0x3cbc98b0	0.023022026
70	0xbd1d0f4b	-0.038344663
71	0x3d15d184	0.036576763
72	0xbbc3e55f	-0.005978271
73	0xbbdcc4da	-0.0067373337
74	0x3da6e94b	0.08149966
75	0x3c93ead1	0.018056305
76	0x3d9b16cb	0.07572707
77	0xbbe94e26	-0.0071199117
78	0x3d44d762	0.048056968
79	0x3d64c5fd	0.05585288
80	0x3cfa2015	0.030532876
81	0x3c92d518	0.017923877
82	0x3dc31454	0.09525362
83	0x398f93ac	0.0002738511
84	0x3c076974	0.008264888
85	0x3d1ddfcf	0.03854352
86	0xbd55e10d	-0.05221658
87	0xbdf65782	-0.120284095
88	0x3cf801fa	0.03027438
89	0xbd77bd45	-0.060483236
90	0x3b9dd340	0.0048164427
91	0x3ce33b2c	0.027738176
92	0x3cbfd8ce	0.02341881
93	0x3d75294e	0.059853844
94	0xbd58aae3	-0.052897345
95	0xbb903e37	-0.004401948
96	0x3d018618	0.031622022
97	0xbdecbbd3	-0.11559262
98	0xbd8c431e	-0.06848739
99	0x3caab6e6	0.020839166
100	0xbd789ef4	-0.060698465
101	0x3d0ae839	0.03391287
102	0xbccd054b	-0.025026938
103	0x3c20be6c	0.009811025
104	0xbd03bf62	-0.03216494
105	0x3d40d0c2	0.047074087
106	0xbd4c4c70	-0.049877584
107	0xbad02f9c	-0.0015883329
108	0x3b335a2c	0.002736698
109	0xbd469fa2	-0.04849208
110	0x3cb8059c	0.022463612
111	0xbdb5fbe2	-0.088859335
112	0xbbd040f1	-0.006355398
113	0x3c6e7725	0.014554773
114	0x3b21df16	0.002469962
115	0x3da9e4a1	0.08295561
116	0xbd26fa59	-0.040766094
117	0x3cb96a21	0.022633614
118	0x3ce694de	0.028147157
119	0xbdc068e2	-0.09395005
120	0x3db3bb69	0.0877598
121	0xbd6f0b80	-0.058360577
122	0x3d7e6741	0.06211019
123	0xbc2f2deb	-0.0106921
124	0xbc90b502	-0.017664436
125	0x3c92bf4f	0.017913489
126	0xbd2991e8	-0.041398913
127	0xbd7a91f2	-0.06117434
128	0xbd6df3b6	-0.05809375
129	0xbdb9acbb	-0.09066149
130	0x3a821726	0.0009925112
131	0x3c5c9034	0.013462115
132	0xbda62c49	-0.081139155
133	0x3aa69328	0.0012708651
134	0x3c5b92b1	0.013401673
135	0x3d24bebc	0.04022096
136	0xbccdea72	-0.025136206
137	0x3c270091	0.010193006
138	0xbd44a66b	-0.04801027
139	0x3cc52ff5	0.02407072
140	0xbc95b587	-0.018275036
141	0x3d8a9a1b	0.067676745
142	0xbd564493	-0.05231149
143	0xbd8d3f18	-0.068968
144	0xbd21179e	-0.039329164
145	0xbd93112c	-0.0718101
146	0x3d3b2afb	0.045695286
147	0x3d77cd1e	0.06049835
148	0x3c909ca4	0.017652817
149	0xbc715cf0	-0.014731631
150	0x3b98daac	0.0046647396
151	0x3d556f26	0.052107953
152	0x3d4fad40	0.050702333
153	0x3d32837e	0.043582432
154	0xbca327ba	-0.019916404
155	0xba34df5a	-0.0006899737
156	0x3d989e3f	0.07452058
157	0xbd131ddb	-0.035917144
158	0xbc91af80	-0.01778388
159	0x3d20e8f0	0.039284647
160	0xbc015759	-0.00789436
161	0xbc691c7b	-0.014227982
162	0xbd850fd9	-0.06497163
163	0xbd6b2d84	-0.057416454
164	0xbd6e206b	-0.058136385
165	0xbc2e88e3	-0.0106527535
166	0xbc7522a1	-0.014961869
167	0x3ca50ca5	0.020147631
168	0xbe0889e4	-0.13333851
169	0xbd19963a	-0.037496783
170	0xbc697af8	-0.014250509
171	0xbd5441aa	-0.051820435
172	0xbd4932e7	-0.04912081
173	0xbddeacdc	-0.10872814
174	0x3c6ff7f9	0.014646524
175	0xbd18daf8	-0.0373182
176	0x3bdee990	0.006802745
177	0x3b93776e	0.004500321
178	0x3c60985c	0.0137082
179	0xbd2a0942	-0.041512735
180	0xbb7e21b3	-0.003877741
181	0xbd856645	-0.06513647
182	0x3be7e92c	0.007077357
183	0x3d464d9d	0.04841386
184	0xbd800bcb	-0.06252249
185	0xbd3fa6e9	-0.046790037
186	0x3dc6ea10	0.09712613
187	0x3dca4b91	0.098776944
188	0x3c477e96	0.0121761765
189	0xbd617cc4	-0.055050626
190	0xbd84c83f	-0.064835064
191	0xba9a22f5	-0.0011759686
192	0x3d6ce474	0.057835057
193	0xbd92b9f6	-0.071643755
194	0xbd82a1a4	-0.06378487
195	0x3b40f38b	0.0029442038
196	0x3d16adee	0.036786966
197	0x3c967149	0.018364565
198	0xbc09346e	-0.008374317
199	0x3d92c89c	0.071671695
200	0x3e0b611c	0.13611263
201	0xbd1be3aa	-0.038058914
202	0x3d609aa7	0.054834988
203	0xbc1b90c2	-0.009494962
204	0x3ddbddb1	0.10735644
205	0xbdba7ef1	-0.091062434
206	0xbd0e1aca	-0.034693517
207	0x3d9b35d9	0.0757863
208	0xbd478647	-0.04871204
209	0x3be4ad4c	0.0069786664
210	0xbd0ae5c6	-0.033910535
211	0xbda52fc3	-0.080657504
212	0xbd69c49b	-0.057072263
213	0xbcfc253b	-0.030779472
214	0xbe458caf	-0.19291948
215	0xbaedfd49	-0.001815715
216	0xbd640fc4	-0.055679098
217	0xbd85b986	-0.065295264
218	0xbc255f37	-0.010093502
219	0x3d0cc5d6	0.03436836
220	0x3cfc944e	0.030832436
221	0x3d04ce63	0.03242339
222	0xbb9712bd	-0.004610388
223	0xbcddd8e7	-0.027080966
224	0xbcbfd200	-0.023415565
225	0xbd0f3523	-0.034962784
226	0xbd3d9630	-0.046285808
227	0xbd118e7c	-0.035536274
228	0x3d2aebbc	0.04172872
229	0x3c99da47	0.01878084
230	0xbd81cc4d	-0.063377954
231	0xbd92c288	-0.0716601
232	0x3d0755f7	0.033040967
233	0x3d312e36	0.04325696
234	0xbb1b93c6	-0.0023739203
235	0x3cf9a12a	0.030472357
236	0xbb7ed217	-0.0038882548
237	0x3d8367b7	0.064162664
238	0x3d6ca6a8	0.057776123
239	0x3d075b9d	0.033046354
240	0x3d30aeda	0.0431355
241	0x3db767f4	0.08955374
242	0x3c2fcb2c	0.010729592
243	0x3da64390	0.08118355
244	0xbba4d012	-0.0050296867
245	0xbd57edb8	-0.05271694
246	0xbd80c286	-0.062871024
247	0x3bc673f9	0.0060563055
248	0xbcad96a4	-0.021189995
249	0xbd124852	-0.0357135
250	0xbcea78e9	-0.028622108
251	0xbd580f65	-0.052749056
252	0x3c6dbdac	0.014510553
253	0x3d8f5277	0.06998151
254	0xbb8499bc	-0.004046647
255	0xbcc52cc2	-0.024069194

network_body._body_endoder.seq_layers.0.bias f4 [128]
0	0x00000000	0.0
1	0x00000000	0.0
2	0x00000000	0.0
3	0x00000000	0.0
4	0x00000000	0.0
5	0x00000000	0.0
6	0x00000000	0.0
7	0x00000000	0.0
8	0x00000000	0.0
9	0x00000000	0.0
10	0x00000000	0.0
11	0x00000000	0.0
12	0x00000000	0.0
13	0x00000000	0.0
14	0x00000000	0.0
15	0x00000000	0.0
16	0x00000000	0.0
17	0x00000000	0.0
18	0x00000000	0.0
19	0x00000000	0.0
20	0x00000000	0.0
21	0x00000000	0.0
22	0x00000000	0.0
23	0x00000000	0.0
24	0x00000000	0.0
25	0x00000000	0.0
26	0x00000000	0.0
27	0x00000000	0.0
28	0x00000000	0.0
29	0x00000000	0.0
30	0x00000000	0.0
31	0x00000000	0.0
32	0x00000000	0.0
33	0x00000000	0.0
34	0x00000000	0.0
35	0x00000000	0.0
36	0x00000000	0.0
37	0x00000000	0.0
38	0x00000000	0.0
39	0x00000000	0.0
40	0x00000000	0.0
41	0x00000000	0.0
42	0x00000000	0.0
43	0x00000000	0.0
44	0x00000000	0.0
45	0x00000000	0.0
46	0x00000000	0.0
47	0x00000000	0.0
48	0x00000000	0.0
49	0x00000000	0.0
50	0x00000000	0.0
51	0x00000000	0.0
52	0x00000000	0.0
53	0x00000000	0.0
54	0x00000000	0.0
55	0x00000000	0.0
56	0x00000000	0.0
57	0x00000000	0.0
58	0x00000000	0.0
59	0x00000000	0.0
60	0x00000000	0.0
61	0x00000000	0.0
62	0x00000000	0.0
63	0x00000000	0.0
64	0x00000000	0.0
65	0x00000000	0.0
66	0x00000000	0.0
67	0x00000000	0.0
68	0x00000000	0.0
69	0x00000000	0.0
70	0x00000000	0.0
71	0x00000000	0.0
72	0x00000000	0.0
73	0x00000000	0.0
74	0x00000000	0.0
75	0x00000000	0.0
76	0x00000000	0.0
77	0x00000000	0.0
78	0x00000000	0.0
79	0x00000000	0.0
80	0x00000000	0.0
81	0x00000000	0.0
82	0x00000000	0.0
83	0x00000000	0.0
84	0x00000000	0.0
85	0x00000000	0.0
86	0x00000000	0.0
87	0x00000000	0.0
88	0x00000000	0.0
89	0x00000000	0.0
90	0x00000000	0.0
91	0x00000000	0.0
92	0x00000000	0.0
93	0x00000000	0.0
94	0x00000000	0.0
95	0x00000000	0.0
96	0x00000000	0.0
97	0x00000000	0.0
98	0x00000000	0.0
99	0x00000000	0.0
100	0x00000000	0.0
101	0x00000000	0.0
102	0x00000000	0.0
103	0x00000000	0.0
104	0x00000000	0.0
105	0x00000000	0.0
106	0x00000000	0.0
107	0x00000000	0.0
108	0x00000000	0.0
109	0x00000000	0.0
110	0x00000000	0.0
111	0x00000000	0.0
112	0x00000000	0.0
113	0x00000000	0.0
114	0x00000000	0.0
115	0x00000000	0.0
116	0x00000000	0.0
117	0x00000000	0.0
118	0x00000000	0.0
119	0x00000000	0.0
120	0x00000000	0.0
121	0x00000000	0.0
122	0x00000000	0.0
123	0x00000000	0.0
124	0x00000000	0.0
125	0x00000000	0.0
126	0x00000000	0.0
127	0x00000000	0.0

network_body._body_endoder.seq_layers.2.weight f4 [128, 128]
0	0xbc8cd6c3	-0.01719225
1	0xbd92af2c	-0.07162318
2	0x3d95a748	0.07307297
3	0xbdc6c39c	-0.09705278
4	0x3dc17bff	0.094474785
5	0xbd9d3f1c	-0.07678053
6	0xbd08d45d	-0.03340565
7	0xbdea3b4b	-0.114370905
8	0x3d797bd3	0.060909104
9	0xbccb0e71	-0.02478716
10	0xbd14d3fa	-0.03633497
11	0x3c6a32df	0.014294355
12	0x3d6d04f8	0.057866067
13	0xbdde0a7b	-0.10841843
14	0x3d31fa05	0.043451328
15	0xbc4e8b84	-0.012606505
16	0x3da3377c	0.07969567
17	0x3db963be	0.090522274
18	0x3d16ba52	0.036798783
19	0xbd9aab7e	-0.07552241
20	0xbe69bf08	-0.22826779
21	0x3d309120	0.043107152
22	0xbe040a74	-0.12894613
23	0xbbd148cd	-0.0063868524
24	0x3db170a7	0.08664065
25	0x3c61c65e	0.013780205
26	0x3ddd186f	0.10795676
27	0xbe15a319	-0.14612998
28	0xbe140598	-0.14455259
29	0x3e08ff39	0.1337861
30	0xbb8d9217	-0.004320394
31	0x3dd2e219	0.10297031
32	0xbdf09e80	-0.117489815
33	0xbda1fa32	-0.07909049
34	0xbdd3fa78	-0.103505075
35	0x3d7427de	0.059608333
36	0xbe091832	-0.13388136
37	0x3d832eec	0.06405434
38	0x3e104925	0.14090402
39	0xbccf978f	-0.025340823
40	0x3c82a671	0.015948506
41	0xbe251df6	-0.1612471
42	0xbc43dbf4	-0.011954296
43	0xbd8ec449	-0.06971032
44	0xbda2eef2	-0.079557315
45	0x3a846e77	0.0010103722
46	0xbdf81c19	-0.12114734
47	0x3c106a14	0.0088143535
48	0xbda5ce42	-0.08095981
49	0xbd0a73fa	-0.03380201
50	0xbabfae1a	-0.001462403
51	0xbdf1dad8	-0.11809319
52	0xbd98c397	-0.07459181
53	0x3b8027f3	0.0039110123
54	0xbe2b904e	-0.16754267
55	0x3deb5d5a	0.11492415
56	0x3d759e8f	0.059965666
57	0x3d3df04d	0.046371747
58	0xbc84f491	-0.0162299
59	0xbe893e56	-0.2680537
60	0x3db014d2	0.08597721
61	0x3ce61e4b	0.028090617
62	0x3d9c2e4d	0.07626019
63	0x3d7740f0	0.060364664
64	0xbc4372b8	-0.011929207
65	0xbd245f5e	-0.04013001
66	0x3d851602	0.06498338
67	0x3df216d1	0.11820758
68	0x3dba8892	0.0910808
69	0xbb3561d8	-0.0027676728
70	0x3daf0b2a	0.08547051
71	0xbe3d5dd6	-0.18492827
72	0xbd226a2c	-0.039652035
73	0xbd92ce93	-0.07168307
74	0x3dab13e1	0.08353401
75	0xbd7650a8	-0.060135514
76	0xbd99b163	-0.07504537
77	0x3d951731	0.07279814
78	0x3e79be54	0.2438901
79	0xbcbd4958	-0.023106262
80	0x3bf02ea8	0.0073297806
81	0xbe5c2f55	-0.2150243
82	0xbe0382fe	-0.12842938
83	0xbce8b33b	-0.028405776
84	0x3ac48630	0.0014993604
85	0x3d9edaac	0.07756552
86	0xbd82568a	-0.06364162
87	0xbe443a6e	-0.19162914
88	0x3d44730d	0.047961283
89	0x3dce0a81	0.10060597
90	0xbd893c4d	-0.067009546
91	0x3caef9f6	0.021359425
92	0x3d08f74c	0.033438966
93	0x3e161223	0.14655356
94	0x3d803e6d	0.06261907
95	0xbcb15bf7	-0.021650298
96	0x3c85b9d8	0.016323969
97	0x3bff7332	0.007795715
98	0x3bd1ae7f	0.0063989754
99	0xbc651c6d	-0.013983828
100	0x3d4a54a3	0.049397122
101	0x3dd246bb	0.10267397
102	0x3d84771e	0.06468032
103	0x3c19704b	0.009365152
104	0x3dd84a84	0.10561088
105	0xbda8a810	-0.082351804
106	0x3d864ae5	0.06557254
107	0x3db405c6	0.08790164
108	0x3d947cc4	0.0725036
109	0xbda68445	-0.08130697
110	0xbddbe28b	-0.10736569
111	0x3da9d9cf	0.08293497
112	0xbd0df95e	-0.034661643
113	0xbcc42396	-0.02394275
114	0x3c480b18	0.012209676
115	0x3d94e00d	0.07269297
116	0x3dd0df56	0.10198848
117	0x3d58fcaf	0.052975353
118	0xbd6d1a5f	-0.057886478
119	0xbd718e3e	-0.058973543
120	0xbd71f510	-0.0590716
121	0xbcf3936e	-0.029733386
122	0xbc948516	-0.018129867
123	0xbd877c4a	-0.06615503
124	0xbd6fe41e	-0.05856716
125	0xbd373bc6	-0.04473474
126	0x3e8dd447	0.27701017
127	0xbe571fc9	-0.21008219
128	0xbd10d580	-0.03535986
129	0xbd9565d3	-0.07294812
130	0xbba2f8a7	-0.0049734893
131	0xbbdd62bc	-0.006756155
132	0xbda25c7f	-0.079277985
133	0xbd5ece53	-0.054395985
134	0xbe797bba	-0.24363604
135	0xbd0ba44b	-0.03409223
136	0xbdeaa6e3	-0.11457612
137	0x3e1a8761	0.15090705
138	0xbc2f1845	-0.010686939
139	0x3da8f741	0.08250285
140	0x3dc08f84	0.094023734
141	0x3c4cac67	0.012492276
142	0x3cbdb11b	0.02315574
143	0xbd9bb2e5	-0.07602481
144	0x3c2eb61c	0.010663535
145	0xbcd5a650	-0.02608028
146	0xbc51d05e	-0.012806026
147	0xbe110673	-0.14162616
148	0xbe19a39c	-0.15003818
149	0x3d8ac8ce	0.06776582
150	0x3d96ec5d	0.073693015
151	0x3ddfea86	0.10933404
152	0xbe18207a	-0.14856139
153	0x3e30eb68	0.172773
154	0xbd9649be	-0.07338284
155	0xbe11fe80	-0.1425724
156	0xbc8554fa	-0.016275872
157	0x3df866ea	0.12129004
158	0x3cdeb8b7	0.027187688
159	0x3ceb4b67	0.028722478
160	0x3dd2b944	0.10289243
161	0xbca66e11	-0.020316156
162	0x3d8215c7	0.0635181
163	0x38e074b5	0.00010702891
164	0x3daddba6	0.0848916
165	0x3cc6ffb8	0.024291858
166	0x3cfd1feb	0.030899009
167	0x3dbcfe85	0.09228233
168	0x3df34fb8	0.118804395
169	0x3d5e5298	0.054277986
170	0x3dd52245	0.10406927
171	0x3e52b07b	0.20575134
172	0xbcee7e6a	-0.029113013
173	0xbd5289a1	-0.051400784
174	0x3d754b6a	0.059886374
175	0x3dff9efc	0.12481496
176	0xbd94c959	-0.072649665
177	0x3bafb382	0.005361975
178	0xbd54ae17	-0.051923838
179	0xbcbeb138	-0.023277864
180	0x3db290a5	0.08718995
181	0x3d7a8779	0.061164353
182	0x3d80e039	0.06292767
183	0xbdf86b66	-0.121298596
184	0xbbbd4f42	-0.0057772705
185	0xbd96b899	-0.07359428
186	0xbddd535b	-0.108069144
187	0x3cfa042b	0.030519566
188	0x3d8aca36	0.0677685
189	0x3d2d691e	0.042336576
190	0xbe052f3f	-0.13006304
191	0x3dd34f72	0.10317887
192	0x3e294c7b	0.16533081
193	0x3db8395a	0.08995314
194	0xbd90a5f3	-0.07062902
195	0xbd5a0afa	-0.053233124
196	0x3c6343f4	0.013871182
197	0xbd714305	-0.058901805
198	0x3ced6397	0.028978152
199	0x3e0c504e	0.13702509
200	0xbd9a54e8	-0.07535726
201	0xbd532df3	-0.051557492
202	0x3d5739fc	0.052545533
203	0x3e19e5b1	0.15029027
204	0xbe574a14	-0.21024352
205	0xbdd3c100	-0.10339546
206	0x3d133e69	0.03594819
207	0x3c94a441	0.018144729
208	0xbd82939d	-0.06375811
209	0xbdc9c8d7	-0.0985276
210	0x3e096c9a	0.13420334
211	0xbd243e3c	-0.040098414
212	0xbde786fa	-0.113050416
213	0x3d19d8b7	0.03756019
214	0xbd92e3dc	-0.07172367
215	0x3bb2e49b	0.005459381
216	0xbde2d8ec	-0.11076531
217	0x3e0768a6	0.13223514
218	0x3d30084f	0.042976674
219	0x39ef35e8	0.00045625796
220	0x3dd7bd4b	0.10534152
221	0xbd32e6a9	-0.043677006
222	0xbd96d65c	-0.073651046
223	0x3e18b7d8	0.14913881
224	0xbe376d47	-0.1791278
225	0xbe30ca77	-0.17264734
226	0x3d670154	0.05639775
227	0xbe063e4e	-0.13109705
228	0x3e2620c5	0.16223438
229	0xbd1ddb5a	-0.038539268
230	0x3d4c3e29	0.049863968
231	0x3cd4dc73	0.025984025
232	0x3cc5c845	0.024143348
233	0x3d0b053a	0.03394053
234	0x3d904981	0.0704527
235	0xbe17e4cf	-0.14833377
236	0x3c445299	0.011982583
237	0xbd5de0ac	-0.054169342
238	0x3d0c6a05	0.034280796
239	0x3ccf9f13	0.025344407
240	0x3d825801	0.06364442
241	0xbd908682	-0.07056905
242	0xbe3e5d42	-0.18590263
243	0xbe1e8269	-0.15479435
244	0x3c278598	0.010224722
245	0xbd6f85da	-0.05847726
246	0xbe084c65	-0.13310392
247	0xbdef0507	-0.11670881
248	0xbd0644da	-0.032780506
249	0xbe03333b	-0.12812512
250	0x3e33b363	0.175489
251	0x3d5f16dc	0.05446516
252	0x3d892e91	0.06698335
253	0x3d4ef5cf	0.05052739
254	0x3ab15511	0.001352938
255	0x3db57afe	0.088613495

network_body._body_endoder.seq_layers.2.bias f4 [128]
0	0x00000000	0.0
1	0x00000000	0.0
2	0x00000000	0.0
3	0x00000000	0.0
4	0x00000000	0.0
5	0x00000000	0.0
6	0x00000000	0.0
7	0x00000000	0.0
8	0x00000000	0.0
9	0x00000000	0.0
10	0x00000000	0.0
11	0x00000000	0.0
12	0x00000000	0.0
13	0x00000000	0.0
14	0x00000000	0.0
15	0x00000000	0.0
16	0x00000000	0.0
17	0x00000000	0.0
18	0x00000000	0.0
19	0x00000000	0.0
20	0x00000000	0.0
21	0x00000000	0.0
22	0x00000000	0.0
23	0x00000000	0.0
24	0x00000000	0.0
25	0x00000000	0.0
26	0x00000000	0.0
27	0x00000000	0.0
28	0x00000000	0.0
29	0x00000000	0.0
30	0x00000000	0.0
31	0x00000000	0.0
32	0x00000000	0.0
33	0x00000000	0.0
34	0x00000000	0.0
35	0x00000000	0.0
36	0x00000000	0.0
37	0x00000000	0.0
38	0x00000000	0.0
39	0x00000000	0.0
40	0x00000000	0.0
41	0x00000000	0.0
42	0x00000000	0.0
43	0x00000000	0.0
44	0x00000000	0.0
45	0x00000000	0.0
46	0x00000000	0.0
47	0x00000000	0.0
48	0x00000000	0.0
49	0x00000000	0.0
50	0x00000000	0.0
51	0x00000000	0.0
52	0x00000000	0.0
53	0x00000000	0.0
54	0x00000000	0.0
55	0x00000000	0.0
56	0x00000000	0.0
57	0x00000000	0.0
58	0x00000000	0.0
59	0x00000000	0.0
60	0x00000000	0.0
61	0x00000000	0.0
62	0x00000000	0.0
63	0x00000000	0.0
64	0x00000000	0.0
65	0x00000000	0.0
66	0x00000000	0.0
67	0x00000000	0.0
68	0x00000000	0.0
69	0x00000000	0.0
70	0x00000000	0.0
71	0x00000000	0.0
72	0x00000000	0.0
73	0x00000000	0.0
74	0x00000000	0.0
75	0x00000000	0.0
76	0x00000000	0.0
77	0x00000000	0.0
78	0x00000000	0.0
79	0x00000000	0.0
80	0x00000000	0.0
81	0x00000000	0.0
82	0x00000000	0.0
83	0x00000000	0.0
84	0x00000000	0.0
85	0x00000000	0.0
86	0x00000000	0.0
87	0x00000000	0.0
88	0x00000000	0.0
89	0x00000000	0.0
90	0x00000000	0.0
91	0x00000000	0.0
92	0x00000000	0.0
93	0x00000000	0.0
94	0x00000000	0.0
95	0x00000000	0.0
96	0x00000000	0.0
97	0x00000000	0.0
98	0x00000000	0.0
99	0x00000000	0.0
100	0x00000000	0.0
101	0x00000000	0.0
102	0x00000000	0.0
103	0x00000000	0.0
104	0x00000000	0.0
105	0x00000000	0.0
106	0x00000000	0.0
107	0x00000000	0.0
108	0x00000000	0.0
109	0x00000000	0.0
110	0x00000000	0.0
111	0x00000000	0.0
112	0x00000000	0.0
113	0x00000000	0.0
114	0x00000000	0.0
115	0x00000000	0.0
116	0x00000000	0.0
117	0x00000000	0.0
118	0x00000000	0.0
119	0x00000000	0.0
120	0x00000000	0.0
121	0x00000000	0.0
122	0x00000000	0.0
123	0x00000000	0.0
124	0x00000000	0.0
125	0x00000000	0.0
126	0x00000000	0.0
127	0x00000000	0.0

action_model._continuous_distribution.log_sigma f4 [1, 6]
0	0x00000000	0.0
1	0x00000000	0.0
2	0x00000000	0.0
3	0x00000000	0.0
4	0x00000000	0.0
5	0x00000000	0.0

action_model._continuous_distribution.mu.weight f4 [6, 128]
0	0xb94d82a7	-0.00019598995
1	0x3bdd7f70	0.0067595765
2	0x3c21d768	0.009878017
3	0x3d072a47	0.032999303
4	0xbb41ba82	-0.002956063
5	0x3b65a4a3	0.0035040758
6	0x3ca3e41f	0.020006238
7	0xbc408daa	-0.011752525
8	0x3c982a19	0.018574761
9	0x3b11bc86	0.0022237613
10	0xbcac9104	-0.021065243
11	0xbc9672ad	-0.018365229
12	0x3cca3bf7	0.024686797
13	0x3cb3a26e	0.021928038
14	0xbc0cab5f	-0.00858578
15	0x39fc2400	0.00048092008
16	0xbcc43dc6	-0.023955237
17	0x3cb09493	0.02155522
18	0xbcb64751	-0.022250803
19	0xbc5c7cca	-0.013457486
20	0x3c4de70f	0.012567296
21	0x3ce238eb	0.027615031
22	0x3a8a0fba	0.0010533251
23	0xba215f3b	-0.0006155853
24	0x3b8cb825	0.0042944127
25	0x3c65d795	0.01402845
26	0xbc246e97	-0.010036132
27	0x3cba688a	0.022754926
28	0xbab1176c	-0.0013511009
29	0xbc10842e	-0.008820577
30	0xba97a767	-0.0011570276
31	0xb8e88a83	-0.00011088422
32	0xbb759f90	-0.003747914
33	0xbbaf5aeb	-0.0053514144
34	0xbc2e069e	-0.010621695
35	0xba08fcf2	-0.000522568
36	0xbca9e30e	-0.02073815
37	0xbc9ac086	-0.01889063
38	0x3ad49263	0.0016217943
39	0x3b98405b	0.0046463436
40	0xbaee716b	-0.001819176
41	0xbb4fb6d0	-0.0031694658
42	0xbc68adda	-0.014201606
43	0x3c907019	0.017631577
44	0xbc8bcb26	-0.017064642
45	0xbb73212b	-0.0037098627
46	0x3a8d59eb	0.0010784244
47	0xbc53f260	-0.012936205
48	0xbace2807	-0.0015728482
49	0x3c906433	0.017625904
50	0x3b38a5a0	0.0028174892
51	0xbb0e7bad	-0.0021741197
52	0x3bbbcfa2	0.005731539
53	0x3ca0d4c6	0.019632708
54	0xbc46fabd	-0.012144742
55	0x3cba2703	0.02272368
56	0xbd1f44df	-0.03888404
57	0x3cf836a7	0.030299498
58	0xbbb314ec	-0.0054651406
59	0x3b8e9095	0.0043507316
60	0x3b920a92	0.0044568265
61	0x3c9c873d	0.019107455
62	0xbc47f06f	-0.01220332
63	0xbbd7d533	-0.0065866946
64	0xbc22f71b	-0.00994661
65	0xbc8a6035	-0.016891578
66	0x3c85a3d7	0.016313476
67	0xbc9ec6f9	-0.019381987
68	0xbc878ecb	-0.016547581
69	0x3beb46cd	0.007180071
70	0x3d046a5e	0.032328002
71	0xbb5d8097	-0.003379857
72	0xbb024315	-0.001987641
73	0x3be68347	0.0070346924
74	0xbce4228b	-0.027848503
75	0x3cd5bcbf	0.026090978
76	0x3bd09165	0.0063649886
77	0xbc51f06a	-0.012813667
78	0x3cbed52d	0.02329501
79	0xbc9cffbf	-0.019164918
80	0xbaff5128	-0.0019479143
81	0xbbee259b	-0.0072676665
82	0x3c8bc2f8	0.017060742
83	0x3ae14255	0.0017185906
84	0x3b25dcc3	0.0025308586
85	0xbc6e3420	-0.014538795
86	0xbbeaa4d3	-0.007160762
87	0xbabf865c	-0.0014612186
88	0x3c3232ec	0.0108763985
89	0xbabf56e9	-0.0014598045
90	0x3b808a67	0.003922749
91	0xbc962b6e	-0.018331256
92	0xb9fa3705	-0.0004772471
93	0xbd069212	-0.032854147
94	0x3c8c7eea	0.017150361
95	0xbc1864bf	-0.0093013635
96	0xbc8ecd03	-0.017431742
97	0xbc149dca	-0.009070823
98	0xbba3fe2d	-0.0050046653
99	0xbc355d78	-0.011069648
100	0x3aec9c88	0.0018052021
101	0x3c57ca8b	0.013170849
102	0x3bf8bbe5	0.007590758
103	0xbbab9aa5	-0.005236941
104	0x3c41079f	0.011781602
105	0x3d0faa14	0.03507431
106	0xbb8171e2	-0.0039503435
107	0x3c482c15	0.012217541
108	0xbbf1aa85	-0.007375064
109	0xbd02dd1b	-0.031949144
110	0xbbe77c20	-0.0070643574
111	0x37a44241	1.9581175e-05
112	0x3b04e07e	0.002027541
113	0x3bf1e8ad	0.0073824734
114	0x3d1a3a21	0.037653092
115	0x3cb72d4f	0.022360472
116	0xbbf8be50	-0.0075910464
117	0x3c5f1c8a	0.013617644
118	0xbc941d38	-0.018080339
119	0x3be1e567	0.006893802
120	0x3c3383a8	0.010956682
121	0xbc742c7d	-0.014903185
122	0x3cd60e47	0.026129855
123	0x3c1f1c23	0.009711298
124	0x3bcba2bf	0.006214469
125	0x3c95abb7	0.018270357
126	0xbc19c3e4	-0.009385083
127	0x3d025310	0.031817496
128	0x3c86381f	0.016384182
129	0xbd0927af	-0.03348511
130	0xbcc09d37	-0.023512466
131	0x3c30347b	0.0107547
132	0x3b34d8d0	0.002759505
133	0x3c534f13	0.012897271
134	0xbca7488f	-0.02042034
135	0x3c9d8ea5	0.019233057
136	0xbd00282f	-0.031288322
137	0x3b6abe6d	0.003581907
138	0x3cacee0b	0.021109601
139	0xbbdf07f2	-0.006806367
140	0x3b905b83	0.0044054403
141	0xbb37712b	-0.0027991037
142	0x3bbb1400	0.0057091713
143	0xb9f361d2	-0.00046421454
144	0xbb828acb	-0.0039838306
145	0x3b84c750	0.00405208
146	0x3ca36b4b	0.019948622
147	0xb97d6193	-0.0002416431
148	0xbc25cd8a	-0.010119805
149	0xbc3a1f6a	-0.011360029
150	0x3938c999	0.00017622708
151	0x3ca4ccaa	0.020117123
152	0x3ccd7f3a	0.02508508
153	0xbd4a5ecb	-0.049406808
154	0x3d49ecd7	0.049298134
155	0xbc8b5637	-0.017008884
156	0x3d46d384	0.04854156
157	0x3cfa4755	0.030551592
158	0xbc936a31	-0.017994972
159	0xbcb4aace	-0.022054102
160	0x3b82964d	0.0039852024
161	0xbb93a86c	-0.0045061614
162	0xbb967b79	-0.004592356
163	0x3d04af59	0.032393787
164	0xbd101d65	-0.035184283
165	0xbb017a8d	-0.0019756884
166	0xbc007f6f	-0.007842883
167	0x3bb8ffdf	0.0056457366
168	0xbca55197	-0.020180507
169	0xbd0d60f9	-0.03451631
170	0x3af3f3d8	0.00186121
171	0xbbc41077	-0.005983408
172	0x3c784435	0.015152981
173	0x3d1c46f3	0.0381536
174	0x3d217584	0.039418712
175	0x3c7012dd	0.014652935
176	0xbb9007b6	-0.0043954505
177	0xbcd1dc5b	-0.025617769
178	0xbbb3d6ec	-0.005488267
179	0xbd3b78d3	-0.045769524
180	0xbc4701d5	-0.012146433
181	0xbccd035a	-0.025026012
182	0xbb2e36a9	-0.0026582873
183	0x3b527f98	0.0032119509
184	0xbc9e847f	-0.019350288
185	0x3c8ad70e	0.01694825
186	0x3cd37f7d	0.025817627
187	0xbcca1a43	-0.024670726
188	0x3b592ddf	0.0033138914
189	0xbbc7cb3c	-0.0060972255
190	0x3cec7f05	0.028869161
191	0xbcb3d65c	-0.0219528
192	0x3b150f46	0.00227447
193	0xbc1c9134	-0.0095561035
194	0x3cc9e2e0	0.024644315
195	0x3cc7c327	0.024385048
196	0x3cc1a7d9	0.023639606
197	0x3a11476d	0.00055419543
198	0x3b81eb54	0.003964821
199	0x3b4ff76a	0.0031733164
200	0x3bae6088	0.005321566
201	0xbcd15c73	-0.025556779
202	0xbc67262a	-0.01410822
203	0x3d22885f	0.039680835
204	0x3aeb69fd	0.0017960664
205	0xbd0c06f2	-0.03418631
206	0xbca10017	-0.019653363
207	0x3c729098	0.014804982
208	0x3b2a8563	0.0026019446
209	0xb84dbca0	-4.905148e-05
210	0x3b5e7b1b	0.0033947888
211	0xbd1f574b	-0.03890161
212	0x3cb03911	0.021511586
213	0x3c8f979b	0.017528346
214	0x3be19bca	0.0068850266
215	0x3c8d1e83	0.017226463
216	0x3c36a237	0.0111470735
217	0x3ba542e9	0.0050433767
218	0xbd009ba5	-0.031398434
219	0x3bf98330	0.0076145157
220	0x3b0f3fb2	0.0021858034
221	0x3b1176af	0.0022195985
222	0x3c5791dd	0.013157335
223	0x3c89089d	0.01672774
224	0x3c0f922b	0.0087628765
225	0x3c292ede	0.010326115
226	0xbc0cf19f	-0.008602529
227	0x3c9d0eaf	0.01917204
228	0xbc909ab8	-0.0176519
229	0x3c0104d4	0.007874686
230	0xbd0aaca4	-0.03385605
231	0x3c1329e3	0.008982155
232	0xbc68269f	-0.014169364
233	0x3cdfcdca	0.027319808
234	0xbcee4ffb	-0.029090872
235	0x3c07aa17	0.008280299
236	0xbd0d9ec7	-0.03457525
237	0x3b8c03d3	0.004272917
238	0xbc90fb98	-0.017698094
239	0xbd31f67e	-0.043447964
240	0xbc0f2472	-0.008736717
241	0x3af01d08	0.0018319199
242	0xbc479c07	-0.012183196
243	0xbb6f19d3	-0.0036483898
244	0x3c1c7f9a	0.009551907
245	0x3c8237bb	0.015895715
246	0x3c84189a	0.016125012
247	0x3aad028c	0.0013199612
248	0xbcba08ec	-0.022709332
249	0x3a50430b	0.00079445605
250	0xbb17cb09	-0.002316179
251	0xbc5307a2	-0.012880238
252	0xbc1ea81b	-0.009683634
253	0xbc5f1bcb	-0.013617466
254	0x3b773278	0.003771929
255	0xbbf1e8aa	-0.007382472

action_model._continuous_distribution.mu.bias f4 [6]
0	0x00000000	0.0
1	0x00000000	0.0
2	0x00000000	0.0
3	0x00000000	0.0
4	0x00000000	0.0
5	0x00000000	0.0

network_body._body_endoder.seq_layers.0.weight f4 [128, 396]
0	0x3dbbcd35	0.091699995
1	0xbd30dfed	-0.043182302
2	0x3cfc7c70	0.030821055
3	0x3c603f00	0.013686895
4	0xbdcb5af4	-0.09929457
5	0x3d07d9fa	0.033166863
6	0x3c216de9	0.009852865
7	0xbd2f653f	-0.042821165
8	0xbce9df1f	-0.028548775
9	0xbb90f878	-0.004424151
10	0x3cc3d2a9	0.023904162
11	0x3d947cc2	0.07250358
12	0x3d81036d	0.062994815
13	0xbb3a616e	-0.002843942
14	0x3daf8c4a	0.0857168
15	0xbd950f72	-0.072783366
16	0xbd10fe89	-0.035398994
17	0x3d798256	0.060915314
18	0x3cd7c9c2	0.026341323
19	0x3cfa40aa	0.030548412
20	0xbda5c236	-0.080936834
21	0x3d18841e	0.03723537
22	0xbc369d2d	-0.011145872
23	0xbd54dd20	-0.051968694
24	0x3c9610e9	0.01831861
25	0x3e036e57	0.1283506
26	0xbd1ceae7	-0.038309958
27	0xbd3f84c8	-0.04675749
28	0x3d5db4da	0.05412755
29	0xbd806d7e	-0.06270884
30	0x3b523596	0.0032075397
31	0x3d8dbb0e	0.069204435
32	0xbd4765d1	-0.048681084
33	0xbd548608	-0.051885635
34	0x3d90c146	0.07068114
35	0xbbdf2474	-0.0068097655
36	0xbcf0e2ca	-0.029405016
37	0xbd0f0f76	-0.034926854
38	0xbd9622c6	-0.07330851
39	0x3d7389c9	0.059457574
40	0x3d1e0a42	0.038584
41	0xbc188cb6	-0.009310892
42	0xbd7bfcef	-0.061520513
43	0xbb4ed34b	-0.0031559046
44	0xbc1a7feb	-0.009429912
45	0xbc4721c4	-0.012154046
46	0xbd78e96d	-0.060769487
47	0xbce3967b	-0.027781716
48	0x3daa1cdb	0.08306285
49	0x3d0aea5b	0.033914905
50	0x3d920b10	0.07131016
51	0x3c98c239	0.0186473
52	0x3dce43f0	0.10071552
53	0x3cbb812c	0.022888742
54	0x3d341ee9	0.04397479
55	0x3b77f74d	0.0037836612
56	0x3b054b60	0.0020339116
57	0x3c3544b8	0.011063747
58	0xbd1f73be	-0.03892874
59	0xbd401e80	-0.046904087
60	0xbd88c504	-0.06678203
61	0xbc8af3f3	-0.016962027
62	0xbc0f3fa6	-0.008743202
63	0xba9b2fff	-0.0011839865
64	0xbd594a1c	-0.05304919
65	0xbd434694	-0.04767473
66	0xbd11a69b	-0.035559278
67	0x3c6817c0	0.014165819
68	0xbd0e71ba	-0.034776427
69	0xbae70352	-0.0017624891
70	0x3d35449a	0.044254877
71	0xbd072ffc	-0.033004746
72	0xbbcb27f1	-0.0061998297
73	0xbdc5553b	-0.09635397
74	0x3c84a0cd	0.016189957
75	0xbd312fbe	-0.04325842
76	0x3d113c10	0.03545767
77	0x3d93667d	0.071972825
78	0x3d23fc9e	0.040035836
79	0xbdb1c350	-0.08679831
80	0xbd300472	-0.04297299
81	0xbd90907c	-0.07058808
82	0x3bb94574	0.0056540314
83	0xbd0878bc	-0.033318266
84	0x3d0df78c	0.034659907
85	0x3c00c4b0	0.007859394
86	0xbd89b1f2	-0.067233935
87	0x3ad47fda	0.0016212419
88	0x3cd142f2	0.025544617
89	0xbd24baa7	-0.040217068
90	0xbda169d1	-0.07881511
91	0x3bd0b983	0.006369771
92	0x3cfd7b07	0.030942453
93	0x3ca42ecb	0.020041844
94	0xbd40b271	-0.047045175
95	0x3b3d2789	0.0028862676
96	0xbd1ab440	-0.037769556
97	0x3ca94803	0.02066422
98	0x3cb38885	0.021915684
99	0xbd45503f	-0.04817223
100	0xbd8c6abe	-0.06856297
101	0x3dcb5226	0.09927778
102	0xbccdf264	-0.025139995
103	0x3cd58745	0.026065478
104	0x3d634f01	0.055495266
105	0xbd93d302	-0.07217981
106	0x3d903fa5	0.07043389
107	0xbd74673a	-0.059668757
108	0x3ca6c8e3	0.020359462
109	0xbde32570	-0.11091125
110	0x3d8dc340	0.069220066
111	0x3df17962	0.1179073
112	0xbcf1b247	-0.029503955
113	0x3bb2c206	0.0054552583
114	0xbd0fcd36	-0.035107814
115	0xbc8cc4a5	-0.017183611
116	0xbd34834f	-0.044070538
117	0xbc17c3b9	-0.0092629725
118	0xbca95387	-0.020669712
119	0x3b74167f	0.0037244854
120	0x3d55d582	0.05220557
121	0x3c91773b	0.017757049
122	0x3d82c4fb	0.06385227
123	0x3c778027	0.0151062375
124	0x3de26a8c	0.110554785
125	0x3daff51a	0.08591671
126	0x3cb6d2c0	0.02231729
127	0x3cf14ded	0.029456103
128	0x3d0b85b5	0.03406306
129	0xbd39df9d	-0.04537927
130	0xbd99f09a	-0.07516594
131	0xbc98b97e	-0.018643137
132	0xbc5f60e9	-0.013633945
133	0x3d495b22	0.049159177
134	0xbd86184a	-0.065476015
135	0x3c5a3d32	0.013320254
136	0x3d5a53aa	0.053302445
137	0x3d2aaff6	0.041671716
138	0x3ce13fed	0.027496303
139	0xbd451ef7	-0.048125234
140	0x3c3bfd2c	0.011473935
141	0xbc075f03	-0.008262399
142	0x3caa51f8	0.020791039
143	0x3d203d66	0.039121054
144	0xbbc2528c	-0.0059302505
145	0x3c3754b3	0.011189627
146	0xbc3e9d64	-0.011634205
147	0x3d0cd38f	0.034381445
148	0xbca5b814	-0.020229377
149	0xbbbbeaf4	-0.0057347957
150	0x3c62f791	0.01385297
151	0xbcd0627f	-0.025437592
152	0x3d22f0f8	0.039780587
153	0x3d16b5a4	0.03679432
154	0x3d2fb507	0.04289725
155	0xbc2ca9e9	-0.010538557
156	0xbd59a5e0	-0.053136706
157	0x3d4ad854	0.049522713
158	0x3d238fb5	0.03993197
159	0xbd3888bd	-0.04505228
160	0xbd843574	-0.06455508
161	0xbdad21f3	-0.08453741
162	0xbc9a18e1	-0.018810691
163	0x3c5a4a16	0.0133233275
164	0x3d1f79b5	0.03893443
165	0xbccceefd	-0.025016302
166	0x3c563877	0.013074986
167	0xbaf0de8b	-0.001837687
168	0x3c47dfa2	0.012199314
169	0xbd6a95d1	-0.057271782
170	0x3c96cc52	0.018407974
171	0x3de4ef0a	0.111784056
172	0x3c883ce1	0.016630592
173	0xbcee63bc	-0.029100291
174	0xbd8838c9	-0.06651456
175	0x3cea4611	0.028597863
176	0xbcd9ff16	-0.026610892
177	0x39f7ef81	0.00047289956
178	0xbbcacc5a	-0.0061889114
179	0x3d4a8de8	0.04945174
180	0x3d2eb14e	0.04264956
181	0x3d5f73d8	0.054553837
182	0x3c96dd5f	0.018416105
183	0x3d69b0ab	0.05705325
184	0xbd7afdd5	-0.06127723
185	0x3da73801	0.08164979
186	0xbd627769	-0.05528966
187	0x3dedd411	0.11612714
188	0xbd5dfca6	-0.054196022
189	0xbdd48ed3	-0.10378804
190	0xbb0743ee	-0.0020639854
191	0x3d0ff796	0.035148226
192	0x3d529f02	0.051421173
193	0xbd181ac8	-0.037134916
194	0x3d597f10	0.053099692
195	0x3cb43364	0.021997161
196	0xbb8f2fc7	-0.004369709
197	0xbddc9a60	-0.10771632
198	0x3d06824a	0.032839097
199	0xbd78da6b	-0.060755175
200	0x3d30c4eb	0.043156546
201	0xbdd0faa2	-0.102040544
202	0x3d2543d4	0.04034789
203	0xbc645249	-0.013935634
204	0x3d954c66	0.072899625
205	0x3d3deea2	0.046370156
206	0x3ceeb283	0.029137855
207	0xbe0d5908	-0.13803494
208	0xbb7b77bd	-0.003837093
209	0x3e09ca51	0.13456084
210	0x3d3af126	0.045640133
211	0x3cbe4e73	0.023230767
212	0xbdadc180	-0.08484173
213	0x3cc8a0dc	0.024490766
214	0x3d7990cc	0.060929105
215	0x3da20970	0.07911956
216	0x3d1f764b	0.038931172
217	0x3bed2b7d	0.00723785
218	0xbdb4d6ae	-0.088300094
219	0xbdaa916e	-0.0832852
220	0xbce2b50b	-0.027674219
221	0xbdc7e5e2	-0.097606435
222	0x3c1f8e5f	0.009738534
223	0x3d35c268	0.044374853
224	0x3d136ed0	0.03599435
225	0xbca9c9ed	-0.020726169
226	0xbd7ec85c	-0.062202796
227	0xbd7fddd8	-0.062467426
228	0x3d9fd0c5	0.078034915
229	0xbc5e1669	-0.013555148
230	0xbcd79dfa	-0.026320446
231	0xbd0ad6fa	-0.033896424
232	0x3c8b5fde	0.017013486
233	0xbd7b121a	-0.06129656
234	0xbe1bf214	-0.15229064
235	0x3cda81d4	0.026673235
236	0xbd533602	-0.051565178
237	0x3d139e1e	0.036039464
238	0x3d211fd7	0.039337005
239	0xbd611e26	-0.054960392
240	0xbd06a042	-0.032867678
241	0x3d8cf4f9	0.06882662
242	0x3cce2539	0.025164234
243	0xbd264b17	-0.040598955
244	0xbca0adea	-0.019614179
245	0xbac66225	-0.001513545
246	0x3d9a12e3	0.075231336
247	0x3c09883d	0.008394298
248	0x3beb00a7	0.0071717086
249	0xbd6326b7	-0.055456843
250	0xbcd73dba	-0.02627455
251	0xbca80483	-0.020509964
252	0x3cb65182	0.022255663
253	0xbd06d1ac	-0.032914802
254	0xbd511b15	-0.051051218
255	0x3d89601a	0.06707783

network_body._body_endoder.seq_layers.0.bias f4 [128]
0	0x00000000	0.0
1	0x00000000	0.0
2	0x00000000	0.0
3	0x00000000	0.0
4	0x00000000	0.0
5	0x00000000	0.0
6	0x00000000	0.0
7	0x00000000	0.0
8	0x00000000	0.0
9	0x00000000	0.0
10	0x00000000	0.0
11	0x00000000	0.0
12	0x00000000	0.0
13	0x00000000	0.0
14	0x00000000	0.0
15	0x00000000	0.0
16	0x00000000	0.0
17	0x00000000	0.0
18	0x00000000	0.0
19	0x00000000	0.0
20	0x00000000	0.0
21	0x00000000	0.0
22	0x00000000	0.0
23	0x00000000	0.0
24	0x00000000	0.0
25	0x00000000	0.0
26	0x00000000	0.0
27	0x00000000	0.0
28	0x00000000	0.0
29	0x00000000	0.0
30	0x00000000	0.0
31	0x00000000	0.0
32	0x00000000	0.0
33	0x00000000	0.0
34	0x00000000	0.0
35	0x00000000	0.0
36	0x00000000	0.0
37	0x00000000	0.0
38	0x00000000	0.0
39	0x00000000	0.0
40	0x00000000	0.0
41	0x00000000	0.0
42	0x00000000	0.0
43	0x00000000	0.0
44	0x00000000	0.0
45	0x00000000	0.0
46	0x00000000	0.0
47	0x00000000	0.0
48	0x00000000	0.0
49	0x00000000	0.0
50	0x00000000	0.0
51	0x00000000	0.0
52	0x00000000	0.0
53	0x00000000	0.0
54	0x00000000	0.0
55	0x00000000	0.0
56	0x00000000	0.0
57	0x00000000	0.0
58	0x00000000	0.0
59	0x00000000	0.0
60	0x00000000	0.0
61	0x00000000	0.0
62	0x00000000	0.0
63	0x00000000	0.0
64	0x00000000	0.0
65	0x00000000	0.0
66	0x00000000	0.0
67	0x00000000	0.0
68	0x00000000	0.0
69	0x00000000	0.0
70	0x00000000	0.0
71	0x00000000	0.0
72	0x00000000	0.0
73	0x00000000	0.0
74	0x00000000	0.0
75	0x00000000	0.0
76	0x00000000	0.0
77	0x00000000	0.0
78	0x00000000	0.0
79	0x00000000	0.0
80	0x00000000	0.0
81	0x00000000	0.0
82	0x00000000	0.0
83	0x00000000	0.0
84	0x00000000	0.0
85	0x00000000	0.0
86	0x00000000	0.0
87	0x00000000	0.0
88	0x00000000	0.0
89	0x00000000	0.0
90	0x00000000	0.0
91	0x00000000	0.0
92	0x00000000	0.0
93	0x00000000	0.0
94	0x00000000	0.0
95	0x00000000	0.0
96	0x00000000	0.0
97	0x00000000	0.0
98	0x00000000	0.0
99	0x00000000	0.0
100	0x00000000	0.0
101	0x00000000	0.0
102	0x00000000	0.0
103	0x00000000	0.0
104	0x00000000	0.0
105	0x00000000	0.0
106	0x00000000	0.0
107	0x00000000	0.0
108	0x00000000	0.0
109	0x00000000	0.0
110	0x00000000	0.0
111	0x00000000	0.0
112	0x00000000	0.0
113	0x00000000	0.0
114	0x00000000	0.0
115	0x00000000	0.0
116	0x00000000	0.0
117	0x00000000	0.0
118	0x00000000	0.0
119	0x00000000	0.0
120	0x00000000	0.0
121	0x00000000	0.0
122	0x00000000	0.0
123	0x00000000	0.0
124	0x00000000	0.0
125	0x00000000	0.0
126	0x00000000	0.0
127	0x00000000	0.0

network_body._body_endoder.seq_layers.2.weight f4 [128, 128]
0	0x3ddb0e10	0.106960416
1	0x3c0178c2	0.007902326
2	0x3dab03ed	0.08350358
3	0x3d768c70	0.060192525
4	0xbdf4eb95	-0.11958996
5	0x3d8a848c	0.067635626
6	0xbc4a6b4e	-0.012354685
7	0xbd9ea47f	-0.07746219
8	0x3d9ce53a	0.07660909
9	0x3cb8076e	0.02246448
10	0x3c01561f	0.007894068
11	0xbcdbe413	-0.026842153
12	0xbd1ec63d	-0.038763274
13	0xbd8442d7	-0.06458061
14	0xbdb5e51e	-0.08881591
15	0xbdaea8ae	-0.08528267
16	0xbc5eda2b	-0.01360182
17	0x3bf05e48	0.007335458
18	0xbd277462	-0.040882476
19	0xbdf2aa7d	-0.11848924
20	0x3d24f6a6	0.040274285
21	0x3dec6b73	0.11543932
22	0xbe034716	-0.12820086
23	0x3dddfb3a	0.10838933
24	0xbdb25b3b	-0.08708807
25	0x3e095521	0.1341138
26	0x3e413492	0.1886771
27	0xbd37062f	-0.04468363
28	0xbcc11478	-0.02356933
29	0xbcbf33bb	-0.023340097
30	0x3d8f7362	0.070044294
31	0xbd9cc654	-0.076550156
32	0x3daee78a	0.08540256
33	0xbd33873a	-0.043830134
34	0x3c41bf07	0.01182533
35	0xbceb93de	-0.028757032
36	0x3e150e34	0.145562
37	0xbdbf5d98	-0.093440235
38	0xbc9aec65	-0.01891155
39	0x3bd07bbf	0.006362408
40	0x3d3bce89	0.045851264
41	0xbd6878ad	-0.05675571
42	0xbce3e494	-0.027818955
43	0x3d303a66	0.043024443
44	0x3df7b16d	0.12094388
45	0xbca56707	-0.020190729
46	0xbad5a951	-0.001630107
47	0x3e17eb76	0.14835915
48	0xbdb3e8d4	-0.08784643
49	0x3e05663b	0.13027279
50	0xbdb5a211	-0.08868802
51	0xbd1fee1a	-0.03904543
52	0xbc17ecd6	-0.009272775
53	0x3df53790	0.11973488
54	0xbce5b7ac	-0.028041683
55	0x3e1d9b76	0.15391335
56	0x3d6e6872	0.058205076
57	0x3da81e15	0.08208863
58	0x3dc17afb	0.09447285
59	0x3d92d8b0	0.07170236
60	0xbb7a0336	-0.0038148887
61	0xbe573a5e	-0.21018359
62	0xbc7d3d2b	-0.015456478
63	0x3d0cfa2b	0.034418266
64	0xbc612d15	-0.013743659
65	0x3db2e4ba	0.087350324
66	0xbd65e588	-0.0561271
67	0x3d534085	0.051575202
68	0xbd113273	-0.035448503
69	0x3ade6c11	0.0016969462
70	0xbe27de5f	-0.16393422
71	0xbdc0d1d0	-0.094150186
72	0x3e12cc3f	0.14335726
73	0x3e25e530	0.1620071
74	0xbe233f57	-0.15942131
75	0x3d908124	0.070558816
76	0xbe36ee87	-0.17864428
77	0x3d221e2c	0.039579555
78	0x3d11c7e2	0.035591014
79	0x3c26bc97	0.010176799
80	0xbdcf46e1	-0.10120941
81	0xbdb23885	-0.087021865
82	0xbcc4afe7	-0.024009658
83	0xbc0d2206	-0.008614069
84	0xbe0639ae	-0.1310794
85	0xba23cc21	-0.0006248374
86	0x3da9360c	0.08262262
87	0x3d8a50b1	0.06753672
88	0xbe33523a	-0.17511836
89	0xbe10e1d2	-0.14148644
90	0x3e46a007	0.19396983
91	0xbc4f6209	-0.012657651
92	0x3ca60207	0.020264639
93	0x3ccc5a5b	0.024945429
94	0x3aca50ad	0.001543542
95	0xbdbdb064	-0.092621595
96	0xbd0f5a5e	-0.03499829
97	0x3cbbac70	0.022909373
98	0x3dcadc1d	0.099052645
99	0x3dd7397a	0.1050901
100	0x3c9d926c	0.019234858
101	0x3d2ff885	0.042961616
102	0xbd445489	-0.04793218
103	0xbdaa794f	-0.08323919
104	0xbd991bc1	-0.07475997
105	0x3a5d1a64	0.00084344135
106	0x3c290952	0.010317164
107	0x3cfe6da9	0.03105815
108	0xbe23691e	-0.15958068
109	0xbd92f1a3	-0.07174995
110	0x3d9e0c1d	0.07717154
111	0x3cb3b8bf	0.02193868
112	0xbcb5f1f1	-0.022210093
113	0xbde9e6da	-0.114209846
114	0xbc47c85a	-0.012193764
115	0xbca6f6f8	-0.020381436
116	0x3dbc045b	0.09180518
117	0x3dd85523	0.105631135
118	0xbc86e04d	-0.016464377
119	0xbdc917ea	-0.09819014
120	0xbd70beaa	-0.05877558
121	0x3cb2cadb	0.021825245
122	0xbcb40f88	-0.021980062
123	0x3d3b4f5b	0.045729976
124	0xbb5f2395	-0.0034048308
125	0xbd01e7f0	-0.031715333
126	0xbdd8d6e9	-0.10587866
127	0x3d0d576d	0.034507204
128	0x3e037aa9	0.1283976
129	0x3e23e028	0.16003478
130	0x3dc5815f	0.09643816
131	0x3d500e44	0.050794855
132	0xbd102afb	-0.03519724
133	0xbd2cd959	-0.042199466
134	0x3b9bf9a1	0.0047599827
135	0xbd8df91d	-0.0693228
136	0x3d92d4fc	0.0716953
137	0xbcb6da93	-0.022321021
138	0x3ca7e5ad	0.02049526
139	0x3df50bf0	0.119651675
140	0xbdbb04cd	-0.09131775
141	0x3d9ed8af	0.07756173
142	0xbd36e2af	-0.044649776
143	0x3e05d77c	0.13070482
144	0xbcdc7d69	-0.026915269
145	0xbd1c98ab	-0.038231533
146	0x3db80ded	0.08987031
147	0xbcf4d95a	-0.029888798
148	0x3d419b5d	0.047267307
149	0xbd97e63a	-0.07416959
150	0xbd556f2b	-0.05210797
151	0xbde09cd7	-0.10967415
152	0x3e1e2cc8	0.1544677
153	0xbd2d55cb	-0.042318147
154	0xbcd540c9	-0.026031869
155	0x3c4d383d	0.012525615
156	0xb9c91c54	-0.00038358814
157	0x3d1d9f49	0.038481984
158	0xbd377811	-0.04479224
159	0x3ca7d02e	0.02048501
160	0xbcebfbe8	-0.028806642
161	0x3d10df07	0.035368945
162	0x3d0e6ec9	0.03477362
163	0x3d3560a8	0.04428163
164	0x3c0a3871	0.008436308
165	0x3e17fda6	0.14842853
166	0xbc3ed8fb	-0.011648412
167	0x3cc225ac	0.023699604
168	0xbda60f31	-0.08108366
169	0x3d7359dc	0.05941187
170	0x3d5e5813	0.054283213
171	0xbcad07dc	-0.021121912
172	0xbd0954e5	-0.033528227
173	0x3da831e0	0.08212638
174	0xbd1de02f	-0.038543876
175	0x3cf1328a	0.029443044
176	0xbd0fc15a	-0.035096504
177	0xbcaf8e63	-0.0214302
178	0xbc5047f4	-0.012712467
179	0xbd8c6eba	-0.06857057
180	0x3e20d94d	0.15707894
181	0xbcf68508	-0.030092731
182	0xbd1d632e	-0.038424663
183	0xbda87232	-0.08224906
184	0x3e3bcc1f	0.18339585
185	0xbe42faba	-0.19040957
186	0x3c85758b	0.0162914
187	0x3daeb678	0.08530897
188	0xbda57da9	-0.080806084
189	0xbd04329a	-0.03227482
190	0xba2b9604	-0.00065454864
191	0xbcc40cee	-0.023931947
192	0x3dd6bc6a	0.10485156
193	0x3cf5010d	0.029907728
194	0xbddc3277	-0.10751813
195	0xbc8559ae	-0.016278114
196	0xbd75d5e2	-0.060018428
197	0xbccba7c4	-0.02486027
198	0x3d868e6d	0.06570134
199	0x3c4160e0	0.011802882
200	0xbd543881	-0.0518117
201	0x3e002bb0	0.12516665
202	0x3bcc85cc	0.006241536
203	0xbd37fcd9	-0.04491887
204	0xbdb2a97e	-0.08723734
205	0x3da5dbdb	0.08098575
206	0xbd3e585d	-0.04647099
207	0xbc7e2d1f	-0.015513687
208	0x3cc9ea76	0.024647932
209	0x3a933008	0.0011229524
210	0xbc135f7a	-0.008994931
211	0xbe2a37b3	-0.1662281
212	0xbcb5bb02	-0.022183899
213	0x3da099be	0.07841824
214	0x3ca0daf5	0.019635657
215	0x3d9e556c	0.07731137
216	0x3dffd785	0.12492279
217	0x3d80ec6a	0.062950924
218	0x3d8b8132	0.068117514
219	0x3da50b95	0.0805885
220	0x3d643ff2	0.055725046
221	0xbc91e163	-0.017807668
222	0xbd32dddd	-0.043668617
223	0x3e1b2ae2	0.15153077
224	0xbd2a1c7b	-0.041531067
225	0xbe15ae38	-0.1461724
226	0x3c38cbe7	0.011279083
227	0xbd50c7f9	-0.05097196
228	0xbdeda48e	-0.11603652
229	0xbd97d28c	-0.074132055
230	0x3c8751c8	0.016518489
231	0xbc2ef32b	-0.010678093
232	0x3cdce932	0.026966665
233	0xbc8a5f9d	-0.016891295
234	0x3d71a7ee	0.05899804
235	0xbbbd8845	-0.005784067
236	0xbd7f4a78	-0.06232688
237	0xbd46e184	-0.048554912
238	0xbc9149c8	-0.017735377
239	0xbccbd5a1	-0.02488214
240	0x3daa9dcc	0.083308786
241	0x3d03d92c	0.032189533
242	0x3bdedc6f	0.00680118
243	0x3d45cf8a	0.048293628
244	0xbd79f679	-0.06102607
245	0xbdc27757	-0.094954185
246	0xbe081c82	-0.13292125
247	0x3c4b31f9	0.012402051
248	0xbd69f096	-0.057114206
249	0x3d475706	0.048666976
250	0x3dafec3a	0.085899785
251	0xbca4f138	-0.020134553
252	0xbd9cba43	-0.07652714
253	0xbd22b2a6	-0.039721154
254	0xbd92a450	-0.07160246
255	0xbbc4ded7	-0.00600801

network_body._body_endoder.seq_layers.2.bias f4 [128]
0	0x00000000	0.0
1	0x00000000	0.0
2	0x00000000	0.0
3	0x00000000	0.0
4	0x00000000	0.0
5	0x00000000	0.0
6	0x00000000	0.0
7	0x00000000	0.0
8	0x00000000	0.0
9	0x00000000	0.0
10	0x00000000	0.0
11	0x00000000	0.0
12	0x00000000	0.0
13	0x00000000	0.0
14	0x00000000	0.0
15	0x00000000	0.0
16	0x00000000	0.0
17	0x00000000	0.0
18	0x00000000	0.0
19	0x00000000	0.0
20	0x00000000	0.0
21	0x00000000	0.0
22	0x00000000	0.0
23	0x00000000	0.0
24	0x00000000	0.0
25	0x00000000	0.0
26	0x00000000	0.0
27	0x00000000	0.0
28	0x00000000	0.0
29	0x00000000	0.0
30	0x00000000	0.0
31	0x00000000	0.0
32	0x00000000	0.0
33	0x00000000	0.0
34	0x00000000	0.0
35	0x00000000	0.0
36	0x00000000	0.0
37	0x00000000	0.0
38	0x00000000	0.0
39	0x00000000	0.0
40	0x00000000	0.0
41	0x00000000	0.0
42	0x00000000	0.0
43	0x00000000	0.0
44	0x00000000	0.0
45	0x00000000	0.0
46	0x00000000	0.0
47	0x00000000	0.0
48	0x00000000	0.0
49	0x00000000	0.0
50	0x00000000	0.0
51	0x00000000	0.0
52	0x00000000	0.0
53	0x00000000	0.0
54	0x00000000	0.0
55	0x00000000	0.0
56	0x00000000	0.0
57	0x00000000	0.0
58	0x00000000	0.0
59	0x00000000	0.0
60	0x00000000	0.0
61	0x00000000	0.0
62	0x00000000	0.0
63	0x00000000	0.0
64	0x00000000	0.0
65	0x00000000	0.0
66	0x00000000	0.0
67	0x00000000	0.0
68	0x00000000	0.0
69	0x00000000	0.0
70	0x00000000	0.0
71	0x00000000	0.0
72	0x00000000	0.0
73	0x00000000	0.0
74	0x00000000	0.0
75	0x00000000	0.0
76	0x00000000	0.0
77	0x00000000	0.0
78	0x00000000	0.0
79	0x00000000	0.0
80	0x00000000	0.0
81	0x00000000	0.0
82	0x00000000	0.0
83	0x00000000	0.0
84	0x00000000	0.0
85	0x00000000	0.0
86	0x00000000	0.0
87	0x00000000	0.0
88	0x00000000	0.0
89	0x00000000	0.0
90	0x00000000	0.0
91	0x00000000	0.0
92	0x00000000	0.0
93	0x00000000	0.0
94	0x00000000	0.0
95	0x00000000	0.0
96	0x00000000	0.0
97	0x00000000	0.0
98	0x00000000	0.0
99	0x00000000	0.0
100	0x00000000	0.0
101	0x00000000	0.0
102	0x00000000	0.0
103	0x00000000	0.0
104	0x00000000	0.0
105	0x00000000	0.0
106	0x00000000	0.0
107	0x00000000	0.0
108	0x00000000	0.0
109	0x00000000	0.0
110	0x00000000	0.0
111	0x00000000	0.0
112	0x00000000	0.0
113	0x00000000	0.0
114	0x00000000	0.0
115	0x00000000	0.0
116	0x00000000	0.0
117	0x00000000	0.0
118	0x00000000	0.0
119	0x00000000	0.0
120	0x00000000	0.0
121	0x00000000	0.0
122	0x00000000	0.0
123	0x00000000	0.0
124	0x00000000	0.0
125	0x00000000	0.0
126	0x00000000	0.0
127	0x00000000	0.0

value_heads.value_heads.extrinsic.weight f4 [1, 128]
0	0x3d2bfaf8	0.04198739
1	0x3e401db8	0.18761337
2	0x3e1de9c6	0.15421209
3	0x3e3c06ec	0.18362015
4	0xbe580e6e	-0.21099254
5	0x3dabffec	0.083984226
6	0x3d8bff94	0.06835857
7	0x3daf8a5c	0.08571312
8	0xbe3828fd	-0.17984386
9	0xbdffd328	-0.12491447
10	0x3e36c002	0.17846683
11	0xbd23078c	-0.03980212
12	0x3e39a0f0	0.18127799
13	0xbdc40051	-0.09570373
14	0x3e2f5782	0.17123225
15	0xbe02eff0	-0.12786841
16	0x3d41bbc8	0.047298223
17	0xbe2c62d4	-0.16834575
18	0x3e1461e2	0.14490464
19	0xbc8b00d0	-0.01696816
20	0x3d6c9b50	0.057765305
21	0xbe164d12	-0.14677837
22	0x3d84144c	0.06449184
23	0x3e183616	0.14864382
24	0x3e2da3ec	0.16957062
25	0x3e0bca0e	0.13651296
26	0xbdfcecdd	-0.123498656
27	0x3e3e2e46	0.1857234
28	0x3e06547e	0.13118169
29	0x3e1531ae	0.14569733
30	0xbd744538	-0.059636325
31	0xbe1e5cbb	-0.15465061
32	0xbd6b1bc0	-0.05739951
33	0xbe443ff0	-0.19165015
34	0x3c9f2bc0	0.019430041
35	0x3da2958c	0.0793868
36	0xbcc358e8	-0.023846105
37	0xbcc8e5a8	-0.024523571
38	0xbced4660	-0.028964221
39	0x3daf68c4	0.08564904
40	0x3b9318c0	0.0044890344
41	0x3e2c8570	0.16847777
42	0x3e5675a0	0.20943308
43	0xbdc0b9c1	-0.0941043
44	0x3dba914c	0.091097444
45	0x3d9fd628	0.07804519
46	0xbdee559e	-0.11637424
47	0xbd1ef430	-0.038807094
48	0xbd1f7cdc	-0.038937435
49	0x3d187b30	0.037226856
50	0x3df45264	0.11929777
51	0xbd1f8714	-0.03894718
52	0x3c792e20	0.015208751
53	0x3e412546	0.18861875
54	0xbdf9594f	-0.121752374
55	0xbd9f4bf8	-0.07778162
56	0xbe294556	-0.16530356
57	0x3e2d7a10	0.16941094
58	0x3d94c500	0.07264137
59	0x3de267d0	0.11054957
60	0x3e3740a8	0.17895758
61	0x3d4daf60	0.05021608
62	0xbcbc1af0	-0.022962064
63	0x3d37e630	0.04489726
64	0xbdc6470b	-0.09681519
65	0x3e173252	0.1476529
66	0xbc994c58	-0.018713161
67	0xbd8328be	-0.06404255
68	0xbd00aa84	-0.031412616
69	0xbe24672a	-0.16054979
70	0x3e52e40a	0.20594802
71	0xbe12abca	-0.14323345
72	0x3bbbfcc0	0.0057369173
73	0x3dfa38a0	0.122178316
74	0x3dd48b78	0.10378164
75	0x3e327bd8	0.17430055
76	0x3e468592	0.1938689
77	0x3da6b970	0.08140838
78	0xbddb453e	-0.10706566
79	0xbdb9cd4b	-0.0907236
80	0xbe3de5e1	-0.18544723
81	0xbe0f9bfa	-0.14024344
82	0x3e4ad760	0.19808722
83	0xbd47e0ec	-0.048798487
84	0xbcc2a318	-0.02375941
85	0xbe2adbf9	-0.16685475
86	0x3d17f830	0.037101924
87	0x3c607240	0.013699114
88	0xbd968072	-0.07348718
89	0xbbf1e820	-0.007382408
90	0x3e1be010	0.15222192
91	0xbd2cc458	-0.042179435
92	0xbe03d2ef	-0.12873434
93	0x3d14b8b8	0.036308974
94	0xbdab95f0	-0.08378208
95	0xbd8450c4	-0.06460717
96	0x3de8e530	0.11371839
97	0xbe2f02d7	-0.17090927
98	0x3e06240a	0.13099685
99	0xbc6213e0	-0.013798684
100	0xbd995ec6	-0.0748878
101	0xbe31a092	-0.17346409
102	0x3d316628	0.043310314
103	0x3d35a600	0.044347763
104	0x3dc39b84	0.095511466
105	0x3e044d32	0.12920073
106	0xbde59f65	-0.11212043
107	0xbde41dfc	-0.111385316
108	0x3e450812	0.1924136
109	0xbda0319c	-0.07821962
110	0xbb93eb60	-0.004514143
111	0xbe53a9e9	-0.20670284
112	0xbdd61827	-0.104538254
113	0x3e4d2078	0.20031917
114	0x3d291c50	0.041286767
115	0xbdb1be02	-0.08678819
116	0xbdf965ed	-0.12177644
117	0xbc1619e0	-0.0091614425
118	0xbdaa5aa6	-0.08318071
119	0x3e2a0710	0.16604257
120	0x3e1c92a4	0.15290314
121	0x3e4210c0	0.18951702
122	0x3e1ba430	0.15199351
123	0x3e26a690	0.16274476
124	0xbc4e7390	-0.012600794
125	0x3e088562	0.13332132
126	0x3e4034be	0.1877012
127	0x3cc6dda0	0.0242756
