results/PlayerAgentTest/TestPlayerAgent/TestPlayerAgent-50250.onnx (onnx, 275220 bytes, 7 tensors)

network_body._body_endoder.seq_layers.0.weight f4 [128, 396]
00000000: 8925 9a3c d8ff 62ba 60ec e0bd 107d adbc
00000010: 37d6 ae3c 96a1 883c 7319 133d d4ba daba
00000020: 0dd8 6cbb e4f6 8fbc 95a8 4dbd 2879 933d
00000030: f3e8 663c 91e3 503d 22e9 023d c813 893c
00000040: d120 00bd 401f b1bd 7d36 13bd ebe9 93bd
00000050: 0e13 cb3c 1cb5 36bc 9f6e d3bd e64b ad3b
00000060: 57b2 ab3b a2b1 16bd 542e 3d3d 8355 8dbd
00000070: baac 6fbd 02b0 29bd 0272 d8bd 1cdc f6bc
00000080: 4aa8 5f3c 5fb0 23bb 0531 06bd 0f7b cab7
00000090: ebd1 cb3c 277b a0bc f195 823d ce7d ad3d
000000a0: c135 5ebd b974 8bbc cc56 a93b cccd f3bc
000000b0: 06d8 80bd 5a8d 133d 381e f73c ee59 ddbb
000000c0: 3159 d63c 9a6a 993c 04f5 983d 95eb afbc
000000d0: ecdd 4ebd 8c02 423d 20dd 2a3d d8db 8cbc
000000e0: 4b03 9cbd fef4 24bd 383e 413d 2ded 73bd
000000f0: 3650 56bb 6cdd d6bc d117 5b3d 0a44 6dbc
00000100: fa0d a73d a354 c5bb 92cb b4bb c515 6bbd
00000110: ee92 c5bc 7e58 d43d e72a 2a3d e564 f6bc
00000120: 9ca9 cdba 7762 363c 41f0 8e3d b757 c03d
00000130: 367c c93d 4599 a23a aa32 1abd f6c7 8dbd
00000140: bd5f 6d3d 5d52 cbbd 3ee8 443d dfb7 623d
00000150: e191 06bc e2ea 9ebc 321a 363d b54c 99bc
00000160: df00 b0bd 5517 f6bc 4980 8b3c c215 0dbd
00000170: b16a 843c 9630 313c 327d b83c 6499 1abc
00000180: fada 8bbc 4565 133c feeb 803c a4e8 1e3d
00000190: 92ed 2dbd 3494 5ebd 6205 7fbc 3be7 19bb
000001a0: 8ff3 bf3d d190 95ba e9ca 11bd 6684 26bd
000001b0: a484 76bd 1d27 aebc 8851 ce3d dcf5 89bb
000001c0: 61dd d43c aa1b b73c a93b 78bc 7478 02bd
000001d0: dd52 edbd c708 193b 98c5 63bc ce3c 1c3d
000001e0: e030 adbd 5c28 a3bc 5b28 213d 45b4 ce3c
000001f0: e137 263a 18ad d23d 8e4a 6b3d 9360 5e3d
00000200: d756 113d 0b25 afbd 1d35 77bd 1a20 39bc
00000210: cc39 1abd f7aa 303d e517 5bbd 6c4e 45bd
00000220: 759d 4bbd d599 59bd a2e7 883d 2d89 fc3b
00000230: 8f50 863d 8553 17bc 6dce 8f3b f572 e4bd
00000240: c303 783d b2ef 48bd 2c9b 83bd b016 053d
00000250: 3c9d 2c3c 900e 093c ac01 9ebd 2c6e 103d
00000260: 7ebb 003e 5199 c7bb 0ef6 9cbc 898f 07be
00000270: 97e6 e93c 676f c0bc 743c a53d 0a63 ebbc
00000280: 04ab 563c dbe0 213d d2f0 92bd e923 963b
00000290: ef47 12bd 3e48 2ebd 6c3c a3bd 075a 7e3d
000002a0: 724b 8c3c 71bd 3b3d 92c8 4e3c c6f2 303d
000002b0: 3848 18bd 87ff 71bd 87b1 13bd c927 dbbc
000002c0: 23b3 873d 53a5 cbbb bad3 9ebc 53be aabc
000002d0: db74 2c3d 16b6 0fbc 027a ddbb b1e4 8c3d
000002e0: 9771 bdbd 22b3 913c b0db a6bd dab0 b43c
000002f0: ac9b e8bc 1121 413c e264 e5bc 4c9c e0bb
00000300: c7d6 f83d b5a2 1cbd 1bf4 173d e3ab 98bd
00000310: aa54 ba3d 302e 583b 83df 15bc 7ba0 aa3d
00000320: d228 60bb caf0 93bc 2b11 dcbc 5670 febc
00000330: b1d5 963d 7743 11bd 5ca9 e83c bc83 0bbc
00000340: 1b25 bd3d d99e 273d 2660 1cbb 5d02 f3bc
00000350: 3be5 66bd af6e b0b9 6879 64bd 0a61 333d
00000360: 4555 2bbd 3ab7 bcbd 3966 99bb ca47 8cbb
00000370: 944b 483d e5ba 1fbd febc 9cbc 3fbb 593d
00000380: cfc2 633d 4919 afbd b0a9 1fbd 87c0 f0b8
00000390: c4ac 933d 78d5 ac3b 7740 babc 79c3 0ebc
000003a0: 158f d43c a1f4 4a3d 952a fc3c 2ed9 41bc
000003b0: 3eec ddb9 a767 dabc d793 11be f65d f63c
000003c0: b704 1cbd a669 1abd c7e7 61bb 0b69 893d
000003d0: 3def ebbd bdc0 503b f7cb 32be a6a8 313c
000003e0: 796f a43c ecf1 08bd c569 ff3a 6050 393d
000003f0: cd8e d5bb 0c77 6fbc 7927 e63c 25e8 163d
0.018816726 -0.00086593395 -0.10982585 -0.021177799 0.02134238 0.016678613 0.035912942 -0.0016687759
-0.0036139518 -0.017573781 -0.0502096 0.07200843 0.014093625 0.050998274 0.031960614 0.016733065
-0.031281296 -0.086485386 -0.035940636 -0.07222351 0.02478936 -0.011151578 -0.10323834 0.005288589
0.0052397656 -0.036790498 0.04618676 -0.06901076 -0.058514334 -0.04142762 -0.1056862 -0.030134253
0.013650963 -0.0024976952 -0.032761592 -2.413758e-05 0.02488037 -0.019589974 0.06376255 0.08471261
-0.054250482 -0.017023431 0.0051678177 -0.029761218 -0.06291203 0.036023475 0.030165777 -0.006755105
0.026165577 0.01872759 0.07468608 -0.021474639 -0.05050461 0.04736571 0.041714787 -0.017194673
-0.076178156 -0.040272705 0.047178477 -0.05955236 -0.0032701618 -0.026228629 0.05348951 -0.014481554
0.08156963 -0.0060220524 -0.0055174315 -0.057393808 -0.024117913 0.10368441 0.04154482 -0.030077407
-0.0015690806 0.011131874 0.069794185 0.0939173 0.098381445 0.0012405297 -0.037645973 -0.06922905
0.05795263 -0.09927819 0.048073046 0.055351134 -0.008213491 -0.01939911 0.044458576 -0.018713335
-0.08593916 -0.030040422 0.017028945 -0.034444578 0.016164156 0.010814806 0.022520635 -0.009435985
-0.01707219 0.0089963125 0.01573753 0.038796082 -0.042462893 -0.054340556 -0.015565248 -0.0023483771
0.09372627 -0.0011410957 -0.0355939 -0.04065361 -0.06018509 -0.021258885 0.100741446 -0.004210217
0.025984468 0.022352058 -0.015150943 -0.031853154 -0.115880705 0.002335118 -0.0139020905 0.038143925
-0.08456588 -0.019916706 0.039345127 0.025232444 0.0006340724 0.10286921 0.057444148 0.05429132
0.035483208 -0.08551987 -0.060353387 -0.0112991575 -0.037652776 0.043131795 -0.053489584 -0.048170492
-0.04971071 -0.05312522 0.066848055 0.0077067823 0.06558334 -0.009236221 0.0043886215 -0.11154739
0.060550462 -0.049056716 -0.06426081 0.03249234 0.0105355345 0.008365288 -0.07715163 0.035261318
0.12571523 -0.006091275 -0.019160297 -0.13238348 0.028552337 -0.02349062 0.08068171 -0.028733749
0.013102297 0.03952108 -0.07174839 0.0045819175 -0.035713132 -0.042549364 -0.07970509 0.062097576
0.017125819 0.045834962 0.012621062 0.043200277 -0.03717825 -0.05908158 -0.036057975 -0.02675237
0.066259645 -0.0062147765 -0.019388068 -0.020842707 0.04210363 -0.00877144 -0.006758929 0.06879557
-0.09250181 0.017785612 -0.08147371 0.022056986 -0.028394543 0.011787669 -0.028002206 -0.0068545695
0.121503405 -0.038241107 0.03709803 -0.0745466 0.0909818 0.0032986514 -0.009147528 0.083313905
-0.0034204018 -0.018059153 -0.026863655 -0.031059425 0.07364977 -0.03546473 0.02840107 -0.008515295
0.09235593 0.040922973 -0.002386102 -0.029664213 -0.056370955 -0.00033651802 -0.055779845 0.043793716
-0.041829366 -0.09214635 -0.0046813753 -0.004281019 0.048900202 -0.038996596 -0.019133087 0.053157087
0.055605706 -0.08549745 -0.038980186 -0.00011479953 0.07210687 0.005274471 -0.022735817 -0.0087135965
0.025947133 0.049549703 0.030782023 -0.011831565 -0.0004232842 -0.026660753 -0.14216553 0.030074101
-0.038090434 -0.03769841 -0.0034470425 0.067094885 -0.115202405 0.0031853162 -0.17460619 0.010843432
0.020072686 -0.03343384 0.0019486478 0.045242667 -0.0065172673 -0.014615785 0.028094994 0.036842484

network_body._body_endoder.seq_layers.0.bias f4 [128]
00000000: dc80 f2b9 ec46 1bbb 8ffa 9b3a 8e7f f73a
00000010: fb37 39ba 6990 013b c0f2 803b c407 d5ba
00000020: 5c1f 62bb eb9d 44bb fed7 20bb 3a86 3a3a
00000030: 0973 a0ba 6fa0 243b 2905 c53a 3cc8 96bb
00000040: acc7 4cba 8c13 05bb 6a7e 8eba a41c 723b
00000050: 6770 f7ba cc1b 993b e1f2 f1b9 6bdb 2f3b
00000060: 86e8 56bb a215 dc39 c1aa e7ba 7ce9 eaba
00000070: 0cb8 2abb 1335 59ba 8941 923a 053b 2d3b
00000080: 6d92 1cbb d5cc 24bb ad49 6e3b b1d4 05ba
00000090: c856 c0bb 6457 06bb 168c d53b c9ab 38bb
000000a0: 411e c4ba 5266 1fba a4d8 2f3c 3707 c2ba
000000b0: 4b11 f2ba 7789 a23b 30f7 20ba 6061 303b
000000c0: a2e2 8cba 0dc3 5bbb 2b34 d63a da01 c9b9
000000d0: a868 e139 4671 7a3b 7661 40bb ae9b c6ba
000000e0: 2754 02bb 6165 3f3a 6b66 5c3a 9a16 2f3b
000000f0: 1614 d3bb 5a5a dbb9 3661 aa3a 6513 873b
00000100: b58a feb9 ed62 7e3a df5a 1439 d1b0 f8bb
00000110: c84d a3bb 3a62 b8ba c698 a139 880f 66bb
00000120: df4c c4b9 c36b 5eba 5b89 9538 4d60 f439
00000130: a7eb 14bb 4eef 2d3b a45b b5ba 7e19 c938
00000140: 0b75 f1b9 296d 0abb efde 7bbb 12ae 1ab7
00000150: 2e34 23bb 8d61 0a3b 5349 a7ba 4470 3eba
00000160: be13 f4ba d3f7 6dba 8fc6 0e3a b346 04bb
00000170: 884f f3b8 f33b 683b 6b83 40bb ae95 2fba
00000180: b266 07bb 33d7 dfba 0a30 caba 403f 0239
00000190: 258f 503b 9199 f73a ab70 e83a d586 cdba
000001a0: 5de7 6d3b 5bb0 a7ba c6a3 be39 22bc a1ba
000001b0: aa25 dfba 5619 73ba b41b ef38 9a7b cbba
000001c0: b24b f8bb 98ce 2d3a f721 4f3b fc85 7fba
000001d0: 38b8 35bb 9458 8abb 2bbc 663a f11f 1c3a
000001e0: 35af 593b 4de9 813b fb8b 55ba c83e 043b
000001f0: 364c 653b fe1b b7b9 e598 41bb d467 c5ba
-0.00046253845 -0.0023693396 0.0011900234 0.0018882619 -0.00070655317 0.0019769913 0.003935188 -0.0016252925
-0.0034503555 -0.0030001353 -0.0024542804 0.0007115338 -0.0012241314 0.002512004 0.0015031445 -0.0046015065
-0.0007811736 -0.002030584 -0.0010871415 0.003694334 -0.0018878103 0.004672503 -0.0004614806 0.0026833664
-0.0032792403 0.00041977788 -0.001767479 -0.0017922367 -0.0026049642 -0.0008285802 0.0011158447 0.0026432883
-0.0023890988 -0.0025146503 0.0036359832 -0.0005105241 -0.00586972 -0.0020498866 0.0065169437 -0.0028178564
-0.001496263 -0.00060806156 0.0107328035 -0.0014803176 -0.0018468288 0.0049602347 -0.00061403494 0.0026913509
-0.0010748694 -0.0033533007 0.0016342452 -0.00038339087 0.0004299332 0.003821449 -0.0029354966 -0.0015152597
-0.0019886584 0.00073011784 0.00084075955 0.0026716352 -0.0064416034 -0.00041838252 0.0012998942 0.004122185
-0.0004855 0.0009704072 0.00014148232 -0.0075894375 -0.0049836375 -0.001406736 0.00030822138 -0.0035104472
-0.00037441307 -0.00084846857 7.130458e-05 0.00046611056 -0.0022723468 0.0026540342 -0.0013836515 9.589175e-05
-0.00046054306 -0.0021122193 -0.003843244 -9.219644e-06 -0.0024902928 0.0021115274 -0.0012762941 -0.00072646537
-0.0018621606 -0.0009077761 0.00054464577 -0.0020183742 -0.00011601957 0.0035436123 -0.0029375206 -0.0006698024
-0.0020660576 -0.0017077684 -0.0015425694 0.00012421329 0.0031823602 0.0018890371 0.0017733773 -0.0015680442
0.0036301233 -0.0012793647 0.00036361645 -0.0012339393 -0.0017024775 -0.00092734897 0.00011401568 -0.0015524507
-0.007577383 0.0006630211 0.0031605938 -0.0009747443 -0.002772821 -0.004221985 0.0008801843 0.00059556874
0.0033216004 0.003964579 -0.0008146164 0.0020179022 0.0034988052 -0.00034925336 -0.0029540595 -0.001506085

network_body._body_endoder.seq_layers.2.weight f4 [128, 128]
00000000: af40 babd 6b7e 64bd c54f 2e3d 0221 d13c
00000010: 1591 01be 8eec e4bd df3a 123e 7ae9 4dbd
00000020: b7ad 033c 8dc0 7fbc 7c4a 1cbd 1328 0bbe
00000030: 5956 8cbd 6fc2 193e 9d09 42bc e732 033e
00000040: d907 b5bd 2ffd 1b3c 24f8 fabd cfba 5dbc
00000050: 5972 1ebc ff18 4e3c dc9d 2a3d b512 40be
00000060: b66e 0fbd c6c3 1ebd e4e8 e33d 03f7 503e
00000070: d37e 84bc 10ff 31bd 0227 123e 6c6e 0bbd
00000080: c000 edbc 1c07 cb3a 0a48 d13c 1ed9 9dbd
00000090: 5137 3f3d 3c71 c13b c4db c6bd e7b8 e23d
000000a0: f906 733e 0238 ad3d fc35 24be b2c9 a4bd
000000b0: f61d 52bd b579 26be f99f 9b3c 9528 28bc
000000c0: 65f1 34be 2a6c b33d 030c 1ebe e829 1f3d
000000d0: fe46 e23c 1090 fe3c 1695 94bb c397 f03d
000000e0: 1bc9 bfbd ebd2 afbd 9a91 ccbd f68e 823c
000000f0: 2ce1 193c f342 90bb 03ff 993d 7eb7 62bd
00000100: 58a9 f33d 7dbb febc 8478 e93d fad8 f9ba
00000110: 868c 36bd e2fa 3c3d 0ade 6ebd e1ae b93d
00000120: 9105 4cbc a81c bd3d cce5 073d b91e 80bd
00000130: 38d6 31bd bfda 143d e3f2 e5bd acdc d93d
00000140: 4135 a43c 516a 153e 4336 133e a922 27be
00000150: 37e3 c33d d4f3 3bbc c742 003d 7100 883d
00000160: af25 ef3c 6fd6 153e 197a 0a3d 0773 95bc
00000170: be91 1c3d 1d9e 12be 4823 373d 3227 823d
00000180: 098c 5ebd 0505 8bbb 1c0c ea3d 9aba 8b3d
00000190: 874c 833c 8457 debd 32a7 f33d 1257 3f3d
000001a0: 22e9 ca3d b905 a73d f56b 9dbc c15a 37bd
000001b0: d7de b0bd d95d 3f3d 710b 9abd f5b0 a23d
000001c0: ddb6 803d 83c4 ca3c f3d7 083d 2996 093e
000001d0: 7459 b13c 122d 623d 8f1f e23a ceb5 0abd
000001e0: abad 503d 7621 143e ec4f d5bb bb86 57bd
000001f0: 21fa d23d b6ef b4bd a4f4 e43d 2bf2 03bd
00000200: 0327 273c 63ae 283d 976a 16bc 4ade 003e
00000210: 5e6c 8fbd 4365 debd 187b 543d 0afc e0bb
00000220: b826 4a3e 2e70 4dbd 7e92 36bd 7112 a23c
00000230: 424f 6abd c820 0e3d 9949 f33c a0ef 653d
00000240: 638b ae3b 282c bcbd 0001 2cbc 6c8e 113c
00000250: 6d33 1e3e 4421 96bd 7026 fbbd f4fd b23c
00000260: 695b 4cbd e79b 68bd ed3b ce3d 5420 b7bc
00000270: f25a 323d 8bd7 84bd b827 5dbd 8231 303d
00000280: 1783 41bb 65c5 ac3b f1cf a53d 605c 083e
00000290: 70e0 42bd 7136 a23c 576d bebd 4a77 663e
000002a0: 241b 373e 4a9a 063e cbdd 093e f096 e53d
000002b0: 3ae3 223e fbc0 84bd 34af 953c e04e b63d
000002c0: 6ad3 7fbd 3fa2 3c3d ccf4 4a3e 5960 2a3e
000002d0: b96c 2bbe bea4 f8bc 23be 0ebd 5aa2 4dbd
000002e0: 7090 fbbd 758a 043d 3b71 a63d ca08 c13c
000002f0: c484 1c3d 49fb f7bd 353b d8bc cf0b 863d
00000300: 463b f3bc 1e47 0b3e 4a56 9abc daf3 52be
00000310: f2dc 0ebe b9ca f039 91c8 2fbd e24c 0ebe
00000320: 67b1 3c3d d112 eabd 3903 bcbd fea0 ab3c
00000330: cbf8 5fbd 4231 d1bd 6266 25bd 4a96 903d
00000340: b800 fb3d 7bb4 9d3c 7906 8d3d 28e2 b2bd
00000350: 0134 8bbd 6809 f43d 8ac4 01bd cfd3 5abd
00000360: f915 a93c c6b9 483d e20f 513c cf3f 393c
00000370: f13f fabd 4611 243d 2484 9abd 532c f1bb
00000380: 2fd7 eabd 5e73 86bb 981a 0b3e 2065 98bd
00000390: a090 ddbd 60e1 243d c892 833c d16d d4bd
000003a0: d366 d73d 92d6 0e3c fb65 a3bd fad9 bbbd
000003b0: 7222 693c 0a4f bbbd 286b ba3c a2a2 c63d
000003c0: 0ec9 253e cada 843d 7019 5a3d 2eb4 2e3e
000003d0: 508a 39bc 4a09 5abd b302 ad3d 6576 28bd
000003e0: afc0 683d fe6e 44be b5a1 9fbb fc28 08bb
000003f0: 87ed 0ebd 5763 1b3d 147d 3cbd 0b9f babd
-0.09094369 -0.055784624 0.042556543 0.025528435 -0.12653 -0.11177932 0.1428027 -0.05027149
0.008037022 -0.0156098725 -0.03815697 -0.13589506 -0.06852407 0.15015577 -0.011843112 0.12812386
-0.088393874 0.009520813 -0.1225436 -0.013533308 -0.009670817 0.012579202 0.041654453 -0.18757136
-0.03501769 -0.038760923 0.11128405 0.20406727 -0.016173756 -0.043456137 0.14272693 -0.034040853
-0.028931022 0.001548979 0.025547046 -0.077074274 0.046683613 0.005903391 -0.09709886 0.110704236
0.23733129 0.08457948 -0.16036218 -0.08046283 -0.051298104 -0.16257365 0.01899718 -0.010263582
-0.1767021 0.08760865 -0.1543427 0.038858324 0.027621742 0.031074554 -0.004534374 0.11747696
-0.0936453 -0.08585151 -0.09988709 0.01593731 0.009392064 -0.004402512 0.07519343 -0.055350773
0.11897534 -0.03109526 0.1139994 -0.0019061856 -0.044567607 0.046137698 -0.05831722 0.09066559
-0.012452499 0.09233981 0.033178136 -0.0625586 -0.043417186 0.036341425 -0.112279676 0.10637793
0.020044925 0.14591338 0.14376168 -0.16321816 0.09564822 -0.011471707 0.031313684 0.06640709
0.029192774 0.14632581 0.033807848 -0.018243326 0.038224928 -0.14318128 0.04471138 0.06355132
-0.054332767 -0.0042425417 0.11428091 0.06822701 0.016027702 -0.10856536 0.11897124 0.046713896
0.09907748 0.081553884 -0.019216517 -0.044764284 -0.08636253 0.04672036 -0.075217135 0.07943908
0.062848784 0.024751907 0.03340907 0.13436188 0.0216491 0.055218764 0.0017251837 -0.03386479
0.050946873 0.1446589 -0.0065097716 -0.052618723 0.103016146 -0.08834784 0.11179474 -0.03221337
0.010202172 0.041181933 -0.009180686 0.12584797 -0.07003091 -0.10859158 0.051875204 -0.006865983
0.19741333 -0.05015581 -0.0445733 0.019784184 -0.057204492 0.03469923 0.02969818 0.056136727
0.005326675 -0.0918811 -0.010498285 0.008884054 0.15449305 -0.07330564 -0.12263191 0.02184961
-0.049891863 -0.056789305 0.10070024 -0.022354282 0.043543763 -0.06486424 -0.053992957 0.043015964
-0.0029527599 0.0052725547 0.08096302 0.13316488 -0.04757732 0.01980135 -0.09298199 0.22506443
0.17881447 0.13144794 0.13463514 0.1121043 0.15906993 -0.064821206 0.01827202 0.08901763
-0.06245748 0.046053167 0.19819945 0.16638316 -0.16740693 -0.030351993 -0.034849297 -0.05020366
-0.12283409 0.032358605 0.08127066 0.023563761 0.038212553 -0.12108476 -0.02639542 0.06545221
-0.02969135 0.13601348 -0.018839974 -0.20600834 -0.13951471 0.00045927407 -0.042915884 -0.13896516
0.04606762 -0.1142937 -0.09180302 0.02095079 -0.054680627 -0.10214473 -0.040380843 0.07059915
0.122559965 0.019251099 0.06886 -0.08734542 -0.06797028 0.119158566 -0.031681575 -0.053424653
0.02064036 0.049005292 0.012760134 0.011306717 -0.12219227 0.040055536 -0.07544735 -0.00736002
-0.11466824 -0.0041031083 0.13584363 -0.07441163 -0.10818601 0.040253997 0.016061202 -0.10372508
0.10517659 0.00871815 -0.079784356 -0.09172435 0.014229404 -0.09145935 0.022756174 0.096989885
0.16189978 0.06487043 0.053246915 0.1706092 -0.01132448 -0.053231515 0.084477805 -0.041128535
0.056824382 -0.19182965 -0.004871572 -0.0020776382 -0.034894492 0.037936535 -0.04601772 -0.09112366

network_body._body_endoder.seq_layers.2.bias f4 [128]
00000000: e796 86ba ebaf 533a 61dc 09bb 16ab bc3a
00000010: d20e 67ba 34a2 2138 cb7f 4c3b bebc f53b
00000020: 33f4 6eba ae37 ff3a a817 daba bd7e ec3a
00000030: 7771 87bb ddb1 f3ba 3689 073b 2cdb 1cba
00000040: fb50 4d3a 58d2 f5b8 76a1 0abb a358 48ba
00000050: 62a3 543b cb74 1dba c2a2 a939 b0b3 483b
00000060: bfeb 683a 16e0 53ba 2a23 bd3a b94b 35b9
00000070: 7ea6 5dba 0781 153b de5f feba 0ad0 1339
00000080: e104 67ba c749 55ba 93ef 21bb 16a1 4f3a
00000090: 5e0c 5739 dd96 8338 cbdc 9cba b995 a1b9
000000a0: e6f3 1e3a 98d4 39b9 1fc1 c6ba 1347 4d3b
000000b0: dcff 993a 00b1 12bb 3294 123a 5a85 1e3b
000000c0: 74fa 5239 05d7 37bb 5295 80ba 23d0 b0bb
000000d0: aff5 153a 87b2 0eba dee5 0ebb e9af c6ba
000000e0: bde3 a6b9 8dd0 a238 c606 f539 5987 83ba
000000f0: 2d2a 12bb 3479 98ba dc01 e9ba 3c55 9c3b
00000100: 04ae 09ba d6e0 f239 df91 3abb de8c 01bb
00000110: 8c40 e8ba d6e2 e137 6c59 bf3a 54b6 e8ba
00000120: fcab 143b d104 2cba df4b 75bb a883 bb3a
00000130: 4ab1 86ba a201 9d3a 4ddf d6b9 562c 5ebb
00000140: 8913 eaba e910 02ba 17bb a13a c59f 7bba
00000150: b1af 33ba 99bb 803b bb5f d839 0807 d6ba
00000160: 37a9 51bb afc5 923a 6f70 6f3b 91c4 033b
00000170: 2061 7cba e4af b43a 3cf6 b137 f372 9a39
00000180: 966b 1cb9 e71d 36ba 10f1 2739 a3d5 08ba
00000190: bd5f 4b3b f8af b3ba d36d 67ba 75b7 203b
000001a0: 3b3b 44ba 8993 483a 909c 4bbb 32d1 bf39
000001b0: 3583 84ba 42aa 0dbb 8116 863a 95a3 d4b8
000001c0: 0d88 adbb ce60 93ba 32fd 803a 1a70 61bb
000001d0: 0416 1abb 8b59 173a 99e0 6c3b 4cf5 1fbb
000001e0: cbf3 edba bc53 abba cdd2 04bb 9d7a 84b9
000001f0: b9b6 4aba a427 2ebb 928a 893b ddc2 fcbb
-0.0010268361 0.0008075225 -0.0021035897 0.0014394249 -0.0008814159 3.8536455e-05 0.00312041 0.0074993065
-0.0009115368 0.001947155 -0.001663913 0.0018043142 -0.004133399 -0.0018592436 0.002068115 -0.0005983587
0.00078321964 -0.0001172169 -0.0021153367 -0.00076426024 0.0032446017 -0.0006006478 0.00032355456 0.003062468
0.00088852266 -0.00080824026 0.0014430035 -0.00017289714 -0.000845529 0.0022812502 -0.0019407233 0.00014096513
-0.00088126777 -0.0008136299 -0.0024709448 0.0007920427 0.00020508605 6.274667e-05 -0.0011967657 -0.00030819865
0.00060635654 -0.00017722172 -0.0015163756 0.003132288 0.0011749226 -0.0022383332 0.0005591541 0.002418837
0.00020120462 -0.0028051746 -0.0009810126 -0.0053959056 0.00057205086 -0.0005443473 -0.0021804492 -0.0015158626
-0.00031831666 7.7636076e-05 0.00046735088 -0.0010034844 -0.002230297 -0.0011632801 -0.0017777043 0.004770903
-0.00052520656 0.00046325353 -0.0028468294 -0.0019767801 -0.0017719432 2.6927719e-05 0.0014598793 -0.0017754533
0.0022685518 -0.0006561997 -0.0037429256 0.0014306204 -0.0010276225 0.0011978636 -0.00040983633 -0.0033900938
-0.0017858605 -0.0004961626 0.0012339082 -0.00095986977 -0.0006854488 0.0039286134 0.00041270055 -0.0016329
-0.003199173 0.001119783 0.0036535522 0.0020106176 -0.000962751 0.001378533 2.1214706e-05 0.00029458813
-0.00014917398 -0.0006947205 0.00016016164 -0.00052198226 0.0031032406 -0.0013709059 -0.0008828316 0.0024523411
-0.00074856327 0.0007651379 -0.003106866 0.00036586222 -0.0010109904 -0.0021616374 0.0010230095 -0.00010139417
-0.0052957595 -0.001124406 0.0009841083 -0.0034399093 -0.0023511657 0.0005773536 0.0036144613 -0.0024407683
-0.0018154321 -0.001307122 -0.0020267249 -0.00025268356 -0.0007732916 -0.002657392 0.004197427 -0.007713659

action_model._continuous_distribution.log_sigma f4 [1, 6]
00000000: 093a 833b 80ae 6abb e34c 86bc f3aa 9cba
00000010: 5b8a c73b 8bee 4e3b
0.004004721 -0.0035809577 -0.016394084 -0.0011952802 0.0060894913 0.0031575288

action_model._continuous_distribution.mu.weight f4 [6, 128]
00000000: 7df8 f8ba 3487 bbbc 7f3e afba e750 9cbc
00000010: 37e7 98bb 3a46 15bd 05ed 8bbc 1e19 b93b
00000020: 2a61 78bc 2236 2b3c a1bf fa3c 71a5 8abc
00000030: ac0a 9f3c b8ef 87bc d850 86bc 1e6e c9bc
00000040: 987b d0bc 6f68 4f3b 2a9a 3abb ddca 6fbc
00000050: 8f8f b439 ae08 403c b327 ff3c f259 7d3c
00000060: cacc 11bd 2566 b339 4e3b efbc 8263 513c
00000070: a17c 233b 0c24 c93c bea2 a73c 03e5 92bc
00000080: d65f 723c dc29 943b df3a eb3b 42a0 bbbc
00000090: ac34 16bc bd4a 083c ee87 573c a7ea 54bc
000000a0: b6dc 463a b938 a73c ef8e 97bc a5bb 4abc
000000b0: 3d18 adbc 20f5 553b da22 57bc 2358 3cbc
000000c0: 3afd 823c 8f61 c13c 9a24 603c 5325 50bb
000000d0: 0253 9e3a efda f8bb 1fd1 4c3d e1b0 68bc
000000e0: 0063 3d3c 181e 913b d8af 883b 4eea 0dbc
000000f0: 89e6 47bc 9a2c c43b 76a7 adbb cdc5 86bb
00000100: cd40 513c d2b2 a1bc 6a24 0f3c 2155 233c
00000110: 2789 d4ba 9f41 a63c 7cac 453c f7bc 4dbc
00000120: a1b7 c53c 0fc8 abbb c552 34bc f7a9 50bc
00000130: 3737 8f3c 65f0 90bc 8956 7cbc 62cc 873b
00000140: e1d8 993c b0ba bb39 71e3 583b 8f42 813c
00000150: db4b 9d3b 2d9d d23b e94a 493c 5717 ba3b
00000160: 23da c83b d9b3 c4bb 47ba 13bc 2e83 b43c
00000170: 7b85 a9bb 5173 2c3d bb5f 86bc 2e66 83bc
00000180: 089a 85bc 12b8 e73c de70 693c aa79 843c
00000190: fcd4 243c 2661 a93c ecf1 47bc 6716 9dbc
000001a0: 9222 183b 8903 5cbc c4ce 3d3c 4f95 a83b
000001b0: b444 913b 01b1 3d3c 3e9f d5bc 4c84 193c
000001c0: 82a1 9abb 3add 093c 3ae7 b7bb 9ee6 a53c
000001d0: 91a3 383c 1281 753c cf92 09bc affb b83c
000001e0: a237 4f3c 405e f33b d65e afbb 21b4 e43b
000001f0: b2a7 f2bb c015 e73c f5de 8b3a 5201 f73a
00000200: ef39 9ab9 c42a 84ba 5717 83bc bcde 47bc
00000210: 656d 12bb 0967 c83c 5453 973c 5af2 e4bc
00000220: 9828 b4bc 0c1d 4ebc 0556 423b 839c 07bc
00000230: 610d bdbc 870a 4abc 2607 293b 941f 9e3a
00000240: 8c66 543d f0e6 ea3b 48f2 0ebb 02f1 17bc
00000250: 7bfe ff3c c9b7 cb3c ca60 1d3c 5069 31bc
00000260: 795c 41ba 495b 473c 7638 5a3c 441a 90bb
00000270: df04 0a3d a7d9 f4ba 5601 68bc 222e c5bc
00000280: f834 23bc eaad 7ebc 5718 503c afa8 9cbc
00000290: 4aff 073c e14e ebbb 3392 d53b 0c69 f8bc
000002a0: 59df 133b 85a4 153d 41a2 443c fd19 843c
000002b0: 31b9 58bb 9c8c a8bc e049 b93c adad 4c3b
000002c0: 6067 42bc 9655 98bc 71ad 77bc 8351 bfbc
000002d0: ac09 0c3c 744c 68bc 4a12 2dbc d612 f2ba
000002e0: a28f 92ba df94 08bc 2a91 463c d450 4fbb
000002f0: 5807 983c 849e 30bb 3c18 463b 0fb8 de3b
00000300: 1398 9ebb c335 a63c 28ec 25bc b8a3 a43c
00000310: 3fb7 513c f202 bdbc 0de2 b13c 8918 bc3c
00000320: b423 dc3c 02e9 e7bc 5920 f5b9 7b64 47bc
00000330: 5ba0 313c b28d c23c a828 d33c 8fcb d8bb
00000340: 5479 333b a32d 03bd 97a0 02bc 0837 143c
00000350: 7d65 9b3c 602d cbbc 2337 a4bb 38c0 b7bb
00000360: e51e 653c 62fa 2b3c 803d 033d bed8 1d3c
00000370: 3778 e83b d007 f13b d133 3fbc ef96 6a3b
00000380: 7353 243c 579c 99bb 0854 dd3b 745a 913c
00000390: dd2f 7c3b b032 06bc 3373 15bc f602 b7bc
000003a0: 414b f5ba 0e22 903b 8668 1fbc 565a a13c
000003b0: 1be9 8d3c 6fc2 fa3a df8e 2d3c cfaf 86bc
000003c0: 0af4 a4bb 6e6b 383c bd11 f53a 6c25 653b
000003d0: ca76 14bc 4970 18bc 5436 c73c cda9 2b3c
000003e0: 45e7 04bc 2378 a63c 570d 703b 0a9f 56bc
000003f0: f706 853b 9e96 a1bc 66c6 903b 9e98 233d
-0.0018994954 -0.022891618 -0.0013370066 -0.019081546 -0.004666235 -0.036443926 -0.017080793 0.005648746
-0.0151598845 0.010449918 0.030608954 -0.016924592 0.019414268 -0.016593799 -0.016395971 -0.02458864
-0.02544956 0.003164794 -0.0028473237 -0.014635769 0.00034439235 0.011720819 0.03114686 0.015463339
-0.035595693 0.00034217644 -0.029203083 0.012780072 0.002494611 0.024553321 0.020463344 -0.017931467
0.014793357 0.0045215916 0.007178649 -0.022903565 -0.009167831 0.0083186 0.013154967 -0.012995399
0.0007585989 0.02041279 -0.018500773 -0.0123738395 -0.021129722 0.0032647327 -0.013130868 -0.011495623
0.015989888 0.02360609 0.0136806015 -0.0031760528 0.0012079182 -0.0075944583 0.05000412 -0.0142023275
0.011559248 0.0044286363 0.004171353 -0.00866182 -0.01220096 0.0059867622 -0.005299504 -0.004112935
0.012771797 -0.019738588 0.008736709 0.009969027 -0.0016215191 0.020294962 0.012065049 -0.01255726
0.024135413 -0.0052423547 -0.011006062 -0.012735835 0.017482383 -0.017692754 -0.015401491 0.0041442374
0.018780174 0.00035806512 0.003309455 0.015778808 0.0048003024 0.006427428 0.012285926 0.005679052
0.0061295195 -0.006002885 -0.00901658 0.022035208 -0.005173383 0.04210216 -0.01640307 -0.016039934
-0.0163088 0.028286014 0.014248101 0.016171295 0.010060545 0.020676207 -0.012203675 -0.019175721
0.0023213965 -0.013428577 0.011584941 0.005144752 0.004433239 0.011577846 -0.02607691 0.009369921
-0.0047189603 0.008414561 -0.005612281 0.020251568 0.011269466 0.014984386 -0.008396818 0.02258095
0.012647541 0.007427007 -0.0053518815 0.006979481 -0.0074052447 0.028208613 0.0010671305 0.0018844998
-0.00029416333 -0.0010083546 -0.01600234 -0.0121991 -0.0022343036 0.024463193 0.018472351 -0.027947593
-0.021992013 -0.0125801675 0.0029653322 -0.008277061 -0.023077669 -0.0123316115 0.0025791614 0.0012063854
0.05185561 0.007168643 -0.0021811891 -0.009273769 0.031249275 0.024867909 0.009605596 -0.010828331
-0.0007376145 0.01216776 0.013319125 -0.0043976624 0.03369605 -0.0018680588 -0.014160475 -0.02406985
-0.009961359 -0.015544394 0.012701116 -0.019123403 0.008300612 -0.007181034 0.0065176724 -0.030323528
0.0022563545 0.03653385 0.012001575 0.016125673 -0.0033069367 -0.02057486 0.022618234 0.0031231449
-0.011865467 -0.018595498 -0.015117035 -0.023354298 0.008547228 -0.014178384 -0.0105634425 -0.0018468748
-0.0011181722 -0.008336275 0.012119571 -0.003163387 0.01855819 -0.0026949951 0.0030226847 0.006796844
-0.004839906 0.020289307 -0.010127105 0.020097598 0.012800037 -0.023072693 0.021714235 0.022960918
0.026872493 -0.028309349 -0.00046754142 -0.0121699525 0.010841454 0.023749206 0.025776222 -0.006616063
0.002738555 -0.032025944 -0.007972858 0.009046324 0.018969292 -0.02480191 -0.0050114556 -0.005607631
0.013984417 0.010496708 0.032041073 0.009634195 0.007094409 0.0073556677 -0.011670069 0.003579553
0.0100296615 -0.0046878266 0.006754402 0.017743327 0.0038480677 -0.008190796 -0.009121704 -0.02234028
-0.0018714444 0.004398591 -0.00972951 0.019696396 0.017323067 0.0019131432 0.010593145 -0.016441254
-0.0050339745 0.011256082 0.0018697303 0.0034964932 -0.009061525 -0.009304115 0.024317898 0.010477495
-0.00811178 0.020320958 0.0036629045 -0.013099441 0.004059668 -0.01972514 0.004418182 0.03994047

action_model._continuous_distribution.mu.bias f4 [6]
00000000: 12bc aaba 3151 5ab9 f2f1 d73a f823 6fb8
00000010: e614 3539 1301 cbba
-0.001302602 -0.00020820346 0.0016475304 -5.701554e-05 0.0001726929 -0.0015487991
