results/PlayerAgentTest/TestPlayerAgent/TestPlayerAgent-1500.pt (torch, 550249 bytes, 12 tensors)

network_body._body_endoder.seq_layers.0.weight f4 [128, 396]
00000000: 1ab6 5dbd e45b b13d acf1 f2bb 2e33 9bbb
00000010: bf6b 7f3c 004f 333d 188a 073d 6b17 02be
00000020: 6d79 83bd 4a8c b4bc 98a6 1a3d b3bd 37bd
00000030: 3cf4 f4bd 1407 e238 0c29 b53d 3518 0a3d
00000040: c9a7 7c3c 1196 79bd 4eeb febd 8ddc 4d3d
00000050: 0828 2fbd a135 7b3c 6618 843d 73fd 2a3d
00000060: c9e8 243c 2e7d ec3a 07c9 24bc 910e c0bc
00000070: fbf3 0dbd 23ed 2a3c fe12 483d 8d9d 20ba
00000080: 8e27 bebc 5d9f ad3d d7ba aebd da6c a2bc
00000090: 5ed4 80bd 535f 8f3c 4890 7a3c 586d a63c
000000a0: 6e06 8cbc 6ecb 87bd b305 dfbc d0f0 15bd
000000b0: 3b49 073c f7ae 00bd 183f 69bd af39 1f3d
000000c0: 6511 73bd 1f16 89bc b003 98bd d707 9fbd
000000d0: 1ffd 8bbc 2e06 01bd b9b8 b33d 4ca5 26bc
000000e0: f0f8 8bbd 2209 b23a 20c0 e1bb 97b7 913c
000000f0: c3a0 c6bc 736a 433d 4b26 563c b40c 11be
00000100: 1bb5 553d 70a8 e5bb 029f 33bd be19 44bc
00000110: 1b36 84bd 146b e8bc aa63 be3c 542e 8dbb
00000120: 4af3 a5bd 7873 133d d7bf 643c 1876 843d
00000130: 0fae 0a3d 8ba4 393c 4963 5e3d 97f7 553b
00000140: b540 703d 0b84 ce3c eeea e0bb 5334 fcbc
00000150: b33f c9bc 45f3 4abc d793 c4bd b598 cdbc
00000160: c410 aebd d827 05bd 7e3e 77bc 28a4 913c
00000170: 60ad 98bc cccf 8fbc df3f 3fbd 47ea d4bd
00000180: 7d9c 0d3d 21f7 3abd 5504 a03c d442 cd3c
00000190: 7715 5a3d 7fe6 453d 1e5b f8bb 8a81 20bc
000001a0: 370b e33c 2b93 4e3d 8733 8ebb 0bb2 163d
000001b0: 56f4 d83c 0c9e cebd 28cb efbb 3c7f e13d
000001c0: 9415 e93c d619 7c3c 6e3b afbd 438d 8dbd
000001d0: 598e 183c c314 433a e5f4 813b 3479 06bd
000001e0: 121e df3c a53c 6a3c 591c 393c da83 ebbc
000001f0: fb66 473c 0a13 09bc 29d5 aabc e5b3 973c
00000200: 5161 de3c 3565 e33c 9596 323d d680 973c
00000210: 54ac 213d f598 333d 3d04 44bc 596d 0dbd
00000220: 4490 7eb9 959d 8dbd 9882 c7bc 99e0 1b3d
00000230: 8b49 48bd 0d48 273c f66b 5fbd 7322 193c
00000240: a076 aebc 4d97 a13c 734b f63d f1c1 2fbd
00000250: d6ad cd3d db3d c1bc 2251 9e3d 1278 953b
00000260: d0fe 92bc a23c 443d 898d 3a3d 9e1a 143d
00000270: 669c 17bd 182b 283c fcdf 513d c93a 40bd
00000280: a3c3 923c 0e82 4239 8888 ce3c 7cf6 143d
00000290: cfc5 94bc d8e7 a1bb dda0 11bc 325d 84bd
000002a0: 5203 8dbd c9e7 d5bb ba81 6a3d 8b65 b3bc
000002b0: b7ba bd3c 0224 463d 0070 823d cba2 ad3d
000002c0: d4e7 38bd 51ee b83c aeb3 313d aed1 c43d
000002d0: 597d d3bc f161 38bd d924 cd3c e3ca 81bb
000002e0: 0529 593d 8acb 6cbb 8e16 393d 6c78 e23c
000002f0: 209b 07bd 1168 033e 034a b3bc c9fc f8bc
00000300: 3e54 60bd 5abf ac3c e442 e2bc 1f25 5b3c
00000310: 88e2 43bd fa2e 0abd 0b43 42bd 8ad8 61bd
00000320: c166 17bd c3cd 2e3b 1efb f73d 2ba4 4a3d
00000330: 4808 cd3c 133c 03be 3465 8b3d 8932 b63b
00000340: 4054 d63b 5cdc 81bd ff23 de3c 15c3 ca3d
00000350: d569 8d3d 3b58 163d 0eba c1bc ddd5 b13a
00000360: 037b 17bd 2871 84bc b472 a73c db36 0e3e
00000370: 2af0 423b 7db0 453d 8c86 023d 55d9 f8bc
00000380: dda3 293c c64f 293c fc79 913b 140c 063d
00000390: 8ac5 5bbc 3b74 da3a 0335 993d d190 e03c
000003a0: 37e6 d83d 5eed 35bb 57cf d0bb 789b b23d
000003b0: cd28 ae3d b728 27bd 3924 c83d 4a2f 2a3d
000003c0: 9c23 5cbd e59a 6e3d a754 b13b 0620 253b
000003d0: ab0a 3a3d c6e6 4abc cadb 68bd 3650 00bc
000003e0: d8eb e9bc b617 343c c39f cebc 23d2 5a3d
000003f0: bbaa 31bc b6ad 983d e286 4dbc 073a 09bd
-0.054128744 0.08660105 -0.0074140634 -0.0047363257 0.0155896535 0.043776512 0.03309068 -0.12704246
-0.064196445 -0.022039551 0.037756532 -0.044858646 -0.119606465 0.00010777838 0.0884572 0.033714492
0.0154208625 -0.06093413 -0.124472246 0.05025916 -0.042762786 0.01533261 0.06449966 0.041745614
0.010065266 0.0018042678 -0.010057694 -0.023444446 -0.034656506 0.010432514 0.048846237 -0.00061269925
-0.02321222 0.08477662 -0.085317306 -0.019827295 -0.06290506 0.017501509 0.015293188 0.020315811
-0.01709291 -0.06630598 -0.027224397 -0.03660661 0.008257206 -0.03141686 -0.056944937 0.03887337
-0.05934276 -0.016734181 -0.07422578 -0.07765167 -0.017088471 -0.031500034 0.087754674 -0.010171246
-0.068345904 0.0013583044 -0.006889358 0.017787738 -0.024246579 0.04770894 0.013070653 -0.14165002
0.05217467 -0.0070086047 -0.043852814 -0.011969028 -0.06455632 -0.028371371 0.023240883 -0.0043085013
-0.08103044 0.03599879 0.013961754 0.06467837 0.0338574 0.011330734 0.054293904 0.0032648796
0.05865546 0.025209447 -0.0068639433 -0.030786669 -0.024566507 -0.012387102 -0.09598511 -0.02509723
-0.084992915 -0.0325087 -0.015090583 0.017778471 -0.01863736 -0.01755514 -0.04669177 -0.10396247
0.034573067 -0.045645837 0.019533316 0.02505628 0.053243127 0.04831552 -0.0075792214 -0.0097965095
0.027715309 0.05043332 -0.0043396386 0.03679089 0.026483696 -0.10088739 -0.0073179193 0.11010596
0.028452672 0.015387019 -0.08556257 -0.06911709 0.009311282 0.00074417534 0.0039659613 -0.032830432
0.027236018 0.014296685 0.0112982625 -0.028749395 0.012170549 -0.008366356 -0.020853596 0.018518398
0.027146013 0.02775822 0.043600637 0.018494051 0.039470986 0.043847043 -0.011963901 -0.03452811
-0.00024277071 -0.06914822 -0.024354264 0.03805599 -0.04889826 0.010210049 -0.05454632 0.009346592
-0.0212968 0.019725466 0.120261095 -0.042909566 0.10042922 -0.023589065 0.077303186 0.0045614326
-0.01794377 0.047909386 0.045545135 0.036158197 -0.037014388 0.010264181 0.051239 -0.046931062
0.017915552 0.00018549731 0.025211588 0.03636788 -0.018160729 -0.004940968 -0.00888845 -0.06463088
-0.06885399 -0.006527875 0.057252623 -0.021899005 0.023160322 0.048374183 0.063690186 0.08478316
-0.045142964 0.022574576 0.043384247 0.09610306 -0.025816606 -0.04501528 0.025041984 -0.0039609536
0.053017635 -0.003613206 0.045187525 0.027645312 -0.033106923 0.12832667 -0.021885877 -0.030393975
-0.05476784 0.021087337 -0.027619787 0.01337555 -0.04782346 -0.033736207 -0.04742722 -0.05513815
-0.036963228 0.0026672937 0.12108444 0.04947297 0.025028363 -0.12815885 0.06806412 0.0055602235
0.006540805 -0.06340858 0.027116774 0.0990049 0.069049515 0.036705237 -0.023648288 0.0013567765
-0.036982547 -0.016167238 0.020440437 0.13888113 0.00297452 0.048264015 0.031866595 -0.03037707
0.010354009 0.010333961 0.0044395905 0.032726362 -0.013413796 0.001666672 0.07480814 0.027412804
0.10590785 -0.002775989 -0.006372373 0.087210596 0.08503876 -0.040810313 0.09772534 0.041549005
-0.053744897 0.058253188 0.0054117027 0.002519609 0.04542033 -0.012384122 -0.056850232 -0.007831624
-0.028554842 0.010991981 -0.025222665 0.05342306 -0.010843928 0.07455008 -0.012544366 -0.033502605

network_body._body_endoder.seq_layers.0.bias f4 [128]
00000000: 0000 0000 0000 0000 0000 0000 0000 0000
00000010: 0000 0000 0000 0000 0000 0000 0000 0000
00000020: 0000 0000 0000 0000 0000 0000 0000 0000
00000030: 0000 0000 0000 0000 0000 0000 0000 0000
00000040: 0000 0000 0000 0000 0000 0000 0000 0000
00000050: 0000 0000 0000 0000 0000 0000 0000 0000
00000060: 0000 0000 0000 0000 0000 0000 0000 0000
00000070: 0000 0000 0000 0000 0000 0000 0000 0000
00000080: 0000 0000 0000 0000 0000 0000 0000 0000
00000090: 0000 0000 0000 0000 0000 0000 0000 0000
000000a0: 0000 0000 0000 0000 0000 0000 0000 0000
000000b0: 0000 0000 0000 0000 0000 0000 0000 0000
000000c0: 0000 0000 0000 0000 0000 0000 0000 0000
000000d0: 0000 0000 0000 0000 0000 0000 0000 0000
000000e0: 0000 0000 0000 0000 0000 0000 0000 0000
000000f0: 0000 0000 0000 0000 0000 0000 0000 0000
00000100: 0000 0000 0000 0000 0000 0000 0000 0000
00000110: 0000 0000 0000 0000 0000 0000 0000 0000
00000120: 0000 0000 0000 0000 0000 0000 0000 0000
00000130: 0000 0000 0000 0000 0000 0000 0000 0000
00000140: 0000 0000 0000 0000 0000 0000 0000 0000
00000150: 0000 0000 0000 0000 0000 0000 0000 0000
00000160: 0000 0000 0000 0000 0000 0000 0000 0000
00000170: 0000 0000 0000 0000 0000 0000 0000 0000
00000180: 0000 0000 0000 0000 0000 0000 0000 0000
00000190: 0000 0000 0000 0000 0000 0000 0000 0000
000001a0: 0000 0000 0000 0000 0000 0000 0000 0000
000001b0: 0000 0000 0000 0000 0000 0000 0000 0000
000001c0: 0000 0000 0000 0000 0000 0000 0000 0000
000001d0: 0000 0000 0000 0000 0000 0000 0000 0000
000001e0: 0000 0000 0000 0000 0000 0000 0000 0000
000001f0: 0000 0000 0000 0000 0000 0000 0000 0000
0.0 0.0 0.0 0.0 0.0 0.0 0.0 0.0
0.0 0.0 0.0 0.0 0.0 0.0 0.0 0.0
0.0 0.0 0.0 0.0 0.0 0.0 0.0 0.0
0.0 0.0 0.0 0.0 0.0 0.0 0.0 0.0
0.0 0.0 0.0 0.0 0.0 0.0 0.0 0.0
0.0 0.0 0.0 0.0 0.0 0.0 0.0 0.0
0.0 0.0 0.0 0.0 0.0 0.0 0.0 0.0
0.0 0.0 0.0 0.0 0.0 0.0 0.0 0.0
0.0 0.0 0.0 0.0 0.0 0.0 0.0 0.0
0.0 0.0 0.0 0.0 0.0 0.0 0.0 0.0
0.0 0.0 0.0 0.0 0.0 0.0 0.0 0.0
0.0 0.0 0.0 0.0 0.0 0.0 0.0 0.0
0.0 0.0 0.0 0.0 0.0 0.0 0.0 0.0
0.0 0.0 0.0 0.0 0.0 0.0 0.0 0.0
0.0 0.0 0.0 0.0 0.0 0.0 0.0 0.0
0.0 0.0 0.0 0.0 0.0 0.0 0.0 0.0

network_body._body_endoder.seq_layers.2.weight f4 [128, 128]
00000000: 35f4 2b3e d265 e5bb 9631 abbd 34c5 083e
00000010: 8dcc 53bd 4ac3 803c 7ffc c73c c617 9bbd
00000020: 9725 0b3d 9c00 9b3c eb89 2e3d 207e 37bd
00000030: 3c6e 21bd 642a 683d 3306 84bc 31b8 7d3d
00000040: fa62 693b ff50 96bd 112f 63bd 200a 8f3d
00000050: 16e3 39be 05e7 db3c 06bb 883d debf 81bc
00000060: e1e6 8f3d a924 20be a497 453b 7aba 0e3d
00000070: 141f eb3a 4091 63bd 70e2 58be b057 e03d
00000080: 5fe5 93ba 40c1 0d3e fa2e 8fbd 4dee 16bb
00000090: a39c 0cbe 6cf0 8bbd b841 1b3e 165d fe3d
000000a0: 04c1 aa3c e472 a0bd bd1d 2c3d e5a4 33be
000000b0: 7885 c03c ce39 56bd c9f9 5dbd a906 2abc
000000c0: 7942 35bc ad21 50bd 5326 423e 7d8e fbbd
000000d0: 6ca9 dcbd 1fb3 a5bd 0cb5 e3bd 0465 c13c
000000e0: ed78 1abd a996 b3bb dae8 c33d f035 c9bc
000000f0: 9df9 b7bd 8671 14bd e1f2 493e e66c c03d
00000100: 2795 d53c f44a 2c3d 841f 1b3d 9faf b8bd
00000110: 09d7 533d 66b4 adbd caef c639 a0ad 55bd
00000120: 72ff c93c ab3f dd3c 4553 8c3d 427c b9bc
00000130: bbda 8a3d f1e8 8c3d d933 9b3a 9956 06bd
00000140: 180c 34bd ddad 7abd da25 433d 4340 7dbd
00000150: 69d0 bc3d 7996 a0bd 5a67 68bd efb4 6d3d
00000160: dc30 303e 2105 aa3d fc88 9c3e 8d4d bc3d
00000170: 48e3 613d b802 04be cb4d 72bd 977b 4e3d
00000180: c3e6 e93c e0cd 42be 08bd a2bd 8eeb 84bc
00000190: 55b6 27bd 6ce6 693d d455 813d bc03 493d
000001a0: eea1 80bd 6b02 febd 8580 463e ef8d d4bd
000001b0: a6ad 573d 96cd 01bc a86f 1abe a864 22be
000001c0: b1c5 aebd 0519 b73b 0eb2 e5bd 19f9 1c3e
000001d0: 0b3f 65bb a7f4 f33c 3c17 6cbd 873b 01bd
000001e0: 6024 3cbc e1af e4bd 3fc5 12be 98a3 44bd
000001f0: 01f9 893d cea8 99bd fbda 25be d050 c93d
00000200: 062a 153e 9dcd 323d cec4 403a d5f2 b7bd
00000210: fa05 cfbd c4b9 033d 174c dabb c169 80be
00000220: eb5d 5a3b 0747 873e bee3 153e d045 efbd
00000230: c4de 453b 140c 513e cab4 8abd f04c f4bc
00000240: 4459 8e3d eb30 9b3c e2c6 553d 398b 96bd
00000250: a096 cf3b c635 0fbe f26c 743d 10d6 2fbc
00000260: 1756 0e3d 4d16 253b 1b9b 78be 5512 5b3e
00000270: 0e58 033e b7fe b13d 3357 b43d 8580 c1bc
00000280: 3b2e b3bb c067 82bd 39cb 983d 6bbe bebc
00000290: 0b57 8a3d df77 07bd 011b 253d a5ec 37bd
000002a0: e9c0 cfbd 40f2 20bd 0af9 853a a790 823d
000002b0: 3aa5 86bc d3a1 2dbc 7672 d73d 2f0d 82bd
000002c0: 5068 51bc 6e18 bc3d 4388 07bd 6a1f c6bd
000002d0: c021 dabd b8a1 a0bd 1611 423e 06bf e23d
000002e0: cfc4 893d 8ea3 c83d 6f15 253e e63d 0fbd
000002f0: 7b45 06be 5874 273e da61 8a3d 2a75 003e
00000300: 9110 a5bd 887a 24bc 3ff6 ad3d 766c 9f3d
00000310: 2b6d 0ebd 859e 393d 47c1 63bd 6eef 2b3c
00000320: 8b14 febd 3104 c2bd bf4f 8b3c ae41 a33c
00000330: b6ea 3bbd a316 013e eb39 a83d 45c4 583d
00000340: dede ad3c 4ef9 49bd 11a7 2cbd 4f5c 49bd
00000350: 50f6 063e 9db8 72bc eeeb 373d d2bf f3ba
00000360: 9c7f 07be 6a0e cd3c 3fa7 d63d 831f 683d
00000370: 0d67 81bd 67d5 e5bc fbd5 72bd bf6e 2abc
00000380: 640f 06bd 14c0 88bd 65d9 fa3c e26a 11bd
00000390: 1cfa 9f3d 1b97 a8bd 43c9 b6bd 1366 7d3d
000003a0: 199b 7ebc 7a58 ddbd 3f57 72bd 37f7 9fbd
000003b0: 7f38 9a3d 55c1 17be f956 f43a 0429 30bd
000003c0: aa70 623d e453 8dbd ec5d 47bc 8bbc da3d
000003d0: bd9c f1bb 95d3 6b3b 41d6 21bd 3410 a5bd
000003e0: 31fb 243b c971 a4bd 5e94 343e 32c1 913b
000003f0: a091 a63b 9b28 eabd 2141 f23c c3ec 873d
0.16792376 -0.0070006633 -0.08359067 0.13356477 -0.051708747 0.015718121 0.024412392 -0.07572894
0.033971395 0.018921189 0.042611998 -0.044798017 -0.03941177 0.05668105 -0.016116237 0.061943237
0.0035611973 -0.073396675 -0.055464808 0.06984353 -0.18153033 0.026843557 0.06676297 -0.01583856
0.070264585 -0.15638985 0.00301502 0.034845807 0.0017938339 -0.055558443 -0.21180129 0.10954225
-0.0011283568 0.1384325 -0.06991382 -0.0023030222 -0.13731627 -0.06832966 0.15161788 0.124200985
0.02084399 -0.07834414 0.042020548 -0.17543371 0.023501143 -0.05230122 -0.05419329 -0.0103775645
-0.011063212 -0.050813366 0.18959932 -0.12283037 -0.10774502 -0.08090805 -0.11118516 0.023607738
-0.03771298 -0.0054806066 0.09565897 -0.024561852 -0.08983157 -0.036241077 0.19721557 0.09395771
0.026072098 0.04206367 0.037871853 -0.09017872 0.051718745 -0.08481674 0.0003794416 -0.052167535
0.024657939 0.027007898 0.0685182 -0.022642259 0.06780001 0.068803675 0.0011841013 -0.03279743
-0.043956846 -0.061200965 0.04764352 -0.061828863 0.092194386 -0.078412004 -0.05673919 0.05803388
0.17206138 0.083017595 0.3057326 0.09194479 0.055148393 -0.12891662 -0.05915622 0.050410833
0.028552419 -0.19023848 -0.07946211 -0.016225602 -0.04094537 0.057104513 0.063151985 0.049075827
-0.06280886 -0.12402805 0.19384964 -0.10378634 0.05265584 -0.007922551 -0.15081656 -0.1585871
-0.085338004 0.0055876994 -0.11215602 0.15329398 -0.0034980203 0.029779745 -0.057639346 -0.03155091
-0.011483282 -0.11166359 -0.14333056 -0.048007578 0.06736947 -0.075029 -0.16196816 0.09829867
0.14566812 0.04365312 0.0007353545 -0.089818634 -0.10108562 0.03215958 -0.0066619026 -0.25080684
0.003332014 0.26421377 0.14637658 -0.116832376 0.0030192593 0.20414764 -0.06772764 -0.029821843
0.0695062 0.018944224 0.052191623 -0.07350773 0.0063350946 -0.13985357 0.05967421 -0.010732189
0.03475007 0.0025190294 -0.24277918 0.21393712 0.12826559 0.08691161 0.088056944 -0.023620853
-0.0054681576 -0.06367445 0.07460637 -0.023284158 0.067548834 -0.033073302 0.040308956 -0.044903416
-0.101442166 -0.039293528 0.0010221314 0.063752465 -0.016436208 -0.010597664 0.105198786 -0.06350171
-0.012781218 0.09184347 -0.033088934 -0.096739605 -0.106509686 -0.078433454 0.1895183 0.11071591
0.067269914 0.097968206 0.16121458 -0.03497114 -0.13112442 0.16352975 0.06756945 0.12544695
-0.080598004 -0.010038979 0.08494233 0.07784359 -0.03477208 0.04531719 -0.055604246 0.010494096
-0.12406262 -0.09473456 0.0170058 0.01992878 -0.045878135 0.12606291 0.08214172 0.052921552
0.021224435 -0.04931002 -0.042151514 -0.049160298 0.13179898 -0.014814523 0.044902734 -0.0018596596
-0.13232273 0.025031287 0.104811184 0.056670677 -0.063184835 -0.02805586 -0.0592861 -0.0104023805
-0.03272952 -0.06677261 0.03062124 -0.035502322 0.078113765 -0.08231946 -0.089251064 0.061864924
-0.015539908 -0.10807891 -0.059165236 -0.07810824 0.07530307 -0.14819844 0.0018641643 -0.043007866
0.055283226 -0.069007665 -0.012168389 0.10680493 -0.007373421 0.0035984267 -0.03951097 -0.08059731
0.0025174136 -0.08029515 0.17634723 0.0044480795 0.005083278 -0.11433526 0.029572072 0.066369556

network_body._body_endoder.seq_layers.2.bias f4 [128]
00000000: 0000 0000 0000 0000 0000 0000 0000 0000
00000010: 0000 0000 0000 0000 0000 0000 0000 0000
00000020: 0000 0000 0000 0000 0000 0000 0000 0000
00000030: 0000 0000 0000 0000 0000 0000 0000 0000
00000040: 0000 0000 0000 0000 0000 0000 0000 0000
00000050: 0000 0000 0000 0000 0000 0000 0000 0000
00000060: 0000 0000 0000 0000 0000 0000 0000 0000
00000070: 0000 0000 0000 0000 0000 0000 0000 0000
00000080: 0000 0000 0000 0000 0000 0000 0000 0000
00000090: 0000 0000 0000 0000 0000 0000 0000 0000
000000a0: 0000 0000 0000 0000 0000 0000 0000 0000
000000b0: 0000 0000 0000 0000 0000 0000 0000 0000
000000c0: 0000 0000 0000 0000 0000 0000 0000 0000
000000d0: 0000 0000 0000 0000 0000 0000 0000 0000
000000e0: 0000 0000 0000 0000 0000 0000 0000 0000
000000f0: 0000 0000 0000 0000 0000 0000 0000 0000
00000100: 0000 0000 0000 0000 0000 0000 0000 0000
00000110: 0000 0000 0000 0000 0000 0000 0000 0000
00000120: 0000 0000 0000 0000 0000 0000 0000 0000
00000130: 0000 0000 0000 0000 0000 0000 0000 0000
00000140: 0000 0000 0000 0000 0000 0000 0000 0000
00000150: 0000 0000 0000 0000 0000 0000 0000 0000
00000160: 0000 0000 0000 0000 0000 0000 0000 0000
00000170: 0000 0000 0000 0000 0000 0000 0000 0000
00000180: 0000 0000 0000 0000 0000 0000 0000 0000
00000190: 0000 0000 0000 0000 0000 0000 0000 0000
000001a0: 0000 0000 0000 0000 0000 0000 0000 0000
000001b0: 0000 0000 0000 0000 0000 0000 0000 0000
000001c0: 0000 0000 0000 0000 0000 0000 0000 0000
000001d0: 0000 0000 0000 0000 0000 0000 0000 0000
000001e0: 0000 0000 0000 0000 0000 0000 0000 0000
000001f0: 0000 0000 0000 0000 0000 0000 0000 0000
0.0 0.0 0.0 0.0 0.0 0.0 0.0 0.0
0.0 0.0 0.0 0.0 0.0 0.0 0.0 0.0
0.0 0.0 0.0 0.0 0.0 0.0 0.0 0.0
0.0 0.0 0.0 0.0 0.0 0.0 0.0 0.0
0.0 0.0 0.0 0.0 0.0 0.0 0.0 0.0
0.0 0.0 0.0 0.0 0.0 0.0 0.0 0.0
0.0 0.0 0.0 0.0 0.0 0.0 0.0 0.0
0.0 0.0 0.0 0.0 0.0 0.0 0.0 0.0
0.0 0.0 0.0 0.0 0.0 0.0 0.0 0.0
0.0 0.0 0.0 0.0 0.0 0.0 0.0 0.0
0.0 0.0 0.0 0.0 0.0 0.0 0.0 0.0
0.0 0.0 0.0 0.0 0.0 0.0 0.0 0.0
0.0 0.0 0.0 0.0 0.0 0.0 0.0 0.0
0.0 0.0 0.0 0.0 0.0 0.0 0.0 0.0
0.0 0.0 0.0 0.0 0.0 0.0 0.0 0.0
0.0 0.0 0.0 0.0 0.0 0.0 0.0 0.0

action_model._continuous_distribution.log_sigma f4 [1, 6]
00000000: 0000 0000 0000 0000 0000 0000 0000 0000
00000010: 0000 0000 0000 0000
0.0 0.0 0.0 0.0 0.0 0.0

action_model._continuous_distribution.mu.weight f4 [6, 128]
00000000: 1f1f ebbc 65fd 6ebb d04c 623c 674c 97bc
00000010: efe7 90bc ade0 c83b abd3 a53b 7321 be3c
00000020: 02dd 6fbd a2c0 f4bc c5b0 473b e29b 8cbc
00000030: 2d4d 693a 33db e03a fd57 e0bc 23a4 df3c
00000040: fd69 843c 9925 0f3c 4a53 52bd 7c3d b1bb
00000050: 8288 67bc 1784 44bc 8d50 ecbc 9b45 34bb
00000060: 8199 353b 7822 f2ba 0702 25bd 775c 0cbd
00000070: fa97 e4bc eeb2 af3c e3b8 8fbb 9b56 4fba
00000080: 9770 683b 8b6a f63b 8ec9 49bc b6be b13b
00000090: 5ddd b13b 9ed4 013d 9e84 923a b8b4 9f3c
000000a0: 7216 773c a192 233c ca35 c73c 0f3e 5d3c
000000b0: 8ad1 4d3b 55c3 d93c 9ef7 c63c bf64 bd3b
000000c0: f21d c6bc 28c2 923c 9ee8 093c 2519 eb3b
000000d0: 4f9d 70bb 1dd0 9cbc a8e4 6cbc c79c 87bb
000000e0: 99c8 1a3b 4b76 44bb 4734 973b 5a41 523a
000000f0: 7bef 19bc 1f63 82bb f8ae f4bc c835 ef3b
00000100: 109b ad3b 4d09 363c 459c 5fbc b78c a83b
00000110: 6706 b0bc 8832 be3b 0bf8 dcbc eb16 613c
00000120: 024f 163a 1524 3fbc 0f72 3fbc dd73 f03b
00000130: 9419 0a3d 4bf2 45bc 7d71 43bc 4bec 55bc
00000140: f5a8 f4bb f398 c93c bfb1 2bbb 6571 433c
00000150: cd77 6d3a 9b3d 8cbc c80d 34bb ad70 b7bc
00000160: ae98 b53b 28ee da3b 95ce 9e3a faac 523b
00000170: 78ae f639 5857 cc3c 0a1e 83bb 60d6 e8bb
00000180: a257 ffba 7929 133c d49e 1dbc f778 c83c
00000190: 53f6 7dbc aa21 e63b 0de8 feba 0b1d 20bc
000001a0: ffea 88bc 3a69 323d 4788 aeba 2be5 5c3c
000001b0: fbac 453b 53cc 0b3d 6f24 c4bc 6415 8a3b
000001c0: 72a7 c73c bec2 4a3b 4092 e7ba bb7f 443c
000001d0: 303e 96bc 25c1 82bc 03c5 29bd b76d 2b3b
000001e0: 8ada 24bb f835 4cbc e61c 3c3b c2b9 febc
000001f0: 7ab7 73bc 93fc 653b 9f51 143d 314f 0a3c
00000200: 6a4d 27bd 5a4a fdba 264b ba3c 43f9 1abd
00000210: 4f1d 71bb 2009 26bb 6774 17bc 8f15 0fbd
00000220: cecf 2d3b 3939 aa3c dc5a 843c 725b cdbb
00000230: 4166 903c 49d6 a53b d336 81bc 9691 a13c
00000240: a8ae 4f3c 20c2 2cbc 3414 0cbc 75f5 b33c
00000250: 2114 8b3c 6af5 993c 05ff c03b abf4 27bc
00000260: d25c 5fbc 80f9 323c 5e34 b83b 4420 9e3c
00000270: 78e5 813c 2224 dfbb 4713 e93c 1d5f d7bb
00000280: 6772 6e3b 5470 143c 85f2 443c 323d 21bc
00000290: 7dda e1bc adc2 803c ed88 ef3c ccbc 373b
000002a0: bf8c 2fbc 4339 acbc ab40 773b bcf3 37bd
000002b0: 9bf2 9f3c 27ab 8ebb 62cf b0bc 20af 713c
000002c0: fa20 c9bc 8a80 663c fdb7 11bc 2846 da3b
000002d0: 96c7 c4bc 287d 95bb 90b6 023a f138 c73c
000002e0: c25c 98ba cb98 713c 1763 343b a48c 183b
000002f0: 27c6 44bc 6343 073d 93d2 95bb 132c 97bc
00000300: 7d71 75bc ba1b c83c 50f8 04bb 4dd2 c03c
00000310: 9281 efbb da09 b4bc 3d5d 243c fd7c 2d3a
00000320: c38f 03bd f0ef 10bd f7f4 163c 7755 d1ba
00000330: 6305 9e3c 2bcf b33c 9920 99bc 8feb 353c
00000340: 46b7 32bc 94ac abbc 93a4 3e3b d767 0fbd
00000350: ae66 0b3d de89 a1bb e357 8cbc 1322 9d3c
00000360: 029b f7bb dd85 003c 2b40 af3c ca0e a83b
00000370: 1eb7 173d 9b49 4e3a b353 2f3d 6edd 9c3b
00000380: 591a 9a3a 2525 25bd 7686 313c c26d 113c
00000390: 962f 9bbc f5e3 1dbb 50e9 6a3a afcd 383b
000003a0: 9c4a 05bc 23f2 1bbc 8ea0 2e3c e7e9 023c
000003b0: 476c 80bc d27c 6fbc 556a f73a 8ab5 07bc
000003c0: c3f1 9c3c 3b75 debc b79e 7bbc 81be 89bb
000003d0: adb7 dc3b 6391 9cba 66ad a5bc adcd fdba
000003e0: 52cd 6c3c 1206 a5bb 071a f93c 12ec fc3b
000003f0: d0e8 e73b 23f0 f83a 3889 793c 1102 17bb
-0.028701363 -0.0036466953 0.013812259 -0.018469049 -0.01768872 0.006130299 0.005060633 0.02320931
-0.05856038 -0.02987701 0.0030470353 -0.017164174 0.0008899745 0.001715517 -0.027385706 0.027299946
0.01616382 0.008736991 -0.051348962 -0.005408941 -0.014131667 -0.011994383 -0.028847003 -0.0027507308
0.0027709904 -0.0018473407 -0.040285137 -0.03426787 -0.0279045 0.021447625 -0.004386054 -0.00079093286
0.00354675 0.007520025 -0.012316121 0.005424346 0.005428 0.03169691 0.0011178439 0.019495353
0.015081035 0.0099836895 0.02431764 0.013503565 0.0031405413 0.0265824 0.024287995 0.005779832
-0.0241842 0.017914847 0.008417277 0.0071746283 -0.0036714857 -0.019142205 -0.014458813 -0.0041385624
0.00236181 -0.0029977735 0.0046143862 0.00080206024 -0.0093954755 -0.0039791013 -0.029868588 0.0073001124
0.005298026 0.011110616 -0.013648097 0.0051437276 -0.021487428 0.0058043636 -0.026973745 0.013738374
0.0005733819 -0.0116663175 -0.0116849085 0.0073380307 0.0337158 -0.012081693 -0.011928913 -0.013056825
-0.0074664303 0.024609065 -0.0026198474 0.011928891 0.0009058684 -0.01711922 -0.0027474035 -0.022392595
0.0055418825 0.0066812225 0.001211601 0.003214656 0.00047050766 0.024943992 -0.0040013837 -0.0071056336
-0.0019481073 0.008982056 -0.009620387 0.024471743 -0.015500623 0.007023056 -0.0019447819 -0.009772549
-0.016713617 0.043557383 -0.001331576 0.013482372 0.003016292 0.034130406 -0.023943154 0.0042139757
0.024371836 0.003093883 -0.0017667487 0.011993344 -0.0183402 -0.01596124 -0.04144765 0.0026157924
-0.0025154673 -0.012464039 0.0028703748 -0.031094436 -0.014875287 0.0035093173 0.036210652 0.008441732
-0.040845312 -0.0019324527 0.022740912 -0.03783537 -0.003679115 -0.0025335029 -0.009244061 -0.03493267
0.0026521566 0.020779239 0.016156606 -0.0062670046 0.017626883 0.005060945 -0.015773213 0.019722741
0.012675919 -0.01054433 -0.008549739 0.021967629 0.016977372 0.01879378 0.0058897757 -0.0102512045
-0.01363297 0.010923743 0.005621477 0.019302495 0.01585649 -0.0068097273 0.028451575 -0.0065726177
0.0036384107 0.009059984 0.012020712 -0.00984125 -0.027570004 0.015717829 0.029240096 0.0028036116
-0.010714709 -0.021023398 0.0037727754 -0.044910178 0.019524863 -0.004353899 -0.021583263 0.014751226
-0.024551857 0.014068732 -0.008893964 0.0066611953 -0.024020951 -0.004562039 0.00049863104 0.024319144
-0.0011624324 0.014745901 0.0027524882 0.0023277188 -0.012010134 0.03302325 -0.0045722215 -0.018453633
-0.014980671 0.024427284 -0.0020289607 0.02353778 -0.007309147 -0.021977354 0.010031995 0.0006618051
-0.032119524 -0.035385072 0.009213678 -0.0015970905 0.019289678 0.021949371 -0.018692302 0.011103525
-0.010907954 -0.020956315 0.0029089793 -0.03501114 0.03403347 -0.004929765 -0.017131751 0.019181287
-0.00755632 0.0078444155 0.021392902 0.005128716 0.03703987 0.00078692444 0.04280443 0.0047871387
0.001175712 -0.040318627 0.010835281 0.008876266 -0.01894359 -0.0024092172 0.0008961158 0.002819877
-0.008135464 -0.009518179 0.010658396 0.007990337 -0.01567663 -0.014617162 0.0018876294 -0.008283028
0.01915825 -0.02715551 -0.015357665 -0.004203618 0.006735763 -0.0011945184 -0.020224284 -0.0019363664
0.014453249 -0.005036124 0.030407919 0.0077185715 0.007077314 0.0018992465 0.015230469 -0.0023042003

action_model._continuous_distribution.mu.bias f4 [6]
00000000: 0000 0000 0000 0000 0000 0000 0000 0000
00000010: 0000 0000 0000 0000
0.0 0.0 0.0 0.0 0.0 0.0

network_body._body_endoder.seq_layers.0.weight f4 [128, 396]
00000000: 5e8b d3bd 26a6 b43d 2a17 96bd 9283 d5bc
00000010: 0f3c a1bb e943 19bd e7ab 28bd 8887 e03b
00000020: f667 b1bd 7a88 4f3d ab70 b53c 75e5 adbc
00000030: fcec f7bc 4167 6c3d 338f 813d 37a5 07bc
00000040: 170b 393d 8e57 05bd 6138 9dbd aa89 083d
00000050: c14f a73b f363 86bd e362 4e3d a789 f8bd
00000060: 8ded 9cbc 1f1b a13d ab52 6e3d 5881 c73d
00000070: 6912 83bd b32a 0ebd 6795 d8bd 5748 00bc
00000080: f77c 8bbc b394 fb3c 191c 3d3b 12ff 1ebd
00000090: cd3d 61bd 9add 87bd 7ff5 be3c 6789 e63d
000000a0: 22db 633d f07e 1bbd c9fb d83c ff58 88bd
000000b0: d73d 1fbd 70d5 713d b6c0 da3b b491 24ba
000000c0: 32bf 0b3d db41 123b e4a7 c13d 7227 35bc
000000d0: f472 183c 8c9e 733d 793f 48bd 74e0 c3bc
000000e0: 5906 33bc e82b a6bc 6c41 2f3c 3e46 0839
000000f0: 9277 f73b 62b4 3d3d 8fad ae3c b263 0bbb
00000100: e9ad 8fbd 42d6 80bd 54b7 c0bc b0a5 24bd
00000110: 1e97 8ebc 1b75 1bbd 6c5a 863c baba 53bb
00000120: 3e20 13bd df45 e4bc cf7a 8b3d 9872 823d
00000130: 0f0e 62bd 5831 4ebd db11 e83a 3b14 f03c
00000140: 3394 37bd 09d3 4bbd f389 c63d 74a0 233c
00000150: 9122 ffbc 9015 843c b01c 16bd f9f1 1dbc
00000160: 7054 703d e480 323d 26f3 04bd 104d ca3d
00000170: 400f 2dbc 56f5 f93b 8b75 5b3d fd5c 233d
00000180: 6441 933c a19f 173d b87f b83c 838e 9ebd
00000190: a863 5d3d e7c0 16bd bf96 463d c327 89bc
000001a0: 8b7c c8bb 53d0 04bd 96c0 08bc e429 55bd
000001b0: 7bee 493b 7674 d33b 250a 6fbd 058c 11bd
000001c0: fec1 0fbd fc2c e33c c928 563d cb48 673c
000001d0: 4b33 13bd e090 b9bd 3477 eb3d 675b d5bc
000001e0: 0ffd 353c b822 49bd 6e32 19bc 717f a33d
000001f0: 523b cdbb 1af7 07bd aac1 3f3d cc09 313d
00000200: 7b75 0b3c 29fe cc3c 9456 c43b 4a64 903d
00000210: 819f 2f3d 51d8 623c 91f2 92bd ebca 11bd
00000220: 9838 353c 509e 563d e53c 7cb9 cc7b 02be
00000230: 8d39 59bd 1aa3 0ebd 36f8 6e3d d97e e5bc
00000240: 21d1 ae3c cd5f dc3d 1a1b 40bc f031 483c
00000250: b223 a5bc b9eb a13c f0d7 433d aee1 833d
00000260: e037 edbc e96a 80bc 00b2 ccbc f22b a93d
00000270: 63f9 7ebc 45a9 b33d 808e 133e 494d 7a3d
00000280: dbd2 653d ddf3 733d c6aa 62bd c2af 833d
00000290: ea6d 603c 8c0b 833c 8982 98bb a5d0 ae3d
000002a0: 42d0 bf3c e574 123d 03f3 403d 987c b5bc
000002b0: 465e 8f3d f40e b0bd 5261 b73b 9e37 5dbc
000002c0: 7068 a83c 7f24 95bd f43b c93c 8849 ecbc
000002d0: 6b94 42bd 0389 003d f765 c1bc 6bce 96bc
000002e0: f691 153c 551f dcbd 7739 013d 7250 31bb
000002f0: 2474 113c 12b0 3d3d 02fb 553d 59d5 713d
00000300: e9f6 8dbc aa87 46bc 8822 56bd e1fa ccbd
00000310: f19e b1bd 6421 3cbd 7d48 093d 3e3f 00bd
00000320: 99f7 c33c e7de 94bd 0f79 35bc bf4f 56bc
00000330: 346c 27bd bbda 283d 0b91 5a3d 17fd b1bc
00000340: 7ae1 2ebd 8896 aebc 9bed a33b e833 393c
00000350: e184 b73c 1fcf 113d 5dcb 52bd 1b13 c3bc
00000360: da8d 6dbd b1ea 0a3d b191 a23d 598c e63c
00000370: d694 5d3c 8e5a 803c 99bf d5ba 0ac5 b0bc
00000380: b3b9 ae3d 79bf 903b a75f ad3c 999c a53d
00000390: 5bad 13bd 4274 f8ba a2f4 223d 5850 c73a
000003a0: 642b 05bc 5b04 593c 7522 c5bd 09d8 5cbd
000003b0: c955 92bc 94a9 133c 4760 d2bd 9437 88bd
000003c0: 8785 d9bb f6c0 fe3c b9d4 8cbb 0786 6cbd
000003d0: a89f c93c d638 373d 5c74 f0bc a20d 223d
000003e0: f47f 7c3c 654e 87bd 8d1a 4fbd 49c2 21bd
000003f0: 8203 42bd 9799 c6bd 518b aa3d 2ffa c8bd
-0.103293166 0.08820753 -0.07328637 -0.026063714 -0.0049204896 -0.03741828 -0.041179564 0.006852094
-0.08662407 0.050667264 0.02214845 -0.021227578 -0.03026437 0.057715658 0.06326141 -0.008279136
0.04517659 -0.0325542 -0.07676769 0.03333441 0.005105943 -0.065620326 0.050387274 -0.1213563
-0.019156242 0.07866501 0.058184307 0.09741467 -0.06399996 -0.03470869 -0.10575371 -0.007829747
-0.017027361 0.030710554 0.002885586 -0.038817473 -0.05499058 -0.06634064 0.023310421 0.11256676
0.055628903 -0.037962854 0.026487248 -0.066576 -0.038877334 0.05904144 0.006675805 -0.0006277815
0.034117885 0.0022317085 0.09455851 -0.011056768 0.009304751 0.059477374 -0.048888657 -0.023910739
-0.010926806 -0.020284608 0.01069675 0.00012996138 0.0075520957 0.046314605 0.021322994 -0.002126914
-0.070155926 -0.062908664 -0.023524918 -0.040197074 -0.017406043 -0.037953477 0.016400538 -0.0032307343
-0.03591942 -0.027865348 0.06810533 0.06369513 -0.05518919 -0.050340027 0.0017705517 0.029306522
-0.04481907 -0.049761806 0.096942805 0.0099869855 -0.031144412 0.016123563 -0.036648452 -0.00964021
0.058674276 0.04357995 -0.032458447 0.0987798 -0.010562718 0.0076281233 0.053578895 0.039883602
0.017975517 0.03701747 0.022521839 -0.07742026 0.054050118 -0.03680506 0.048483606 -0.016742593
-0.0061183623 -0.032425236 -0.008346697 -0.052041903 0.0030812311 0.006453092 -0.058359284 -0.035533924
-0.035097115 0.027731411 0.05228499 0.014116476 -0.03593759 -0.09060836 0.114973456 -0.02604456
0.011107697 -0.049105376 -0.009350402 0.07983292 -0.006263175 -0.03319464 0.04681555 0.043222234
0.008511896 0.025023537 0.005991766 0.070503786 0.042876724 0.013845519 -0.07175172 -0.03559391
0.011060856 0.052397072 -0.00024055278 -0.12742537 -0.0530334 -0.034823515 0.05834218 -0.028014587
0.021339955 0.1076046 -0.0117252115 0.012218937 -0.020158622 0.019765722 0.047813356 0.06439529
-0.028957307 -0.015675979 -0.02498722 0.08260335 -0.015562388 0.0877252 0.14409828 0.06110886
0.05610929 0.059558738 -0.055338643 0.064300075 0.013698081 0.015996717 -0.004654233 0.085358895
0.023414735 0.03575601 0.047106754 -0.022154137 0.07000403 -0.08596602 0.0055963183 -0.01350203
0.020557612 -0.07282352 0.02456472 -0.028843656 -0.047504824 0.031380665 -0.023608191 -0.018408975
0.009129038 -0.107481636 0.031548943 -0.0027056006 0.008877788 0.04631049 0.052241333 0.059041355
-0.01732965 -0.012117306 -0.052279025 -0.10008789 -0.08672894 -0.04593028 0.033516396 -0.031310312
0.023921775 -0.07269078 -0.011076226 -0.013080536 -0.040874675 0.041224223 0.05336098 -0.021727128
-0.0426955 -0.021312013 0.00500269 0.011303879 0.022402229 0.035597917 -0.051463474 -0.023812821
-0.05799661 0.033915225 0.07937945 0.028143095 0.013524255 0.01566818 -0.0016307711 -0.02157833
0.08531513 0.0044173566 0.021163775 0.08086509 -0.036053997 -0.0018955546 0.03978408 0.001520644
-0.008128021 0.013245667 -0.09625713 -0.053916965 -0.017863171 0.009012599 -0.1027227 -0.06651226
-0.006638232 0.03109787 -0.0042978195 -0.057745006 0.024612263 0.044731937 -0.02935236 0.039563783
0.015411366 -0.066067494 -0.05056243 -0.039491925 -0.047366627 -0.09697264 0.08327354 -0.09813344

network_body._body_endoder.seq_layers.0.bias f4 [128]
00000000: 0000 0000 0000 0000 0000 0000 0000 0000
00000010: 0000 0000 0000 0000 0000 0000 0000 0000
00000020: 0000 0000 0000 0000 0000 0000 0000 0000
00000030: 0000 0000 0000 0000 0000 0000 0000 0000
00000040: 0000 0000 0000 0000 0000 0000 0000 0000
00000050: 0000 0000 0000 0000 0000 0000 0000 0000
00000060: 0000 0000 0000 0000 0000 0000 0000 0000
00000070: 0000 0000 0000 0000 0000 0000 0000 0000
00000080: 0000 0000 0000 0000 0000 0000 0000 0000
00000090: 0000 0000 0000 0000 0000 0000 0000 0000
000000a0: 0000 0000 0000 0000 0000 0000 0000 0000
000000b0: 0000 0000 0000 0000 0000 0000 0000 0000
000000c0: 0000 0000 0000 0000 0000 0000 0000 0000
000000d0: 0000 0000 0000 0000 0000 0000 0000 0000
000000e0: 0000 0000 0000 0000 0000 0000 0000 0000
000000f0: 0000 0000 0000 0000 0000 0000 0000 0000
00000100: 0000 0000 0000 0000 0000 0000 0000 0000
00000110: 0000 0000 0000 0000 0000 0000 0000 0000
00000120: 0000 0000 0000 0000 0000 0000 0000 0000
00000130: 0000 0000 0000 0000 0000 0000 0000 0000
00000140: 0000 0000 0000 0000 0000 0000 0000 0000
00000150: 0000 0000 0000 0000 0000 0000 0000 0000
00000160: 0000 0000 0000 0000 0000 0000 0000 0000
00000170: 0000 0000 0000 0000 0000 0000 0000 0000
00000180: 0000 0000 0000 0000 0000 0000 0000 0000
00000190: 0000 0000 0000 0000 0000 0000 0000 0000
000001a0: 0000 0000 0000 0000 0000 0000 0000 0000
000001b0: 0000 0000 0000 0000 0000 0000 0000 0000
000001c0: 0000 0000 0000 0000 0000 0000 0000 0000
000001d0: 0000 0000 0000 0000 0000 0000 0000 0000
000001e0: 0000 0000 0000 0000 0000 0000 0000 0000
000001f0: 0000 0000 0000 0000 0000 0000 0000 0000
0.0 0.0 0.0 0.0 0.0 0.0 0.0 0.0
0.0 0.0 0.0 0.0 0.0 0.0 0.0 0.0
0.0 0.0 0.0 0.0 0.0 0.0 0.0 0.0
0.0 0.0 0.0 0.0 0.0 0.0 0.0 0.0
0.0 0.0 0.0 0.0 0.0 0.0 0.0 0.0
0.0 0.0 0.0 0.0 0.0 0.0 0.0 0.0
0.0 0.0 0.0 0.0 0.0 0.0 0.0 0.0
0.0 0.0 0.0 0.0 0.0 0.0 0.0 0.0
0.0 0.0 0.0 0.0 0.0 0.0 0.0 0.0
0.0 0.0 0.0 0.0 0.0 0.0 0.0 0.0
0.0 0.0 0.0 0.0 0.0 0.0 0.0 0.0
0.0 0.0 0.0 0.0 0.0 0.0 0.0 0.0
0.0 0.0 0.0 0.0 0.0 0.0 0.0 0.0
0.0 0.0 0.0 0.0 0.0 0.0 0.0 0.0
0.0 0.0 0.0 0.0 0.0 0.0 0.0 0.0
0.0 0.0 0.0 0.0 0.0 0.0 0.0 0.0

network_body._body_endoder.seq_layers.2.weight f4 [128, 128]
00000000: 44c4 f8ba c760 ffbd e5e3 853d 452b eebb
00000010: 0947 d53c 17a5 273e b7b4 a7bc 57c2 d63c
00000020: b372 dbbd bac1 f83c 5980 30be 8a84 333d
00000030: 4fa6 29bd 4418 efbd 6971 3f3d 833c 03be
00000040: 6f98 a3ba 2d1a 53be f0c6 9ebc 4be2 45bc
00000050: d654 4dbd d50f f53d 2f52 9abd ded9 e6bc
00000060: 63fb 113e 90b0 e0bc 422c acbd 3a3d 61bd
00000070: 1634 243d 215a 4f3e e844 11be 27d9 223e
00000080: 90d3 f4bd 3056 68bd dbb2 44ba 4521 8bbd
00000090: 90f8 a03d 220c c13d dbe9 adbd bcdf bb3d
000000a0: 9887 e43d bec8 a4bd d9fe a33c 4917 0dbe
000000b0: 123f f6bb f4e6 b33d f24d 313e cdd7 1abe
000000c0: ef02 bebd 2243 62bd b07c 993c 51d3 d4b7
000000d0: 2996 a1bd 79a1 903c 109f 7c3d 4ace 873c
000000e0: f235 b73d 2fff bebd b168 053d 5294 a43d
000000f0: 2b2b 553d fa32 233d c47b 803c 6562 0fbe
00000100: 0964 043d b6ef 1e3c e0af 84bc dcab 573b
00000110: 858b c53d 1151 30be 8ff4 0bbe 1bb4 a8bd
00000120: c8fe fcbd 0f9e 843a 0473 da3d 88c3 293e
00000130: 25c7 38bd 3112 d03d f2c5 f93d e931 ebba
00000140: 47e4 54be 0f29 4fbd 4676 743c 5bac 6eba
00000150: 5c79 0abd b400 873c dfd6 41bd d189 fc3c
00000160: f754 053d 198f e5bd 9c73 9cbd 9044 b13d
00000170: 5cfb ae3d 4432 28be 1930 c73d 613b 5abd
00000180: 2c5b 30bd ae45 c53c 7ab2 d9bc bbf2 93bb
00000190: 408c d03a e386 ccbc 13df dfbd 4ca5 b03d
000001a0: da0e 3a3e b8dc d13d ac82 113e c8fc 9fbd
000001b0: 9c9d 283d a109 8a3c 54ad 28be f3ae e13b
000001c0: f18d b93c 65ad c43c b223 b0bd db18 f6bb
000001d0: 24f0 14bd bf42 be3b d921 dcbc e5be dc3d
000001e0: a432 f53b c024 d4bc e489 6c3d ada7 14bd
000001f0: fe94 133d 8d4b 3d3e bee8 dd3d bf85 7fbd
00000200: abb4 2fbd 6cde b6bc 6160 1c3e d6d2 41bd
00000210: 2cab e93b 64fd 97bd 8e19 373d 8cd9 7d3d
00000220: d403 323e 98d4 9ebc 8095 80bd c93e 123d
00000230: 723f a5bd c3ba 00be 4026 893e aeae ec3b
00000240: 7127 20bc 76a9 ff3c 1e50 e13c 8090 753d
00000250: 11ef 30bd d187 033c a28c 4a3e 4663 b23d
00000260: 02c9 56bd df20 34bd d7e9 edbd d547 313e
00000270: ade0 133d a5c5 793e fb66 9e3d 7a58 b4bc
00000280: fa3a 25be 19d1 263d 65e6 42be d87c 3bbd
00000290: a548 e6bd 98b7 853c 24c0 e33d 1974 96bc
000002a0: d54e 223c dd31 83bd d694 373c 8c7b 42bd
000002b0: 5b56 7b3d 4af3 4abd 91d6 b73c a77d 54bd
000002c0: 8d66 5a3c 1743 24bd 1e4b a13c 892e 423d
000002d0: 4055 293e 0070 a13d 6dce 96bd 945d a63d
000002e0: a509 61bd 8594 31bc 28f8 49bd 9951 a73d
000002f0: b35d a8bd 9ccf ce3d 3213 343e 0ef9 893d
00000300: 3a61 1e3e f7ec af3d 44b5 6f3d df04 113e
00000310: 668c d6bd 88c6 443c 0877 453c e834 aa3d
00000320: bbed c7bb d0c6 c5bd dd62 bebd 50bd 96bc
00000330: dd38 9abc 34ee d93d 5278 13bd c8b6 28be
00000340: 2849 f3bd b3b2 73bd 1178 4f3c 0a01 b239
00000350: e11c 7cbd 9805 023e aba1 9cbd 2a49 9bbd
00000360: 85c1 893d 32fa 063e 1cc7 86bb 408a 933d
00000370: ccda 9e3d 8b27 343c 4b53 1a3d ec9b ab3d
00000380: b82a 973d c26e afbd 4bbe 283d 6fc2 64bd
00000390: c6db a13d 1782 06be e311 0fbd 6a0b 79bc
000003a0: 3137 ec3d 15e3 4cbd 7914 74bd 865e 5bbd
000003b0: fe86 a1bd eeb6 acbd 978c 303c 8270 c93d
000003c0: 9c08 883d 9261 083d e57f a5be f868 9bbd
000003d0: c12f 853d 7fea 283d 03f2 833d 7e96 ddbd
000003e0: 210c 9dbc ae50 1fbe b58d 7e3d 4944 80be
000003f0: 7b08 923c 4862 88bd 45be 31be b1f4 c53d
-0.001897939 -0.12469631 0.06537608 -0.0072683417 0.026034849 0.1637157 -0.020471914 0.026215715
-0.107152365 0.030365814 -0.17236461 0.04382757 -0.04141837 -0.1167455 0.046739016 -0.12816052
-0.0012481342 -0.20615454 -0.01938197 -0.012077878 -0.050129734 0.1196591 -0.075352065 -0.028180059
0.14256053 -0.027427942 -0.08406879 -0.05499003 0.040088736 0.20249225 -0.14186442 0.1590315
-0.11954415 -0.05672282 -0.0007503458 -0.06793455 0.078599095 0.09426142 -0.0849187 0.09173533
0.11158675 -0.08046101 0.020018982 -0.13778414 -0.007514843 0.08784285 0.1731489 -0.15121384
-0.09277903 -0.055239804 0.018736213 -2.5370771e-05 -0.07889969 0.017655121 0.06167513 0.016577858
0.08945836 -0.09326016 0.032570545 0.08036102 0.05204312 0.039843537 0.015684016 -0.14002378
0.032321963 0.009700706 -0.016197145 0.0032908833 0.09645752 -0.17218424 -0.1366751 -0.082374774
-0.12353283 0.0010117906 0.10666469 0.16578496 -0.045111794 0.1015972 0.12195958 -0.0017943952
-0.20790206 -0.050576266 0.014920777 -0.00091046625 -0.033807144 0.016479827 -0.047324058 0.030827435
0.032551732 -0.11208934 -0.07639238 0.086556554 0.08544037 -0.16425425 0.09725971 -0.053279284
-0.0430557 0.024081077 -0.026574362 -0.0045150197 0.0015910938 -0.024966663 -0.1093122 0.08625278
0.18169728 0.10247177 0.14210004 -0.07811886 0.041165933 0.016850295 -0.1647237 0.0068873107
0.02265069 0.024008462 -0.08600558 -0.007510287 -0.03636183 0.0058062966 -0.026871609 0.10778598
0.0074828435 -0.02589643 0.05774869 -0.03629272 0.036030762 0.18485852 0.10835408 -0.06238341
-0.042896908 -0.022322856 0.1527114 -0.04732021 0.007131001 -0.07421377 0.044702105 0.061975047
0.17384273 -0.019388482 -0.06278515 0.035704408 -0.08068742 -0.12571244 0.26786995 0.007222972
-0.009775029 0.031208735 0.027504023 0.05995226 -0.04319674 0.008027987 0.1978021 0.08710341
-0.05243779 -0.04397666 -0.11616867 0.17312558 0.03610294 0.24391802 0.07734486 -0.022014845
-0.16135779 0.040726755 -0.19033201 -0.045773357 -0.112443246 0.016322896 0.11120632 -0.018365907
0.00990649 -0.06405995 0.011204919 -0.047481105 0.061361652 -0.049548425 0.02244118 -0.051877644
0.013330114 -0.040103044 0.019689139 0.04740766 0.16536427 0.078826904 -0.07363591 0.08123317
-0.05494084 -0.0108386325 -0.049308926 0.081698604 -0.08220997 0.10098192 0.17585447 0.067369565
0.15466776 0.08590119 0.058522478 0.14162014 -0.104759976 0.012010224 0.012052305 0.08310872
-0.0061013377 -0.09657061 -0.092962004 -0.018400818 -0.018825943 0.10641137 -0.03600342 -0.16475976
-0.11879188 -0.059496593 0.012662903 0.0003395158 -0.06155098 0.12697446 -0.07648023 -0.07582314
0.06726364 0.1318138 -0.004113091 0.072041035 0.07756576 0.010995756 0.03767709 0.08379349
0.07381195 -0.08566047 0.041197103 -0.05584949 0.079032466 -0.13135563 -0.034929167 -0.015200475
0.115339644 -0.05002125 -0.059589837 -0.05355694 -0.07887076 -0.084333286 0.010775707 0.09835912
0.06642267 0.033296175 -0.32324138 -0.075883806 0.06503249 0.041239258 0.064426444 -0.1081972
-0.019170823 -0.1555812 0.06214686 -0.25052097 0.01782631 -0.06659371 -0.17357738 0.09665812

network_body._body_endoder.seq_layers.2.bias f4 [128]
00000000: 0000 0000 0000 0000 0000 0000 0000 0000
00000010: 0000 0000 0000 0000 0000 0000 0000 0000
00000020: 0000 0000 0000 0000 0000 0000 0000 0000
00000030: 0000 0000 0000 0000 0000 0000 0000 0000
00000040: 0000 0000 0000 0000 0000 0000 0000 0000
00000050: 0000 0000 0000 0000 0000 0000 0000 0000
00000060: 0000 0000 0000 0000 0000 0000 0000 0000
00000070: 0000 0000 0000 0000 0000 0000 0000 0000
00000080: 0000 0000 0000 0000 0000 0000 0000 0000
00000090: 0000 0000 0000 0000 0000 0000 0000 0000
000000a0: 0000 0000 0000 0000 0000 0000 0000 0000
000000b0: 0000 0000 0000 0000 0000 0000 0000 0000
000000c0: 0000 0000 0000 0000 0000 0000 0000 0000
000000d0: 0000 0000 0000 0000 0000 0000 0000 0000
000000e0: 0000 0000 0000 0000 0000 0000 0000 0000
000000f0: 0000 0000 0000 0000 0000 0000 0000 0000
00000100: 0000 0000 0000 0000 0000 0000 0000 0000
00000110: 0000 0000 0000 0000 0000 0000 0000 0000
00000120: 0000 0000 0000 0000 0000 0000 0000 0000
00000130: 0000 0000 0000 0000 0000 0000 0000 0000
00000140: 0000 0000 0000 0000 0000 0000 0000 0000
00000150: 0000 0000 0000 0000 0000 0000 0000 0000
00000160: 0000 0000 0000 0000 0000 0000 0000 0000
00000170: 0000 0000 0000 0000 0000 0000 0000 0000
00000180: 0000 0000 0000 0000 0000 0000 0000 0000
00000190: 0000 0000 0000 0000 0000 0000 0000 0000
000001a0: 0000 0000 0000 0000 0000 0000 0000 0000
000001b0: 0000 0000 0000 0000 0000 0000 0000 0000
000001c0: 0000 0000 0000 0000 0000 0000 0000 0000
000001d0: 0000 0000 0000 0000 0000 0000 0000 0000
000001e0: 0000 0000 0000 0000 0000 0000 0000 0000
000001f0: 0000 0000 0000 0000 0000 0000 0000 0000
0.0 0.0 0.0 0.0 0.0 0.0 0.0 0.0
0.0 0.0 0.0 0.0 0.0 0.0 0.0 0.0
0.0 0.0 0.0 0.0 0.0 0.0 0.0 0.0
0.0 0.0 0.0 0.0 0.0 0.0 0.0 0.0
0.0 0.0 0.0 0.0 0.0 0.0 0.0 0.0
0.0 0.0 0.0 0.0 0.0 0.0 0.0 0.0
0.0 0.0 0.0 0.0 0.0 0.0 0.0 0.0
0.0 0.0 0.0 0.0 0.0 0.0 0.0 0.0
0.0 0.0 0.0 0.0 0.0 0.0 0.0 0.0
0.0 0.0 0.0 0.0 0.0 0.0 0.0 0.0
0.0 0.0 0.0 0.0 0.0 0.0 0.0 0.0
0.0 0.0 0.0 0.0 0.0 0.0 0.0 0.0
0.0 0.0 0.0 0.0 0.0 0.0 0.0 0.0
0.0 0.0 0.0 0.0 0.0 0.0 0.0 0.0
0.0 0.0 0.0 0.0 0.0 0.0 0.0 0.0
0.0 0.0 0.0 0.0 0.0 0.0 0.0 0.0

value_heads.value_heads.extrinsic.weight f4 [1, 128]
00000000: 52c7 56be 40ce 65bd b863 8fbd bfcf 57be
00000010: 096d e5bd 00f5 ea3a e654 c4bd 75b0 14be
00000020: 2a02 233e f04e 1c3e 90e8 363d f67b a4bd
00000030: cc77 ec3d a8b6 64bd 6cea b23d 804d ec3b
00000040: 708e 743c e483 8dbd 465e 423e 4095 ebbc
00000050: da78 28be 7c43 1bbd a5ec 1dbe a5e1 5bbe
00000060: b436 3a3e 9479 46be b06c db3d a8f4 eebc
00000070: aca6 323e e44e 3d3e 3867 53be 744f fa3d
00000080: a8e5 373e 066e 333e 9636 47be 3c8b 463e
00000090: 5dba 1bbe 5c65 0ebd e0f9 973b abc6 f3bd
000000a0: fcdc 23be bb57 49be b3b0 27be b4f9 42be
000000b0: c079 96bb 967e 443e 560a 0bbe c4ff f93d
000000c0: 546c 01bd 116c d7bd 5b00 21be 3849 e5bc
000000d0: 3907 40be 00bc c43a b093 b0bd 40c4 0f3e
000000e0: 82a5 39be feb3 2b3e ca71 0abe dc7b a2bd
000000f0: 8080 4bbe 0ee4 0d3e 768e 94bd c0fc 193e
00000100: c04c 89bd a8bd 393d 10ac 02be d4ae dc3d
00000110: 0801 d4bc 7a88 153e 9037 563d f01d ad3d
00000120: 0252 aabd 18c9 16be b851 f3bc 88c7 4cbe
00000130: b063 f43d 28ce 07bd c284 373e 00f4 873c
00000140: ff42 15be 9808 39bd 80a4 b23d 7e79 9bbd
00000150: e061 263e 2417 8b3d 4063 20bd b04e a9bc
00000160: b567 50be 52fe 80bd c861 a7bd 3282 2fbe
00000170: 02c1 05be 7cf8 57be d5a2 29be 6894 1fbe
00000180: 1f65 5cbe 7058 2e3e fed5 083e 0601 50be
00000190: b885 1a3d 70b8 253c cea4 debd 20e3 ff3b
000001a0: bced 13bd ce36 36be 47dc e8bd 88e3 32bd
000001b0: b64c 403e a2f6 203e 0044 70bd 20b6 033d
000001c0: d4b2 383e e4e2 3ebe f843 51bd f0dd d7bc
000001d0: a837 81bc 9817 41be e8b1 21be d65b 2ebe
000001e0: bc76 42be 16e6 2f3e 4cd0 fabd 88ca 09be
000001f0: 2a7a 1e3e 3ade 223e a705 fdbd a81e 133d
-0.20974472 -0.0561049 -0.07001442 -0.21075343 -0.112024374 0.0017925799 -0.095865056 -0.14520438
0.15918794 0.15264487 0.044655383 -0.08031456 0.11546287 -0.055838257 0.08736119 0.007211387
0.014926538 -0.06909922 0.18981275 -0.028757691 -0.16452351 -0.037906155 -0.15422304 -0.21472795
0.1818493 -0.19382316 0.1071409 -0.029169396 0.17446393 0.18487126 -0.20644844 0.12222186
0.179587 0.1752244 -0.19454417 0.19389051 -0.1520781 -0.034764633 0.0046379417 -0.11903127
-0.16002268 -0.19662373 -0.16375999 -0.19040567 -0.0045921504 0.19188914 -0.13578162 0.122069865
-0.03159745 -0.10518659 -0.15722792 -0.027989015 -0.18752755 0.0015009642 -0.08621919 0.14039707
-0.18129542 0.1676788 -0.1351997 -0.079337806 -0.19873238 0.13856527 -0.07253735 0.15037823
-0.06704092 0.045346886 -0.12760949 0.10775533 -0.025879398 0.14602843 0.052299082 0.08452976
-0.08316423 -0.14725149 -0.029702052 -0.1999799 0.119330764 -0.03315559 0.17921737 0.01659584
-0.14576338 -0.04517421 0.08722782 -0.07591532 0.16248274 0.06791523 -0.039157152 -0.020667404
-0.20352061 -0.06298508 -0.08172947 -0.1713951 -0.13061908 -0.21090883 -0.16566022 -0.15583956
-0.2152295 0.17025924 0.13362882 -0.2031289 0.03772518 0.010114774 -0.10871278 0.007809058
-0.036115393 -0.17794344 -0.113701396 -0.043674022 0.18779263 0.15719083 -0.0586586 0.03215611
0.18036968 -0.1864124 -0.05109021 -0.026350945 -0.01577361 -0.18856657 -0.15790522 -0.1702722
-0.18990606 0.17177615 -0.12246761 -0.13456166 0.1547629 0.15905085 -0.12354594 0.035917908
