results/PlayerAgentTest/TestPlayerAgent/TestPlayerAgent-67139.onnx (onnx, 275220 bytes, 7 tensors)

network_body._body_endoder.seq_layers.0.weight f4 [128, 396]
00000000: c4b8 abbd 27e8 3cbc b941 26bc d500 253c
00000010: 6229 1bbc 53a5 62bd dc18 15bd dbec 46bd
00000020: 885b 653d d040 b83c 7f53 77bc 0d32 dd3d
00000030: 3dbb bcb8 3d6f 903d 34d9 b13c d756 49bd
00000040: 77f9 04bd 1293 3fbd 05ae 483d 2063 17bc
00000050: d03e eb3c 1e64 92bc 67c1 de3d e989 8bbd
00000060: 7043 f83c c2ec 1e3b bd91 1bbd 8ce2 173d
00000070: 7e1e 773a c703 423d 35df fcbc ffcd d33d
00000080: ebeb d23c 835c 0dbd 9a13 4c3c c3fd b5bd
00000090: 1f35 a8bc 5370 b93c 3dc1 5f3c d769 aebd
000000a0: abbc a53d 4ee8 653d 95e8 9dbd b104 2e3d
000000b0: d15d 8ebc a5c2 b3bc fc53 523c 0661 74bc
000000c0: 47d4 c8bc 2dc9 093d ecb2 163d b2e8 603d
000000d0: e532 ecbd 1be3 e13c 95f0 6dbc 71f0 1b3c
000000e0: 55a4 113d 0040 a5bd 65c2 8e3c 93d7 f63c
000000f0: 3928 70bd ec1e 04be 8d7a 4abb 3b4d d93d
00000100: 07ee 843d 642b 20bb 2149 303c 26aa 8c3d
00000110: 4152 5bbd 3f0e 05bd 02f3 403c ee48 2fbd
00000120: 6c37 27bd 1ae2 2dbc 606d e4bd bbed 593d
00000130: fbcd a8bb 0775 58bb b1bd 7d3d fc26 2cbc
00000140: 3e59 48bd f0e3 a3bd 3894 3f3a e12f 673d
00000150: 22a2 b1bb 012c a23d 7a46 e53c 9409 6f3d
00000160: 6292 64bd 6d5a 6b3d 6a27 9fbc 59d2 1a3e
00000170: 5709 bd3d 6c6c 483d de05 fb3c d584 783d
00000180: c1d7 3ebd f453 043c cc63 a33d 7f3b 973c
00000190: 884e 56bc 6092 4b3e 2667 893c 3c6d d9bc
000001a0: 372d d0bd ef25 b73d 7415 babb 17b3 e2bd
000001b0: 4340 a23c 83d9 353c 99de 40bd c4ef 073c
000001c0: bd0c a43c c18a b13d c282 6abc 6bf5 3fbd
000001d0: 2ce4 ddba a041 f13d 23ac 343d 19a5 06bd
000001e0: 7fb9 44bd d4ce 7d3c 51e7 a13d a525 8bbd
000001f0: b9dc eb3b 154b aebc 0058 b3bd 2160 a4bd
00000200: f1a3 ddbd 015d 3abd 07aa 9dbc 3bed 633d
00000210: 421c e73c 08d2 f83d 8242 2ebc 8f99 433b
00000220: 8ca3 54bc 6c31 9a3b ea91 2c3d dbff 2c3d
00000230: 0c28 ccbc 9482 cf3b 4da1 fa3c 11f7 6abc
00000240: 0979 05bc ee5e 8ebd 2d76 a6bd c98a bcbc
00000250: b70d 48bd 5d9c c33c 6d34 203d f8e9 d33c
00000260: 9fa8 04be 784c 2c3d e5fb afbd aae7 743c
00000270: 4452 2bbc b46b 3e3c 4c69 983c b702 da3d
00000280: 1918 b43d 35ca a43c 7778 0e3d 351f 973d
00000290: a95c 91bd e36a 053d a7cd 953c a465 7fbd
000002a0: d37a 273d 3d69 093d 6801 49bd 12d1 e73c
000002b0: a9ed d8bc b980 97bb 06c3 2fbd b06c 03bd
000002c0: 7c82 7c3d 8170 e9bd 2b02 cf3d 63bf 953d
000002d0: 38a6 debc ce06 593b b297 9a3d 0cb2 7ebd
000002e0: ace8 0a3d b7b4 f43c 7818 0c3d 9c32 83bd
000002f0: cd6e 703b 22cf a2bc c7ce ddbd eeb4 6ebc
00000300: 21c8 8a3b 9fe3 543d 1660 94bb 2565 c63c
00000310: 8e03 39bc 6651 483d 3150 413c 5929 06bc
00000320: 70f5 523d d5a5 3a3b 69f0 ec3c e576 b3bc
00000330: ecd1 16bb f6af 8a3c f9e6 80bd 15da 8c3b
00000340: 98c8 ec3b 550e 9ebd 85f6 163a 2a50 fc3c
00000350: b0b6 2bbd d926 b7bc 5e3f 90bb 91f9 7e3c
00000360: 48ba 573d 2091 febb e2c0 12bd 6da9 623c
00000370: 179b c23c 511f 9a3c 9333 d439 70f9 cbbd
00000380: bba7 3fbd 79f3 bbbc cfeb 35ba 0ee3 53bd
00000390: c86c 9bbc 8ef7 e93d 791a c0bc 1f3a c5bc
000003a0: 41b8 ba3c b006 7dbc 322a 8dbc a194 d43c
000003b0: b2a0 8c3c d548 98bd f9e2 1cbd b383 03be
000003c0: 1167 e2bc 6df1 e13c 2d6e dfbc 0a3b 5f3d
000003d0: 3231 433c f1d5 333d a066 c23d 2148 8ebb
000003e0: 93d2 273c 12ea c83d 09fb 9f3d c598 c23c
000003f0: e3cb 00bd 6265 c9bc caf7 893d 6b7c 893d
-0.083848506 -0.011529959 -0.010147505 0.010070999 -0.009470316 -0.055333447 -0.03640066 -0.048565727
0.055995494 0.022491843 -0.015095591 0.10800562 -8.9994144e-05 0.07052467 0.021710016 -0.049155083
-0.03246447 -0.046771117 0.048994083 -0.009239942 0.028716475 -0.017870005 0.10876732 -0.06813414
0.030305594 0.0024250005 -0.037980784 0.037081286 0.0009426846 0.047366884 -0.030868152 0.10342025
0.02574726 -0.034512054 0.012455845 -0.08886292 -0.020533143 0.022636568 0.013656911 -0.08516281
0.08092626 0.056129746 -0.07710377 0.042484943 -0.01737872 -0.0219434 0.012837406 -0.01491571
-0.024515284 0.03363912 0.036791727 0.054909416 -0.11533145 0.027574113 -0.014522691 0.009517775
0.03555711 -0.08068848 0.017426679 0.03013209 -0.05863211 -0.12902421 -0.00308958 0.10610434
0.064907126 -0.0024439925 0.010759623 0.06868391 -0.05354524 -0.03248429 0.011776688 -0.04279416
-0.04082434 -0.010612989 -0.11153674 0.053205233 -0.005151508 -0.0033028738 0.061948482 -0.0105073415
-0.048913233 -0.0800246 0.0007308158 0.056442145 -0.005420939 0.07918549 0.027987707 0.058358744
-0.055803664 0.057459284 -0.019427974 0.15119304 0.09230297 0.048931524 0.030642446 0.060673553
-0.046592478 0.008076657 0.07978019 0.018460987 -0.013080247 0.19880056 0.016772818 -0.026541345
-0.10164874 0.08942782 -0.005678827 -0.11069315 0.019806033 0.011099222 -0.047087286 0.008296911
0.020025605 0.08669043 -0.014313402 -0.04686491 -0.0016928962 0.11780095 0.044109475 -0.032872293
-0.048028465 0.015491206 0.07905448 -0.067942895 0.007197943 -0.021276036 -0.08757019 -0.08026148
-0.10822285 -0.04549885 -0.019246114 0.055646162 0.028211717 0.12149435 -0.010635974 0.0029846167
-0.012978446 0.0047055986 0.042131342 0.04223619 -0.02492144 0.006332705 0.030594492 -0.014341132
-0.008146533 -0.069517 -0.08128009 -0.023015397 -0.048841204 0.02387827 0.039112497 0.025868401
-0.12954949 0.042065114 -0.08592967 0.014947811 -0.010456625 0.011622358 0.018604897 0.10645049
0.08793659 0.020115951 0.034782853 0.07378999 -0.07097752 0.03257264 0.01828654 -0.06235279
0.04088862 0.03354763 -0.049073607 0.028297935 -0.026480513 -0.0046234992 -0.0429106 -0.032086074
0.061647877 -0.113984115 0.101078354 0.07311895 -0.027178869 0.0033115628 0.07548465 -0.062181517
0.0339133 0.029871328 0.034203023 -0.06406137 0.0036687136 -0.01987416 -0.10830455 -0.014569504
0.004235283 0.05197489 -0.004528056 0.024218151 -0.011292351 0.048905753 0.011798904 -0.008188569
0.0515036 0.0028480191 0.02892323 -0.02190728 -0.0023013307 0.016929608 -0.062940545 0.0042984583
0.007226061 -0.07717577 0.000575878 0.030799944 -0.04192227 -0.022357391 -0.004402085 0.015562431
0.052667886 -0.007768765 -0.03582848 0.01383434 0.023755593 0.018813761 0.00040474217 -0.09959686
-0.04679082 -0.022943245 -0.000693974 -0.051730208 -0.01897277 0.114241704 -0.023450123 -0.024075566
0.022792937 -0.015443489 -0.017232034 0.025949778 0.01716647 -0.074357666 -0.038302395 -0.12843208
-0.027637037 0.027580941 -0.027274216 0.054499663 0.011913585 0.043905202 0.094922304 -0.0043420945
0.010243076 0.0981027 0.07811553 0.023754487 -0.03144444 -0.024584476 0.06736715 0.06713184

network_body._body_endoder.seq_layers.0.bias f4 [128]
00000000: c229 8a3b 3c03 2cbb 69e0 f1ba 115f 16bb
00000010: e6a4 183b 503a 183b 2123 8c3b ab2f 8a3b
00000020: e5b0 1039 25d8 99bb 0f82 0e3c 3a33 c2bb
00000030: f7a7 8c3b 4458 c2ba 394e 24bb 71d5 a9b8
00000040: a557 a8ba 44a6 6fba 87d8 3fbb 5d85 b5bb
00000050: a6ab 60bb 20d5 d0ba f5d0 b6bb d99e b0bb
00000060: bf4e ed3b fcae a53b c478 b63b 0dd2 ee39
00000070: 4657 d83b 02c3 dcba 6abc efba dd09 a9bb
00000080: 5189 18bb b71f 9abb 5cdb 6e3b 1241 3fbb
00000090: a6f7 3c3b 273b 373a 5cda c6b8 a3ac adbb
000000a0: ccb6 233b 9d57 0b3c 8988 3a3b 236d 97b8
000000b0: 3a65 033c 4bb1 a8ba b02d afba 9940 dd39
000000c0: 8bbf 7e3b 61f6 63ba 7df2 18bb 5dc2 40bb
000000d0: 4b3f 903a c448 f33a efc8 81bb 98fb 113a
000000e0: 9916 2a3b f462 2cb9 6317 94b9 1a5f 3abb
000000f0: 736d 4abb 47ef 37bb 97c7 5dbb 69e6 3a3a
00000100: b1c3 42bb 70ce 7fba 40cb 723b 9df6 45bb
00000110: 7870 6a3a 1b78 0d3b 0d74 41bb 8428 89bb
00000120: 9813 5b3a 5467 573b 78a7 00bb 2352 e6b9
00000130: e4cd 463b 3089 79bb a4c5 30ba 1147 923b
00000140: 036d 47bb 267f 7439 79e1 bdbb 5323 fbb9
00000150: b228 35bb 3561 9bba 4cd3 8b39 d29d 42bb
00000160: 94d7 9a3b 0ef2 adbb d7b1 9aba 87f4 3c39
00000170: f177 56ba 3e8a 1abb d08e 0ebb e4df 84ba
00000180: 5acf 82ba c2a4 9ebb 680c 363b f757 b8ba
00000190: 11b3 ceba 526c b93a 8d88 87bb ed36 32bb
000001a0: 22f9 203b e0ff 533b 7a4d b738 9349 aabb
000001b0: 311e 77ba 30c6 cc3b a9d8 49b8 acb8 8b37
000001c0: e837 45bb 620a 19ba bbd2 71ba 56b4 a6bb
000001d0: 7d21 b9b8 243d 87bb 2288 27bb 3c30 9cba
000001e0: d61e 8eba 59f0 4a3a 4335 b33b 1c08 933b
000001f0: fed8 cabb 736b f5bb cb76 5cba d971 ccba
0.0042164037 -0.0026247045 -0.001845372 -0.0022944848 0.0023291647 0.0023228116 0.0042766486 0.0042171082
0.00013798809 -0.004694956 0.008698001 -0.005926517 0.004292484 -0.0014827331 -0.0025071038 -8.0983045e-05
-0.0012843503 -0.0009141902 -0.0029273347 -0.00553958 -0.0034281998 -0.0015932657 -0.005579109 -0.00539003
0.0072420533 0.00505626 0.0055685956 0.00045551397 0.0066022007 -0.0016842785 -0.0018290405 -0.0051586465
-0.0023275206 -0.0047034877 0.0036446666 -0.0029183072 0.0028834133 0.00069897104 -9.482048e-05 -0.005300121
0.0024980782 0.008504775 0.002846273 -7.2205694e-05 0.00801974 -0.001287022 -0.0013365056 0.00042200534
0.0038871493 -0.0008696076 -0.0023337894 -0.0029412725 0.0011005191 0.0018561115 -0.0039607207 0.00055688014
0.002595341 -0.00016440061 -0.00028246184 -0.0028438033 -0.003088799 -0.0028066204 -0.0033840889 0.00071296707
-0.0029718692 -0.00097582396 0.0037047416 -0.0030206807 0.0008943151 0.002158648 -0.0029518635 -0.004185738
0.00083571067 0.0032867985 -0.001963107 -0.00043930215 0.0030335123 -0.0038076155 -0.0006743318 0.004464038
-0.0030429966 0.0002331702 -0.0057947007 -0.0004790077 -0.0027642664 -0.0011854531 0.00026669574 -0.002969612
0.004725406 -0.005308396 -0.0011802268 0.0001802017 -0.0008181325 -0.0023580934 -0.0021752603 -0.0010137525
-0.0009980008 -0.004841418 0.002777839 -0.0014064302 -0.0015769919 0.0014146662 -0.004136151 -0.0027193383
0.0024562557 0.0032348558 8.740551e-05 -0.005196759 -0.0009426801 0.0062492117 -4.8123915e-05 1.6656086e-05
-0.0030093137 -0.0005838034 -0.00092248217 -0.0050874157 -8.827725e-05 -0.0041271616 -0.002556332 -0.001191623
-0.001084293 0.0007741503 0.005468996 0.0044870507 -0.0061904183 -0.0074896156 -0.00084100355 -0.0015597894

network_body._body_endoder.seq_layers.2.weight f4 [128, 128]
00000000: 42c1 af3d 71a9 263c 03c6 f6ba 3f7d 1fbd
00000010: b6b6 f53b 9f4c cc3d ded8 64bd 9feb 7abd
00000020: 9376 043d 4f2b 063d 338d a6bb c4bd 463b
00000030: 5e08 bebd 14f1 c03d 7a1b 8b3d 48ba 2fbd
00000040: db7d d4bc bb40 31be cb55 ea3d 284a 4ebd
00000050: afd5 09be cf6c c6bd fd8f f53c a1fe 3e3d
00000060: 06ca 653e a36e 80bd c56d b8bc 1df1 d0bd
00000070: a3eb a53d 2b83 1b3e a1f1 103d eef2 93bd
00000080: 47b0 643d c1dc a33b 4df5 22bd b2c0 553d
00000090: d5f9 59bd 9cbb b03d 6869 c43b 74c9 c73c
000000a0: a00c 8fbd 6f0a 623d 1f2f f33d 4f3e 85bd
000000b0: 958d 5fbc 7b1b a23c f12a ddbd 1d65 9d3d
000000c0: 7ee1 96bd 7167 8a3d 1d92 6dbd 1d03 f53d
000000d0: f8b5 7e3d fcae 923d 0b5a c7bc b666 9bbd
000000e0: ab35 913d 6fb9 79bc 2158 3f3d ebd3 9db9
000000f0: cd61 263e 9322 afbd 9ca0 e0bc dcca 35be
00000100: fc90 0bbe 8050 693d b750 223d 4d8e 1dbd
00000110: bbf2 8ebd 1f47 f33c 3be2 213d 6f5c c83d
00000120: 3e8c 433d 23df 92bd 0bdd f1bc ab92 e1bc
00000130: 9741 f4bc 7dbb 943c 067e 803d b434 3abc
00000140: ccb3 883c 596a 26be a34c d83d 8a6e 04be
00000150: 3c24 2b3d 227f 693e fabe 563e 8f82 12bd
00000160: 75fb 0fbd 7e38 9f3d 6172 163e 3a4b ccbc
00000170: e0df 8a3a 4cc9 583d b8b1 41be 74a9 623d
00000180: e5b1 953c 77d6 a23d 0fa6 b6bd 0473 9b3c
00000190: 59c3 d7bc 0c13 463d 4803 05bd 91fb 8fbd
000001a0: 8ed4 973d f129 f23d 9ed8 d5bd 2db6 05bd
000001b0: 3ca7 1ebe e4dd cebc 3589 d13d 2e17 e03d
000001c0: cd43 a2bc 8cc7 363e 8a58 b1bd 7053 bc3d
000001d0: 0443 3cbe 2d4b 06be adb4 eabb 9508 20bd
000001e0: 5665 e73d 1d98 92bb 4ed0 28be 8c00 10be
000001f0: 2bbb 3cbd d3b8 05be a7cd b1bd b52e 46bb
00000200: ab5c cebd 7142 eb3d 4508 9b3d bfdb a8bd
00000210: ba31 aabd ca8d a7bc 4a5e 0a3e c4fc 0cbe
00000220: 93e8 3fbd a12f 853c 4a71 90bd e67d fbbc
00000230: e1db 5cbd 9a4b 1f3c eba6 733e 7388 94bd
00000240: 4dd4 9dbd 730c 823d f1fb ff3d 7756 24bd
00000250: 1f97 98bc 3df3 30be b8c3 dfbd f637 383b
00000260: 8a90 a8bc 510a d93d 0708 40bd c3d5 dc3d
00000270: 5ad5 43be d972 dfbd 639b 1abd aefd a63c
00000280: 4a2e 08bd 0949 74bd 63ef 23be 0f49 5ebd
00000290: 530b 9a3d 68f0 f73d f4a7 2a3d 8439 0cbd
000002a0: fa5d e23d 00a7 eebc 9360 893d 650e a23d
000002b0: 6ee0 1ebd db3b 603d ea87 a6bc 90d7 9d3c
000002c0: 00ce cbbd 093b 6f3a 317e e23b 49b4 133e
000002d0: e369 aabb 3b93 ebbd ae10 b0bd 50f5 28bd
000002e0: 186b 0bbd f149 a4bd dd0d 913d 2993 d0bd
000002f0: ac21 663e 35b3 ef3d 508a ad3c e211 9e3d
00000300: 20a7 fabd 0e08 d73d 827b 24be 516f d6bd
00000310: b59d 8e3d 1d9c de3d e44c 0ebd 4da4 33bb
00000320: 3199 c23d 2a17 13bd 0494 19bd acf9 58be
00000330: d477 29bd a3dd 453d 5671 43bd 0cf5 83bd
00000340: 83a6 ca3d 4861 e23d 7a65 03bd 8641 e03d
00000350: 5fe5 29bc a266 703e 6d91 fbbd b748 a5bd
00000360: 23a9 2abe 894a 3fbd 17e4 a9bd 1a5b dabb
00000370: f884 903c 4254 fb3d 73cc cdbb 53c1 dfbd
00000380: 99d0 913c 2fda 983c b6bb 5c3d 24b8 713c
00000390: d35f cebd 1066 813d a8e4 8a3d bc8a 50bd
000003a0: 2c8e 683e 0995 ba3d 874d 3bbc f979 1d3e
000003b0: 378e e4bd df04 e8bd 365b 2a3c e973 bcbd
000003c0: aa93 98bd 735c 173d 7d6b 94bc 2805 493e
000003d0: 2990 3ebd d3ca 53bd 048a 1c3e 4c28 073e
000003e0: 91b3 4fbe c747 3ebd 8a6a 783c 0bac 24be
000003f0: caee 72bd 3d58 3c3d b0d6 adbc e8fb ef3c
0.08581783 0.010172234 -0.0018827323 -0.038937803 0.0074985875 0.09975552 -0.055870883 -0.061259862
0.032339644 0.032756146 -0.00508275 0.0030325511 -0.0927894 0.09420982 0.0679235 -0.04290226
-0.025938919 -0.17309849 0.11442145 -0.05036369 -0.1346042 -0.09688722 0.029975886 0.04662955
0.22440347 -0.06271102 -0.02251328 -0.10202239 0.08101585 0.15186755 0.035386685 -0.072240695
0.055832174 0.005000681 -0.03978472 0.05218572 -0.053216774 0.08629534 0.0059940107 0.024388053
-0.0698483 0.05518573 0.11874222 -0.06506025 -0.013644596 0.019788494 -0.10799206 0.076853015
-0.07367228 0.06758011 -0.058000673 0.119634844 0.062185258 0.07162282 -0.024334928 -0.0758795
0.070903145 -0.015241965 0.046714906 -0.00030103265 0.16248246 -0.085515164 -0.027420335 -0.17753166
-0.13629526 0.056961536 0.039627757 -0.038465787 -0.06979891 0.029697 0.03952239 0.09783255
0.047741167 -0.07171466 -0.029524347 -0.027535757 -0.029816432 0.018155808 0.06274037 -0.0113651045
0.016687296 -0.16251506 0.10561492 -0.12932792 0.041782603 0.22802404 0.2097129 -0.03576904
-0.035151917 0.07774447 0.1469207 -0.024938215 0.0010595284 0.052926347 -0.1891545 0.055337384
0.018273303 0.07951062 -0.08918392 0.018975742 -0.026338266 0.04835801 -0.032473832 -0.07030404
0.074135885 0.11824406 -0.10441707 -0.03264444 -0.15493482 -0.02525229 0.10231248 0.10941921
-0.01980772 0.17849559 -0.086594656 0.09195602 -0.1838494 -0.13114615 -0.0071626515 -0.039070684
0.11298625 -0.0044736997 -0.16485712 -0.14062709 -0.046076935 -0.13058786 -0.08681803 -0.0030240242
-0.10076269 0.11487282 0.07569937 -0.08245038 -0.08310266 -0.020453352 0.13512531 -0.13768297
-0.04685266 0.016258063 -0.07052858 -0.030699681 -0.05392063 0.009722615 0.23794143 -0.07252588
-0.07706509 0.06350031 0.12499226 -0.04012152 -0.018626748 -0.17280288 -0.10926002 0.0028109527
-0.020576734 0.10597671 -0.046882655 0.10782959 -0.19124356 -0.10910577 -0.037745845 0.020384636
-0.03324727 -0.059639964 -0.16009288 -0.054268893 0.07521691 0.12106401 0.04166408 -0.03423454
0.11053081 -0.029132366 0.06707873 0.07912902 -0.03878825 0.054744583 -0.02032848 0.019267827
-0.09951401 0.00091259234 0.006912016 0.14424242 -0.005200611 -0.11502691 -0.085969314 -0.041249573
-0.03403768 -0.08021916 0.07082722 -0.101843186 0.22473782 0.11704103 0.021184117 0.077182546
-0.12238908 0.10499583 -0.1606274 -0.10470451 0.06963674 0.1086962 -0.034741297 -0.0027411163
0.09501875 -0.035910763 -0.037494674 -0.21188992 -0.041374043 0.048307072 -0.047715507 -0.06443223
0.09895041 0.11053711 -0.032079197 0.109499976 -0.010369628 0.23476651 -0.12283597 -0.0807051
-0.16666083 -0.04670194 -0.08295458 -0.006663692 0.01764153 0.1227193 -0.0062804758 -0.109255455
0.017799662 0.018658726 0.053889953 0.014753375 -0.10076871 0.06318295 0.06781894 -0.050913557
0.22710484 0.091104575 -0.011432058 0.1537856 -0.11159938 -0.11329054 0.010397723 -0.092017956
-0.0745004 0.0369534 -0.01811766 0.19630873 -0.0465242 -0.0517071 0.15287024 0.13198966
-0.20283343 -0.04645517 0.01516212 -0.16081254 -0.05930976 0.045982588 -0.021220535 0.029294923

network_body._body_endoder.seq_layers.2.bias f4 [128]
00000000: 09b3 403a 2097 13bb e682 213b fadb 3a3a
00000010: ccdc a5bb 77bc c4b9 4e0a e0ba 966f 5d3a
00000020: 9736 05bb 3e54 753c 8ebe fb39 a1f6 02bb
00000030: 66eb ba3b 65b8 bdba 1175 a43b 669d 143b
00000040: 0cad 78bb 912f eaba bc7b a3ba 1a12 1c3c
00000050: 7cb8 87bb 8b05 26bb aa9a a5ba 2938 47ba
00000060: 5509 01bb b601 11bb 7580 21ba 18db e6ba
00000070: 64a3 3d3a 1f18 cdb9 0bdd 1bbb 073b 443a
00000080: 5405 a83b e215 f33b 3eef a3bb f06d 083a
00000090: bbc5 aa3b 2e80 dbba 2b1e a5bb 807f ba3a
000000a0: ffe2 3bbb 3c35 b039 d0e7 953b 8126 103a
000000b0: d123 55ba 6867 51bb da7a 8e3b 43cf 5cba
000000c0: 7b37 51b9 6905 afb8 3112 cdbb e061 73ba
000000d0: a7dd 053c 6673 ac39 fe87 22bb 7d67 0f3b
000000e0: a378 49bb a411 2b3b aab1 a03a 9f0a 99bb
000000f0: 91cb 0bbb 608a a93a 2c41 19ba a4bb 29ba
00000100: 4ced 3139 0709 09bb cdad 3ebb 5d7a 51b9
00000110: 4a92 30b8 b8f2 c1b9 947c ae3a 01fe f6bb
00000120: e518 9d39 2658 59bb 572d 8dbb c691 04bb
00000130: deb3 92bb 6273 abbb 16f2 873a 9e54 40bb
00000140: 715b bcba c000 393b 5358 f53b 0220 acba
00000150: 7ffb 84ba bff3 8738 6c8d b6ba 7188 f3ba
00000160: a77c 4ebb 0a32 6ebb 4588 773a 3a0e 74bb
00000170: b88b 8d3b 88f3 d93b 7906 373c ae4d 9e3b
00000180: c8cd 9d3a 6ca1 3bbb f874 623b 4b20 71bb
00000190: f4d6 87bb 025a 1dbc 04b9 e2ba ae50 7e3a
000001a0: 2d7c 143b 5325 01ba 3376 e7bb 4d03 a2bb
000001b0: dcef 873b c88f 6638 6467 263b d528 b43b
000001c0: 1ae5 703b ede0 0a3c 2786 c7ba 1fa4 0b3b
000001d0: 72db f7b9 9ebc 4e3b 0ece a0ba 1ebf 2cba
000001e0: c204 75ba ffd3 7c3b 37c1 05bb aa43 a4b9
000001f0: 1e3e 133a 48ab 6eba 366e 8bba bc38 94b9
0.0007350897 -0.0022520497 0.0024644672 0.0007128116 -0.0050617214 -0.0003752445 -0.0017092915 0.00084471086
-0.0020326728 0.014973698 0.00048016425 -0.0019983428 0.005704331 -0.001447451 0.005018838 0.0022676825
-0.003794494 -0.0017866959 -0.0012472789 0.0095258 -0.0041418653 -0.0025332894 -0.0012634594 -0.0007599616
-0.00196894 -0.0022126264 -0.0006160804 -0.0017612902 0.0007234125 -0.0003911862 -0.0023782875 0.00074856024
0.0051275883 0.00741838 -0.005002885 0.000520437 0.0052115596 -0.0016746575 -0.0050389967 0.0014228672
-0.0028669236 0.00033609 0.0045747533 0.00054989016 -0.0008130642 -0.0031952504 0.004348141 -0.00084232184
-0.00019952461 -8.345658e-05 -0.006258272 -0.0009284299 0.008170522 0.00032892375 -0.0024800296 0.0021881752
-0.003074207 0.0026103044 0.0012259979 -0.0046704556 -0.0021331052 0.0012934916 -0.0005846198 -0.0006474799
0.00016968435 -0.0020909922 -0.0029095293 -0.00019977377 -4.2097912e-05 -0.00036992668 0.0013312274 -0.007537604
0.0002996392 -0.0033164113 -0.0043083834 -0.002022849 -0.0044770082 -0.0052322606 0.001037183 -0.002934731
-0.0014370513 0.0028229207 0.0074873357 -0.0013132098 -0.0010145752 6.482703e-05 -0.0013927645 -0.0018580091
-0.0031507404 -0.0036345744 0.0009442608 -0.0037239925 0.0043196343 0.0066513456 0.011170977 0.0048310375
0.0012039477 -0.002863015 0.0034554582 -0.003679293 -0.0041454975 -0.009603979 -0.0017297571 0.0009701353
0.0022657022 -0.0004926521 -0.007063651 -0.004944241 0.0041484665 5.497018e-05 0.0025391215 0.0054980316
0.003675765 0.008476478 -0.0015222476 0.002130754 -0.0004727501 0.003154553 -0.001226844 -0.0006589758
-0.0009346717 0.0038578508 -0.0020409354 -0.0003133093 0.0005616861 -0.00091045024 -0.0010637704 -0.0002827103

action_model._continuous_distribution.log_sigma f4 [1, 6]
00000000: fd66 35bc 8add d4bb 05d1 103b aa46 8abb
00000010: 2b4d 7abb 4446 32ba
-0.011071918 -0.006496136 0.0022097242 -0.0042198496 -0.0038192968 -0.00068006315

action_model._continuous_distribution.mu.weight f4 [6, 128]
00000000: f696 96bc 7de5 c9bc ed71 29bb b907 943c
00000010: 4172 da3c 69cf e4bc 21a6 5c3c d20f 7ebc
00000020: da4b d53c de10 6bbc 970c 25bc bc6f 493c
00000030: 3ca4 a5ba 66c4 88ba 7164 e139 98b7 e23b
00000040: 9ef4 c83b 8165 c43b be64 653a abf8 18bc
00000050: f275 e93c 759f 003c c081 4fbc b6fd cabc
00000060: 3358 2d3b f22d 9dbc 8374 88bb a94a dc3c
00000070: a3a3 4fbc f661 81bc aa2d 01bc c76d a7bc
00000080: ae2b 643c d732 51bc e323 d63a f3d4 733a
00000090: 7eb3 b1ba 6fef eabc 3fc0 3d3c 39a2 233c
000000a0: c7db ac3c 35cd 513c 5dfe b93a a079 c93a
000000b0: 5255 c9bb c99d 2e3d e150 f6bc f659 8ebb
000000c0: 6346 28bd 33ab 423d 852a 843b 78d2 5d3b
000000d0: bf0b b5bb c6d9 17bd 16d9 00ba dda0 a4bc
000000e0: ae24 01bc a0ab babb be85 583a 555c 7b3c
000000f0: 941b dc39 1ba3 703b 6292 883a b8cb afbc
00000100: 6515 123b 606e b5bc 69ee c43c 81a6 0dbc
00000110: a18c 72bc 589d 543c b847 e03c bec9 c23c
00000120: 0106 afbc 43d3 353c 2b26 c83b 23f7 453c
00000130: de84 5c3b d47c 43bc 8a06 ea3b aaef de3b
00000140: fb2f dbbc 81d3 523b d63d e0bb 12bf 063c
00000150: 6e1b ee3c eabf 293c b340 b03b 8fae 15bc
00000160: c0ee 0a3d 02e0 9d3c 3be7 98bc 1f58 293d
00000170: 61b4 bbbc eced 90bc 25c4 05bb 3adf 183c
00000180: f02e cfbb 3f89 083c fb1a 23bb f9b5 013c
00000190: ab5c 6dba da38 183c 0e8c 96b8 a20a 0cbc
000001a0: ad56 06bd 5fd3 b8bc f761 f1bb a125 473c
000001b0: ff3b 7c3b 98fd 8cbc 76da 8a3c dbfa 9bbc
000001c0: ce3f f4bb 65b6 013b dba9 8e3c f45c 17bc
000001d0: cb08 ae3b bc54 02bb e322 8f3b 691e 5ebc
000001e0: 2bec 893b d2cf 023c 61ae 873c fb3f 1dbc
000001f0: 97c0 1ebc 5b25 17bc 4013 80bc 9dc5 af3a
00000200: 144f b7b9 137a 79bc 5aed f03b a76f bd3c
00000210: 2144 04bb 9cdc babc 0de5 54bc 1ad7 6b3c
00000220: 61c5 3fbc 3577 413b 519f 193c ec87 7bbd
00000230: fe1f cf3c e792 fdb8 c0f3 933c 0a12 f73c
00000240: c803 7cbc 6058 51bc 580e 3b3a 8d5e de3c
00000250: 9c3c 6eba db41 abbc 994e 9b3b 1ecd 4eb9
00000260: 9c3c 7c3b 3e34 b7bc eebf 5bbc d7a4 58bc
00000270: b7a9 c5bc 56a3 0ebc c26a 08bc 7f2c f03a
00000280: 9924 8e3c 91c3 bd3c 3743 f9bc b6e3 033a
00000290: b30f 093c 0a09 f2bc 81bb b1bc 02e6 413d
000002a0: 759d 7c3c 5f67 733c e738 1d3d b68c 143c
000002b0: 1a9a b7bc ce31 8ebc 7d9f 113d 3f1c 533a
000002c0: fb69 bf3b 9d50 623a e1f7 b7bb c35d 663c
000002d0: 7cf1 d73c 8dfd 333b b48a cd3a 8c5a fbba
000002e0: 6fdb abbb d90a a63c 91a6 20bd c40b 03bb
000002f0: edcc 443c e584 493c 08c7 8d3c 066f 193b
00000300: 036a 313c c9f4 19bc 5c7f 9f3b c334 3abc
00000310: 79f4 bbbc a66d 793c 1076 1e3d ebe5 aebc
00000320: 6420 cdbb 78ad 75bb 41ce aabc 3a08 bfbc
00000330: 2795 2bbd 7478 7fbc 842c 143d 61c9 f5bb
00000340: 5ed0 d1bc 5ae7 06bc 9844 173d 6633 8d3b
00000350: 37c6 bc3c 47a6 02bc a0c5 3cb6 27bd 263b
00000360: 5cc2 f23b 072f 9bbc e776 d23c 1959 04bc
00000370: a8dd d43c 7cd6 6e3c 3078 803c 1336 c43c
00000380: 9245 aa3c a445 d03c 9d2d d73c d7ce d8bc
00000390: aab7 b1bc d76b 9bbc 82b6 a5ba 0bc9 0dbb
000003a0: afe3 883c 069a 15bc 674a 18bd d0cf a7bc
000003b0: aead 8b3c d2ec ef3b e34d 7e3c ce4e 973c
000003c0: cb54 603b f200 103c be3f 0938 72eb 10bc
000003d0: ae91 553c 962a b33c f9e9 81ba 8292 643c
000003e0: 8a4a acbb 212a 6bbc 1c8f 9e3c 2129 12bc
000003f0: 5966 983b d674 723c a349 f1bc 3cdd e33b
-0.01838253 -0.024645561 -0.0025855259 0.018070089 0.026665809 -0.027930932 0.013467343 -0.015506702
0.026037145 -0.014347283 -0.010073802 0.012294706 -0.0012637447 -0.0010434508 0.0004299018 0.0069188587
0.0061326763 0.0059935455 0.00087506685 -0.009336631 0.028498624 0.0078505175 -0.012665212 -0.024779182
0.0026450276 -0.019186947 -0.00416428 0.02689107 -0.012673291 -0.015793782 -0.007884422 -0.020438088
0.01392643 -0.012768469 0.0016337599 0.0009301446 -0.0013557521 -0.028678624 0.01158148 0.009987407
0.021100892 0.012805273 0.0014190186 0.001537133 -0.006144204 0.042630944 -0.030067863 -0.0043442203
-0.04108275 0.04752655 0.004033389 0.0033847373 -0.005525082 -0.03707292 -0.0004915161 -0.020096237
-0.00788228 -0.005696729 0.0008259675 0.015341838 0.00041982217 0.0036718312 0.0010419602 -0.021459445
0.0022290584 -0.022147357 0.024039464 -0.008645655 -0.014804036 0.012976967 0.027377948 0.023777839
-0.021365168 0.011097732 0.0061080656 0.012082848 0.003364853 -0.011931617 0.007141893 0.0068034725
-0.026756277 0.0032169523 -0.006843309 0.008224266 0.029065814 0.010360697 0.0053788065 -0.009135856
0.033919096 0.019271854 -0.018664947 0.041343804 -0.02291316 -0.017691575 -0.00204111 0.009330565
-0.006322734 0.008333503 -0.0024887908 0.007916921 -0.0009054641 0.009290898 -7.1786446e-05 -0.008547457
-0.032797504 -0.022561727 -0.0073664146 0.0121549675 0.003848791 -0.017210767 0.016949873 -0.019040516
-0.007453895 0.0019792554 0.017414978 -0.00923847 0.005311107 -0.0019886931 0.0043681725 -0.013557055
0.0042090616 0.007984119 0.016562643 -0.009597774 -0.009689472 -0.009225215 -0.01563418 0.0013410334
-0.00034963398 -0.015226859 0.0073525133 0.023124529 -0.002018221 -0.022810273 -0.012994063 0.014394546
-0.011704774 0.0029520516 0.009376363 -0.061408922 0.02528381 -0.00012091343 0.018060565 0.030159969
-0.015381761 -0.012777418 0.0007135621 0.027144695 -0.0009088011 -0.020905426 0.004739594 -0.00019722103
0.0038488274 -0.022363778 -0.013412459 -0.013222895 -0.024128778 -0.0087059345 -0.008326234 0.0018323808
0.017351435 0.023164542 -0.030427558 0.0005031185 0.008365559 -0.029545326 -0.021695854 0.047338493
0.0154184 0.014856189 0.038384344 0.009066751 -0.022412349 -0.017357733 0.03555249 0.000805322
0.0058414913 0.0008633228 -0.0056142663 0.0140604405 0.026360266 0.002746436 0.0015681596 -0.0019176765
-0.0052446644 0.020268844 -0.03922135 -0.0019996027 0.012011749 0.012299751 0.01730682 0.0023412122
0.010828498 -0.00939674 0.0048674773 -0.011365118 -0.022943722 0.015223896 0.038686812 -0.021349868
-0.006259965 -0.0037487429 -0.020850303 -0.023319352 -0.04189029 -0.015592683 0.036175266 -0.007500813
-0.025612053 -0.008233869 0.03693065 0.0043091057 0.023043735 -0.007974214 -2.8129216e-06 0.0025442333
0.0074084233 -0.018943323 0.025691463 -0.008077883 0.0259846 0.014577504 0.01568231 0.023951566
0.020785127 0.025423832 0.026266867 -0.026465816 -0.021694023 -0.01897232 -0.0012642893 -0.0021634724
0.01671013 -0.00913096 -0.03718033 -0.020484835 0.01705059 0.0073219324 0.015521499 0.018470194
0.0034230228 0.008789288 3.272271e-05 -0.008845197 0.013035221 0.021870892 -0.0009911648 0.013950946
-0.005257909 -0.014353306 0.01935535 -0.008920939 0.0046508727 0.014798364 -0.029454058 0.0069538634

action_model._continuous_distribution.mu.bias f4 [6]
00000000: ed67 41bb 8b56 b03b 0de7 dd3a 37f6 2d38
00000010: c243 81ba 3722 0a3b
-0.0029511407 0.0053814105 0.001692982 4.147572e-05 -0.0009862112 0.0021077523
