results/PlayerAgentTest/TestPlayerAgent/TestPlayerAgent-5215.pt (torch, 550249 bytes, 12 tensors)

network_body._body_endoder.seq_layers.0.weight f4 [128, 396]
000000 02 3e 40 3d e2 e5 b5 bd 1c 07 96 bd 4d b3 67 3d
       0.046934135 -0.08881737 -0.07325575 0.05656748
000010 e7 63 7d bc 21 df 74 3c 61 fb fc bc c6 2b 43 bc
       -0.015465713 0.014945776 -0.030881586 -0.011912292
000020 44 2f aa bc 35 d8 83 bd 08 1c 25 3d 66 3e a7 bd
       -0.020774491 -0.064377226 0.040309936 -0.081661984
000030 d1 40 87 3d 34 81 0e bd 9a a7 45 3d 84 14 c8 bd
       0.066041596 -0.034791186 0.04825554 -0.09769538
000040 4c 47 e0 bd ad 14 b0 38 d1 55 d8 bd ed d9 53 3d
       -0.10951099 8.396185e-05 -0.10563243 0.051721502
000050 eb d7 a6 bc 28 a6 71 bb 5f 26 5b bc 5a bc 3a 3d
       -0.02036663 -0.0036872718 -0.013375848 0.045589782
000060 f8 90 e5 bb 23 0f aa bc f2 1e 6a 3d 02 fb b8 3d
       -0.007005807 -0.02075917 0.057158418 0.09032251
000070 93 7c 20 bc ce d2 8e bd da 0c fe 3c bc 74 41 3d
       -0.009795326 -0.069738016 0.031011987 0.047230467
000080 f9 56 29 3c 14 e2 90 bd 2f b3 84 bc c3 1f 96 3c
       0.010335677 -0.07074371 -0.016198723 0.018325692
000090 c1 0e 1e 3d 83 a9 82 bc 15 25 d3 bc 15 4a 42 bd
       0.03858829 -0.01594997 -0.025774518 -0.04743393
0000a0 93 56 e6 3c f2 ce 60 bd f6 61 21 bd af 19 98 3c
       0.028117454 -0.05488486 -0.039400063 0.018566934
0000b0 a0 83 7e bc 27 ad 40 3d dc 36 60 3d 59 3c 8f bd
       -0.0155343115 0.04704013 0.054739818 -0.06993932
0000c0 8b 09 4c bd 5f f8 05 bd 90 8e 85 bd fc e0 02 3d
       -0.04981379 -0.03270757 -0.06521332 0.031952843
0000d0 d0 4d 7b bb 1d 91 0f 3e 51 05 0e 3b ed 70 5d bd
       -0.003834594 0.140202 0.002167065 -0.054062773
0000e0 59 52 a5 3c 1f 7f b0 bc af dc b2 3d 24 8c 92 3d
       0.020180868 -0.021544991 0.08733498 0.07155636
0000f0 43 cf 86 3d e8 db c0 3c 87 5b 1d 3d a5 50 d6 ba
       0.06582501 0.02354236 0.038417365 -0.0016350938
000100 00 94 69 bd d3 58 42 3d 24 f9 ab bc 06 76 91 bd
       -0.05702591 0.04744799 -0.020992823 -0.07102589
000110 03 82 99 3c c6 8b f0 3b 9e ff 84 bc dd 3e 04 3e
       0.018738752 0.007340881 -0.016235169 0.12914605
000120 c6 00 40 bd f3 13 43 3d 2c 4c f7 bc b2 f2 1a 3d
       -0.046875738 0.047626447 -0.030187689 0.03782911
000130 83 0b 0c 3b e1 c4 ab bb 6f 89 44 bb bf f3 23 3b
       0.0021369166 -0.0052419757 -0.0029989143 0.002501711
000140 24 3e 54 bd dd d9 06 bc c1 c5 22 3b ed 1e f3 bc
       -0.051817074 -0.008230654 0.0024837109 -0.029677832
000150 9f 43 a8 bc 62 89 0a bd b7 18 f3 bc 95 b4 c8 bc
       -0.020540057 -0.033822425 -0.02967487 -0.02450017
000160 c3 31 d9 3c a8 76 f4 bc 81 c8 48 3d 47 c7 87 bd
       0.026512986 -0.029841736 0.04901934 -0.06629806
000170 0f d4 8e bd 33 58 f8 3c 65 5b a6 bb 1c e5 3a 3d
       -0.06974041 0.030315494 -0.005076813 0.045628652
000180 a5 9b 5a bd 5f 87 2b 3c 17 01 ce 3c f1 6a 31 3c
       -0.05337109 0.010469287 0.025147004 0.0108287195
000190 2e 9c 02 bd 45 bf af bc 00 79 80 3c 51 67 a0 3c
       -0.031887226 -0.02145351 0.015682697 0.019580515
0001a0 a4 95 a5 bc ba 04 ed bd 3e 94 29 3d 18 13 75 bc
       -0.020212956 -0.11573167 0.04140114 -0.014958166
0001b0 91 75 bc bd a9 76 c6 bd 45 18 95 bc ae 5f 72 3d
       -0.092021115 -0.096906014 -0.01820005 0.05917328
0001c0 86 0b fa bb 1f 75 2d bd c2 8f 52 bb d5 7e 92 3b
       -0.007630768 -0.042348024 -0.0032129143 0.004470686
0001d0 5d f5 8c 3d 0e 5f c7 3c 48 6b 80 3d 4a 87 40 3d
       0.06882737 0.024337318 0.06270462 0.04700402
0001e0 2b e3 47 3c 88 d5 62 bd f7 bb 29 bd b5 a3 df bd
       0.012200157 -0.05537942 -0.041439023 -0.109198965
0001f0 92 65 f1 3c b7 b5 3c 3c de f1 92 bd 32 3d 14 bd
       0.029467378 0.011517934 -0.07175039 -0.036191173
000200 b0 fc 07 bd da 0f 8a bc 0c a2 ce bd 51 c3 03 be
       -0.033199966 -0.016853262 -0.10089502 -0.12867476
000210 f7 96 b8 3d f4 0a 57 3c f1 ee d2 bb 8f 12 7d 3d
       0.09013169 0.01312517 -0.0064371754 0.061785277
000220 3a 2d ab 3d a8 ca 5e bd 04 7f 3b bd 93 a5 c0 bb
       0.08358236 -0.054392487 -0.04577543 -0.005879113
000230 47 8c ad 3c 87 8f 23 bd a6 43 c8 bd cb c4 81 3d
       0.021185054 -0.0399318 -0.09778528 0.063363634
000240 c2 a2 27 bd 2b 5f af bd d4 56 c1 38 3f f7 ec 3c
       -0.040926702 -0.08563074 9.21913e-05 0.02892649
000250 91 0a bd 3c 1c 53 cc bb ed bc 2c 3d 25 7d 8b bc
       0.023076328 -0.0062354933 0.04217236 -0.017027447
000260 9d 82 d7 3b 99 4e 4b 3d 06 05 cf 3a 08 6a 71 bc
       0.0065768496 0.049635503 0.0015794344 -0.0147347525
000270 ed 35 49 bc 71 69 b4 bc 09 d5 02 3d 90 b6 2a bd
       -0.012280923 -0.022022935 0.031941447 -0.04167801
000280 fa 28 0a 3d b7 73 8f 3b a7 f1 1a bc 50 e8 c2 3d
       0.033730485 0.004377808 -0.0094570285 0.09516966
000290 08 a0 ae bc 4e 1c b1 bb e8 c0 bf 3c 46 1f 39 bd
       -0.021316543 -0.0054049855 0.023407415 -0.04519584
0002a0 e3 ef 93 bd c4 dd 1b bd 10 dc 20 bd 4d e5 bb 3d
       -0.07223489 -0.03805329 -0.039272368 0.09174595
0002b0 b1 95 67 bd 4e 62 06 be 81 9b 00 3e d1 8a da bc
       -0.05653924 -0.13123438 0.1255932 -0.026677521
0002c0 46 c7 13 3d 0d da dc bc 0a a1 44 bb f0 3c 5c 3d
       0.036078714 -0.026959443 -0.0030003213 0.053769052
0002d0 7e 93 08 3d 31 14 20 ba b4 00 38 bd b9 3d 97 bd
       0.033343785 -0.00061065244 -0.044922546 -0.073848195
0002e0 36 be 57 3c ae 73 a7 bb d6 c8 4d bd 8e eb 6c 3d
       0.013167908 -0.0051102256 -0.05024036 0.05784183
0002f0 cc 24 ae bc e8 e9 4d 3d 37 18 83 3d 69 32 31 3c
       -0.02125778 0.0502719 0.06401103 0.010815241
000300 92 4b 43 3d f3 15 98 bc 87 2e 8d 3c e3 a4 64 3c
       0.04767949 -0.018565154 0.0172341 0.013955328
000310 38 2e 96 ba fd 41 0d bd bb d1 54 3c c7 bb 75 bb
       -0.0011457866 -0.03448676 0.012989457 -0.0037495957
000320 bd 46 2b bc 91 6d 22 3d df f8 22 3d c4 cb 08 3c
       -0.010453877 0.039655272 0.039788123 0.008349363
000330 f7 9a 24 be d9 6f e5 bc 80 10 83 bd 42 a0 c4 bc
       -0.1607474 -0.028007435 -0.063996315 -0.024002198
000340 40 d0 c6 bc 90 36 08 be 61 fb 9e bd 06 6e d1 bd
       -0.024269223 -0.13302064 -0.077627905 -0.102260634
000350 5b 6b 72 3d cb ad ab 3c f4 b0 73 3c 35 9b 91 bc
       0.059184413 0.020956894 0.014873732 -0.017774204
000360 b2 5a 26 3c 05 28 8a bc fb b9 37 3c 1c 33 09 bd
       0.010153459 -0.016864786 0.011213775 -0.033496007
000370 9a ad 5c bd c9 d5 4f bd 0a c9 0c 3d 79 e7 0d 3d
       -0.053876497 -0.05074099 0.034371413 0.034644578
000380 ae 4d ae 3c 26 1f 2b bd 4c cb 36 3d 9b d4 23 bc
       0.021277275 -0.041777752 0.044627473 -0.00999942
000390 2f 2a 50 bd 34 41 9e bd b4 35 26 bd 7a 1c 09 bd
       -0.05082148 -0.0772728 -0.04057856 -0.033474423
0003a0 e0 ce e6 bc 39 f7 00 be ca 16 62 3d 91 ca ea 3c
       -0.028174818 -0.12594308 0.055197515 0.028661044
0003b0 4d c1 ac bd 05 9c fb bc 4d 6b 98 3d 4a e9 5c bd
       -0.08435307 -0.030714044 0.07442341 -0.05393342
0003c0 ff c8 0c bd 8b 16 47 3c 83 ad 6a 3d d1 21 0d 3d
       -0.034371372 0.012151371 0.05729438 0.034456078
0003d0 80 2c 41 bc d1 77 8e bb 42 db 08 3d c2 7d 8e bd
       -0.011790395 -0.0043477793 0.033412226 -0.0695758
0003e0 10 c6 bf 3d 2d de 9d bd 2b e3 36 3d 5a ba 64 bd
       0.09363949 -0.07708392 0.044650238 -0.05584178
0003f0 9b c9 60 bd 1a da 81 3d 14 cc 62 3d 21 8f 94 bd
       -0.054879766 0.06340428 0.055370405 -0.07253862

network_body._body_endoder.seq_layers.0.bias f4 [128]
000000 00 00 00 00 00 00 00 00 00 00 00 00 00 00 00 00
       0.0 0.0 0.0 0.0
000010 00 00 00 00 00 00 00 00 00 00 00 00 00 00 00 00
       0.0 0.0 0.0 0.0
000020 00 00 00 00 00 00 00 00 00 00 00 00 00 00 00 00
       0.0 0.0 0.0 0.0
000030 00 00 00 00 00 00 00 00 00 00 00 00 00 00 00 00
       0.0 0.0 0.0 0.0
000040 00 00 00 00 00 00 00 00 00 00 00 00 00 00 00 00
       0.0 0.0 0.0 0.0
000050 00 00 00 00 00 00 00 00 00 00 00 00 00 00 00 00
       0.0 0.0 0.0 0.0
000060 00 00 00 00 00 00 00 00 00 00 00 00 00 00 00 00
       0.0 0.0 0.0 0.0
000070 00 00 00 00 00 00 00 00 00 00 00 00 00 00 00 00
       0.0 0.0 0.0 0.0
000080 00 00 00 00 00 00 00 00 00 00 00 00 00 00 00 00
       0.0 0.0 0.0 0.0
000090 00 00 00 00 00 00 00 00 00 00 00 00 00 00 00 00
       0.0 0.0 0.0 0.0
0000a0 00 00 00 00 00 00 00 00 00 00 00 00 00 00 00 00
       0.0 0.0 0.0 0.0
0000b0 00 00 00 00 00 00 00 00 00 00 00 00 00 00 00 00
       0.0 0.0 0.0 0.0
0000c0 00 00 00 00 00 00 00 00 00 00 00 00 00 00 00 00
       0.0 0.0 0.0 0.0
0000d0 00 00 00 00 00 00 00 00 00 00 00 00 00 00 00 00
       0.0 0.0 0.0 0.0
0000e0 00 00 00 00 00 00 00 00 00 00 00 00 00 00 00 00
       0.0 0.0 0.0 0.0
0000f0 00 00 00 00 00 00 00 00 00 00 00 00 00 00 00 00
       0.0 0.0 0.0 0.0
000100 00 00 00 00 00 00 00 00 00 00 00 00 00 00 00 00
       0.0 0.0 0.0 0.0
000110 00 00 00 00 00 00 00 00 00 00 00 00 00 00 00 00
       0.0 0.0 0.0 0.0
000120 00 00 00 00 00 00 00 00 00 00 00 00 00 00 00 00
       0.0 0.0 0.0 0.0
000130 00 00 00 00 00 00 00 00 00 00 00 00 00 00 00 00
       0.0 0.0 0.0 0.0
000140 00 00 00 00 00 00 00 00 00 00 00 00 00 00 00 00
       0.0 0.0 0.0 0.0
000150 00 00 00 00 00 00 00 00 00 00 00 00 00 00 00 00
       0.0 0.0 0.0 0.0
000160 00 00 00 00 00 00 00 00 00 00 00 00 00 00 00 00
       0.0 0.0 0.0 0.0
000170 00 00 00 00 00 00 00 00 00 00 00 00 00 00 00 00
       0.0 0.0 0.0 0.0
000180 00 00 00 00 00 00 00 00 00 00 00 00 00 00 00 00
       0.0 0.0 0.0 0.0
000190 00 00 00 00 00 00 00 00 00 00 00 00 00 00 00 00
       0.0 0.0 0.0 0.0
0001a0 00 00 00 00 00 00 00 00 00 00 00 00 00 00 00 00
       0.0 0.0 0.0 0.0
0001b0 00 00 00 00 00 00 00 00 00 00 00 00 00 00 00 00
       0.0 0.0 0.0 0.0
0001c0 00 00 00 00 00 00 00 00 00 00 00 00 00 00 00 00
       0.0 0.0 0.0 0.0
0001d0 00 00 00 00 00 00 00 00 00 00 00 00 00 00 00 00
       0.0 0.0 0.0 0.0
0001e0 00 00 00 00 00 00 00 00 00 00 00 00 00 00 00 00
       0.0 0.0 0.0 0.0
0001f0 00 00 00 00 00 00 00 00 00 00 00 00 00 00 00 00
       0.0 0.0 0.0 0.0

network_body._body_endoder.seq_layers.2.weight f4 [128, 128]
000000 39 09 6a 3b 22 0f 66 3c f0 8b d3 bb a0 12 b3 3d
       0.0035711064 0.014041694 -0.006455891 0.08743787
000010 d6 f0 f7 bd 51 b9 8d bd 82 f5 dd bd 82 9b 48 be
       -0.12106483 -0.06920112 -0.108378425 -0.19590572
000020 72 aa 4b bd aa 28 30 3e 62 2c 20 3d 2b ca 6b bd
       -0.049723096 0.17203012 0.039104827 -0.05756585
000030 1b 2f 9e bc 52 e3 52 3d b1 ed 44 bd 71 55 6b bc
       -0.019309571 0.05148632 -0.048078243 -0.014363633
000040 7f f8 0c be 6a b1 7c bc ee f0 12 3d 50 6a 51 bd
       -0.13766669 -0.015423158 0.0358743 -0.051126778
000050 f4 c3 22 3d 1f 4e a5 3d 19 66 f4 3c 99 03 1d be
       0.039737657 0.08071541 0.02983384 -0.15333404
000060 ef ad a3 be 52 15 4e 3d b2 da 14 3d 04 a3 ca 3c
       -0.31968638 0.0503133 0.036341377 0.024735935
000070 08 2e a5 3d 84 bd 47 bc ce 0d 73 bd f0 be 95 bd
       0.080654204 -0.01219118 -0.059339337 -0.07311809
000080 13 62 40 3d 65 53 35 3d fe 19 91 bd 81 1d 62 bb
       0.04696853 0.044268984 -0.07085036 -0.003450245
000090 f2 c7 ef 3c f4 d2 58 3e fa 54 ae 3d b1 a9 b9 bd
       0.029270146 0.21174222 0.08512302 -0.09065569
0000a0 ab 72 62 b8 44 c6 86 bd 01 57 61 3e 91 5e 07 3e
       -5.398939e-05 -0.06580785 0.22005846 0.13219668
0000b0 c2 c2 15 3e f1 09 83 3d e7 12 fd bc 4e 0b 30 3c
       0.14625075 0.063983805 -0.030892802 0.010744883
0000c0 f2 9e bc 3d a8 3d 23 3e dc cf 32 be c1 73 7e 3d
       0.09210004 0.15941489 -0.17462105 0.06212211
0000d0 90 ef 01 3d 52 b9 2b bd f6 0b 01 bd 94 47 27 3d
       0.031722605 -0.041924782 -0.031505547 0.040839747
0000e0 ac 59 88 3e 0a 52 95 3d cd a8 7a 3c 5e 12 8a 3c
       0.26630914 0.07291038 0.015299034 0.016854461
0000f0 30 af 0a be 75 8e 99 bd 2e df 19 3d 53 2a 3e 3e
       -0.13543391 -0.07497875 0.037566356 0.18570833
000100 33 9e 50 bd d1 c3 27 be ed 2e cf bd 55 1f 42 3d
       -0.05093212 -0.16383292 -0.10116372 0.04739316
000110 70 14 5e bd 06 74 48 bd 2f 52 8b bd df d7 eb bc
       -0.05421871 -0.048938774 -0.06802785 -0.028789459
000120 92 cb cd 3c 2f 12 7c bd 97 2a a9 3c a0 28 5b 3c
       0.025121484 -0.06154078 0.020650191 0.013376385
000130 26 fa 91 3d a6 5f a3 3b 7c 1f 0d be 6e 2e 90 bc
       0.0712779 0.0049857674 -0.13781542 -0.017600264
000140 71 e3 9a bd 1f 03 02 3e 02 d4 69 3d db 94 32 bd
       -0.07562912 0.12696503 0.057086952 -0.04359899
000150 44 84 d5 3c b8 05 07 3d 8c ee d9 3c 19 24 9a bd
       0.026064046 0.03296444 0.026603006 -0.07526416
000160 71 eb b4 3d 4b d0 cc 3d 0f db 01 be 93 6d e1 bd
       0.088339694 0.10000666 -0.1268122 -0.11007228
000170 b5 f9 6e 3c f1 82 c9 bd 8c fd 26 bd 17 2e fc bd
       0.014585902 -0.09839428 -0.040769145 -0.123134784
000180 4f 6f ee bd 4c 2b c8 3d 13 e8 c9 3d eb d7 d1 3d
       -0.11642324 0.09773883 0.09858718 0.10246261
000190 41 ca 95 3c dc fb 89 3d 4e 7a 95 bd 1e 47 55 bd
       0.018284919 0.067374915 -0.072987184 -0.052069776
0001a0 c7 1c ca 3d 9b af 9f 3c 77 fa 36 3d 30 35 90 bd
       0.0986877 0.019492915 0.044672456 -0.07041395
0001b0 15 1f 88 bd 51 0e fc 3d 40 65 0f 3e 75 6f 5f 3c
       -0.066465534 0.12307418 0.14003468 0.013637413
0001c0 56 fb ac 3b 51 04 04 bd b8 8c ee 3d 93 a9 86 bc
       0.005278985 -0.03223068 0.11647934 -0.016438281
0001d0 31 1a fd 3d 81 d1 f3 bd f9 66 ad bd 4c ed b0 3d
       0.12358511 -0.11905194 -0.08466906 0.08639011
0001e0 96 4a af 3d ed 44 16 3d 73 38 09 be 09 9d 26 bd
       0.08559148 0.036686826 -0.1340044 -0.040677104
0001f0 6c 36 2e 3e a5 5e d6 3d 75 f4 76 3d 0a 6f 17 3e
       0.17012948 0.10467271 0.060291726 0.14788452
000200 40 fa 73 bd e3 a0 8b 3d 38 aa c3 3d 16 a4 ad bd
       -0.05956483 0.06817796 0.09553951 -0.084785625
000210 aa e3 13 bc af 38 b9 bd 5d 8a 42 be c8 c6 57 3d
       -0.009026447 -0.09044015 -0.18998094 0.052679807
000220 60 be 10 3e ef 58 88 3d 22 33 0b be c1 5a 4d bd
       0.14135122 0.06657588 -0.13593724 -0.050135378
000230 bf a6 bc 3d ec 4f cf 3c c1 a3 85 3d 38 23 d3 bd
       0.09211492 0.025306664 0.06525374 -0.10309452
000240 e3 2d bd 3d 73 16 cb 3d 69 52 31 3e cd 09 0c 3d
       0.09237268 0.09916391 0.17316593 0.034189034
000250 e1 2f 31 be 12 b2 f8 bd 0c 52 84 bd 20 db a4 bd
       -0.1730342 -0.12143339 -0.06460962 -0.08049607
000260 28 04 12 3c b3 19 20 bb 66 03 78 3d 2e e4 23 bd
       0.008912124 -0.002442938 0.060550116 -0.04001253
000270 d3 fb 3c bd 60 9b 8f bd 37 4a 8f 3d e0 c1 94 bd
       -0.046138596 -0.07012057 0.06996577 -0.07263541
000280 5d 56 84 3c 7f 32 94 bd 70 b8 8e 3d 6c 44 1f 3d
       0.016154462 -0.07236194 0.069687724 0.03888361
000290 8e 9f e5 bd 29 cd 73 bd 4c fd 5f bd fb 24 03 bd
       -0.11212073 -0.059521828 -0.054684922 -0.03201769
0002a0 53 4d cb 3d 1c aa 20 3c d9 69 d9 bc 1f 21 89 bd
       0.09926858 0.009806182 -0.02653973 -0.066957705
0002b0 72 f0 24 be ff 11 a9 bd 3d 69 cb bc ae b6 72 3d
       -0.16107348 -0.082553856 -0.024830455 0.05925625
0002c0 69 41 3e be 77 73 3e 3d bb a6 11 3e b6 f2 80 bd
       -0.1857964 0.046496835 0.14223759 -0.062962934
0002d0 41 db 52 bd c8 67 b0 3c d8 74 a7 3d af 91 54 bd
       -0.051478628 0.021533862 0.08176583 -0.051896747
0002e0 b9 b9 31 3d 16 a8 06 bd 6e e3 96 bd a9 60 b3 3c
       0.04339001 -0.032875143 -0.073675975 0.021896677
0002f0 c3 ee a7 3d 05 63 91 3d fa e1 b9 bc 3c 50 a7 bc
       0.08199837 0.070989646 -0.022690762 -0.020424
000300 af a0 b9 3d 68 c6 23 bd 43 e7 94 bd ba 07 89 3d
       0.09063851 -0.039984137 -0.07270672 0.06690927
000310 35 03 03 bd 29 02 3a bd 01 98 66 bd 0c d2 23 bc
       -0.03198548 -0.045412216 -0.056297306 -0.00999881
000320 37 60 11 bd 25 29 47 3d e3 a1 ac 3b f9 00 83 3c
       -0.03549215 0.048623223 0.005268322 0.015991675
000330 25 b6 8a bd 91 b7 7a 3c ea 8c 4a 3d eb b9 06 3e
       -0.067730226 0.015302555 0.049450792 0.1315686
000340 19 c3 fc 3c ea d9 01 3e 85 2c cd 3d 1c 5c fe 3a
       0.030854749 0.12680784 0.10018257 0.0019406113
000350 a9 ac 83 3d 2b f3 11 bd b4 9a 8d 3d 9c e9 6b 3d
       0.06429417 -0.035632294 0.06914273 0.057595834
000360 a8 f8 84 3d 2e 54 70 3e 3a c6 eb bc e1 8c b9 bc
       0.0649274 0.23469612 -0.028781045 -0.022650184
000370 80 27 63 3d 5a d8 37 3d ac 7d 14 bd fb 5e 1d 3d
       0.055457592 0.044884063 -0.036252663 0.03842066
000380 1c 16 49 3d e9 fc c0 3c d0 5c dd 3c 49 3e 45 3d
       0.04909335 0.023558097 0.027021796 0.048155103
000390 3d 46 31 bd 85 f9 72 bd b0 e3 6b bb 0a d7 98 3c
       -0.043279875 -0.05931999 -0.0035993867 0.018657226
0003a0 83 a1 b8 3d e8 80 51 bd 56 eb b9 3d 7d 17 92 bd
       0.09015181 -0.051148325 0.0907809 -0.07133386
0003b0 aa 6a f6 bd ed 3c 32 bc b9 aa 49 3c fe 1a 97 bd
       -0.12032063 -0.010878784 0.01230877 -0.07378195
0003c0 7a 9d 52 bd c3 ea 30 be 80 ec 5d 3e 8d 5b 3b 3e
       -0.051419713 -0.17277054 0.21672249 0.18296643
0003d0 07 03 d0 3b 9f 41 89 bd 1e 36 85 3c 40 b9 c4 bd
       0.006348017 -0.06701969 0.016261157 -0.09605646
0003e0 15 61 0f bd 75 40 23 3e a6 54 c6 bc c1 42 28 3d
       -0.035004694 0.15942557 -0.024210285 0.041079286
0003f0 e5 01 81 be f6 a8 10 3d a0 06 c3 bd 0a e9 fe bd
       -0.25196758 0.035317384 -0.09522748 -0.124467924

network_body._body_endoder.seq_layers.2.bias f4 [128]
000000 00 00 00 00 00 00 00 00 00 00 00 00 00 00 00 00
       0.0 0.0 0.0 0.0
000010 00 00 00 00 00 00 00 00 00 00 00 00 00 00 00 00
       0.0 0.0 0.0 0.0
000020 00 00 00 00 00 00 00 00 00 00 00 00 00 00 00 00
       0.0 0.0 0.0 0.0
000030 00 00 00 00 00 00 00 00 00 00 00 00 00 00 00 00
       0.0 0.0 0.0 0.0
000040 00 00 00 00 00 00 00 00 00 00 00 00 00 00 00 00
       0.0 0.0 0.0 0.0
000050 00 00 00 00 00 00 00 00 00 00 00 00 00 00 00 00
       0.0 0.0 0.0 0.0
000060 00 00 00 00 00 00 00 00 00 00 00 00 00 00 00 00
       0.0 0.0 0.0 0.0
000070 00 00 00 00 00 00 00 00 00 00 00 00 00 00 00 00
       0.0 0.0 0.0 0.0
000080 00 00 00 00 00 00 00 00 00 00 00 00 00 00 00 00
       0.0 0.0 0.0 0.0
000090 00 00 00 00 00 00 00 00 00 00 00 00 00 00 00 00
       0.0 0.0 0.0 0.0
0000a0 00 00 00 00 00 00 00 00 00 00 00 00 00 00 00 00
       0.0 0.0 0.0 0.0
0000b0 00 00 00 00 00 00 00 00 00 00 00 00 00 00 00 00
       0.0 0.0 0.0 0.0
0000c0 00 00 00 00 00 00 00 00 00 00 00 00 00 00 00 00
       0.0 0.0 0.0 0.0
0000d0 00 00 00 00 00 00 00 00 00 00 00 00 00 00 00 00
       0.0 0.0 0.0 0.0
0000e0 00 00 00 00 00 00 00 00 00 00 00 00 00 00 00 00
       0.0 0.0 0.0 0.0
0000f0 00 00 00 00 00 00 00 00 00 00 00 00 00 00 00 00
       0.0 0.0 0.0 0.0
000100 00 00 00 00 00 00 00 00 00 00 00 00 00 00 00 00
       0.0 0.0 0.0 0.0
000110 00 00 00 00 00 00 00 00 00 00 00 00 00 00 00 00
       0.0 0.0 0.0 0.0
000120 00 00 00 00 00 00 00 00 00 00 00 00 00 00 00 00
       0.0 0.0 0.0 0.0
000130 00 00 00 00 00 00 00 00 00 00 00 00 00 00 00 00
       0.0 0.0 0.0 0.0
000140 00 00 00 00 00 00 00 00 00 00 00 00 00 00 00 00
       0.0 0.0 0.0 0.0
000150 00 00 00 00 00 00 00 00 00 00 00 00 00 00 00 00
       0.0 0.0 0.0 0.0
000160 00 00 00 00 00 00 00 00 00 00 00 00 00 00 00 00
       0.0 0.0 0.0 0.0
000170 00 00 00 00 00 00 00 00 00 00 00 00 00 00 00 00
       0.0 0.0 0.0 0.0
000180 00 00 00 00 00 00 00 00 00 00 00 00 00 00 00 00
       0.0 0.0 0.0 0.0
000190 00 00 00 00 00 00 00 00 00 00 00 00 00 00 00 00
       0.0 0.0 0.0 0.0
0001a0 00 00 00 00 00 00 00 00 00 00 00 00 00 00 00 00
       0.0 0.0 0.0 0.0
0001b0 00 00 00 00 00 00 00 00 00 00 00 00 00 00 00 00
       0.0 0.0 0.0 0.0
0001c0 00 00 00 00 00 00 00 00 00 00 00 00 00 00 00 00
       0.0 0.0 0.0 0.0
0001d0 00 00 00 00 00 00 00 00 00 00 00 00 00 00 00 00
       0.0 0.0 0.0 0.0
0001e0 00 00 00 00 00 00 00 00 00 00 00 00 00 00 00 00
       0.0 0.0 0.0 0.0
0001f0 00 00 00 00 00 00 00 00 00 00 00 00 00 00 00 00
       0.0 0.0 0.0 0.0

action_model._continuous_distribution.log_sigma f4 [1, 6]
000000 00 00 00 00 00 00 00 00 00 00 00 00 00 00 00 00
       0.0 0.0 0.0 0.0
000010 00 00 00 00 00 00 00 00
       0.0 0.0

action_model._continuous_distribution.mu.weight f4 [6, 128]
000000 42 26 df 3a 37 25 8a 3c 4b df 4e 3c 00 bd 7e 3c
       0.0017024952 0.016863449 0.012626479 0.015547991
000010 7f 64 60 3b 3b fc 37 3d 48 24 98 bc 36 db 48 bc
       0.0034239588 0.04491828 -0.018571988 -0.012259295
000020 d3 c7 42 3c 22 ec c8 3c c2 7a 17 bc 10 78 e1 bc
       0.011888462 0.02452666 -0.009245576 -0.02752307
000030 a5 ad 56 bc 34 b6 1b 3d 34 bc 99 bc 21 6c 36 3c
       -0.0131029235 0.03801556 -0.0187665 0.011134178
000040 84 0d 06 bc 26 6d 22 3c f6 5d 17 3c f4 1e af bc
       -0.008181933 0.009913718 0.009238711 -0.021377064
000050 da cc 24 bc 4c ba 99 3b 48 84 d3 bc 4c 04 86 bc
       -0.010058606 0.004691398 -0.025819913 -0.01635947
000060 a3 88 9c 3c 84 2f 0b 3c f5 fc e9 bb 68 3b b8 3b
       0.019108122 0.008495215 -0.0071407505 0.005622316
000070 6e 8a 47 bc 10 c4 1e 3c 92 70 91 bb b9 98 9a bc
       -0.012179 0.0096903 -0.0044384683 -0.018871652
000080 c2 45 b8 bb 05 0d e5 bb 84 49 08 bc c3 7f c1 3c
       -0.00562355 -0.0069900774 -0.008318309 0.023620492
000090 a3 6d 9a bc cb 78 53 3c 2b 78 1c bd 9d a6 02 3d
       -0.018851107 0.012907217 -0.03820054 0.031897176
0000a0 f7 01 44 bd f4 e5 07 bc 28 2e 81 ba b3 3f 16 3c
       -0.047853436 -0.008294571 -0.0009855675 0.0091704605
0000b0 1b 3f 39 bc a7 6b d5 3b c2 de 8c bc 8f b6 84 3c
       -0.011306549 0.0065130773 -0.017196063 0.016200332
0000c0 90 b3 c8 3b 5e 95 4c 3d 1d 2b e3 3c 33 aa 7d 3c
       0.006124921 0.049947135 0.027730519 0.015482473
0000d0 cb 52 55 3c 7d 06 40 3c 3f c5 f7 3b 73 af 53 3c
       0.013020228 0.011720297 0.0075613554 0.012920248
0000e0 dd ab 55 bc 77 a9 75 bc a2 5c c9 3c 25 78 04 bd
       -0.013041464 -0.014994017 0.024580304 -0.03234114
0000f0 99 39 bc bc 8f d9 72 bc b3 05 1a bc e2 d6 ad 3c
       -0.022976683 -0.014822378 -0.009400773 0.021220628
000100 38 c8 0a bb 1c 2e af bc 2f c4 c2 bc c2 7f bf bc
       -0.0021176469 -0.021384291 -0.023775188 -0.02337635
000110 f7 a8 31 bb fd 3c 20 bc a1 db 13 bc f3 9c 4a 3d
       -0.0027108768 -0.009780166 -0.009024532 0.049466085
000120 a7 42 bf ba 2d cf 19 3d 7f 0f 5f bb fa f0 b7 bc
       -0.0014592008 0.037551094 -0.0034036336 -0.022453774
000130 dd 81 8b bc 3d a0 a6 3b 76 9b bb 39 05 ad 96 3c
       -0.017029697 0.00508502 0.00035783247 0.018393049
000140 95 27 6a bc 5c 9f 9e 3c 57 d0 99 3a f2 fe b8 3c
       -0.014291664 0.019363098 0.0011735064 0.022582505
000150 03 7e b7 bc 58 c2 72 3c 6b 08 19 3c f0 27 94 bb
       -0.022398954 0.014816843 0.009340386 -0.0045213625
000160 d2 a2 ba bc 5e 75 2a 3b 21 1b ad 3c 57 30 c2 bc
       -0.022782717 0.0026009898 0.0211311 -0.02370469
000170 7c e9 99 bc 6e 5f 3a 3c 2f fd a7 3c a9 75 34 bc
       -0.018788092 0.011375291 0.02050647 -0.0110143805
000180 03 36 1b 3d 84 90 43 bc 32 16 2c bc a6 0e 9f ba
       0.037893306 -0.011936311 -0.010503339 -0.0012135103
000190 28 27 f7 3c 2d 74 3d bc 83 28 a4 bc bb b0 59 bc
       0.030170038 -0.011563343 -0.020038849 -0.013286765
0001a0 5c 62 0e bc 2a df 1b bc 47 b4 a7 bc 7d d9 ce b8
       -0.008690443 -0.009513656 -0.020471705 -9.863356e-05
0001b0 f5 00 5a 3c f0 2d 01 bc 63 a2 bd 3b 41 8a 13 bd
       0.013305892 -0.0078844875 0.0057871803 -0.03602052
0001c0 63 d3 25 bb 42 99 a4 ba b0 9c c6 3c 2f 82 2d 3c
       -0.0025302998 -0.0012557881 0.024244636 0.01059012
0001d0 5f 86 b2 3c 9d b5 ea bc 9f ff 4e bc 68 73 4d 39
       0.021792589 -0.028651053 -0.012634187 0.00019593316
0001e0 68 cf 70 3b 52 ba e0 3c 28 c9 e5 bc b4 d3 94 bb
       0.0036744718 0.027432594 -0.02805002 -0.0045418385
0001f0 90 32 91 3b 8d 35 1a bd 9c fc 1e bc 9f ea 48 bb
       0.0044310763 -0.037648726 -0.009703781 -0.0030657423
000200 01 75 a5 3b 57 3f b8 3c 5c 48 9a 3c c7 1b be bc
       0.0050493483 0.02249114 0.018833332 -0.023206605
000210 06 2c 0f 3d b2 8a fa bb 40 ef f7 bb f7 64 1a 3c
       0.034954093 -0.0076459283 -0.0075663626 0.009423486
000220 f0 7a fa 3b d6 79 9e bc 21 cd 15 bd c7 06 0b bc
       0.00764405 -0.019345205 -0.03657258 -0.008485503
000230 ff 75 0a bc 0e 46 94 3c e2 c3 26 bd 9b 2a 23 bc
       -0.008450984 0.01809981 -0.040714152 -0.009958888
000240 cc 5e 23 3c 1f 82 4f 3b 93 5e b1 bc 89 5b 14 3c
       0.009971332 0.0031663252 -0.021651542 0.009055027
000250 63 41 68 3a 5a 6e 64 bb f3 5a 46 bc 27 4e 04 bd
       0.0008859841 -0.0034855814 -0.012106645 -0.032301094
000260 e6 19 af bc df a9 46 3c 02 48 49 3c 44 d5 84 3c
       -0.021374654 0.012125461 0.012285234 0.016214974
000270 2d f6 67 3b 63 b7 7d 3c e2 c9 59 bc fc 34 81 bc
       0.0035394535 0.015485617 -0.0132927615 -0.015772335
000280 62 05 46 3c 46 d5 10 3d af 2c ca bc 66 0c 35 3c
       0.012086244 0.035359643 -0.02467951 0.011050319
000290 1b 56 cc 3b be d9 3a bc ea 51 5e bc 92 9d 55 3c
       0.0062358505 -0.011404453 -0.0135693345 0.013038056
0002a0 9f 9a 87 3c cf 3b 53 3c fe c2 c2 3c bb 54 c7 bb
       0.016553221 0.012892677 0.02377462 -0.0060830987
0002b0 c8 9d e4 bc 97 68 7e 3b 72 c4 7f bc de 20 12 bd
       -0.027907267 0.0038819665 -0.015610801 -0.035675876
0002c0 23 3d ab bb 60 02 65 bd b7 c5 a3 bb dd 3b 8b 3c
       -0.005225794 -0.055910468 -0.0049979347 0.016996318
0002d0 8a 23 17 bc bb 97 dd 3b 02 70 3f 3c 3b 58 bc 3b
       -0.009224782 0.0067624724 0.01168442 0.0057478226
0002e0 6b ef 82 bc ca 0c c7 3c a8 57 70 3c 62 e3 09 bc
       -0.015983304 0.02429809 0.014669336 -0.008416029
0002f0 74 e4 b0 3b 93 6d a9 3c d0 2f ce bc 58 1a 64 3c
       0.0053983275 0.020682132 -0.025169283 0.013922296
000300 d3 70 1d 3a 63 23 91 bc 63 76 77 bc 92 76 71 bb
       0.0006005887 -0.017717069 -0.015103909 -0.0036844355
000310 b5 fa f9 3c ab 89 ec bc 1f 87 44 bb 95 54 84 3c
       0.030515054 -0.028874239 -0.0029987765 0.016153613
000320 95 c6 22 bc c2 c8 20 bc 50 8b 26 3b e0 34 25 bc
       -0.009935041 -0.009813489 0.0025412627 -0.010083407
000330 7a fe a8 3c 63 64 18 3c cf 02 dd 3a 42 9b d4 3a
       0.020629156 0.009301278 0.0016861799 0.0016220587
000340 ad d7 ba ba c9 e5 c3 bc 13 db c1 bc 5c 09 1b bb
       -0.001425495 -0.023913281 -0.023664033 -0.0023656702
000350 55 80 1b bd 36 18 b9 bc bd 38 75 bc e7 bc bb bb
       -0.037964184 -0.022594552 -0.014967141 -0.005729306
000360 f7 12 5c bb 62 20 aa 3c 94 56 91 39 39 45 04 3b
       -0.003358064 0.020767394 0.0002772106 0.0020182861
000370 13 f6 c3 ba 97 da a4 bb b7 db b7 bc 8f bb af 3c
       -0.0014950655 -0.0050309408 -0.022443635 0.02145174
000380 57 41 72 3b d2 2b 60 3b b0 48 ad bc 63 9a b9 ba
       0.0036965215 0.0034205806 -0.021152824 -0.0014160391
000390 e0 47 40 bc fb 97 e7 3a 9a f0 38 bc e7 b7 eb bb
       -0.011735886 0.0017669195 -0.011287833 -0.0071935537
0003a0 7d f4 07 bb b8 83 47 3c ce c5 b6 bc 4b a6 56 bc
       -0.0020745092 0.0121774 -0.022311118 -0.013101171
0003b0 3a 1f c2 bb d7 37 7a 3c 54 00 0a 3d 0f 56 af 3a
       -0.0059241327 0.015272102 0.03369172 0.0013377088
0003c0 8b 02 36 3c d9 2d af ba 0f be 6b 3b b7 47 b2 bc
       0.011109005 -0.0013365104 0.0035971438 -0.021762712
0003d0 67 d4 97 3c 8b e2 80 39 d4 0f bc 3b d3 c1 da 3c
       0.018533899 0.0002458285 0.0057391915 0.02670375
0003e0 37 d0 86 3c 97 63 8e 3a b7 46 34 3a 75 db 5b 3a
       0.016456706 0.001086342 0.00068769924 0.00083868887
0003f0 7b 06 c7 bc fa 64 a6 bc c7 d2 89 bc 3b a6 24 3b
       -0.024295082 -0.020311821 -0.01682414 0.0025123495

action_model._continuous_distribution.mu.bias f4 [6]
000000 00 00 00 00 00 00 00 00 00 00 00 00 00 00 00 00
       0.0 0.0 0.0 0.0
000010 00 00 00 00 00 00 00 00
       0.0 0.0

network_body._body_endoder.seq_layers.0.weight f4 [128, 396]
000000 0f 4b 09 bc 91 7e a7 bc 9f 30 0f bd f0 a6 5f bc
       -0.008379712 -0.020446094 -0.034958478 -0.013650641
000010 bc a2 bb 3b 55 11 26 3d 3e d6 79 bc 7e 1f 35 3d
       0.0057261866 0.040543873 -0.015248833 0.044219486
000020 9b 85 1b bd 6c 62 96 bd 30 51 00 3d 47 b5 68 3d
       -0.037969213 -0.07342991 0.031327426 0.056813505
000030 7a fb 33 3d 63 93 40 bd 2e 26 28 bc 17 06 33 bd
       0.043941 -0.04701556 -0.010263009 -0.04370698
000040 d2 05 87 bc 06 82 22 3d 7c 10 6c 3d 44 9e 10 3d
       -0.016482268 0.03967478 0.05763291 0.035307184
000050 b5 b7 37 bd 48 12 60 bd 5f 4c 8d 3d 16 5c 87 bc
       -0.04485293 -0.054704934 0.06899332 -0.016523402
000060 ed e7 05 3d a8 e3 82 3d 45 87 38 3c e9 d6 8b bc
       0.032691885 0.06391078 0.0112627195 -0.01707025
000070 9a 6e e4 bb 19 f1 92 bc 77 bf de 3c 78 f8 49 bd
       -0.0069711925 -0.01793723 0.027190907 -0.049309224
000080 ec 3e 00 bd 23 a4 12 bd eb 28 92 bd 0f 5b cb bc
       -0.031310007 -0.035801064 -0.07136711 -0.024823694
000090 7d 0f 72 bd 11 f3 16 bc 18 aa a2 3d 51 27 c8 bd
       -0.059096802 -0.009213225 0.07942599 -0.09773124
0000a0 67 69 71 bc f2 f1 14 bd b8 91 1c bc 2c ac c5 bc
       -0.0147346025 -0.03636355 -0.009556226 -0.02412995
0000b0 36 d5 1f 3d a7 77 f7 bc 62 a4 f9 bc 90 1a cf 3c
       0.039021693 -0.030208422 -0.030473892 0.02528122
0000c0 d2 1f 84 bc 5d 6b 95 3d cb 95 62 3d a5 a1 c9 3c
       -0.016128454 0.072958685 0.055318635 0.024613211
0000d0 10 6a 83 3d 3c b1 8b bd 08 54 4c bd 8e 57 51 bd
       0.06416714 -0.06820914 -0.049884826 -0.05110889
0000e0 15 f3 e3 bc f7 0f 39 bd d6 26 e8 bc 77 ee 60 3c
       -0.027825871 -0.04518124 -0.02833883 0.013728729
0000f0 bc ba fe bc 87 fc 81 bd 34 9f 83 bd a8 c5 10 bd
       -0.031094901 -0.06346994 -0.0642685 -0.03534475
000100 2f fc 2d 3d e8 b4 8b 3d 77 71 3a bd af 43 70 bc
       0.04247683 0.068216145 -0.045518365 -0.0146645745
000110 14 92 c5 3c 84 e5 1b 3d e0 a1 97 3d f6 09 86 bd
       0.024117507 0.03806068 0.07403922 -0.06544869
000120 dc 32 b4 bd fb 0d ea bc 6d b8 2c 3d a8 63 40 bc
       -0.08798763 -0.02857112 0.04216807 -0.01174251
000130 32 9d 69 bd 14 90 2e 3d 04 75 89 bd 46 a6 e9 3a
       -0.05703468 0.042617872 -0.06711772 0.0017826043
000140 85 26 05 bd aa f0 87 3c 2d 03 95 bd cc 44 bd bc
       -0.03250744 0.01659425 -0.07275996 -0.023104094
000150 38 a7 a2 3c 7d 08 7a bd 9d ea c7 bd eb a8 3d bc
       0.019855127 -0.06104325 -0.09761546 -0.011575918
000160 01 bf a4 3d d4 99 8d bd ec 26 cf bc 0c 63 55 bc
       0.080442436 -0.06914106 -0.025287114 -0.013024103
000170 d6 ee 60 bd 67 01 9e 3a c8 d7 80 3d e5 b2 2f bc
       -0.05491527 0.0012054861 0.06291157 -0.010723804
000180 8f 87 c5 3c 54 96 1d bd da e5 05 bd 17 0a 35 3d
       0.024112491 -0.038473442 -0.032689907 0.044199076
000190 57 36 55 3d 34 a4 a4 3d f6 f5 b6 3c e4 44 df bc
       0.052053776 0.08039132 0.02233408 -0.02725453
0001a0 57 ef 91 3a af a2 9e bd 4a 74 a0 3c a6 66 b2 bd
       0.0011133951 -0.07745873 0.019586701 -0.08710985
0001b0 94 28 a4 bd ef f1 e1 bd 32 98 ea bd e9 f8 5e bb
       -0.08015552 -0.11032473 -0.1145481 -0.0034022874
0001c0 cd 8f 28 bd f7 b6 6a 3d b0 df b9 bc c2 78 8b 3c
       -0.041152764 0.057303395 -0.02268967 0.017025355
0001d0 f6 c0 e6 b9 2a a5 4a 3d 24 1f 20 3d 3d a5 8f 3d
       -0.00044012786 0.04947392 0.039092198 0.070139386
0001e0 4f c4 b8 bc 4c d2 64 3d 99 9e 96 3d a7 8a a1 bd
       -0.022554545 0.055864617 0.07354469 -0.07887774
0001f0 15 4d 93 bd 85 7e 45 3d c8 af 72 3d 34 4f 90 bd
       -0.071924366 0.04821636 0.05924967 -0.07046357
000200 80 79 39 3c ad 19 8a 3d 14 bc 9f bd c1 b5 72 3d
       0.011320472 0.067431785 -0.07799545 0.059255365
000210 36 90 47 bd 63 d7 76 bd 56 a1 d0 bc 9f dd 31 bd
       -0.048721515 -0.060264003 -0.025467556 -0.043424245
000220 f2 51 d0 3d ee 6c 96 3c 7c 7d 89 bd 5e d3 7a bd
       0.1017188 0.018362489 -0.06713387 -0.06123673
000230 70 50 b0 bc a9 1e a3 3d 67 61 14 bd 1f 27 e3 3c
       -0.02152273 0.07964832 -0.036225703 0.027728615
000240 a4 30 6b 3d 03 37 1b bc 66 6b 1e 3d c2 79 32 bc
       0.057419434 -0.009473565 0.038676642 -0.010893287
000250 ef 67 af 3d fc d7 05 bc f9 a0 01 bd 99 e2 2b bd
       0.08564746 -0.0081691705 -0.031647656 -0.041964147
000260 18 83 27 3d 43 a8 59 bd ac ef 6a 3d e1 ce eb bb
       0.040896505 -0.053138983 0.057357475 -0.0071962927
000270 99 96 b7 3d b9 ee df 3c a4 22 4a bd ff 56 7b bb
       0.08964271 0.027335512 -0.049349442 -0.0038351414
000280 30 2f 9f 3a e4 f2 b7 bd bc 6f 06 bc 8f 30 00 3d
       0.00121448 -0.089818746 -0.0082053505 0.03129631
000290 f8 c9 06 3c 11 71 6b bc cc 3c de bc 28 a7 99 3d
       0.008226864 -0.014370219 -0.0271286 0.07502586
0002a0 95 c7 27 3d 75 11 09 bd c1 76 be bc 5b 84 b1 ba
       0.04096182 -0.033463914 -0.023249986 -0.0013543473
0002b0 24 b6 14 bc 11 ef 7f bc ff 2f 00 3e 0b 66 c5 bc
       -0.009076629 -0.015620963 0.12518309 -0.02409651
0002c0 17 d7 91 bd c6 2b e5 bb e7 f9 a4 3d 21 69 a1 3b
       -0.07121103 -0.0069937436 0.080554776 0.0049258624
0002d0 89 47 c0 3d 25 3e b1 bd 02 70 c5 bc 8a 0a 8f 3c
       0.09388644 -0.08654431 -0.024101261 0.01746108
0002e0 f1 ec 02 3d 59 2d cf bc 62 03 23 bd a1 2d d6 3c
       0.031964246 -0.025290178 -0.039798148 0.026144804
0002f0 29 36 d2 3c e2 b6 a2 bd 0c 95 95 3d 3a 67 a4 bd
       0.025660591 -0.079450384 0.07303819 -0.080275014
000300 a2 63 98 3b 46 cb fb 3c 47 91 9d bb 7b fb 24 3c
       0.004650549 0.030736577 -0.004808578 0.010069723
000310 46 ac 87 bd c8 32 37 bd f6 4d 7c 3d 54 fd ad bc
       -0.066246554 -0.044726163 0.061597787 -0.02123896
000320 7b fe 96 bd 6c c2 48 3c ed 8f d2 3c c3 a1 dc bd
       -0.07372757 0.012253385 0.025703395 -0.10773041
000330 ff e1 72 bc 0c 7b ee bc 7a 0b e6 bc 6b 0a bc 3a
       -0.0148243895 -0.029111408 -0.028081644 0.0014346367
000340 1f 4c b5 bc c5 1a 09 be a1 e2 a5 bb a1 25 27 3d
       -0.022131024 -0.13389118 -0.0050624167 0.04080737
000350 bb a1 fc bc 52 2c d2 bb 8a a7 9b bd c2 8c 87 bc
       -0.030838838 -0.006413975 -0.07600315 -0.01654661
000360 d1 04 f2 bc 1c b2 1c bd 5f e1 d7 3d e1 01 a1 bc
       -0.029543312 -0.038255796 0.10541033 -0.019654216
000370 8d 8f 81 bc 7b ac 6e bc ef 6c df bb 36 e2 51 3d
       -0.01581552 -0.01456749 -0.006818406 0.051241122
000380 78 4b 38 3c 3d 27 99 39 24 53 2d bb ad e2 41 bc
       0.011248462 0.0002921167 -0.002644726 -0.011833829
000390 c8 43 8e 3b c5 c1 43 3d c0 99 1a bd 4b 8f 55 3d
       0.0043415762 0.047792215 -0.037744284 0.052138608
0003a0 6a 7e 06 bd 27 fb c6 3c 1e 7c 2a 3b 7c 2a 1b bd
       -0.0328354 0.02428968 0.002601392 -0.037882313
0003b0 11 32 92 3d 3a 00 aa 3c 43 8f 40 3d 39 43 15 bd
       0.07138456 0.020752061 0.047011625 -0.03644106
0003c0 09 dd 23 3d 3e 80 06 3d eb ac c7 bc 31 4c 25 3d
       0.040005717 0.032837145 -0.024374446 0.040355865
0003d0 d5 32 66 bd 74 78 c7 3c be 71 18 bc b0 bf 41 3c
       -0.05620082 0.024349429 -0.009304462 0.011825487
0003e0 81 77 9d bc a7 8d a7 bd b3 d2 92 3d 12 d1 2e 3d
       -0.019222023 -0.08181315 0.07169094 0.042679854
0003f0 61 5a 0a 3e 39 2d 2c bc db 29 ef bd f7 a0 5d bc
       0.1351104 -0.010508829 -0.11677905 -0.013527147

network_body._body_endoder.seq_layers.0.bias f4 [128]
000000 00 00 00 00 00 00 00 00 00 00 00 00 00 00 00 00
       0.0 0.0 0.0 0.0
000010 00 00 00 00 00 00 00 00 00 00 00 00 00 00 00 00
       0.0 0.0 0.0 0.0
000020 00 00 00 00 00 00 00 00 00 00 00 00 00 00 00 00
       0.0 0.0 0.0 0.0
000030 00 00 00 00 00 00 00 00 00 00 00 00 00 00 00 00
       0.0 0.0 0.0 0.0
000040 00 00 00 00 00 00 00 00 00 00 00 00 00 00 00 00
       0.0 0.0 0.0 0.0
000050 00 00 00 00 00 00 00 00 00 00 00 00 00 00 00 00
       0.0 0.0 0.0 0.0
000060 00 00 00 00 00 00 00 00 00 00 00 00 00 00 00 00
       0.0 0.0 0.0 0.0
000070 00 00 00 00 00 00 00 00 00 00 00 00 00 00 00 00
       0.0 0.0 0.0 0.0
000080 00 00 00 00 00 00 00 00 00 00 00 00 00 00 00 00
       0.0 0.0 0.0 0.0
000090 00 00 00 00 00 00 00 00 00 00 00 00 00 00 00 00
       0.0 0.0 0.0 0.0
0000a0 00 00 00 00 00 00 00 00 00 00 00 00 00 00 00 00
       0.0 0.0 0.0 0.0
0000b0 00 00 00 00 00 00 00 00 00 00 00 00 00 00 00 00
       0.0 0.0 0.0 0.0
0000c0 00 00 00 00 00 00 00 00 00 00 00 00 00 00 00 00
       0.0 0.0 0.0 0.0
0000d0 00 00 00 00 00 00 00 00 00 00 00 00 00 00 00 00
       0.0 0.0 0.0 0.0
0000e0 00 00 00 00 00 00 00 00 00 00 00 00 00 00 00 00
       0.0 0.0 0.0 0.0
0000f0 00 00 00 00 00 00 00 00 00 00 00 00 00 00 00 00
       0.0 0.0 0.0 0.0
000100 00 00 00 00 00 00 00 00 00 00 00 00 00 00 00 00
       0.0 0.0 0.0 0.0
000110 00 00 00 00 00 00 00 00 00 00 00 00 00 00 00 00
       0.0 0.0 0.0 0.0
000120 00 00 00 00 00 00 00 00 00 00 00 00 00 00 00 00
       0.0 0.0 0.0 0.0
000130 00 00 00 00 00 00 00 00 00 00 00 00 00 00 00 00
       0.0 0.0 0.0 0.0
000140 00 00 00 00 00 00 00 00 00 00 00 00 00 00 00 00
       0.0 0.0 0.0 0.0
000150 00 00 00 00 00 00 00 00 00 00 00 00 00 00 00 00
       0.0 0.0 0.0 0.0
000160 00 00 00 00 00 00 00 00 00 00 00 00 00 00 00 00
       0.0 0.0 0.0 0.0
000170 00 00 00 00 00 00 00 00 00 00 00 00 00 00 00 00
       0.0 0.0 0.0 0.0
000180 00 00 00 00 00 00 00 00 00 00 00 00 00 00 00 00
       0.0 0.0 0.0 0.0
000190 00 00 00 00 00 00 00 00 00 00 00 00 00 00 00 00
       0.0 0.0 0.0 0.0
0001a0 00 00 00 00 00 00 00 00 00 00 00 00 00 00 00 00
       0.0 0.0 0.0 0.0
0001b0 00 00 00 00 00 00 00 00 00 00 00 00 00 00 00 00
       0.0 0.0 0.0 0.0
0001c0 00 00 00 00 00 00 00 00 00 00 00 00 00 00 00 00
       0.0 0.0 0.0 0.0
0001d0 00 00 00 00 00 00 00 00 00 00 00 00 00 00 00 00
       0.0 0.0 0.0 0.0
0001e0 00 00 00 00 00 00 00 00 00 00 00 00 00 00 00 00
       0.0 0.0 0.0 0.0
0001f0 00 00 00 00 00 00 00 00 00 00 00 00 00 00 00 00
       0.0 0.0 0.0 0.0

network_body._body_endoder.seq_layers.2.weight f4 [128, 128]
000000 ba ad 15 be ef 6e ce 3d 0a ae a4 bc a1 c7 95 bd
       -0.14617053 0.10079753 -0.02010252 -0.07313467
000010 10 f8 a4 bd 9f ad 57 bd 61 8d 25 3d 70 6e c2 3d
       -0.08055127 -0.052655812 0.040418033 0.094937205
000020 94 d4 82 3c 19 fe fc 3d 43 4f ba ba e6 d0 74 3d
       0.015970506 0.12353153 -0.0014214296 0.059769534
000030 c0 ea 27 3d 3f 3d 2e 3d 4f ff c3 3d 50 60 3a 3c
       0.04099536 0.042538878 0.095701806 0.011375502
000040 ee 18 0f be 15 5c ea 3b 11 ca f3 bc 3e 85 96 3d
       -0.13974354 0.0071520903 -0.029759439 0.07349633
000050 09 2f 31 bd 04 f0 9d bc 15 59 a1 3d b0 ea 58 bd
       -0.043257747 -0.019279487 0.07878319 -0.05295819
000060 ab 34 75 bc df 70 8f 3c 74 54 2a bd 5b ea f2 3d
       -0.01496617 0.017509876 -0.041584447 0.11861106
000070 bf 57 0f 3e 58 c6 ba bb 28 7a 20 3c cb a2 2a bd
       0.13998316 -0.005699914 0.009794749 -0.041659158
000080 76 bb 3b 3d 89 60 f0 bc b7 29 f1 bd ca 0a dd bd
       0.045833074 -0.029342907 -0.117755346 -0.107930735
000090 87 ff e8 bd 21 a1 0c be 86 cf ea bc 76 96 0f be
       -0.11376863 -0.13733341 -0.028663408 -0.1402224
0000a0 4e 4a 27 3d 43 8a b5 bc a8 b2 8c 3d 21 d0 b1 3d
       0.040842347 -0.022160655 0.068700135 0.086822756
0000b0 2a ef 99 3d 43 36 1b 3d 7e b6 0b bd 53 98 21 3d
       0.0751632 0.037893545 -0.034109585 0.03945191
0000c0 f6 1d e7 bd 64 9e 7d bb 99 eb 18 3e 5a 70 c5 3d
       -0.112850115 -0.0038699144 0.14933623 0.0964057
0000d0 c6 bd 6f bd b9 80 06 be 85 3a 03 3c 91 37 6d bd
       -0.05853059 -0.13135041 0.008009558 -0.05791432
0000e0 7e 95 65 bd d7 98 76 bd 38 d5 d9 3d 96 9b 07 be
       -0.05605077 -0.060204353 0.106363714 -0.13242945
0000f0 d1 4c 7d bc 86 ee bc bd dc ea d3 bd c6 bb d1 3d
       -0.015460209 -0.09225182 -0.1034753 0.10240893
000100 dd 45 da 3c b5 66 25 bc 1f 0c 65 bc 0e 43 08 3e
       0.026644642 -0.010095288 -0.013979941 0.1330683
000110 99 0f d2 3c 5d ec 84 3d e6 ed 00 bd f5 2a 80 3e
       0.025642203 0.06490395 -0.031476878 0.25032774
000120 48 3f 0f be 6c 74 3e 3b 91 2a 38 bc 4f bf e9 3d
       -0.13988984 0.0029061092 -0.011240617 0.11413442
000130 91 44 6c bd e7 32 93 bd db 4c 52 3e 56 2c 52 3d
       -0.057682578 -0.07187443 0.2053713 0.051311813
000140 51 de 94 bd db 16 bf bd e8 b0 12 be 40 ff 66 3c
       -0.07268966 -0.09330531 -0.14325297 0.014098942
000150 cd 52 ae bc ff 95 cc 39 98 ad 0a bd 7b 00 5b 3d
       -0.021279717 0.00039021668 -0.03385696 0.053467255
000160 46 da 96 bd 0c 84 bc bd 6b 8f e8 bd a0 25 b5 bd
       -0.07365851 -0.092048734 -0.1135548 -0.08845067
000170 13 a4 bf 3d 6e 55 78 3c 3a 87 aa 3c 35 de 4b be
       0.093574665 0.015157087 0.020816434 -0.19908984
000180 83 11 9c bd 4a 8c b4 3b 5d 60 9d bd f9 06 0b be
       -0.076205276 0.005509888 -0.076843955 -0.13576879
000190 f7 0e b4 3d ab 68 74 3b 51 d2 2f 3d c9 af e4 3c
       0.08791917 0.0037293832 0.042925183 0.027915852
0001a0 64 e1 75 bd df da 31 be a1 df c9 bd df da 39 bb
       -0.060029402 -0.17368649 -0.09857107 -0.0028359217
0001b0 ef 58 71 bd ad 21 df bc 31 ba 60 be d1 f4 e3 3d
       -0.058922704 -0.027237738 -0.21946026 0.111306794
0001c0 88 12 04 bd 3b d8 86 3e 41 73 84 3d a6 51 3d 3d
       -0.032244235 0.26336846 0.064672954 0.046220444
0001d0 c6 12 0f be 86 0c 36 bd d6 cc 0d bc 50 96 9b 3d
       -0.13972005 -0.044445537 -0.008654794 0.07597029
0001e0 d1 1d 04 bc d0 08 64 3d b3 b7 b3 3b 3b 7d 9d bd
       -0.008063749 0.055672467 0.005484545 -0.076899014
0001f0 a1 e0 0c 3d f0 92 d7 3c fe 11 11 bb aa 59 30 3a
       0.03439391 0.026315182 -0.0022135968 0.0006727228
000200 75 6e b0 3c 2f 32 dd 3c 5b 75 8d 3c be de a9 bd
       0.021537045 0.027001468 0.017267874 -0.08294438
000210 c6 ce 92 3d 86 5a 20 bc c3 fe af 3d d5 a4 10 be
       0.07168345 -0.0097872075 0.08593514 -0.14125378
000220 41 9f 31 be 07 01 02 be 5f 25 5b bd 30 7d 82 3d
       -0.17345907 -0.12695704 -0.053502437 0.06371534
000230 33 c4 58 3d c5 3c 1c 3d 64 cf 7f 3d 78 97 39 be
       0.052921485 0.03814389 0.062453642 -0.18124187
000240 bf 5e 3a 3d 25 b1 41 be ec e7 1c bd f8 bd e5 ba
       0.045500513 -0.18915232 -0.038307115 -0.0017527929
000250 7c 1a 96 3c 9b 57 c0 bc e7 b1 e8 bd ed 4f 39 bd
       0.018323176 -0.023479274 -0.11362057 -0.04524224
000260 52 cf bb bd b5 a8 90 bd 63 85 44 3d 70 b8 30 be
       -0.091704026 -0.07063428 0.04797877 -0.17257857
000270 8a 78 a2 bd f9 3d bd bc 14 ed f2 bc b5 1b a6 bd
       -0.07933147 -0.02310084 -0.029654063 -0.081107534
000280 de 43 54 bc 96 ce 1a 3e 62 9f a1 bd a9 0d 45 bd
       -0.012955634 0.15117869 -0.07891728 -0.04810873
000290 f2 c3 5a 3d 28 92 b9 bd a3 c2 92 bc 80 5a 0c bd
       0.053409524 -0.0906108 -0.017915076 -0.034265995
0002a0 3b ce 11 3e fd c9 d6 3d 85 8b b0 3d c6 bd 97 bc
       0.14238827 0.10487745 0.08620361 -0.018523108
0002b0 cc 2b 5b be bf 3e b3 bc 17 8d 2d 3e ff 95 de bc
       -0.21403426 -0.021880506 0.16948353 -0.027171133
0002c0 af f6 84 bd 9d 59 36 3d 31 03 17 be 60 52 da 3c
       -0.06492364 0.044519056 -0.14747311 0.026650608
0002d0 ae 74 87 bd dc 4c 13 bd 29 20 25 bd 62 8d 31 be
       -0.06614052 -0.03596197 -0.040313873 -0.1733909
0002e0 e4 8f 90 3d a0 f3 38 bc ff a0 6b bd 28 af 1e 3d
       0.07058695 -0.0112885535 -0.057526585 0.03874126
0002f0 44 d5 72 3d dd 23 39 3d 71 97 03 bd 23 ae bb ba
       0.059285417 0.045200218 -0.032126848 -0.0014318865
000300 5c d9 18 3d 70 13 29 bd e4 06 c3 bd b0 3e 98 3d
       0.037316665 -0.041278303 -0.09522799 0.07433832
000310 c8 f8 0c 3d e7 7f 87 3b 5a b6 15 3d 2e 76 03 3d
       0.034416944 0.00413512 0.036550857 0.032095127
000320 f7 7c 1c 3e 25 27 b3 3c 4c dc 00 be ee 03 d5 bd
       0.15282045 0.021869252 -0.12584037 -0.1040114
000330 05 45 a4 3d a6 ff a6 bb 5e a8 8f 3b 42 04 73 3c
       0.08020977 -0.0050963936 0.0043840846 0.014832558
000340 4d 0e 9a 3d f0 33 c8 bd f1 4a 2a 3e 41 d1 1c bc
       0.07522259 -0.09775531 0.1663015 -0.009571374
000350 90 92 e8 3d 8e a8 cb 3d e0 32 a5 bc ae ee d2 3c
       0.113560796 0.09944259 -0.02016586 0.025748577
000360 7c 2f 35 be 44 9f 02 bd 10 7e 1c 3e c7 a3 31 be
       -0.17693895 -0.03189017 0.15282464 -0.17347632
000370 42 5d bf bc 15 e4 01 be 61 7b 80 bd 89 f7 42 3d
       -0.023359898 -0.12684663 -0.06273533 0.04759935
000380 68 5d e5 3d f3 b1 66 3d 2e 84 33 bd 82 97 6e bc
       0.111994565 0.05632205 -0.04382723 -0.014562489
000390 39 43 eb 3c 0a 6b 3f 3d ce 41 76 3b 3c 77 0e be
       0.028718578 0.04673294 0.0037575844 -0.13912672
0003a0 de e0 17 3c c0 31 ab 3b 82 9e 48 3d 56 ef b1 bd
       0.009269921 0.0052244365 0.04897929 -0.08688228
0003b0 59 70 0d 3d 6a 5b 59 bd d4 37 05 3e c1 de c6 3d
       0.03453097 -0.053065695 0.13009578 0.09710456
0003c0 60 c8 c3 bd bf 51 fa 3d 13 27 4e 3d fd 00 b4 3d
       -0.09559703 0.12222623 0.050330233 0.08789251
0003d0 b5 5e 71 bc 26 24 5c bd 81 cb 62 bd 21 c3 8c 3c
       -0.014732053 -0.05374541 -0.055369858 0.017182888
0003e0 82 e5 f7 bd a4 09 fd 3d 72 f2 38 3c 23 02 9b bd
       -0.12104322 0.123553544 0.011288272 -0.07568767
0003f0 46 bc 22 bd 9a fa b5 3c e6 a4 b2 3d 22 85 29 3d
       -0.039730333 0.022214223 0.08722858 0.04138673

network_body._body_endoder.seq_layers.2.bias f4 [128]
000000 00 00 00 00 00 00 00 00 00 00 00 00 00 00 00 00
       0.0 0.0 0.0 0.0
000010 00 00 00 00 00 00 00 00 00 00 00 00 00 00 00 00
       0.0 0.0 0.0 0.0
000020 00 00 00 00 00 00 00 00 00 00 00 00 00 00 00 00
       0.0 0.0 0.0 0.0
000030 00 00 00 00 00 00 00 00 00 00 00 00 00 00 00 00
       0.0 0.0 0.0 0.0
000040 00 00 00 00 00 00 00 00 00 00 00 00 00 00 00 00
       0.0 0.0 0.0 0.0
000050 00 00 00 00 00 00 00 00 00 00 00 00 00 00 00 00
       0.0 0.0 0.0 0.0
000060 00 00 00 00 00 00 00 00 00 00 00 00 00 00 00 00
       0.0 0.0 0.0 0.0
000070 00 00 00 00 00 00 00 00 00 00 00 00 00 00 00 00
       0.0 0.0 0.0 0.0
000080 00 00 00 00 00 00 00 00 00 00 00 00 00 00 00 00
       0.0 0.0 0.0 0.0
000090 00 00 00 00 00 00 00 00 00 00 00 00 00 00 00 00
       0.0 0.0 0.0 0.0
0000a0 00 00 00 00 00 00 00 00 00 00 00 00 00 00 00 00
       0.0 0.0 0.0 0.0
0000b0 00 00 00 00 00 00 00 00 00 00 00 00 00 00 00 00
       0.0 0.0 0.0 0.0
0000c0 00 00 00 00 00 00 00 00 00 00 00 00 00 00 00 00
       0.0 0.0 0.0 0.0
0000d0 00 00 00 00 00 00 00 00 00 00 00 00 00 00 00 00
       0.0 0.0 0.0 0.0
0000e0 00 00 00 00 00 00 00 00 00 00 00 00 00 00 00 00
       0.0 0.0 0.0 0.0
0000f0 00 00 00 00 00 00 00 00 00 00 00 00 00 00 00 00
       0.0 0.0 0.0 0.0
000100 00 00 00 00 00 00 00 00 00 00 00 00 00 00 00 00
       0.0 0.0 0.0 0.0
000110 00 00 00 00 00 00 00 00 00 00 00 00 00 00 00 00
       0.0 0.0 0.0 0.0
000120 00 00 00 00 00 00 00 00 00 00 00 00 00 00 00 00
       0.0 0.0 0.0 0.0
000130 00 00 00 00 00 00 00 00 00 00 00 00 00 00 00 00
       0.0 0.0 0.0 0.0
000140 00 00 00 00 00 00 00 00 00 00 00 00 00 00 00 00
       0.0 0.0 0.0 0.0
000150 00 00 00 00 00 00 00 00 00 00 00 00 00 00 00 00
       0.0 0.0 0.0 0.0
000160 00 00 00 00 00 00 00 00 00 00 00 00 00 00 00 00
       0.0 0.0 0.0 0.0
000170 00 00 00 00 00 00 00 00 00 00 00 00 00 00 00 00
       0.0 0.0 0.0 0.0
000180 00 00 00 00 00 00 00 00 00 00 00 00 00 00 00 00
       0.0 0.0 0.0 0.0
000190 00 00 00 00 00 00 00 00 00 00 00 00 00 00 00 00
       0.0 0.0 0.0 0.0
0001a0 00 00 00 00 00 00 00 00 00 00 00 00 00 00 00 00
       0.0 0.0 0.0 0.0
0001b0 00 00 00 00 00 00 00 00 00 00 00 00 00 00 00 00
       0.0 0.0 0.0 0.0
0001c0 00 00 00 00 00 00 00 00 00 00 00 00 00 00 00 00
       0.0 0.0 0.0 0.0
0001d0 00 00 00 00 00 00 00 00 00 00 00 00 00 00 00 00
       0.0 0.0 0.0 0.0
0001e0 00 00 00 00 00 00 00 00 00 00 00 00 00 00 00 00
       0.0 0.0 0.0 0.0
0001f0 00 00 00 00 00 00 00 00 00 00 00 00 00 00 00 00
       0.0 0.0 0.0 0.0

value_heads.value_heads.extrinsic.weight f4 [1, 128]
000000 02 f4 17 be fe b6 54 be b8 41 17 3e 4c a2 40 bd
       -0.14839175 -0.20772931 0.14771163 -0.04702978
000010 8c 1a 8e bd c8 7f 1f be a0 e3 08 be 32 85 35 be
       -0.06938657 -0.15576088 -0.13368082 -0.17726591
000020 e0 9d 00 bd 1e 8a 24 3e 22 9c 5b 3e 7c e8 a5 bd
       -0.03140056 0.16068313 0.21446279 -0.081009835
000030 6b db 44 be 88 65 c9 3d e4 07 99 bd 9f 1f 21 be
       -0.19224326 0.09833819 -0.07472208 -0.15734719
000040 80 c6 9f 3b 00 e7 cf ba 4e d4 30 be 18 ac 2f bd
       0.004875958 -0.001586169 -0.17268488 -0.04288873
000050 10 a3 7c 3d 0b aa 21 be c8 da 28 be d0 03 61 bc
       0.061678946 -0.15787522 -0.16489708 -0.013733819
000060 7f 10 2d be 36 f7 2b be 58 3d 4a 3e c0 65 75 bb
       -0.16900824 -0.16793522 0.19749963 -0.003744468
000070 c0 e9 1d be 2e 06 9e bd 62 99 2c be a8 13 4c be
       -0.154212 -0.077160224 -0.16855386 -0.19929373
000080 b3 d6 d7 bd 20 88 3f 3d 52 98 25 be e8 3b 5f 3d
       -0.105389975 0.04676068 -0.16171387 0.05450049
000090 9c 72 bd 3d ec 3e 00 3e e4 a4 4e 3e cc 4f a3 3d
       0.09250376 0.12524003 0.20180088 0.079742044
0000a0 ec 37 2b bd 94 2e b0 bd ee 98 2a 3e d0 cc 40 bc
       -0.041801378 -0.08602634 0.166599 -0.011767581
0000b0 48 8e 89 3d b6 b3 e7 bd d0 e9 b8 3d e0 39 a5 bd
       0.06716591 -0.11313574 0.09028971 -0.080676794
0000c0 50 a1 43 bc 90 bd d9 3c 60 b6 52 bc 58 94 93 bd
       -0.011940315 0.026579648 -0.012860864 -0.07206029
0000d0 70 a4 a7 3d 30 58 42 3e 60 19 92 3b 10 94 f1 bd
       0.08185661 0.18978953 0.0044585913 -0.11795819
0000e0 c5 e8 31 be b7 b6 06 be b0 39 59 3c 88 b5 0e be
       -0.17373951 -0.13155638 0.013258383 -0.13936436
0000f0 48 d3 8f bc 75 27 15 be 16 45 35 3e 00 b5 6e ba
       -0.017556801 -0.14565833 0.17702135 -0.00091059506
000100 b0 d2 4b 3e 9c 73 50 bd b0 22 bd 3c 18 da 4f 3e
       0.1990459 -0.050891504 0.02308783 0.2029804
000110 ce 20 a3 bd 0c a8 8a 3d 2f cc 23 be be a0 83 bd
       -0.079652414 0.06770334 -0.15995859 -0.064271435
000120 58 4d 74 3d c4 1f 2c bd b4 01 20 3e f0 2a f2 bc
       0.059644073 -0.04202248 0.1562565 -0.02956149
000130 c0 1a ec 3d 68 43 f6 3c 00 d5 a4 3d fa 2f a7 bd
       0.1152854 0.030061439 0.08048439 -0.08163448
000140 e1 eb 2b be 98 39 de bc a0 53 88 3d 6d 81 41 be
       -0.167892 -0.027127072 0.06656575 -0.18897028
000150 0e e4 2c be 58 4c 53 bd 18 21 bb 3c bc b0 55 3e
       -0.16883871 -0.05158648 0.022842929 0.208682
000160 28 0d 9a 3d 84 a5 03 be 36 ad 93 bd b8 0a 0c 3e
       0.075220406 -0.12856108 -0.07210772 0.13675964
000170 2a 9c ff bd 16 a5 9e bd f8 ed 28 be cc c9 00 bd
       -0.12480958 -0.077463314 -0.16497028 -0.03144245
000180 a8 38 95 3d f4 96 81 3d c0 20 1e 3d 90 80 6d 3c
       0.07286197 0.0632762 0.03860545 0.014495984
000190 e4 f9 1a be 74 3a 17 bd e0 34 a8 3b d0 0e 74 3d
       -0.15134388 -0.03692098 0.0051332563 0.05958444
0001a0 e8 03 23 bd 4a 06 3f 3e 2a db 0c be 32 88 97 bd
       -0.039798647 0.18654743 -0.1375548 -0.07399024
0001b0 e4 b2 25 be 77 e4 27 be a4 11 18 3e ac ed 40 3e
       -0.16181523 -0.16395746 0.1485048 0.18840665
0001c0 f6 27 44 3e 58 3a 01 3e 30 bd c6 3d e1 85 47 be
       0.19155869 0.12619913 0.097040534 -0.19484664
0001d0 f0 05 44 be 0c 53 4f 3e 2c 67 47 bd e2 46 3e be
       -0.1914289 0.20246524 -0.048682377 -0.18581727
0001e0 07 ec 4a be ba 44 11 3e 43 7b ce bd 30 9b d1 3d
       -0.198166 0.14186373 -0.10082104 0.10234678
0001f0 c6 9a 08 be 48 3c 28 3e e3 a6 cd bd 60 2e 0a bd
       -0.13340291 0.16429245 -0.10041597 -0.033735633
