results/PlayerAgentTest/TestPlayerAgent/TestPlayerAgent-12850.onnx (onnx, 275220 bytes, 7 tensors)

network_body._body_endoder.seq_layers.0.weight f4 [128, 396]
0	0xbdabb8c4	-0.083848506
1	0xbc3ce827	-0.011529959
2	0xbc2641b9	-0.010147505
3	0x3c2500d5	0.010070999
4	0xbc54e5f7	-0.012994281
5	0xbd711479	-0.058857415
6	0xbd1518dc	-0.03640066
7	0xbd46ecdb	-0.048565727
8	0x3d655b88	0.055995494
9	0x3cb840d0	0.022491843
10	0xbc98880a	-0.018619556
11	0x3dd5fa80	0.1044817
12	0xb8bcbb3d	-8.9994144e-05
13	0x3d906f3d	0.07052467
14	0x3cb1d934	0.021710016
15	0xbd4956d7	-0.049155083
16	0xbd13689d	-0.03598844
17	0xbd4e0238	-0.050295085
18	0x3d48ae05	0.048994083
19	0xbc176320	-0.009239942
20	0x3ceb3ed0	0.028716475
21	0xbc92641e	-0.017870005
22	0x3dd789da	0.1052434
23	0xbd92c176	-0.07165806
24	0x3cf84370	0.030305594
25	0x3b1eecc2	0.0024250005
26	0xbd1b91bd	-0.037980784
27	0x3d17e28c	0.037081286
28	0xbb292abe	-0.002581283
29	0x3d3394a1	0.043842915
30	0xbcfcdf35	-0.030868152
31	0x3dd3cdff	0.10342025
32	0x3cd2ebeb	0.02574726
33	0xbd0d5c83	-0.034512054
34	0x3c125704	0.008931879
35	0xbdbd354f	-0.092386834
36	0xbca8351f	-0.020533143
37	0x3cb97053	0.022636568
38	0x3c5fc13d	0.013656911
39	0xbdae69d7	-0.08516281
40	0x3d9e851f	0.077402346
41	0x3d577928	0.052605778
42	0xbd9de895	-0.07710377
43	0x3d2e04b1	0.042484943
44	0xbc8e5dd1	-0.01737872
45	0xbcb3c2a5	-0.0219434
46	0x3c189767	0.009313441
47	0xbc970ece	-0.018439677
48	0xbcc8d447	-0.024515284
49	0x3d09c92d	0.03363912
50	0x3d16b2ec	0.036791727
51	0x3d60e8b2	0.054909416
52	0xbdf36a71	-0.118855365
53	0x3cc504d1	0.024050148
54	0xbc6df095	-0.014522691
55	0x3c1bf071	0.009517775
56	0x3d11a455	0.03555711
57	0xbda54000	-0.08068848
58	0x3c63c82d	0.013902706
59	0x3cd9f948	0.026608124
60	0xbd702839	-0.05863211
61	0xbe041eec	-0.12902421
62	0xbb4a7a8d	-0.00308958
63	0x3dd94d3b	0.10610434
64	0x3d7b6cf6	0.06138321
65	0xbbc38ede	-0.005967959
66	0x3c304921	0.010759623
67	0x3d8caa26	0.06868391
68	0xbd5b5241	-0.05354524
69	0xbd050e3f	-0.03248429
70	0x3c07366e	0.008252723
71	0xbd3db814	-0.04631813
72	0xbd27376c	-0.04082434
73	0xbc2de21a	-0.010612989
74	0xbde46d60	-0.11153674
75	0x3d59edbb	0.053205233
76	0xbc0e2392	-0.008675473
77	0xbbdfb3b2	-0.0068268413
78	0x3d7dbdb1	0.061948482
79	0xbc2c26fc	-0.0105073415
80	0xbd48593e	-0.048913233
81	0xbda3e3f0	-0.0800246
82	0xbb370d52	-0.0027931524
83	0x3d58c0bb	0.052918177
84	0xbbb1a222	-0.005420939
85	0x3da22c01	0.07918549
86	0x3ce5467a	0.027987707
87	0x3d6f0994	0.058358744
88	0xbd730188	-0.059327632
89	0x3d5ceb47	0.053935315
90	0xbc9f276a	-0.019427974
91	0x3e1ad259	0.15119304
92	0x3dbd0957	0.09230297
93	0x3d486c6c	0.048931524
94	0x3cde2792	0.027118478
95	0x3d6a15af	0.057149585
96	0xbd3ed7c1	-0.046592478
97	0x3c0453f4	0.008076657
98	0x3da363cc	0.07978019
99	0x3c973b7f	0.018460987
100	0xbc88058d	-0.01660421
101	0x3e47f694	0.19527656
102	0x3c896726	0.016772818
103	0xbcd96d3c	-0.026541345
104	0xbdd02d37	-0.10164874
105	0x3db725ef	0.08942782
106	0xbc16c752	-0.009202795
107	0xbde9eaa3	-0.114217065
108	0x3ca24043	0.019806033
109	0x3c35d983	0.011099222
110	0xbd40de99	-0.047087286
111	0x3c07efc4	0.008296911
112	0x3c872e72	0.016501639
113	0x3daa5335	0.08316652
114	0xbc6a82c2	-0.014313402
115	0xbd3ff56b	-0.04686491
116	0xbadde42c	-0.0016928962
117	0x3df141a0	0.11780095
118	0x3d263cfd	0.040585507
119	0xbd15143f	-0.03639626
120	0xbd44b97f	-0.048028465
121	0x3c7dced4	0.015491206
122	0x3da1e751	0.07905448
123	0xbd8b25a5	-0.067942895
124	0x3b70c71c	0.0036739772
125	0xbccb295f	-0.0248
126	0xbdb35800	-0.08757019
127	0xbda46021	-0.08026148
128	0xbddda3f1	-0.10822285
129	0xbd3a5d01	-0.04549885
130	0xbcba8851	-0.022770079
131	0x3d557e15	0.052122194
132	0x3ce71c42	0.028211717
133	0x3df8d208	0.12149435
134	0xbc2e4282	-0.010635974
135	0x3b43998f	0.0029846167
136	0xbc87300e	-0.016502406
137	0x3a9ae0fa	0.0011816316
138	0x3d2c91ea	0.042131342
139	0x3d2cffdb	0.04223619
140	0xbccc280c	-0.02492144
141	0x3bcf8294	0.006332705
142	0x3cddc302	0.027070526
143	0xbc9259d3	-0.017865097
144	0xbc057909	-0.008146533
145	0xbd8e5eee	-0.069517
146	0xbda6762d	-0.08128009
147	0xbcbc8ac9	-0.023015397
148	0xbd567cdd	-0.052365173
149	0x3ca6be13	0.020354306
150	0x3d20346d	0.039112497
151	0x3cd3e9f8	0.025868401
152	0xbe04a89f	-0.12954949
153	0x3d2c4c78	0.042065114
154	0xbdb73372	-0.08945359
155	0x3c3b2b15	0.011423846
156	0xbc2b5244	-0.010456625
157	0x3c3e6bb4	0.011622358
158	0x3c98694c	0.018604897
159	0x3dda02b7	0.10645049
160	0x3dace08d	0.08441267
161	0x3c87ebea	0.016591985
162	0x3d0e7877	0.034782853
163	0x3d971f35	0.07378999
164	0xbd915ca9	-0.07097752
165	0x3d056ae3	0.03257264
166	0x3c71deb6	0.014762571
167	0xbd86ea60	-0.06587672
168	0x3d277ad3	0.04088862
169	0x3d09693d	0.03354763
170	0xbd490168	-0.049073607
171	0x3ce7d112	0.028297935
172	0xbcf5cbf3	-0.030004477
173	0xbc057cf1	-0.008147464
174	0xbd2fc306	-0.0429106
175	0xbd036cb0	-0.032086074
176	0x3d7c827c	0.061647877
177	0xbde97081	-0.113984115
178	0x3dc7ca9f	0.09755444
179	0x3d8e87d6	0.069595024
180	0xbcdea638	-0.027178869
181	0x3b5906ce	0.0033115628
182	0x3d9a97b2	0.07548465
183	0xbd7eb20c	-0.062181517
184	0x3cf8f309	0.030389326
185	0x3cd7d66d	0.026347363
186	0x3d0c1878	0.034203023
187	0xbd83329c	-0.06406137
188	0x3b706ecd	0.0036687136
189	0xbca2cf22	-0.01987416
190	0xbde50653	-0.11182847
191	0xbc9438c0	-0.018093467
192	0x3b8ac821	0.004235283
193	0x3d54e39f	0.05197489
194	0xbb946016	-0.004528056
195	0x3cc66525	0.024218151
196	0xbc72c022	-0.014816316
197	0x3d39e240	0.045381784
198	0x3c415031	0.011798904
199	0xbc062959	-0.008188569
200	0x3d52f570	0.0515036
201	0x3b3aa5d5	0.0028480191
202	0x3cd0121f	0.025399266
203	0xbcd05530	-0.025431246
204	0xbb16d1ec	-0.0023013307
205	0x3c8aaff6	0.016929608
206	0xbd80e6f9	-0.062940545
207	0x3b8cda15	0.0042984583
208	0x3b729ed8	0.0037020948
209	0xbda545e2	-0.0806997
210	0x3a16f685	0.000575878
211	0x3cfc502a	0.030799944
212	0xbd2bb6b0	-0.04192227
213	0xbcb726d9	-0.022357391
214	0xbc01dc44	-0.007926051
215	0x3c453cf9	0.012038463
216	0x3d57ba48	0.052667886
217	0xbbfe9120	-0.007768765
218	0xbd12c0e2	-0.03582848
219	0x3c62a96d	0.01383434
220	0x3ca5bccd	0.020231629
221	0x3c7a820a	0.015289793
222	0x39d43393	0.00040474217
223	0xbdcbf970	-0.09959686
224	0xbd3fa7bb	-0.04679082
225	0xbcbbf379	-0.022943245
226	0xbb8a36ad	-0.0042179436
227	0xbd625234	-0.055254176
228	0xbc9b6cc8	-0.01897277
229	0x3de9f78e	0.114241704
230	0xbcc01a79	-0.023450123
231	0xbcc53a1f	-0.024075566
232	0x3c9dd9f7	0.019268973
233	0xbc9b61a1	-0.018967452
234	0xbc8d2a32	-0.017232034
235	0x3cd494a1	0.025949778
236	0x3c8ca0b2	0.01716647
237	0xbd9848d5	-0.074357666
238	0xbd2b521f	-0.041826364
239	0xbe071f7f	-0.13195609
240	0xbce26711	-0.027637037
241	0x3ce1f16d	0.027580941
242	0xbcdf6e2d	-0.027274216
243	0x3d5f3b0a	0.054499663
244	0x3c09749d	0.008389619
245	0x3d2566cb	0.040381234
246	0x3dc266a0	0.094922304
247	0xbb8e4821	-0.0043420945
248	0x3c27d293	0.010243076
249	0x3dc8ea12	0.0981027
250	0x3d98c37c	0.07459161
251	0x3ca5ba7b	0.020230522
252	0xbd00cbe3	-0.03144444
253	0xbcc96562	-0.024584476
254	0x3d89f7ca	0.06736715
255	0x3d897c6b	0.06713184

network_body._body_endoder.seq_layers.0.bias f4 [128]
0	0x3a3584a0	0.0006924365
1	0xba6de148	-0.0009074402
2	0x3a3dbc1f	0.000723781
3	0x39b2742c	0.0003403736
4	0x3b084ff0	0.00207996
5	0x3ae170e3	0.001719978
6	0x3a1b9b40	0.0005935915
7	0x391966fc	0.00014629582
8	0x38848409	6.318844e-05
9	0x3a803bd2	0.0009783453
10	0x3aeb929e	0.0017972772
11	0xbb0b0876	-0.002121476
12	0x39d869e4	0.00041277625
13	0xb9b6559f	-0.00034777538
14	0xba388254	-0.00070384634
15	0x39d6be17	0.0004095889
16	0xba4c3fe1	-0.0007791501
17	0xbb01c4ca	-0.0019801133
18	0x3a2e0d5b	0.00066395634
19	0xbac8d88b	-0.0015323324
20	0xb9d98982	-0.00041491917
21	0xb9a59f70	-0.00031590043
22	0xba339e02	-0.0006851853
23	0xbae57ae1	-0.0017507934
24	0x3b2983da	0.0025865943
25	0x3aeb3a56	0.0017946463
26	0xba3c89ca	-0.0007192163
27	0xb97aed98	-0.00023930368
28	0x3b2057bf	0.0024466363
29	0x3b15c7c2	0.002285466
30	0xb8f3c774	-0.00011624294
31	0xbae82c06	-0.0017713315
32	0x3998c56c	0.0002913879
33	0x3aad9ddc	0.0013245898
34	0x3aa68156	0.001270334
35	0xba8d016e	-0.0010757872
36	0x3a52d788	0.0008042981
37	0x3a92138f	0.0011144745
38	0xbad4af56	-0.0016226571
39	0x3a2767d4	0.0006386016
40	0x3a65b232	0.000876221
41	0x3a2f3803	0.00066840666
42	0x36ab0888	5.0971903e-06
43	0xba25b0ca	-0.0006320594
44	0xbac998ec	-0.0015380657
45	0xbb98cabb	-0.004662839
46	0xba733147	-0.0009277057
47	0x3a895314	0.001047703
48	0x3b2cea41	0.0026384743
49	0x39f212fa	0.00046171976
50	0x38e38241	0.00010848465
51	0x3a10f32d	0.00055294
52	0xba25a56b	-0.00063188997
53	0xbabb77a5	-0.0014302625
54	0xba5e3daf	-0.00084778195
55	0x3ab3013b	0.0013656983
56	0x3a15b994	0.0005711552
57	0xb948df5e	-0.00019156697
58	0x3903dbd5	0.00012575027
59	0xbb09b5d5	-0.0021012921
60	0x3a267511	0.0006349842
61	0xba82e04f	-0.0009985062
62	0xb8abc979	-8.1914426e-05
63	0x399f3258	0.00030364352
64	0xba1a6347	-0.0005889427
65	0xba16df8a	-0.0005755356
66	0x3a9a5474	0.0011774437
67	0xba148aed	-0.00056664535
68	0x3a125839	0.0005582604
69	0xba866dea	-0.0010256146
70	0xbab0d1be	-0.0013490242
71	0xb9f7bd02	-0.00047252333
72	0xb9bb76c7	-0.00035755915
73	0x3a15dc00	0.00057166815
74	0xba88ac0f	-0.0010427254
75	0x397cd217	0.00024110857
76	0x3af55a41	0.0018718914
77	0xbaa9e0a1	-0.0012960621
78	0xbaf7840a	-0.0018883955
79	0xbabae0ea	-0.0014257703
80	0xba1da2ad	-0.0006013315
81	0xbb9be8d7	-0.0047579813
82	0xbb5ab803	-0.003337384
83	0xbada4850	-0.0016653631
84	0xbac5a127	-0.0015077934
85	0x3a074016	0.0005159391
86	0xb9bf22c6	-0.00036456267
87	0xbae3bdb1	-0.0017375258
88	0xba65bc29	-0.0008763695
89	0x3a8b5fe3	0.0010633435
90	0xb99dc8d1	-0.00030094993
91	0x39f2e1ec	0.00046326162
92	0x3a0b322b	0.0005309905
93	0xbad1fa75	-0.0016020077
94	0x3b971ad8	0.0046113543
95	0x3afae466	0.0019141554
96	0x3abbad2f	0.001431858
97	0xb9911848	-0.00027674646
98	0xb9c34cc9	-0.00037250508
99	0x3942299c	0.00018516782
100	0xbacde28a	-0.0015707773
101	0xba3bf2b8	-0.0007169652
102	0xbb028f29	-0.0019921756
103	0x38919b22	6.9430345e-05
104	0xbb0a8342	-0.0021135365
105	0x3b08ac8c	0.00208548
106	0x39e4229b	0.00043513332
107	0xbb47f7b6	-0.0030512637
108	0x3a974693	0.0011541418
109	0x3a932b6b	0.001122815
110	0x3aa51b06	0.0012596555
111	0xb9a4d487	-0.00031438863
112	0xba6c207b	-0.00090075255
113	0x397315f2	0.00023182461
114	0xba1b5024	-0.00059247226
115	0xbab7cc13	-0.0014022611
116	0xb9ce2182	-0.00039316347
117	0xbade7244	-0.001697131
118	0xb9df7d90	-0.00042627426
119	0xba467748	-0.0007570875
120	0x384c37f3	4.8689497e-05
121	0xb8cd9020	-9.802007e-05
122	0xba6e2029	-0.0009083772
123	0x3ac0d3d7	0.0014711571
124	0xb9e2410f	-0.00043154552
125	0x389dcfa7	7.525022e-05
126	0xb9bdf172	-0.0003622878
127	0xb955800f	-0.00020360968

network_body._body_endoder.seq_layers.2.weight f4 [128, 128]
0	0x3dab5371	0.083655246
1	0x3c5cd098	0.013477467
2	0xb9c2e56c	-0.00037173496
3	0xbd2f6df0	-0.042829454
4	0x3c19339a	0.009350682
5	0x3dd0fe32	0.10204734
6	0xbd4f07ea	-0.050544657
7	0xbd68a113	-0.056794237
8	0x3ce89ff5	0.028396586
9	0x3cbfd16a	0.023415286
10	0xbbd5f14f	-0.0065290104
11	0x3bc37b59	0.005965632
12	0xbdbe9e97	-0.09307592
13	0x3dc453d4	0.095863014
14	0x3d90813f	0.07055902
15	0xbd356f9c	-0.044295892
16	0xbcc93707	-0.024562372
17	0xbe3096fc	-0.17245096
18	0x3ddcce92	0.10781588
19	0xbd471fd6	-0.048614345
20	0xbe0bc1dd	-0.13648172
21	0xbdc2c389	-0.095099516
22	0x3d073d9d	0.033017743
23	0x3d19f48c	0.037586734
24	0x3e6a1214	0.22858459
25	0xbd76195b	-0.060082775
26	0xbcc62347	-0.024186743
27	0xbdc95b29	-0.098318405
28	0x3d9fddb3	0.07805958
29	0x3e120631	0.14260174
30	0x3cee8249	0.02911486
31	0xbdaba2d4	-0.083806664
32	0x3d6f00c2	0.058350332
33	0x3c2a691e	0.010401038
34	0xbd1e6b1e	-0.038676374
35	0x3d5a7190	0.053330958
36	0xbd3f1115	-0.04664715
37	0x3db7f016	0.0898134
38	0x3b23490a	0.002491536
39	0x3cc1efc2	0.023673896
40	0xbd91eb4b	-0.07124957
41	0x3d662e62	0.056196578
42	0x3df37bfa	0.11888881
43	0xbd9b7858	-0.07591313
44	0xbc6058cb	-0.013693045
45	0x3ca30d43	0.019903785
46	0xbdd5683b	-0.10420271
47	0x3d9d9d0b	0.07695969
48	0xbd99fcd9	-0.0751893
49	0x3d780419	0.060550783
50	0xbd74574b	-0.05965356
51	0x3df7b03c	0.12094161
52	0x3d76b6ae	0.06023281
53	0x3d821e32	0.063534155
54	0xbcfdccbc	-0.030981414
55	0xbd8df15a	-0.069308
56	0x3d94c300	0.07263756
57	0xbc603873	-0.013685334
58	0x3d5f54c4	0.0545242
59	0xbc0fac58	-0.008769117
60	0x3e20eea7	0.15716039
61	0xbda43c03	-0.08019259
62	0xbcfbb062	-0.030723754
63	0xbe352a01	-0.17691804
64	0xbe085f53	-0.13317613
65	0x3d61c531	0.055119697
66	0x3d1e89f2	0.038705774
67	0xbd235c82	-0.039883144
68	0xbd87997c	-0.06621072
69	0x3ce31860	0.027721584
70	0x3ce2814f	0.02764955
71	0x3dc8774b	0.09788378
72	0x3d3075b9	0.04308102
73	0xbd927fde	-0.07153295
74	0xbcf59cc1	-0.029981973
75	0xbcb35c46	-0.021894585
76	0xbd032309	-0.032015834
77	0x3caa8563	0.020815557
78	0x3d8ad02b	0.06777986
79	0xbbea0ad4	-0.007142404
80	0x3ca0daad	0.019635523
81	0xbe27ca28	-0.1638571
82	0x3dd6c2e3	0.104863904
83	0xbdfe17f9	-0.12406916
84	0x3d2be8c7	0.04197004
85	0x3e6ae637	0.22939382
86	0x3e575f20	0.21032381
87	0xbd281b27	-0.04104152
88	0xbcfe2351	-0.0310227
89	0x3d91ed7b	0.07125374
90	0x3e1a9a63	0.15097956
91	0xbcdde71f	-0.027087746
92	0x3af6e997	0.0018837926
93	0x3d582162	0.05276621
94	0xbe4291b4	-0.19000894
95	0x3d50a143	0.05093504
96	0x3cc5577f	0.024089573
97	0x3da56810	0.08076489
98	0xbdb7753e	-0.08957909
99	0x3c961d29	0.018324452
100	0xbca1d51f	-0.019754944
101	0x3d57e011	0.05270392
102	0xbd11feb1	-0.035643283
103	0xbd9663ad	-0.073432304
104	0x3d83e606	0.06440358
105	0x3dda78d8	0.1066758
106	0xbdce5258	-0.100742996
107	0xbcf318f2	-0.02967498
108	0xbe1eefee	-0.15521213
109	0xbcba0e4d	-0.022711897
110	0x3dd1eadc	0.10249874
111	0x3dd98050	0.10620177
112	0xbc7a28ba	-0.015268499
113	0x3e39a9d0	0.18131185
114	0xbdaab71b	-0.08335706
115	0x3dba50d2	0.090974465
116	0xbe3b3e21	-0.18285419
117	0xbe02da4d	-0.12778588
118	0xbbb6f518	-0.0055834167
119	0xbd2423e5	-0.040073294
120	0x3df7e2a9	0.12103779
121	0xbbbe4e4e	-0.0058076745
122	0xbe295bd4	-0.16538936
123	0xbe0a992d	-0.13534994
124	0xbd432509	-0.04764274
125	0xbe07165e	-0.13192126
126	0xbda946da	-0.08265467
127	0xbc3c7765	-0.011503075
128	0xbdc9c294	-0.09851566
129	0x3def7ee0	0.11694121
130	0x3d9a84b2	0.07544841
131	0xbda50299	-0.08057136
132	0xbdb78717	-0.08961313
133	0xbc953300	-0.018212795
134	0x3e0c8806	0.13723764
135	0xbe0a55ba	-0.13509265
136	0xbd38f3df	-0.04515445
137	0x3c820e8c	0.015876077
138	0xbd93fdab	-0.07226118
139	0xbce98210	-0.028504401
140	0xbd4fb083	-0.050705444
141	0x3c3ec784	0.011644248
142	0x3e74c651	0.23903777
143	0xbd8f81f4	-0.070072085
144	0xbd9928e9	-0.07478506
145	0x3d77daf5	0.060511548
146	0x3dfd204c	0.12359676
147	0xbd339f81	-0.043853287
148	0xbc8f4def	-0.017493216
149	0xbe30486e	-0.1721513
150	0xbddbb9be	-0.10728787
151	0x3b28415f	0.002567373
152	0xbcc825b2	-0.024432037
153	0x3ddd0dc5	0.10793642
154	0xbd3a9e64	-0.04556121
155	0x3ddd458d	0.108042814
156	0xbe408cdf	-0.18803738
157	0xbde0c46b	-0.10974964
158	0xbd1f360d	-0.038869906
159	0x3c9cc8bf	0.019138692
160	0xbd055967	-0.032555964
161	0xbd6eff59	-0.058348987
162	0xbe2196ae	-0.15780136
163	0xbd58aa01	-0.052896503
164	0x3d9e8b2c	0.07741389
165	0x3dede98f	0.116168134
166	0x3d30efd5	0.04319747
167	0xbd05f666	-0.032705687
168	0x3de80ae7	0.113302045
169	0xbd012370	-0.031527936
170	0x3d843ad9	0.06456537
171	0x3da01892	0.078171864
172	0xbd277f45	-0.040892858
173	0x3d5980f6	0.053101502
174	0xbc9e9116	-0.019356292
175	0x3caf7c14	0.02142147
176	0xbdd092fd	-0.10184286
177	0x39dc682b	0.0004203928
178	0x3b48f726	0.003066489
179	0x3e15dd1b	0.14635126
180	0xbb437a10	-0.0029827394
181	0xbde6654e	-0.11249791
182	0xbdb89685	-0.09013084
183	0xbd26c133	-0.040711593
184	0xbd0298b8	-0.031883925
185	0xbdad36cf	-0.084577195
186	0x3d8c443b	0.068489514
187	0xbdd1460c	-0.102184385
188	0x3e66ca1d	0.22538038
189	0x3df33659	0.118756
190	0x3c975b1f	0.018476067
191	0x3da21509	0.079141684
192	0xbdf8f48b	-0.12156018
193	0x3dd2f940	0.10301447
194	0xbe22dc76	-0.15904412
195	0xbdd24449	-0.102669306
196	0x3d8d158a	0.06888874
197	0x3de43411	0.111427434
198	0xbd117a89	-0.03551725
199	0xbaf05409	-0.0018335591
200	0x3dc5b9d5	0.09654585
201	0xbd09a64e	-0.033605866
202	0xbd1a85be	-0.037725203
203	0xbe572680	-0.2101078
204	0xbd3325d8	-0.043737262
205	0x3d495745	0.049155492
206	0xbd3ddd98	-0.046353906
207	0xbd88a6b1	-0.06672419
208	0x3dca8db1	0.09890307
209	0x3dddef28	0.10836631
210	0xbd0b189d	-0.03395902
211	0x3de5e5ce	0.112254724
212	0xbc1772a5	-0.009243642
213	0x3e72b5a6	0.23702106
214	0xbdfc4393	-0.12317576
215	0xbda8bc62	-0.08239056
216	0xbe299884	-0.16562086
217	0xbd4a554a	-0.049397744
218	0xbdac3120	-0.08407807
219	0xbb9d38b7	-0.0047980207
220	0x3c5f9eef	0.013648733
221	0x3df6b8bd	0.12046955
222	0xbc13e0a4	-0.0090257265
223	0xbdda7fb9	-0.106688924
224	0x3c9ca233	0.019120311
225	0x3ca84c63	0.020544237
226	0x3d55519d	0.052079786
227	0x3c84deeb	0.016219577
228	0xbdcb394f	-0.0992304
229	0x3d85da5d	0.0653579
230	0x3d8329fa	0.06404491
231	0xbd47088f	-0.048592146
232	0x3e68d9b8	0.22739303
233	0x3dbb764d	0.091534235
234	0xbc205f3f	-0.009788333
235	0x3e1e9849	0.1548778
236	0xbde95076	-0.113923
237	0xbde59ad7	-0.11211174
238	0x3b819f14	0.003955731
239	0xbdb83b29	-0.08995659
240	0xbd972c3e	-0.073814854
241	0x3d1a5c7e	0.037685864
242	0xbc9331c9	-0.017968075
243	0x3e4b07d2	0.19827202
244	0xbd3fc689	-0.046820197
245	0xbd4df0cc	-0.05027847
246	0x3e1ec403	0.1550446
247	0x3e0506db	0.12990896
248	0xbe4e209f	-0.20129631
249	0xbd4ad676	-0.049520932
250	0x3c587974	0.01321255
251	0xbe2352ba	-0.15949526
252	0xbd7d19da	-0.061792232
253	0x3d2dc627	0.0424253
254	0xbcc1532d	-0.023599232
255	0x3d0c6298	0.034273714

network_body._body_endoder.seq_layers.2.bias f4 [128]
0	0x3a63d5c6	0.00086912175
1	0xb8ad1589	-8.253294e-05
2	0x39eeac44	0.00045523245
3	0xba659fe3	-0.0008759482
4	0xbb12629d	-0.002233661
5	0xb924c093	-0.00015711998
6	0xba2f36de	-0.0006683896
7	0x3ab45462	0.0013758058
8	0xbae9a925	-0.0017826898
9	0xba26d86b	-0.0006364646
10	0xbb437b06	-0.0029827966
11	0xbb126d8c	-0.0022343127
12	0x3b227571	0.0024789239
13	0xbad20bbd	-0.0016025227
14	0x3a23c55a	0.0006247364
15	0xba317c59	-0.00067705434
16	0xbaa3720d	-0.0012469903
17	0xbaaf1692	-0.0013358167
18	0xb9f7c1f7	-0.00047256026
19	0xba870ed3	-0.00103041
20	0xbaa09359	-0.0012250944
21	0xb92a949e	-0.00016267828
22	0x3a12f0d7	0.0005605346
23	0x3aab061d	0.0013048087
24	0xb9adc40a	-0.00033143192
25	0x39a52930	0.0003150194
26	0x394c0add	0.00019459003
27	0xba422e78	-0.0007407437
28	0xb926dd80	-0.00015913509
29	0x3a0ba660	0.0005327221
30	0x39b597d8	0.00034636143
31	0x3a7f00ad	0.0009727579
32	0x390aa861	0.00013223432
33	0x3ae5e7e5	0.0017540423
34	0xb9febf0e	-0.00048589002
35	0xb937930b	-0.00017507018
36	0x39a41655	0.00031297156
37	0xba0bf359	-0.0005338691
38	0xba4b0b79	-0.0007745545
39	0x3a0ff78d	0.0005491905
40	0xb9b79c6f	-0.00035021032
41	0x3a169dc2	0.00057455536
42	0x3a95e672	0.0011436476
43	0x3a16dbed	0.00057548174
44	0x3ad6e159	0.0016394063
45	0xbab88522	-0.0014077763
46	0x3a50418f	0.00079443393
47	0xba651831	-0.00087392615
48	0x3ab4451f	0.001375351
49	0x39c69660	0.0003787754
50	0xbacea6e0	-0.0015766285
51	0x3a0fe4d3	0.00054891146
52	0x3b047d26	0.0020216196
53	0x3ac2e1b6	0.0014868292
54	0xba5bf1f0	-0.00083902385
55	0xbb0d44de	-0.002155594
56	0x39135228	0.00014049618
57	0x3ace5f9e	0.0015745049
58	0xbaaa77ea	-0.0013005708
59	0xba96554a	-0.001146951
60	0xb89aa763	-7.3744704e-05
61	0xb81feeb8	-3.813088e-05
62	0xb914c039	-0.00014185988
63	0x3a5fe5da	0.00085410255
64	0x3a976271	0.0011549724
65	0x39f238a6	0.00046200043
66	0xbab86c5f	-0.0014070383
67	0xb8d91840	-0.00010351883
68	0xba8de485	-0.001082555
69	0xb70f24f8	-8.532072e-06
70	0xba809d21	-0.0009812453
71	0xbb58c11a	-0.0033074082
72	0x3ab064ed	0.0013457813
73	0xba6e0d8a	-0.0009080997
74	0xbacaa426	-0.0015460297
75	0xbaf89a00	-0.0018966794
76	0xbaa9d587	-0.0012957313
77	0xbaedf096	-0.0018153365
78	0x39d01a17	0.0003969229
79	0xbb7c8559	-0.003853163
80	0x39ed49a5	0.00045259032
81	0xbb528b0f	-0.0032126342
82	0x3b31d272	0.0027133492
83	0xb9ee89ec	-0.00045497657
84	0xbaad107f	-0.0013203769
85	0x3ab67f72	0.001392348
86	0xb9cd7e68	-0.00039194827
87	0x3a7d8e39	0.0009672377
88	0xba1f3a15	-0.00060740235
89	0x3abb4398	0.0014287112
90	0x3a93425e	0.0011234989
91	0xba1c4f05	-0.00059627026
92	0x3aa1db8b	0.0012348754
93	0x3acf11d1	0.0015798156
94	0x3b63fc19	0.0034787713
95	0xb963641d	-0.00021685702
96	0xb88a3933	-6.591007e-05
97	0x39a66828	0.0003173959
98	0x39bbbac6	0.00035806576
99	0xbaa92389	-0.0012904267
100	0xba9324ac	-0.0011226139
101	0x3a7c2d53	0.0009619791
102	0x38be0cfc	9.0623245e-05
103	0x3a081837	0.00051915966
104	0x3a4c6d3a	0.00077982584
105	0x3a52d51a	0.0008042619
106	0x3a97275f	0.0011532119
107	0xb8c899d4	-9.565396e-05
108	0xb94c48b7	-0.00019482044
109	0x3a88640f	0.0010405796
110	0xba4c24e4	-0.00077874796
111	0x3a07dd09	0.0005182778
112	0x383b03f0	4.458794e-05
113	0x3b93998b	0.0045043877
114	0xbb225513	-0.0024769946
115	0x3ab338d9	0.0013673558
116	0x39dcf9d9	0.0004214782
117	0x3a90bf96	0.0011043425
118	0x3a168be0	0.0005742889
119	0x3a95f1e4	0.0011439887
120	0x3932fa96	0.00017068753
121	0xbb5d7192	-0.0033789617
122	0xba8dfcf9	-0.0010832838
123	0x3ad53efa	0.0016269379
124	0xb9e40bbd	-0.00043496295
125	0xb915b72c	-0.00014277984
126	0xba7ee799	-0.0009723842
127	0x3ae09833	0.0017135203

action_model._continuous_distribution.log_sigma f4 [1, 6]
0	0xbaec7a35	-0.0018041792
1	0xbb9ac2d3	-0.004722932
2	0xbb8b71ea	-0.004255523
3	0xba942b87	-0.0011304476
4	0x3a8d07f2	0.0010759814
5	0x3a11734d	0.0005548492

action_model._continuous_distribution.mu.weight f4 [6, 128]
0	0xbc8462cf	-0.016160397
1	0xbcf2eb54	-0.029653229
2	0xbb9a4a09	-0.0047085327
3	0x3ca22558	0.019793198
4	0x3ce68fca	0.028144736
5	0xbcf5477a	-0.02994131
6	0x3c693b90	0.014235392
7	0xbc7fe1bf	-0.015617787
8	0x3cce8c9d	0.025213534
9	0xbc83abfa	-0.016073216
10	0xbc3b520f	-0.0114331385
11	0x3c2e9bd4	0.0106572695
12	0xbad76334	-0.0016432763
13	0xba9b8509	-0.0011865209
14	0x3b1ff6b8	0.002440853
15	0x3c0ac486	0.008469706
16	0x3bc92ffb	0.006139753
17	0x3b787dc1	0.0037916752
18	0x39b94e3f	0.00035344248
19	0xbc1db0e3	-0.009624693
20	0x3ced34e4	0.028955884
21	0x3c2104e1	0.009827823
22	0xbbcb512b	-0.0062047443
23	0xbcce0976	-0.025150996
24	0x3b234f12	0.0024918956
25	0xbc994047	-0.018707408
26	0xbabfca51	-0.0014632439
27	0x3cde26e1	0.027118148
28	0xbc545dc3	-0.012961808
29	0xbc427be4	-0.011870358
30	0xbbf5fe8a	-0.00750715
31	0xbc9cc8fd	-0.019138807
32	0x3c84396c	0.016140662
33	0xbc5a76a3	-0.013333949
34	0x3a7fc51b	0.0009756849
35	0xb81f1198	-3.792494e-05
36	0xb9dec1c7	-0.00042487515
37	0xbcee6d53	-0.029104864
38	0x3c3a43cb	0.011368702
39	0x3c22a5b4	0.009927202
40	0x3cc18cb9	0.023626672
41	0x3c3dd7f4	0.011587132
42	0x3b283176	0.0025664247
43	0x3af3a51d	0.0018588636
44	0xbb8d07b7	-0.004303898
45	0x3d329ab8	0.043604583
46	0xbcf2add0	-0.029623896
47	0xbbaeb23f	-0.005331307
48	0xbd2b4975	-0.0418181
49	0x3d3d6695	0.046240408
50	0x3b8ca207	0.004291776
51	0x3b6bda8b	0.0035988416
52	0xbbabfd69	-0.0052487147
53	0xbd18f72a	-0.03734509
54	0xbab03b21	-0.0013445356
55	0xbca7d2b1	-0.020486208
56	0xbbe29905	-0.006915214
57	0xbb9136c9	-0.0044315797
58	0x3a4d6dcb	0.000783649
59	0x3c81dbcc	0.015851878
60	0x3a9a6d65	0.001178187
61	0x3b9141b6	0.004432882
62	0x3b4f32c4	0.0031615952
63	0xbca9cef6	-0.02072857
64	0x3b30a774	0.0026955279
65	0xbccdab83	-0.025106197
66	0x3cc6077c	0.02417349
67	0xbc1a690e	-0.009424461
68	0xbc8ba76a	-0.017047603
69	0x3c6f494b	0.014604877
70	0x3cd4cc7e	0.025976416
71	0x3cc631d1	0.024193676
72	0xbcaa5463	-0.020792192
73	0x3c498ad7	0.012301168
74	0x3acb430a	0.001550765
75	0x3c54edae	0.01299612
76	0x3af4d22b	0.0018678358
77	0xbc41b75b	-0.0118235005
78	0x3be54ac4	0.006997438
79	0x3bc781bd	0.006088464
80	0xbcd63bc7	-0.026151551
81	0x3af934c3	0.0019012917
82	0xbb79d21e	-0.0038119624
83	0x3c200bdc	0.0097684525
84	0x3cfb6e93	0.030692374
85	0x3c28f306	0.010311848
86	0x3b95af34	0.004568005
87	0xbbb7c30a	-0.0056079673
88	0x3d0f18a9	0.034935627
89	0x3c993b36	0.018704992
90	0xbc952e37	-0.018210514
91	0x3d213b75	0.039363343
92	0xbcb17e66	-0.021666717
93	0xbc829ccf	-0.015943913
94	0xbb7aa381	-0.0038244429
95	0x3c4136e3	0.011792871
96	0xbbaa2154	-0.0051919613
97	0x3c38a67c	0.011270162
98	0xba916d22	-0.0011095146
99	0x3c0b055f	0.008485167
100	0xbad359ad	-0.0016124748
101	0x3c080980	0.008303046
102	0x3a6739a8	0.0008820542
103	0xbc3265f5	-0.010888566
104	0xbd063f5d	-0.03277527
105	0xbcb8d575	-0.022562722
106	0xbc02ad29	-0.007975855
107	0x3c4f6164	0.012657497
108	0x3b704113	0.003665988
109	0xbc9c1bc6	-0.019056212
110	0x3c8631a0	0.016381085
111	0xbc808bed	-0.015691722
112	0xbc1249a1	-0.008928687
113	0x3a93658d	0.0011245474
114	0x3c82e16f	0.015976636
115	0xbc21eb83	-0.0098828105
116	0x3ba8de25	0.005153435
117	0xba3cf340	-0.0007207878
118	0x3bb3b5d1	0.0054843207
119	0xbc801702	-0.015635971
120	0x3bb0e940	0.0053988993
121	0x3be4d364	0.0069832075
122	0x3c9dc96e	0.019261088
123	0xbbed3ca6	-0.007239896
124	0xbc205942	-0.009786906
125	0xbbecd5dd	-0.007227643
126	0xbc81831a	-0.015809584
127	0x3b161718	0.0022901949
128	0x3baaeaca	0.0052159773
129	0xbc7685fe	-0.015046595
130	0x3b147f60	0.002265893
131	0x3cb9a97c	0.022663824
132	0x3aad56d1	0.0013224726
133	0xbc9298af	-0.01789507
134	0xbc80ca41	-0.015721442
135	0x3c1ca01c	0.009559657
136	0xbbe968a3	-0.0071230694
137	0x3be89d21	0.0070988094
138	0x3c8ad19d	0.016945655
139	0xbd3d5fa7	-0.0462338
140	0x3ce4eb98	0.027944371
141	0xbb29b1e3	-0.0025893382
142	0x3c3f6b6d	0.011683327
143	0x3cd6fa66	0.026242446
144	0xbc916784	-0.017749555
145	0xbc8c77ef	-0.017147033
146	0xbb47a863	-0.0030465357
147	0x3cf870df	0.030327259
148	0x3b78ada7	0.0037945302
149	0xbc7c2580	-0.0153898
150	0x3b5f506f	0.0034075042
151	0xb90c58ba	-0.00013384494
152	0xbb858e09	-0.00407577
153	0xbc99cc33	-0.018774128
154	0xbbe742de	-0.0070575317
155	0xbb3bb9c1	-0.0028644654
156	0xbc927b9f	-0.017881213
157	0xbc3a914b	-0.01138718
158	0xbbc00527	-0.005859989
159	0xbb949baf	-0.0045351605
160	0x3c3f7517	0.011685631
161	0x3c8edbd9	0.017438816
162	0xbcd7ec11	-0.026357682
163	0x3baba4a9	0.005238135
164	0x3c122038	0.008918814
165	0xbd03e6e2	-0.03220261
166	0xbc8e8df6	-0.017401677
167	0x3d4b6444	0.049656168
168	0x3cbd6a4d	0.023121977
169	0x3c1af675	0.009458174
170	0x3d1ef925	0.03881182
171	0x3b0afcaf	0.002120774
172	0xbc77514e	-0.015095068
173	0xbc84f60a	-0.016230602
174	0x3d017d7d	0.031613816
175	0x3a99f135	0.0011744859
176	0x3b211c26	0.0024583428
177	0x3bb4ebc5	0.00552127
178	0xbba824c3	-0.0051313355
179	0x3c1d114d	0.009586644
180	0x3c992025	0.018692086
181	0x3b7f9abf	0.0039002148
182	0x3ab1e698	0.0013572751
183	0x3b85dc57	0.0040851044
184	0xbb49424a	-0.0030709677
185	0x3ca0463a	0.019564737
186	0xbd079119	-0.03309736
187	0xbb2dd25d	-0.0026523091
188	0x3c5abb83	0.01335037
189	0x3bda5f2b	0.006664177
190	0x3c5d6e82	0.013515117
191	0x380661be	3.203912e-05
192	0x3cbf65dd	0.023364002
193	0xbc390a0b	-0.011293898
194	0x3c310696	0.010804793
195	0xbc400397	-0.011719606
196	0xbc86e161	-0.01646489
197	0x3c7b95b7	0.015355519
198	0x3d175c44	0.036953226
199	0xbcc5b0c5	-0.024132142
200	0xbbde7662	-0.0067890147
201	0xbb986bba	-0.004651514
202	0xbcaf0c49	-0.021368163
203	0xbcb273a2	-0.021783654
204	0xbd31ddfc	-0.04342459
205	0xbcc689f6	-0.024235707
206	0x3d34e48b	0.044163268
207	0xbb371b6f	-0.0027939936
208	0xbcc602cb	-0.024171254
209	0xbb578219	-0.003288394
210	0x3d024e68	0.031813055
211	0x3bbe0bde	0.0057997545
212	0x3cc9dc40	0.024641156
213	0xbba947f1	-0.005166047
214	0x3bbad810	0.005702026
215	0x3c1b5d1c	0.009482648
216	0x3cc93cfa	0.024565209
217	0xbc679d59	-0.014136636
218	0x3cd95750	0.026530892
219	0xbb793b08	-0.003802957
220	0x3cc13ac6	0.023587596
221	0x3ba22cbe	0.0049491813
222	0x3c7c3e11	0.015395657
223	0x3c4df9ec	0.012571793
224	0x3ca4f171	0.02013466
225	0x3cd20f00	0.025641918
226	0x3cd2c07e	0.025726553
227	0xbca99ae6	-0.020703744
228	0xbc6467a0	-0.013940722
229	0xbc7d61b2	-0.015465187
230	0xbac7127a	-0.0015188002
231	0xbad32730	-0.0016109701
232	0x3bc644b6	0.0060506715
233	0xbc3a54ef	-0.011372789
234	0xbd117bfc	-0.03551863
235	0xbc6eea66	-0.014582252
236	0x3c09410b	0.008377324
237	0x3a4afc5d	0.00077432935
238	0x3c9e5aff	0.0193305
239	0x3c92bbce	0.017911818
240	0xbbb76354	-0.0055965576
241	0x3c4588c4	0.012056533
242	0x3a957cdd	0.001140501
243	0xbc053995	-0.008131404
244	0x3b577e3f	0.0032881645
245	0x3c2acfff	0.010425567
246	0xbbec3bb9	-0.007209268
247	0x3c248365	0.0100410925
248	0xbb2624cc	-0.0025351522
249	0xbc0dc905	-0.008653884
250	0x3c75c130	0.014999673
251	0x3b6eb351	0.00364228
252	0x3b9d3028	0.0047970004
253	0x3c2f5613	0.010701674
254	0xbcc98734	-0.024600603
255	0x3c2c1806	0.0105037745

action_model._continuous_distribution.mu.bias f4 [6]
0	0xbac55b45	-0.0015057108
1	0x3aa1d2a9	0.0012346107
2	0x3a20ee07	0.00061389845
3	0xba2922d5	-0.0006452029
4	0x3a3a688d	0.0007110916
5	0x37ce9315	2.4625604e-05
