results/PlayerAgentTest/TestPlayerAgent/TestPlayerAgent-200.onnx (onnx, 274768 bytes, 6 tensors)

network_body._body_endoder.seq_layers.0.weight f4 [128, 396]
0.037082963 -0.0075810757 -0.017379766 0.032318454 0.030235454 -0.01475922 -0.04716505 -0.037719622
-0.012470497 0.0028267356 0.055050705 0.03174719 0.019115962 0.06821502 0.050720572 -0.013878018
-0.0096713295 -0.0324218 0.12222424 0.01395385 0.033981394 -0.049814437 -0.04776552 -0.03415411
0.0051621203 -0.045687858 -0.013753998 0.05029191 -0.16059402 0.08172565 -0.013767814 -0.09078121
-0.12518167 -0.069753155 -0.05031318 -0.026922313 0.105817035 0.019585103 -0.07744548 0.0072988854
0.020269005 -0.03786668 0.02394505 -0.048055004 0.013473689 -0.026218323 -0.019497743 0.03040499
0.06318668 -0.028936047 -0.08618163 -0.028129475 0.014784778 0.027559029 -0.045889787 -0.00607954
-0.03668455 -0.039128453 0.06666869 -0.0008252368 0.0025951287 0.004619024 -0.049220838 0.03276066
0.033723295 0.08068252 0.07313691 -0.07264875 0.04478005 0.04486386 0.04424118 0.0050923927
0.024518033 0.06570729 -0.055223033 0.0005014737 -0.0055987057 0.0016683502 -0.0060112597 0.061284784
-0.018581327 -0.005967647 0.10743147 0.12891561 0.05311641 0.067299865 -0.089216426 -0.029372586
-0.05449986 0.018624758 0.0041462635 -0.08173303 -0.05540433 -0.041853808 -0.0757483 -0.025075305
-0.0024921824 -0.03295674 0.039164826 0.034634948 0.07386871 0.012891249 -0.014137961 -0.03773651
-0.012449783 0.023640348 0.06619856 0.0024972814 -0.05548446 -0.035210468 -0.04003245 0.031688295
-0.027831461 -0.04874005 0.08014332 -0.02185864 0.013271948 0.05893442 0.060558323 0.0016325508
-0.08352742 -0.0030406993 0.11033358 0.0011189828 -0.03884684 0.09505717 -0.019322315 -0.07304403
-0.066723265 0.05603523 -0.06678933 -0.019307833 0.008401204 -0.0469049 0.0050123436 0.014349626
-0.12043642 -0.0032969073 0.025819644 -0.02886029 0.09248314 -0.03354514 -0.0053536976 0.040668216
0.039127007 0.083128065 -0.03529164 0.04691069 0.009139932 0.093376614 0.05938137 -0.0059658973
0.05223035 0.014729707 -0.01428724 0.073816806 -0.07309151 -0.006017133 -0.085982144 -0.011257409
0.02489249 0.006032275 0.008992109 0.026509836 -0.06759082 -0.019696597 0.0068870136 -0.012756369
-0.0041764188 -0.0036599454 0.07875043 -0.00973765 -0.08981652 -0.013230695 0.043896213 0.022592325
0.10551057 0.07678852 0.010975323 0.020109555 -0.06145603 -0.04045128 0.022805575 -0.05151228
-0.07239276 0.053503122 -0.015422995 0.033399478 0.034261893 -0.08414402 0.015303094 -0.0016464309
0.064511575 0.0014681638 0.00021721497 -0.0032552667 0.017806973 0.1492623 0.064744815 0.030714
-0.043837536 0.084332384 0.061669413 -0.07476693 -0.06593748 -0.00019093334 -0.015167375 0.12830986
-0.009222649 -0.051161584 0.029977307 -0.05415157 -0.07030602 -0.047213014 0.03602902 -0.01375885
0.00031940432 -0.0189667 -0.0032668172 0.032702535 0.05540348 -0.0053584655 -0.08961688 -0.07956108
0.028866636 0.019236423 0.0032450221 -0.11413511 0.022347614 0.047872644 0.01928913 -0.08185397
0.015866876 0.036538906 0.015051314 -0.0005430826 0.07555407 0.031299718 0.066561796 -0.05060432
-0.070774384 -0.0008535864 -0.070611425 -0.027181672 0.032812856 -0.0045190486 0.0061030216 -0.086911924
0.01885197 0.035871234 0.11703439 -0.06427214 -0.06923932 -0.081134595 -0.032074068 0.005369865
00000000: 4ee4 173d ac6a f8bb 0360 8ebc 5b60 043d
00000010: 58b0 f73c a8d0 71bc 2430 41bd e47f 1abd
00000020: 0e51 4cbc c140 393b d97c 613d 5709 023d
00000030: 1499 9c3c 51b4 8b3d 60c0 4f3d a060 63bc
00000040: 7f74 1ebc b9cc 04bd b450 fa3d b09e 643c
00000050: 1330 0b3d 390a 4cbd c7a5 43bd 2ee5 0bbd
00000060: 0127 a93b 3123 3bbd 7358 61bc e4fe 4d3d
00000070: c272 24be c75f a73d 6692 61bc 80eb b9bd
00000080: a02f 00be beda 8ebd 3115 4ebd 2f8c dcbc
00000090: 9ab6 d83d f070 a03c bc9b 9ebd 7d2b ef3b
000000a0: 2f0b a63c 181a 1bbd 6928 c43c 53d5 44bd
000000b0: bfc0 5c3c cfc7 d6bc bbb9 9fbc e313 f93c
000000c0: 0568 813d 4a0b edbc ff7f b0bd c96f e6bc
000000d0: da3b 723c 79c3 e13c eef6 3bbd e136 c7bb
000000e0: 8a42 16bd 2845 20bd 9889 883d b454 58ba
000000f0: 0913 2a3b 2f5b 973b ca9b 49bd 0b30 063d
00000100: 7021 0a3d e13c a53d cec8 953d dec8 94bd
00000110: 496b 373d 2bc3 373d 3d36 353d 16de a63b
00000120: 0bda c83c 8b91 863d 8c31 62bd 5575 033a
00000130: 5975 b7bb 8bac da3a 1afa c4bb c105 7b3d
00000140: de37 98bc 408c c3bb 0805 dc3d 7402 043e
00000150: 9890 593d 83d4 893d 1ab7 b6bd c79e f0bc
00000160: 3f3b 5fbd f392 983c 61dd 873b a663 a7bd
00000170: a7ef 62bd e66e 2bbd ed21 9bbd ba6a cdbc
00000180: e253 23bb a6fd 06bd 4c6b 203d 60dd 0d3d
00000190: 7a48 973d d135 533c e8a2 67bc 9991 1abd
000001a0: 2dfa 4bbc 67a9 c13c 1c93 873d 6ea9 233b
000001b0: ac43 63bd da38 10bd 11f9 23bd 96cb 013d
000001c0: cefe e3bc a6a3 47bd 2e22 a43d e410 b3bc
000001d0: 9672 593c 3865 713d 010c 783d 51fb d53a
000001e0: 6d10 abbd 7846 47bb 92f6 e13d d5aa 923a
000001f0: dd1d 1fbd 55ad c23d d549 9ebc 1c98 95bd
00000200: 35a6 88bd 3385 653d d8c8 88bd 762b 9ebc
00000210: 34a5 093c 5a1f 40bd 963e a43b b21a 6b3c
00000220: 5fa7 f6bd ed10 58bb b883 d33c 6a6c ecbc
00000230: cd67 bd3d a166 09bd 126e afbb b793 263d
00000240: a443 203d 0c3f aa3d f78d 10bd 6c25 403d
00000250: a7bf 153c 3d3c bf3d e139 733d 937d c3bb
00000260: 7eef 553d de54 713c 0715 6abc 442d 973d
00000270: 00b1 95bd 5f2b c5bb 6817 b0bd ff70 38bc
00000280: 56eb cb3c 64aa c53b a453 133c 282b d93c
00000290: 0e6d 8abd c25a a1bc 75ac e13b 1700 51bc
000002a0: 57da 88bb b2db 6fbb e847 a13d aa8a 1fbc
000002b0: b9f1 b7bd 8fc5 58bc 84cc 333d 8a13 b93c
000002c0: ed15 d83d 4d43 9d3d d7d1 333c cbbc a43c
000002d0: 51b9 7bbd 3eb0 25bd c2d2 ba3c 8afe 52bd
000002e0: a842 94bd 1726 5b3d bbb0 7cbc e4cd 083d
000002f0: 3356 0c3d b353 acbd d4b9 7a3c 0ecd d7ba
00000300: a51e 843d 676f c03a 33c4 6339 5056 55bb
00000310: eedf 913c 37d8 183e ee98 843d ed9b fb3c
00000320: fd8e 33bd 75b6 ac3d 1199 7c3d 671f 99bd
00000330: 3b0a 87bd 4735 48b9 9580 78bc a963 033e
00000340: 981a 17bc cf8e 51bd f892 f53c 09ce 5dbd
00000350: 9afc 8fbd 6f62 41bd 2a93 133d cd6c 61bc
00000360: b975 a739 0e60 9bbc 1918 56bb 18f3 053d
00000370: c2ee 623d 1196 afbb 0e89 b7bd ebf0 a2bd
00000380: b979 ec3c b495 9d3c 70aa 543b abbf e9bd
00000390: 5812 b73c 1b16 443d 3d04 9e3c 0ea3 a7bd
000003a0: 40fb 813c d2a9 153d c999 763c a85d 0eba
000003b0: 18bc 9a3d 2234 003d 8d51 883d 7a46 4fbd
000003c0: 29f2 90bd 37c3 5fba b99c 90bd 19ac debc
000003d0: c666 063d 8714 94bb dbfb c73b e1fe b1bd
000003e0: 726f 9a3c b7ed 123d baaf ef3d 1da1 83bd
000003f0: 58cd 8dbd e529 a6bd 1960 03bd b1f5 af3b

network_body._body_endoder.seq_layers.0.bias f4 [128]
0.0 0.0 0.0 0.0 0.0 0.0 0.0 0.0
0.0 0.0 0.0 0.0 0.0 0.0 0.0 0.0
0.0 0.0 0.0 0.0 0.0 0.0 0.0 0.0
0.0 0.0 0.0 0.0 0.0 0.0 0.0 0.0
0.0 0.0 0.0 0.0 0.0 0.0 0.0 0.0
0.0 0.0 0.0 0.0 0.0 0.0 0.0 0.0
0.0 0.0 0.0 0.0 0.0 0.0 0.0 0.0
0.0 0.0 0.0 0.0 0.0 0.0 0.0 0.0
0.0 0.0 0.0 0.0 0.0 0.0 0.0 0.0
0.0 0.0 0.0 0.0 0.0 0.0 0.0 0.0
0.0 0.0 0.0 0.0 0.0 0.0 0.0 0.0
0.0 0.0 0.0 0.0 0.0 0.0 0.0 0.0
0.0 0.0 0.0 0.0 0.0 0.0 0.0 0.0
0.0 0.0 0.0 0.0 0.0 0.0 0.0 0.0
0.0 0.0 0.0 0.0 0.0 0.0 0.0 0.0
0.0 0.0 0.0 0.0 0.0 0.0 0.0 0.0
00000000: 0000 0000 0000 0000 0000 0000 0000 0000
00000010: 0000 0000 0000 0000 0000 0000 0000 0000
00000020: 0000 0000 0000 0000 0000 0000 0000 0000
00000030: 0000 0000 0000 0000 0000 0000 0000 0000
00000040: 0000 0000 0000 0000 0000 0000 0000 0000
00000050: 0000 0000 0000 0000 0000 0000 0000 0000
00000060: 0000 0000 0000 0000 0000 0000 0000 0000
00000070: 0000 0000 0000 0000 0000 0000 0000 0000
00000080: 0000 0000 0000 0000 0000 0000 0000 0000
00000090: 0000 0000 0000 0000 0000 0000 0000 0000
000000a0: 0000 0000 0000 0000 0000 0000 0000 0000
000000b0: 0000 0000 0000 0000 0000 0000 0000 0000
000000c0: 0000 0000 0000 0000 0000 0000 0000 0000
000000d0: 0000 0000 0000 0000 0000 0000 0000 0000
000000e0: 0000 0000 0000 0000 0000 0000 0000 0000
000000f0: 0000 0000 0000 0000 0000 0000 0000 0000
00000100: 0000 0000 0000 0000 0000 0000 0000 0000
00000110: 0000 0000 0000 0000 0000 0000 0000 0000
00000120: 0000 0000 0000 0000 0000 0000 0000 0000
00000130: 0000 0000 0000 0000 0000 0000 0000 0000
00000140: 0000 0000 0000 0000 0000 0000 0000 0000
00000150: 0000 0000 0000 0000 0000 0000 0000 0000
00000160: 0000 0000 0000 0000 0000 0000 0000 0000
00000170: 0000 0000 0000 0000 0000 0000 0000 0000
00000180: 0000 0000 0000 0000 0000 0000 0000 0000
00000190: 0000 0000 0000 0000 0000 0000 0000 0000
000001a0: 0000 0000 0000 0000 0000 0000 0000 0000
000001b0: 0000 0000 0000 0000 0000 0000 0000 0000
000001c0: 0000 0000 0000 0000 0000 0000 0000 0000
000001d0: 0000 0000 0000 0000 0000 0000 0000 0000
000001e0: 0000 0000 0000 0000 0000 0000 0000 0000
000001f0: 0000 0000 0000 0000 0000 0000 0000 0000

network_body._body_endoder.seq_layers.2.weight f4 [128, 128]
-0.00084709923 -0.026609628 0.005672896 0.047330413 -0.019200634 -0.088077985 -0.15030257 0.07131243
-0.12265901 -0.015450505 -0.0018799705 0.071345866 -0.013874822 0.13788337 -0.1030892 0.08604511
0.026243892 -0.06259426 -0.028978782 0.122023776 0.026660452 0.076666616 0.0012545143 0.12729612
0.05300602 -0.02929468 -0.10701846 0.0049574305 0.0037485722 -0.0067271534 -0.066464365 -0.05834191
-0.06901322 -0.028548397 0.057691775 -0.08415646 -0.06034896 -0.08289108 -0.009547199 0.018994618
0.0742393 0.058173586 0.05590634 -0.1229572 0.06841793 0.01971218 -0.07017883 -0.087181725
0.07470253 -0.07970518 0.056338422 -0.034865916 0.009088366 -0.05214919 0.02886845 0.07006206
-0.020326527 -0.028940886 0.002637375 0.039564047 -0.008862866 0.019122023 0.10310929 -0.07309085
0.018794978 -0.023442898 -0.09917802 -0.109487265 -0.050342854 -0.044471268 0.068698965 -0.050518222
-0.006762153 0.03201125 0.12895174 -0.010345156 -0.05884437 -0.050007988 0.08009179 -0.09743582
-0.053361528 -0.0670456 -0.022377385 -0.05102674 -0.120984234 0.055119958 0.073815465 -0.034861695
-0.040056325 -0.0549503 0.024422498 -0.046395935 0.03861006 -0.039162673 0.0033432762 0.10966889
0.050886203 0.04541383 0.09445797 0.035300277 0.029336303 -0.05186804 0.14038464 -0.04468529
0.10406596 0.11204689 0.03201046 0.07351616 -0.013557124 0.0080475 0.010183556 0.12224288
-0.11554509 -0.02149281 0.053013522 -0.022778643 -0.03541184 -0.08504241 -0.10013301 -0.09553023
0.07545056 -0.05719697 0.06421403 0.11453524 -0.0003771337 -0.10845744 -0.11247216 -0.0747741
0.13314556 0.1315723 -0.15708876 0.04400615 -0.03588114 0.015778696 -0.044010065 0.009863968
0.028641904 -0.05916285 0.055191655 -0.0071397233 -0.2878066 0.09097023 0.07912431 0.08580058
0.024752902 -0.15504174 0.003413784 0.08573122 -0.21162876 0.0010318086 0.09649886 0.0020924686
0.1825989 -0.051460225 -0.082422905 -0.007731928 -0.07862003 -0.038514167 -0.03518268 -0.080219924
0.13118856 0.0597179 -0.05890847 0.004262055 0.029923405 0.07533496 -0.044189814 -0.0869017
-0.034311403 0.17533977 -0.12523487 0.048723035 -0.14136627 0.013330026 0.0896436 0.027986793
0.14157867 -0.044553507 -0.086957134 0.01626462 0.038591772 -0.122387014 0.109242946 -0.020730225
0.134774 0.10468362 -0.12097833 -0.037077114 -0.05895105 -0.012709146 -0.063008845 -0.13407928
0.119809315 0.038532984 0.07450478 -0.18213163 -0.08144935 0.088801384 -0.047037553 -0.04902623
0.05459918 -0.038598757 -0.1110892 -0.02767908 -0.037302893 -0.00844046 -0.014680958 -0.0070609837
0.03703801 -0.04101784 -0.06327946 0.14865482 0.030974245 -0.06682408 0.025013471 0.053130858
0.079756066 -0.12155948 -0.0535821 0.11055468 -0.08404447 -0.11466336 0.052062973 -0.086505875
0.105818 0.029725695 -0.037600458 -0.085907765 0.08854522 0.11914976 0.21906069 0.10143744
0.06854035 -0.108479924 -0.02599254 -0.06299381 0.022023262 0.079795144 -0.12204522 -0.07841951
0.019708475 -0.012100702 0.09369216 -0.0016287297 -0.09739015 0.061203934 0.12112287 -0.089912154
-0.08855174 -0.05045666 -0.01764308 -0.049042545 -0.11609905 0.016838448 -0.14505138 0.07263498
00000000: de0f 5eba 6ffc d9bc b3e3 b93b 89dd 413d
00000010: a64a 9dbc 3b62 b4bd ebe8 19be 400c 923d
00000020: a634 fbbd 1d24 7dbc 5869 f6ba c81d 923d
00000030: 3953 63bc 4c31 0d3e 6e20 d3bd 6b38 b03d
00000040: 6efd d63c 6b31 80bd e964 edbc 9ae7 f93d
00000050: 0567 da3c 6303 9d3d 846e a43a ea59 023e
00000060: d71c 593d 66fb efbc 7f2c dbbd f171 a23b
00000070: 9baa 753b 746f dcbb 781e 88bd edf7 6ebd
00000080: ce56 8dbd 54de e9bc 364e 6c3d 395a acbd
00000090: 7930 77bd ccc2 a9bd db6b 1cbc 9a9a 9b3c
000000a0: c60a 983d 6d47 6e3d 0cfe 643d fcd0 fbbd
000000b0: b31e 8c3d 707b a13c ebb9 8fbd 558c b2bd
000000c0: a4fd 983d 783c a3bd 1ec3 663d 90cf 0ebd
000000d0: 5fe7 143c 649a 55bd 877d ec3c b37c 8f3d
000000e0: d183 a6bc 7015 edbc cfd7 2c3b e90d 223d
000000f0: 8e35 11bc caa5 9c3c f72a d33d a8b0 95bd
00000100: edf7 993c 520b c0bc d91d cbbd dc3a e0bd
00000110: 4f34 4ebd 8127 36bd 0bb2 8c3d 32ec 4ebd
00000120: 0d95 ddbb 3a1e 033d ed0b 043e bb7e 29bc
00000130: cb06 71bd 2dd5 4cbd 2a07 a43d 6e8c c7bd
00000140: 9e91 5abd 344f 89bd c750 b7bc 6a01 51bd
00000150: 95c6 f7bd 77c5 613d 902c 973d 23cb 0ebd
00000160: 1a12 24bd 9113 61bd b111 c83c aa09 3ebd
00000170: 9525 1e3d 0a69 20bd de1a 5b3b 159a e03d
00000180: 0d6e 503d da03 3a3d 2e73 c13d 0697 103d
00000190: b052 f03c 9573 54bd fec0 0f3e ec07 37bd
000001a0: 8920 d53d d778 e53d 661d 033d a48f 963d
000001b0: b31e 5ebc a9d9 033c eed8 263c 7a5a fa3d
000001c0: e7a2 ecbd b111 b0bc b524 593d 479a babc
000001d0: 010c 11bd b72a aebd 8912 cdbd 5aa5 c3bd
000001e0: d385 9a3d 5f47 6abd a582 833d 7491 ea3d
000001f0: 07ba c5b9 ef1e debd ce57 e6bd 2a23 99bd
00000200: 4f57 083e e4ba 063e e0db 20be cb3f 343d
00000210: 1af8 12bd 5342 813c e643 34bd 7b9c 213c
00000220: 6da2 ea3c bf54 72bd a510 623d 57f4 e9bb
00000230: 635b 93be 9a4e ba3d ed0b a23d 37b8 af3d
00000240: 99c6 ca3c 43c3 1ebe cbb9 5f3b da93 af3d
00000250: 36b5 58be c03d 873a 32a1 c53d cc21 093b
00000260: 35fb 3a3e f5c7 52bd 57cd a8bd 1d5c fdbb
00000270: 8a03 a1bd 08c1 1dbd b71b 10bd 584a a4bd
00000280: 4b56 063e c29a 743d 024a 71bd b5a8 8b3b
00000290: ee21 f53c 3749 9a3d 6100 35bd 85f9 b1bd
000002a0: 1d8a 0cbd 458c 333e 923d 00be ce91 473d
000002b0: 52c2 10be 2e66 5a3c 1097 b73d 8f44 e53c
000002c0: 00fa 103e bd7d 36bd 9516 b2bd 613d 853c
000002d0: 6812 1e3d 0ba6 fabd c4ba df3d 6fd2 a9bc
000002e0: 3202 0a3e 5e64 d63d 7dc3 f7bd 2cde 17bd
000002f0: a876 71bd 063a 50bc c80a 81bd 144c 09be
00000300: 965e f53d c3d4 1d3d f695 983d b780 3abe
00000310: ebce a6bd 80dd b53d 73aa 40bd bacf 48bd
00000320: 64a3 5f3d bb19 1ebd bc82 e3bd 3dbf e2bc
00000330: ebca 18bd db49 0abc 6788 70bc d35f e7bb
00000340: 2bb5 173d 5302 28bd a998 81bd f838 183e
00000350: b3bd fd3c 10db 88bd 0de9 cc3c be9f 593d
00000360: 2657 a33d 2df4 f8bd e778 5bbd 7e6a e23d
00000370: 821f acbd a0d4 eabd fc3f 553d fe29 b1bd
00000380: 1cb7 d83d 4d83 f33c f002 1abd 69f0 afbd
00000390: 3257 b53d ca04 f43d 7251 603e 6fbe cf3d
000003a0: e25e 8c3d b92a debd 4fee d4bc e602 81bd
000003b0: 216a b43c a36b a33d d8f2 f9bd 689a a0bd
000003c0: ab73 a13c 0642 46bc ade1 bf3d 1a7b d5ba
000003d0: 7d74 c7bd fab0 7a3d 440f f83d dd23 b8bd
000003e0: 9d5a b5bd a5ab 4ebd 3888 90bc d6e0 48bd
000003f0: 57c5 edbd c9f0 893c 5988 14be a6c1 943d

action_model._continuous_distribution.log_sigma f4 [1, 6]
0.0 0.0 0.0 0.0 0.0 0.0
00000000: 0000 0000 0000 0000 0000 0000 0000 0000
00000010: 0000 0000 0000 0000

action_model._continuous_distribution.mu.weight f4 [6, 128]
0.0052714753 -0.005090004 -0.025367057 0.006436791 -0.015876608 -0.00633993 0.002562371 0.004070295
0.044560906 0.009718473 0.011822987 0.0060841786 -0.022665227 -0.010274775 -0.015912479 -0.031898897
-0.001567358 0.01977439 0.001410561 -0.022175193 0.029954532 0.019976156 -0.0089433715 -0.024397371
0.042540625 0.013553082 0.026829181 -0.015957544 0.0101479255 0.025589569 -0.031955507 -0.0024152219
0.009345577 -0.0030411882 0.022678955 0.02791099 -0.0043056817 0.009794622 -0.006661127 -0.013056906
0.014240555 -0.0061435355 0.02790378 -0.010930329 -0.0062505836 0.0017659077 0.004952188 -0.0064270543
-0.0066312696 -0.026632605 0.018083684 0.0008223692 -0.017379964 0.023256507 0.011868673 0.0045945733
-0.014918077 -0.0005822935 0.0041928925 -0.021796165 -0.008829656 0.005131585 -0.014561254 -0.025648845
-0.031416338 0.005109729 -0.004151517 -0.008641754 0.016084876 -0.027970964 0.008518717 0.017068358
-0.035680357 0.014326322 -0.008132051 -0.02862939 -0.008038058 0.012870058 0.04649892 0.0022401775
0.0044484227 -0.0049233157 0.020695176 0.0031362388 0.018671926 -0.039444763 -0.011387615 -0.0045364737
-0.0075042495 0.01191977 -0.037739027 0.03269769 -0.010484061 -0.023848353 0.015452795 -0.0082809795
0.00069487415 -0.0067156567 0.02250903 0.0023722963 -0.015267829 0.026112039 0.028540466 0.008276333
-0.0069630705 -0.013098304 0.007155063 0.0018827962 -0.011779934 -0.013350655 0.009692422 -0.010002234
0.017543962 -0.008161526 0.0019456256 -0.025107322 0.0022070685 0.01644743 0.0027153546 0.0021601028
0.010756715 0.016803317 0.0062586977 -0.00590322 0.008198115 -0.01794937 0.0040796655 0.0016032754
0.016440587 -0.009665571 0.038623434 0.01158646 -0.0035911032 0.011403695 0.012228015 -0.00022391898
0.016642407 -0.007410664 -0.0075030746 -0.0035677627 0.003302316 0.0043690135 -0.03342531 -0.00022782516
0.006106223 -0.023749752 -0.032263916 0.009701181 -0.0034061167 -0.019470697 -0.0013870606 0.013519034
0.018550036 -0.03408291 -0.0011171965 -0.020376403 0.006685316 -0.0061946097 0.007602005 0.014840846
0.0023676276 -0.008020569 0.007958846 0.02200491 -0.04432224 -0.012207098 0.03185855 0.0007123586
0.001604916 -0.01627717 -0.029196803 -0.0034651326 0.009359589 0.01944254 0.0016021886 0.0036225745
0.0069719576 0.009600501 -0.025352335 -0.036162246 0.016431613 -0.024067296 0.0038827823 -0.004096396
0.010483291 -0.005487965 0.0054993774 -0.0041697184 0.02308047 0.00019052942 0.016235236 0.038349908
-0.025324563 -0.0066487426 -0.019449001 -0.013849973 -0.020960128 -0.0016807836 0.017768217 0.03661589
-0.011408402 -0.019779803 -0.00033693228 -0.0064958627 -0.009643073 0.0041873734 -0.00030630128 0.014622464
-0.0036739532 -0.007964178 -0.028577829 -0.014686051 -0.01410037 -0.025309568 0.020196712 0.017606044
-0.0057740808 0.003102259 0.010497969 -0.007622321 0.026825935 -0.015103708 0.0036503044 0.03476773
0.03720689 0.019945592 -0.030645076 -0.0071766204 -0.0159774 0.01675182 0.016074842 -0.0072220587
0.03261898 0.011478371 -0.013493528 0.012934064 0.007380917 -0.00890917 -0.046817616 -0.025674714
0.004835024 -0.014142997 0.036171414 0.0040647923 0.017818127 -0.009809289 0.0101993 -0.02030505
-0.0170211 0.01616703 -0.040240537 -0.0033759554 0.01407626 -0.02556057 -0.020405542 0.031373452
00000000: 57bc ac3b 0cca a6bb 93ce cfbc b7eb d23b
00000010: a90f 82bc 30bf cfbb 74ed 273b 1c60 853b
00000020: 7f85 363d 3b3a 1f3c 34b5 413c ca5d c73b
00000030: 6dac b9bc 8857 28bc e35a 82bc 6ba8 02bd
00000040: cf6f cdba e7fd a13c 93e2 b83a c0a8 b5bc
00000050: 3563 f53c 09a5 a33c 3887 12bc ffdc c7bc
00000060: 143f 2e3d bf0d 5e3c dfc8 db3c 65b9 82bc
00000070: 7c43 263c 37a1 d13c c7e3 02bd b348 1ebb
00000080: 311e 193c ac4e 47bb 37c9 b93c 97a5 e43c
00000090: ad16 8dbb 9f79 203c 9545 dabb a2ec 55bc
000000a0: 3851 693c b64f c9bb 7896 e43c 1f15 33bc
000000b0: b2d1 ccbb 0876 e73a f745 a23b 0a9a d2bb
000000c0: 1f4b d9bb 9f2c dabc 3c24 943c 4394 573a
000000d0: 6d60 8ebc 6e84 be3c d374 423c 138e 963b
000000e0: f36a 74bc 0ea5 18ba 8864 893b df8d b2bc
000000f0: 43aa 10bc db26 a83b 5392 6ebc 871d d2bc
00000100: 6bae 00bd 836f a73b 7309 88bb 2596 0dbc
00000110: 6ec4 833c 5d23 e5bc 1792 0b3c f1d2 8b3c
00000120: 9125 12bd f3b8 6a3c 4b3c 05bc 2f88 eabc
00000130: 0fb2 03bc f0dc 523c a775 3e3d f1cf 123b
00000140: 13c4 913b c453 a1bb ee88 a93c 5b89 4d3b
00000150: def5 983c d590 21bd 1f93 3abc b3a6 94bb
00000160: 35e6 f5bb 244b 433c 3d94 1abd 03ee 053d
00000170: 57c5 2bbc 9f5d c3bc b82d 7d3c f2ac 07bc
00000180: 3728 363a 030f dcbb db64 b83c 8778 1b3b
00000190: eb25 7abc eae8 d53c b2cd e93c 7599 073c
000001a0: 782a e4bb 459a 56bc 0575 ea3b 28c8 f63a
000001b0: a000 41bc b5bc 5abc f7cc 1e3c 69e0 23bc
000001c0: 5bb8 8f3c ecb7 05bc 5d04 ff3a dfad cdbc
000001d0: 77a4 103b c3bc 863c 17f4 313b 8390 0d3b
000001e0: ef3c 303c 1ca7 893c c315 cd3b cc6f c1bb
000001f0: 6351 063c 8f0a 93bc b7ae 853b ff24 d23a
00000200: 69ae 863c 585c 1ebc 9b33 1e3d 23d5 3d3c
00000210: b758 6bbb 90d6 3a3c 0358 483c cbcb 6ab9
00000220: a855 883c 28d5 f2bb 5adc f5bb 20d1 69bb
00000230: ab6b 583b f129 8f3b fae8 08bd 5ae4 6eb9
00000240: b616 c83b d78e c2bc 2b27 04bd b4f1 1e3c
00000250: 2839 5fbb 0381 9fbc 08ce b5ba f07e 5d3c
00000260: 3ff6 973c 859a 0bbd e56e 92ba 6aec a6bc
00000270: 7f10 db3b 27fc cabb 3d1a f93b 0527 733c
00000280: 332a 1b3b b468 03bc d265 023c a443 b43c
00000290: 3d8b 35bd 4800 48bc 1c7e 023d 94bd 3a3a
000002a0: 0b5c d23a b357 85bc 222e efbc 4717 63bb
000002b0: f658 193c f645 9f3c 8700 d23a b768 6d3b
000002c0: 0575 e43b 6b4b 1d3c b3af cfbc dd1e 14bd
000002d0: 979b 863c c728 c5bc 4776 7e3b 0f3b 86bb
000002e0: 1cc2 2b3c 63d4 b3bb 1f34 b43b 22a2 88bb
000002f0: 4113 bd3c dac8 4739 c2ff 843c cb14 1d3d
00000300: 7575 cfbc b2dd d9bb 8353 9fbc ffea 62bc
00000310: 93b4 abbc bd4d dcba a78e 913c 8bfa 153d
00000320: 4eea 3abc 4109 a2bc 49a6 b0b9 3fdb d4bb
00000330: fbfd 1dbc 3c36 893b 1097 a0b9 0f93 6f3c
00000340: b5c6 70bb 2f7c 02bc 0d1c eabc c39d 70bc
00000350: 3d05 67bc 0356 cfbc 9373 a53c 8d3a 903c
00000360: 8034 bdbb 454f 4b3b acff 2b3c aac4 f9bb
00000370: 10c2 db3c 8b75 77bc f239 6f3b 9b68 0e3d
00000380: 4066 183d f064 a33c 620b fbbc db29 ebbb
00000390: 09e3 82bc 1d3b 893c 63af 833c 05a7 ecbb
000003a0: 7b9b 053d c70f 3c3c f513 5dbc 65e9 533c
000003b0: 9fdb f13b c4f7 11bc d4c3 3fbd c753 d2bc
000003c0: 1f6f 9e3b 07b8 67bc 7a28 143d f331 853b
000003d0: 52f7 913c 24b7 20bc f71a 273c c756 a6bc
000003e0: d56f 8bbc b870 843c 43d3 24bd 223f 5dbb
000003f0: 1da0 663c 6764 d1bc 8629 a7bc 7381 003d

action_model._continuous_distribution.mu.bias f4 [6]
0.0 0.0 0.0 0.0 0.0 0.0
00000000: 0000 0000 0000 0000 0000 0000 0000 0000
00000010: 0000 0000 0000 0000
