results/PlayerAgentTest/TestPlayerAgent/TestPlayerAgent-150.onnx (onnx, 274768 bytes, 6 tensors)

network_body._body_endoder.seq_layers.0.weight f4 [128, 396]
00000000: 0bf7 82bc 7a30 9e38 d692 853d fd94 1fb9
00000010: 7741 793d 631c 0a3d a6bf 793c 827b 28bd
00000020: ee4d efbc 5956 2f3d 4649 683d af4a 043d
00000030: 9e82 5b3d fc7a c939 72af 483d f683 6ebb
00000040: b5ec 8d3c af09 e0bb f0f1 23bd fbba 36bd
00000050: 545e 68bd d610 7c3d 2d7a 163d 4d5c bebc
00000060: 1569 243d ae68 953d fa2f 23bd 9922 33bc
00000070: 7a30 3e3d 796f 1cbd 1a72 35bb fc53 143c
00000080: 8502 bd3d 5d86 543b 8e4a 06bd 936f ab3d
00000090: 90a6 45bd e381 c63d 7b62 4b3d 4efd b3bb
000000a0: f2d1 c4bc abf6 08bc 37aa c33b a5e2 883c
000000b0: 64b5 a2ba 0d37 143d a26c 49bd fba5 a0bd
000000c0: b6f4 d7bb d944 2b3e 1bbe cdbb 1e91 263c
000000d0: 351b 733d 5755 5ebd 4af2 93bc f9c7 6abd
000000e0: e7ab 773a 2aeb 943d 1069 343d d6cc 64bd
000000f0: 6494 77bd 1b9f 803c 3ed0 18bc 3a1e 133d
00000100: f03a 9abc 3b02 d6bb 6a8b 51bd cc03 143c
00000110: d87b 923d 5338 583d dd36 873b f6a1 0e3c
00000120: 27a7 a13b aef7 9ebd 1b75 8d3d 8248 5cbd
00000130: ffbc 4cbd 9bec 2a3d d5d3 f9bb 9df5 1a3d
00000140: 92e1 e63c 54d2 033c 8a8f acbd 80dc 2cbd
00000150: f20d 52bd 468f a9bc 0a81 bcbb b478 d13c
00000160: cf46 033d 9989 1c3c a06e 5cbc ae5f 6e3d
00000170: 4771 7ebd 5637 ac3c 8a53 32bc 88b7 78bd
00000180: cd34 4abd 0c07 86bd 1b08 973b cdbb 363d
00000190: 0d76 b03a 053d d63c ac28 363d 2ed6 f63c
000001a0: d252 8f3d fa7e 5dbb 0d87 cf3c dbbb 9cbc
000001b0: 1b4e 5abd 3333 21bd 7ef5 a3bd 85e1 b4bc
000001c0: 8629 473c 2212 09be ecd2 543d ca69 ee3a
000001d0: 353a e93c a86a 5e3d 28f5 e33c 0400 31bc
000001e0: 9160 b43c 8791 a6bc ff04 493d f6b5 01bc
000001f0: 9ff9 223d 296c 0e3b afb2 013c dc1a a23d
00000200: a2e5 1d3d 3609 7f3d 6c83 32bd 6e41 5fbd
00000210: 584c ba3c d0dc 68bd 7b89 3abb adb7 523c
00000220: d73d d43d 85e6 d03d 6420 43bd 70ff 423d
00000230: 26cc 00bd 6b5c 24bd cc7e 7c3c b35f 8e3c
00000240: 0259 ee3c c5d6 cfbc eb67 bcbb 9fa4 e4bc
00000250: d2af 00bd f3a0 6e3c 5286 183d d7ec 6d3c
00000260: f622 26ba a2ee a2bc f771 afbd dd54 e6bc
00000270: ca08 833c 8362 0bbd e6d3 0dbb e3a1 453d
00000280: b45e bdbc 126c 4abc 49fe 0c3d 96c4 023e
00000290: e14d 0cbd d03f 443d c59a cf3c 2a66 5c3d
000002a0: 757e cfbb 3096 7d3b cdfa 2cbd 8fde 7f3d
000002b0: e1b6 e6bb 12dd 68bd 81dc 54bc 641c 2ebd
000002c0: 281c 4ebd 883e 9b3c cbc3 863c 9a10 753d
000002d0: a916 20bd c887 f63d 4506 dc3d b137 debc
000002e0: cb17 09be 49ee 08bc d7ae b83c 41c4 6a3d
000002f0: 7fa7 82bd c6a6 36bd a2f2 39bd 8f73 12be
00000300: 9583 833d 9473 9a3c 3fbf 5bbd 457a 0abd
00000310: b119 37bd 54c2 c03b 9ac4 a33c 56ba bbbc
00000320: f3dc 113d 5d28 b8bd 492f 04be 4710 ba3d
00000330: 603c 063d 5d04 9abd 7600 833d b22e 1bbd
00000340: f6ed 6cbc 7e9d 6e3d dabf afbc fb55 3bbd
00000350: acde 7e3d 681e fbbc 2857 393d 3a0b 56ba
00000360: d0f3 d13c 9a19 28bd 0c3a 043d 45b2 29bb
00000370: 7bfb 8c3c cfaa 193c ae2b 623d 47de 2e3d
00000380: bed4 c4bc cece 9a3d 4cac ba39 ce14 acbd
00000390: 3d1a a7bd c098 67bc ea4a 003d c667 0bbb
000003a0: 431d da3c 4289 7cbb a9e6 653d 8ed9 cd3d
000003b0: 23c9 823d 7965 89bc 6256 52bd 4038 79bc
000003c0: 6a3c 0a3d 7ba7 8abd 7915 d03d a0a0 15bd
000003d0: 4e25 21bd 425f 0cbd 8662 213b d33e e6bd
000003e0: 5598 21bd f133 383d f9ec 713d 06c3 663d
000003f0: 4dee 9fbd 8419 c5bc c691 f43c 235c 813c
-0.01598694 7.5430566e-05 0.06522147 -0.00015218924 0.060853448 0.033718478 0.015243446 -0.04113341
-0.029211964 0.042806957 0.056710504 0.032297786 0.053591363 0.00038429338 0.048995443 -0.0036394573
0.017324785 -0.006837092 -0.04002565 -0.044611912 -0.056730583 0.061539494 0.03673761 -0.023237372
0.040139277 0.07295357 -0.039840676 -0.010933542 0.04643295 -0.038192246 -0.0027686418 0.009053227
0.09228996 0.003242872 -0.032785945 0.083708905 -0.04825455 0.09692743 0.049654465 -0.0054928428
-0.024025891 -0.0083595915 0.005971219 0.016709635 -0.0012413678 0.036185313 -0.049175866 -0.07844158
-0.006590451 0.16725482 -0.006278766 0.010166435 0.05935212 -0.054280605 -0.018059868 -0.057319615
0.00094479177 0.072714165 0.044045508 -0.05585941 -0.06044425 0.015700867 -0.009326993 0.0359175
-0.018826932 -0.0065310276 -0.051158346 0.009034108 0.071525276 0.05278809 0.0041264133 0.008705607
0.004933256 -0.07762085 0.06907102 -0.053780086 -0.04998493 0.04172955 -0.0076241293 0.03783189
0.028183732 0.008045752 -0.084258154 -0.042202473 -0.05128283 -0.0206982 -0.0057526873 0.025570251
0.03204995 0.00955429 -0.013454109 0.058196716 -0.06211975 0.02102248 -0.010884175 -0.060721904
-0.04936676 -0.06544313 0.0046091205 0.044612695 0.0013462916 0.026152143 0.04447238 0.030131426
0.069982186 -0.0033797608 0.025332952 -0.019132545 -0.053297143 -0.039355468 -0.08005808 -0.022080192
0.012155896 -0.13385823 0.051958963 0.0018189487 0.028470138 0.054300934 0.02782686 -0.010803226
0.022018703 -0.020333065 0.04907703 -0.007916918 0.03978884 0.002173195 0.007916137 0.07915279
0.038549073 0.062264644 -0.043582365 -0.054505758 0.022741482 -0.05685121 -0.0028463292 0.0128611745
0.103633575 0.10200218 -0.047638312 0.047606885 -0.03144469 -0.0401272 0.01541109 0.017379617
0.029095177 -0.025370965 -0.0057496927 -0.027910529 -0.031417675 0.0145647405 0.037237473 0.014521799
-0.0006337607 -0.01988918 -0.08566659 -0.028116638 0.015995402 -0.034029495 -0.0021641194 0.04825009
-0.023116447 -0.0123548675 0.034422193 0.12770304 -0.03425396 0.04791242 0.025342355 0.05380837
-0.0063322135 0.0038694255 -0.04223137 0.062468108 -0.007040844 -0.056851454 -0.012992025 -0.042507544
-0.05031982 0.018950716 0.016450783 0.059830286 -0.03908411 0.12037617 0.10743383 -0.027126165
-0.13387983 -0.008357593 0.022544308 0.05731607 -0.063796036 -0.04459264 -0.04539741 -0.14301895
0.06421582 0.01885394 -0.053649183 -0.03380801 -0.044702236 0.0058825407 0.019991208 -0.022916
0.035611104 -0.08992074 -0.12908663 0.09085136 0.03277242 -0.075203635 0.06396572 -0.03788633
-0.014461031 0.058255665 -0.021453787 -0.045736294 0.062224075 -0.030654147 0.045249134 -0.0008165125
0.025628954 -0.04104004 0.03228192 -0.002589361 0.017209759 0.009379103 0.055217437 0.04269245
-0.024027225 0.07558976 0.00035605056 -0.08402406 -0.081593014 -0.0141355395 0.031321444 -0.002127157
0.026625281 -0.003853396 0.056128178 0.10051261 0.0638602 -0.016772019 -0.051351912 -0.015211165
0.03374902 -0.067702256 0.101603456 -0.036530137 -0.039342217 -0.034270532 0.0024625375 -0.112424515
-0.039451916 0.04497141 0.059063885 0.056338333 -0.07809124 -0.024060018 0.029854666 0.015791005

network_body._body_endoder.seq_layers.0.bias f4 [128]
00000000: 0000 0000 0000 0000 0000 0000 0000 0000
00000010: 0000 0000 0000 0000 0000 0000 0000 0000
00000020: 0000 0000 0000 0000 0000 0000 0000 0000
00000030: 0000 0000 0000 0000 0000 0000 0000 0000
00000040: 0000 0000 0000 0000 0000 0000 0000 0000
00000050: 0000 0000 0000 0000 0000 0000 0000 0000
00000060: 0000 0000 0000 0000 0000 0000 0000 0000
00000070: 0000 0000 0000 0000 0000 0000 0000 0000
00000080: 0000 0000 0000 0000 0000 0000 0000 0000
00000090: 0000 0000 0000 0000 0000 0000 0000 0000
000000a0: 0000 0000 0000 0000 0000 0000 0000 0000
000000b0: 0000 0000 0000 0000 0000 0000 0000 0000
000000c0: 0000 0000 0000 0000 0000 0000 0000 0000
000000d0: 0000 0000 0000 0000 0000 0000 0000 0000
000000e0: 0000 0000 0000 0000 0000 0000 0000 0000
000000f0: 0000 0000 0000 0000 0000 0000 0000 0000
00000100: 0000 0000 0000 0000 0000 0000 0000 0000
00000110: 0000 0000 0000 0000 0000 0000 0000 0000
00000120: 0000 0000 0000 0000 0000 0000 0000 0000
00000130: 0000 0000 0000 0000 0000 0000 0000 0000
00000140: 0000 0000 0000 0000 0000 0000 0000 0000
00000150: 0000 0000 0000 0000 0000 0000 0000 0000
00000160: 0000 0000 0000 0000 0000 0000 0000 0000
00000170: 0000 0000 0000 0000 0000 0000 0000 0000
00000180: 0000 0000 0000 0000 0000 0000 0000 0000
00000190: 0000 0000 0000 0000 0000 0000 0000 0000
000001a0: 0000 0000 0000 0000 0000 0000 0000 0000
000001b0: 0000 0000 0000 0000 0000 0000 0000 0000
000001c0: 0000 0000 0000 0000 0000 0000 0000 0000
000001d0: 0000 0000 0000 0000 0000 0000 0000 0000
000001e0: 0000 0000 0000 0000 0000 0000 0000 0000
000001f0: 0000 0000 0000 0000 0000 0000 0000 0000
0.0 0.0 0.0 0.0 0.0 0.0 0.0 0.0
0.0 0.0 0.0 0.0 0.0 0.0 0.0 0.0
0.0 0.0 0.0 0.0 0.0 0.0 0.0 0.0
0.0 0.0 0.0 0.0 0.0 0.0 0.0 0.0
0.0 0.0 0.0 0.0 0.0 0.0 0.0 0.0
0.0 0.0 0.0 0.0 0.0 0.0 0.0 0.0
0.0 0.0 0.0 0.0 0.0 0.0 0.0 0.0
0.0 0.0 0.0 0.0 0.0 0.0 0.0 0.0
0.0 0.0 0.0 0.0 0.0 0.0 0.0 0.0
0.0 0.0 0.0 0.0 0.0 0.0 0.0 0.0
0.0 0.0 0.0 0.0 0.0 0.0 0.0 0.0
0.0 0.0 0.0 0.0 0.0 0.0 0.0 0.0
0.0 0.0 0.0 0.0 0.0 0.0 0.0 0.0
0.0 0.0 0.0 0.0 0.0 0.0 0.0 0.0
0.0 0.0 0.0 0.0 0.0 0.0 0.0 0.0
0.0 0.0 0.0 0.0 0.0 0.0 0.0 0.0

network_body._body_endoder.seq_layers.2.weight f4 [128, 128]
00000000: df1c e93d 3dec 993d 023c a93d ebae 94bc
00000010: f6a1 7abd c323 86bd 4a1f 613d bf95 513e
00000020: c330 c73d ee63 42bd eeb6 903d 31d0 c23d
00000030: 252d c7bc e772 15bd 3930 90bd ecfa dc3d
00000040: 16bd 013e 42c7 9bbb 1c48 abbc 0dda 143d
00000050: a7a4 0abd 587c 5e3c 6829 e93c f676 f4bd
00000060: 27ad f03b 2f70 79bd f918 b2bd d187 9cbd
00000070: 1afb ae3d e52b c83d b9ed 0bbd f8b2 413e
00000080: 4ccf 1abd 84f0 003c aa16 8a3d 3f17 c43d
00000090: 3c72 663c cc97 d53c d744 e23d 6dc9 073e
000000a0: 9a14 a33d b495 03bd 89fb 6b3d 4d5d 4abd
000000b0: 1603 01bd 2a87 22bd f471 2e3d b23a 1e3e
000000c0: 5e62 e9bd 973c dabc 1841 053e c6e9 273e
000000d0: a971 d5bd fe47 303d 13ce c6bb 88bd 63bd
000000e0: 6b0e 783d c70f 5e3c 31c2 9dbd 90f1 e73c
000000f0: 274c 36bd df6a 073e ece5 b13c 9126 4b3c
00000100: 6dad 773e 1cc3 823b 0c26 f4bb 4456 60bd
00000110: e750 5d3d 08ff fdbc 190c a7bd 4623 3dbc
00000120: 0214 493b 1a13 f1bd 6d94 083e 028f 79bd
00000130: 53e1 86bd 0ffc 823d c82a f4bd 9ecc 843d
00000140: 904b 2d3d a1fb c1bd 484e 133e f5b5 843c
00000150: 032a ca3d d50e c5bd a61d 4abe 9381 e33c
00000160: 1ed5 1a3d fa9c 07bd 9f1d 993d ee51 dcbd
00000170: 77e6 27be 9633 77bd 80ff 323c 8a6d 01bd
00000180: 2a6e 85bd 5552 2e3d 7f62 abbd 1b78 ae3d
00000190: 70f9 51bc 7128 973d b519 9f3d 7e4a d8bc
000001a0: 16ae 4dbd 94ed 49bd 40c6 81bd bb74 cf3c
000001b0: 6c79 c539 6674 76bd ca36 103e e45f 66bd
000001c0: 20dc b53c fe88 d4bc be4e d83c b4ca c03d
000001d0: 4c36 983d 9a3d 08be f803 b33d 3715 8d3c
000001e0: d304 393d 529e b03c 1eab ddbd acdd a5bc
000001f0: 3592 c33d e0a5 973d 8ed3 2f3d c7fb f23c
00000200: 4e5b 473d e2cd a83c a65c 06be 2b66 8c3d
00000210: a09d 36bd 2c51 47bd f22f bd3d 47c9 2e3d
00000220: 1044 5b3d 7bf3 463d 6fe9 f7bd e74b ed3d
00000230: 217f 91bd 6cc6 34ba eb79 bdbd db24 b5bb
00000240: e402 953d 77cc 4a3c 7465 cd3d 2952 e83d
00000250: fac2 833d 4927 90bd 534e c03c 8ce4 633b
00000260: 24d6 34bd a25e a43c 1fd1 333c fe5f 3cbd
00000270: 42cb ddbd f602 4a3d 01aa 07be d15b bbbd
00000280: 4afa 153c 7adf 01be 5f75 17bd 542f 553d
00000290: 547c 693e bc24 a73b eb9a a4bd 4940 d83d
000002a0: f388 6c3b a2a4 9a3c 07aa 41bc e8f7 30bd
000002b0: a0dd 6dba f3c5 163d 95df 47bc 48cb a13c
000002c0: 6b0b cfbd 4ef5 b7bd 98ca 3cbc cf41 efbc
000002d0: a510 9c3d 003f 2c3d 4db5 f53c 19ac 203e
000002e0: c38c 9f3d ecb0 3a3b 7a5e 00bb 8792 b2bd
000002f0: c296 093d 7b57 96bc e785 0b3d b839 50bd
00000300: 62d7 a6bd e46a 103e 0ef7 823c 0a2c 48bd
00000310: 1ec6 143d 842e 1ebd b115 723d 8a49 50bd
00000320: fb12 563d ec6c 02bd d38d 623d ec73 54bc
00000330: 7a84 a53c 8f17 0ebe 5d40 19bd 673f 8abd
00000340: 84b1 233d 5541 2d3d a986 51bd 8f45 823d
00000350: 2219 f8bc 709c ba3d 1a4c aebd 22c2 da3c
00000360: 4b23 9f3d 7b71 d1bd 7bf3 19bd 28e9 563d
00000370: 251a 823d 1687 87be 392c a03c 0b37 97bd
00000380: 4764 bd3d ba8a 2b3e 83e2 dbbd 2183 06be
00000390: 47b4 bf3d e460 643b a179 993d 6ccc 77be
000003a0: 0997 363d 31c7 c3bd b8ff c73c 4dac 9e3a
000003b0: 495c d13c 55d3 cf3d ea63 033d 31c7 d53d
000003c0: 30a6 0dbd df34 72bd ba01 a1bd 230e f73c
000003d0: 795a ce3d 1aea c33c 941d 113d 31a4 44bd
000003e0: ad5b 933d a219 0bbd aa59 86bc 5bff a03d
000003f0: a5a4 75bd 16b2 f83d e649 88bc 9c57 1dbc
0.1138246 0.07515762 0.08263399 -0.018149814 -0.061189614 -0.0654979 0.05496148 0.2046728
0.097260974 -0.04745858 0.07066141 0.095123656 -0.024313519 -0.036486533 -0.07040448 0.10790047
0.12669787 -0.004753978 -0.020908408 0.036340762 -0.03384843 0.013579451 0.028462127 -0.119367525
0.00734486 -0.060898002 -0.086961694 -0.076430924 0.085439876 0.09773997 -0.034162257 0.18915927
-0.03779535 0.007869843 0.06742604 0.09574746 0.014065322 0.026073359 0.110482864 0.13260432
0.07962914 -0.03212519 0.05761293 -0.049405385 -0.031497084 -0.039679684 0.042589143 0.15452078
-0.11395715 -0.02664022 0.13013113 0.16397771 -0.104220696 0.043037407 -0.0060670464 -0.055600673
0.060560625 0.013553566 -0.07703055 0.028313428 -0.04450622 0.13224362 0.02171608 0.012399332
0.2418725 0.003990544 -0.0074508246 -0.05476977 0.054032233 -0.031005397 -0.08156604 -0.011544054
0.0030682092 -0.117712215 0.1333787 -0.0609274 -0.06585946 0.063957326 -0.119222224 0.0648434
0.04230839 -0.094718225 0.1438533 0.016200045 0.09871294 -0.096219696 -0.19737872 0.027771747
0.0378009 -0.03310869 0.07476353 -0.10757814 -0.16396509 -0.06035193 0.010925174 -0.031598605
-0.06515153 0.042558987 -0.08368396 0.08519002 -0.012815818 0.073807605 0.07768575 -0.026402708
-0.05021485 -0.049298838 -0.06336641 0.025324216 0.00037665234 -0.0601696 0.140834 -0.056243792
0.02219969 -0.02594423 0.026404735 0.094136626 0.07432231 -0.13304749 0.08740991 0.01722203
0.045170616 0.021559868 -0.10823654 -0.020247303 0.09549371 0.07404685 0.042926364 0.029661072
0.04867106 0.020605985 -0.1312128 0.068554245 -0.044583917 -0.048661396 0.092376605 0.04267242
0.053531706 0.048572045 -0.12105071 0.11586743 -0.07104326 -0.0006896022 -0.0925177 -0.005528075
0.07275942 0.01237785 0.10029116 0.11343796 0.06433673 -0.07038743 0.023474848 0.0034773676
-0.044149533 0.020064656 0.010975151 -0.045989983 -0.10829784 0.04931923 -0.13248445 -0.09148372
0.009153912 -0.12682906 -0.03697717 0.05204709 0.22801334 0.0051008146 -0.08037361 0.105591364
0.003609237 0.018877331 -0.011820323 -0.04320517 -0.0009073857 0.036809873 -0.012199302 0.019750252
-0.101096 -0.08982335 -0.0115229115 -0.029206185 0.07620362 0.04205227 0.029993678 0.1569065
0.0779052 0.0028486801 -0.0019587562 -0.08719354 0.03359104 -0.01835226 0.034063246 -0.050836295
-0.0814655 0.14103276 0.015986945 -0.048870124 0.03632175 -0.03861858 0.059102718 -0.050851382
0.052264195 -0.031842157 0.055311035 -0.012967091 0.020204771 -0.13876174 -0.037414897 -0.06750374
0.039964214 0.042298634 -0.051153813 0.063609235 -0.030285422 0.09111869 -0.08510609 0.026703898
0.077704035 -0.10226723 -0.037585717 0.05246845 0.06352643 -0.2647025 0.019552337 -0.073835455
0.09247642 0.16752139 -0.10736563 -0.13135959 0.09360557 0.003484779 0.07493902 -0.24199075
0.044577632 -0.09559477 0.024413928 0.0012105793 0.0255567 0.1014773 0.032077707 0.10438383
-0.034582317 -0.059132453 -0.078616574 0.030158108 0.1007585 0.02391534 0.0354286 -0.048008148
0.0719522 -0.033959992 -0.016400177 0.07861205 -0.05997147 0.12143342 -0.0166368 -0.009603407

action_model._continuous_distribution.log_sigma f4 [1, 6]
00000000: 0000 0000 0000 0000 0000 0000 0000 0000
00000010: 0000 0000 0000 0000
0.0 0.0 0.0 0.0 0.0 0.0

action_model._continuous_distribution.mu.weight f4 [6, 128]
00000000: 9f64 09bc 6b5a 9abc 90ed b33b 2d7a b93c
00000010: b509 6bbb 6ec2 8fbc 71c0 9fba 83c0 083d
00000020: 7bf4 ca3a ebc1 c13c 0ddf b6bb f30f 4cbc
00000030: b00b cc3c 07c9 79bb ebfa f53b c59a e03b
00000040: 1383 463c a86f 773c 3ca4 98bb ea7f 23bc
00000050: 0db0 51bc 43a1 123d 437c 533c 4d23 213c
00000060: 3d7c 8f3c 6247 a03b cdd5 ef3a 987d 7fbc
00000070: eb37 1ebc d06d 153d 3b9f e3bb 0887 e1bb
00000080: dd92 f7bb ba2b 14bc f7cb 5f3c b73a 053d
00000090: 7f02 92bb 18f1 b33c e778 943c 72fd 973c
000000a0: 730a 30bc 4087 4b3c 0b21 e7bc 3bc5 0a3c
000000b0: 3834 a43c fdf1 96bc 4590 593c 3729 cb3b
000000c0: c098 1cbc 9fd4 9d3c 985c 0cbd 5294 83bc
000000d0: 2711 22bc 2af8 64b8 ba9a a73c dd6a 07bc
000000e0: e017 27bc e746 66bc 67cd 3f3c 5a4c e2bc
000000f0: d6c8 b83c d498 b43c 5c19 233a 233c f63c
00000100: f005 47bb 16a1 373b 0693 c8bc 2311 38bc
00000110: 0f1d d7bc bd0f 283c 7245 fb3b d183 2d3b
00000120: f241 b73c 2df5 c2bc f711 d43c 38b2 6a3c
00000130: a056 79bb 5b71 b0bc 6509 853c 69d0 adbc
00000140: bf88 3c3c fe5a b9bb 19d4 c83c 621b 4a3b
00000150: b47c a8ba 61b1 bdbc 30bd 9a3c 0a20 513c
00000160: 6de2 f03b 73af 0c3a 60b3 e43b 7b36 cf3c
00000170: bd3b d1bc abb3 4e3c 7838 d53b bfcb 1abc
00000180: 97b5 50bc 2b3f 12bc 4efb 8c3c 4526 59bc
00000190: 48a9 d13c ea45 943c 5fbb 713b a53b d23a
000001a0: c7d6 dfbc 561d 9b3a c1d7 2dbb a9a1 413c
000001b0: 0f23 abbc ba5d e63a 6baa f93b 8d06 95ba
000001c0: 309c 333c 9301 753c 8f95 263d e575 0ebc
000001d0: 2757 923c 03ec 13bc 73dd 263c e6c0 b7bc
000001e0: d62d 9d3c 68de 033d cea0 40bc 12b7 d33c
000001f0: cf82 6f3c 574f d2bc 701c 84bc 9d32 d3bb
00000200: 3a05 c83c 065d 013d 8fc0 403d 9a23 51bc
00000210: a546 503c 0368 1d3b d456 c33b 426f 4bbb
00000220: 11f8 3abc 776e 043d 0f60 d13b 3b62 1b3d
00000230: aad0 c6ba 36b1 03bc f2fe e33a b48e b0bc
00000240: aadd 0ebc f414 8fba e043 a8ba 2988 03bd
00000250: e420 873b 0699 953c b33f 3ebb 748f 31bc
00000260: 6bee 8e3c bfab 873c afd4 cd3a fb0d 4dbb
00000270: 6ed1 13bd e3ef 903c caa1 7abc 9f74 8cbc
00000280: 0b7e b63c 5379 473b d89d 6fba 73b9 933c
00000290: 8be7 ef3c 419b 35bc cf84 e93c 298d 8d3c
000002a0: 13cf 4a3c 6334 8a3c 4721 84bc 2aeb d83b
000002b0: a352 8ebc 72fa 61bd 1398 063d 0a6a d73a
000002c0: 2865 4d3c 0884 543c 21de 07bc b371 e6bb
000002d0: 920a 393c 8733 e4bc d8d4 ddbc 74ff 223c
000002e0: 850e 7b3c 1d0c 4ebc df2e 27bc c519 9b3b
000002f0: fef8 4539 2322 2f3c a33e f1ba 85a3 8e3c
00000300: 49b3 a43b e286 a43c 888a d7bb 2528 fbbb
00000310: 5f2d 32bd 8de2 013c 67f6 903c a5b3 8fbb
00000320: 983c f53b a248 2cbd 8516 d7bc 0b7e f0bb
00000330: 12d0 d83b cb77 07bb 530b 313d 1349 0c3d
00000340: 2b26 5ebc 8605 433c 55bc bcbb 3086 dc3b
00000350: 13ac c7bc b278 0cbd e3b2 cfbc 0af9 87bc
00000360: 712d 043b f7d4 9aba 642b 093c 8bf8 293c
00000370: b8e7 f3bc 7db4 4d3c 5335 da3c 63dd 5b3b
00000380: bbc2 05bd 19d0 493c a82d f13c 5f22 213c
00000390: 1496 2fbd 7ff2 d23c 3ff0 f93c 1474 83bc
000003a0: 3402 363a b66b 2e3c 87cf a53a 7100 883c
000003b0: 32ea 81bc ad99 e8bb 83c8 1fb7 8173 4c3c
000003c0: c59a e93a 4fc4 963c 651d b03c 0343 1fbc
000003d0: bb8c 073d 1289 4a3c cb99 03bc 7303 833c
000003e0: 529e 9bba 65f4 c8bc 47d3 8a3c 0d1a 603c
000003f0: 3a7a 69bb 2620 86bb e862 88bc d808 0c3b
-0.008385806 -0.018841943 0.005490966 0.022641266 -0.003586394 -0.017548766 -0.0012188089 0.03338672
0.0015484238 0.023652038 -0.005580789 -0.012454974 0.024907917 -0.0038114206 0.0075067184 0.0068543875
0.0121162115 0.0151023045 -0.00465825 -0.009979228 -0.012798321 0.035798322 0.012908044 0.0098350765
0.017515296 0.004891322 0.001829797 -0.015593909 -0.009656887 0.03648168 -0.006946472 -0.006882552
-0.0075553493 -0.009043628 0.013659469 0.032526698 -0.004455864 0.021965548 0.018124057 0.01855347
-0.010744679 0.012422383 -0.028213998 0.008469875 0.020044431 -0.018425936 0.013279025 0.0061999816
-0.009557903 0.019266425 -0.03426799 -0.016061936 -0.009891785 -5.4590557e-05 0.020459522 -0.008265224
-0.010198563 -0.01405499 0.011706687 -0.027624298 0.022556704 0.02204553 0.00062217354 0.030057972
-0.003036853 0.0028019599 -0.024484169 -0.011234554 -0.026258973 0.010257659 0.0076681906 0.0026476274
0.022370312 -0.02379855 0.025887473 0.014324717 -0.0038046017 -0.021538427 0.016239831 -0.021217542
0.011507212 -0.005656599 0.024515199 0.0030839075 -0.0012854547 -0.02315587 0.01888904 0.012763986
0.007351211 0.000536672 0.006979391 0.025294533 -0.02554118 0.012616078 0.0065069757 -0.009447991
-0.012738607 -0.008926193 0.017209675 -0.013253753 0.025593415 0.018099744 0.0036885364 0.0016039504
-0.027324094 0.0011834304 -0.0026526304 0.011818328 -0.02089074 0.001757554 0.0076191924 -0.001136975
0.010962531 0.014953989 0.040669974 -0.0086951 0.017863823 -0.009028438 0.010184634 -0.022430848
0.019186895 0.032194525 -0.011757089 0.02584413 0.01461859 -0.025672598 -0.016126841 -0.0064452426
0.024416555 0.031582855 0.04705864 -0.012764836 0.0127121555 0.0024018295 0.0059612785 -0.0031041657
-0.011411683 0.03233191 0.006389625 0.037935477 -0.0015168388 -0.008037856 0.0017394705 -0.021552421
-0.008719841 -0.0010916279 -0.0012837611 -0.032112274 0.004123794 0.018261444 -0.0029029667 -0.010837425
0.01744767 0.016561387 0.0015703643 -0.003128885 -0.0360884 0.017692512 -0.015297363 -0.017145453
0.022276899 0.0030437305 -0.0009140647 0.018032765 0.029285213 -0.011084379 0.02850571 0.017279224
0.012378472 0.016870683 -0.01612915 0.0066198306 -0.017373389 -0.055170484 0.032859873 0.00164348
0.012536325 0.012970932 -0.008292706 -0.007032597 0.011294024 -0.027856601 -0.02707903 0.0099486
0.015323286 -0.01257613 -0.010204046 0.0047332966 0.00018880141 0.010689291 -0.0018405508 0.017411957
0.0050262553 0.020083848 -0.0065777935 -0.0076646977 -0.0435003 0.007927549 0.017695619 -0.004385429
0.00748403 -0.042061456 -0.026255855 -0.0073392442 0.006616601 -0.0020670767 0.04322369 0.034249377
-0.013558905 0.011903172 -0.0057597556 0.0067298636 -0.024374044 -0.03429479 -0.025353855 -0.016598243
0.0020168687 -0.0011812736 0.008372162 0.010374199 -0.029773578 0.012555239 0.026636755 0.0033548705
-0.032656413 0.012317681 0.029440716 0.009834855 -0.042867735 0.025750397 0.030510066 -0.016046561
0.00069430773 0.0106457975 0.0012650349 0.016601773 -0.015858743 -0.0070983977 -9.523824e-06 0.01247871
0.0017822614 0.018404154 0.021498391 -0.009720567 0.033093195 0.012361782 -0.008032273 0.015992856
-0.0011872745 -0.024530599 0.016946448 0.013678086 -0.0035625831 -0.004093188 -0.016648725 0.0021367576

action_model._continuous_distribution.mu.bias f4 [6]
00000000: 0000 0000 0000 0000 0000 0000 0000 0000
00000010: 0000 0000 0000 0000
0.0 0.0 0.0 0.0 0.0 0.0
