results/PlayerAgentTest/TestPlayerAgent/TestPlayerAgent-55.onnx (onnx, 274768 bytes, 6 tensors)

network_body._body_endoder.seq_layers.0.weight f4 [128, 396]
00000000: 8b61 a73c 432f 91bb e2a2 2aba 850c 95bd
00000010: da23 453c 6e96 85bd fa31 edbc 898d 1ebd
00000020: dd63 313d 4482 b03b 2efc 153d dbd8 803d
00000030: c443 783d d985 57bd e0af 843a feb3 183d
00000040: ba34 3c3c 85cf f4bc 183e 24bb 4bb6 a23b
00000050: 050a 90bb 9879 b0bb 9713 513d 7a22 e7bd
00000060: 771c 8d3d 0db3 273c 0d3e d33c e175 793c
00000070: f83a 51bc 56d8 043a 07c0 8f3d c706 9ebc
00000080: ff98 073c 9473 72bc 54f9 8dbd 4e39 d5bd
00000090: 63e4 373d 7107 4ebc e639 103e 533a e9bc
000000a0: 7e40 60bc 35b9 5bba d6f3 92bd 19f9 ae3d
000000b0: 9b73 843c f26e 6f3d adae 253a 748b 10bd
000000c0: a7a2 a03b 41f2 1ebd 73cc cbbc 95ee 1dbd
000000d0: e79b 883b 1aff b0bc a014 433d 9904 88bd
000000e0: ac24 9bbd 5bf9 ebbc be1b 053d b552 8e3d
000000f0: bf09 303d db0b ab3d f504 2dbd 315b 09bd
00000100: 6347 c5bc e163 8fbd 4a92 c6bd f9ef 63bd
00000110: 1ee1 0d3d c13b e73c fa1c 1d3d bb77 813d
00000120: 04e0 103c ac48 85bd 5bf1 813d e5af 1d3d
00000130: fbef 34bc bfd2 453c 1450 213d e0b5 863d
00000140: fb2e 503d bbc6 60bc 94fd 923c 9f87 d03d
00000150: fbc4 fc3c 8722 893d 252f 903d 25fc e53c
00000160: 837b d13c cdef 6fbd f372 9f3c eaeb 1a3d
00000170: 190b 37bc 4b0e af3d 46df e73d d675 c7bc
00000180: ff28 1fbc 51b7 653d aaa4 c23c 1ea3 e13c
00000190: 4554 153d ffae 3d3c a298 83bc 7906 413c
000001a0: a89c b9bc a572 a4bb fb8a 03bd afdf 82bd
000001b0: 813e d33d aae7 0ebd 3276 933d c9f5 083d
000001c0: b289 283d af79 a4bb 4a8d 6f3a a8e9 82bd
000001d0: 70c6 4e3d dfa7 84bd 7b78 c43b 69fb a63c
000001e0: 7ddd 5bbd 13b1 9bbd 2306 10bd 2be7 a53d
000001f0: 7b30 06bd 07dc f1bc 70f9 96bd 2d36 e4bc
00000200: 1d1c 07bd f4f1 20bd d518 5dbd 42bf 72bd
00000210: ff6e 393d ab2b aebc c254 28bd 80eb 8dbd
00000220: a07a 80bd 40d3 7e3d 7aab 9c3b 2a75 4abd
00000230: d154 ba3c a318 35bc 2fa5 003b ec6e b8bb
00000240: d4cc 863d fd9b 13bd f84e 14bc 12c0 173c
00000250: 8bcd 723c 5e62 71bd 8405 12bd ae13 ec3c
00000260: 2355 923d 7166 b3bc c38b 8bbd 734b 183b
00000270: efb4 0c3c a7d4 e2bc ff68 cf3c 6f74 183d
00000280: d92b 25bd 11c2 9abd fc1b c23c eb29 05bd
00000290: 2d11 f9bc 6fec ccbb 6e12 cfbd 72c0 f9bb
000002a0: 01bf 24bd 7efd 4bbc 844c 8cbd 2d34 073c
000002b0: 6e69 c43d beb0 5c3c e4c2 b03c df2d f7bc
000002c0: f8b2 97bb fd07 e8bb a799 a9bd e00f 69bd
000002d0: 5247 56bd 42b8 dd3c 76a2 b0bd 2b3d 0bbd
000002e0: 5a6b ad3d 0f34 e7bc f0dc 8e3d f728 fe3c
000002f0: 8efd 293b 8b81 003d a2c0 2cbb 98d2 3d3c
00000300: f210 09bd 354d 483c a244 443d 83b1 063d
00000310: b69a 4abd fa2a cf3c 46b6 153d 13ee 893c
00000320: 85cd 93bd 5a0c e9b7 d120 193d 8481 b2bc
00000330: ac6d 273d 609a 013d 0f77 39bc fb95 783c
00000340: 62be 6dbc 78c3 52bd b87b 8abd d891 433d
00000350: 2092 623d 92f4 f23c 7da3 103d 72f8 27be
00000360: 4d82 e13c 4da4 2a3d e35d 11bd 1dd6 543c
00000370: 6af2 f73a b0a8 8b3d 2089 05bd 9f9a a03d
00000380: 51e2 353d cf68 293d 1913 5abc 45ad f9bc
00000390: 74cd 08be 25a0 8f3c 5458 7abc 8e16 6abd
000003a0: 40ec d8bb b3c8 80bb d757 423c feae 203d
000003b0: c5cc 943c 04dc 9e3d 650e b63c ba78 9a3c
000003c0: 73ab 7a3d 3b0c 95bc d924 083d 49d9 1bbc
000003d0: 2209 593d 9473 263e 9f17 a33c 7ab8 8d3d
000003e0: 9f3a 3d3d 0ce1 10bb 40af a23c 4972 bbbd
000003f0: 7877 d2bd 3032 0fbd 7caa debc f5ca 15bd
0.020432254 -0.004430683 -0.0006509257 -0.072777785 0.012032473 -0.06522833 -0.028954495 -0.038709197
0.043308128 0.0053866226 0.03661745 0.06291362 0.0606115 -0.05261788 0.0010123216 0.03728103
0.01148718 -0.02988411 -0.0025061425 0.0049655787 -0.0043957257 -0.005385589 0.051044073 -0.11285873
0.06890195 0.01023556 0.025786424 0.015225858 -0.012770407 0.0005067637 0.07019048 -0.019290341
0.008276223 -0.014798064 -0.06932321 -0.104113206 0.04489554 -0.012575016 0.14084587 -0.028470194
-0.013687251 -0.0008381785 -0.07175414 0.08543605 0.016168406 0.058455415 0.0006320279 -0.035289243
0.004902202 -0.03880525 -0.024877762 -0.038557608 0.0041689756 -0.021606017 0.04762709 -0.06641502
-0.07575354 -0.028805425 0.03249716 0.06949369 0.042978045 0.083518706 -0.042241056 -0.033534233
-0.024081891 -0.07001472 -0.09695871 -0.055648778 0.034638517 0.028226735 0.038357712 0.06321665
0.008842472 -0.06508002 0.06344863 0.038497824 -0.011043544 0.012074172 0.03938301 0.06577659
0.050826054 -0.013719256 0.017943181 0.10182118 0.030855646 0.06696039 0.07040242 0.028074333
0.02557159 -0.0585783 0.019463992 0.03782264 -0.0111720795 0.08547648 0.11321883 -0.02434818
-0.009714364 0.056083027 0.023760159 0.0275436 0.03645732 0.011577367 -0.016063992 0.011781328
-0.022657707 -0.0050185495 -0.032114964 -0.063903205 0.10314656 -0.0348889 0.07200278 0.033437524
0.04114694 -0.0050193886 0.000913818 -0.06392223 0.050482213 -0.06477331 0.0059958077 0.020383554
-0.053678025 -0.076021336 -0.035162102 0.081007324 -0.03276108 -0.029523863 -0.07371795 -0.027857864
-0.032985795 -0.039293244 -0.05397876 -0.05926443 0.04527187 -0.021261057 -0.041096456 -0.06929684
-0.06273389 0.062213182 0.004781184 -0.049428143 0.022745522 -0.011053237 0.0019629707 -0.0056284573
0.065820366 -0.036037434 -0.009052031 0.009262102 0.014819513 -0.0589317 -0.03564979 0.028817978
0.07145145 -0.021899434 -0.06813767 0.002323833 0.00858806 -0.027689291 0.02531862 0.037220415
-0.04032502 -0.075565465 0.023694985 -0.03251068 -0.030403698 -0.006253771 -0.10110937 -0.007621818
-0.040221218 -0.012450574 -0.06850532 0.008252186 0.095904216 0.013469873 0.021577306 -0.03017324
-0.004629489 -0.0070810304 -0.0828126 -0.056899905 -0.05231411 0.0270654 -0.08624737 -0.03399388
0.08467741 -0.028223066 0.06975734 0.031025393 0.0025938484 0.03137354 -0.0026359935 0.011585854
-0.033463426 0.012225439 0.047917016 0.032884132 -0.04946395 0.025289048 0.036550783 0.016837155
-0.07216934 -2.7781516e-05 0.03738481 -0.021790273 0.040876076 0.031641364 -0.01131989 0.015172477
-0.014510723 -0.051455945 -0.06761879 0.04774651 0.055315137 0.029657636 0.035312165 -0.16403368
0.027527953 0.041660596 -0.035489928 0.012990502 0.001891685 0.06819284 -0.032601476 0.07841992
0.044405285 0.04135972 -0.013310217 -0.03047813 -0.13359624 0.017532418 -0.015279848 -0.057150416
-0.00661996 -0.003930175 0.011861763 0.039229386 0.018164048 0.077568084 0.02222366 0.018856395
0.061198663 -0.018194309 0.033238266 -0.009512254 0.052987225 0.16255027 0.019908724 0.06919952
0.046198484 -0.0022106795 0.019858956 -0.091526575 -0.10276693 -0.034959972 -0.027180903 -0.036570508

network_body._body_endoder.seq_layers.0.bias f4 [128]
00000000: 0000 0000 0000 0000 0000 0000 0000 0000
00000010: 0000 0000 0000 0000 0000 0000 0000 0000
00000020: 0000 0000 0000 0000 0000 0000 0000 0000
00000030: 0000 0000 0000 0000 0000 0000 0000 0000
00000040: 0000 0000 0000 0000 0000 0000 0000 0000
00000050: 0000 0000 0000 0000 0000 0000 0000 0000
00000060: 0000 0000 0000 0000 0000 0000 0000 0000
00000070: 0000 0000 0000 0000 0000 0000 0000 0000
00000080: 0000 0000 0000 0000 0000 0000 0000 0000
00000090: 0000 0000 0000 0000 0000 0000 0000 0000
000000a0: 0000 0000 0000 0000 0000 0000 0000 0000
000000b0: 0000 0000 0000 0000 0000 0000 0000 0000
000000c0: 0000 0000 0000 0000 0000 0000 0000 0000
000000d0: 0000 0000 0000 0000 0000 0000 0000 0000
000000e0: 0000 0000 0000 0000 0000 0000 0000 0000
000000f0: 0000 0000 0000 0000 0000 0000 0000 0000
00000100: 0000 0000 0000 0000 0000 0000 0000 0000
00000110: 0000 0000 0000 0000 0000 0000 0000 0000
00000120: 0000 0000 0000 0000 0000 0000 0000 0000
00000130: 0000 0000 0000 0000 0000 0000 0000 0000
00000140: 0000 0000 0000 0000 0000 0000 0000 0000
00000150: 0000 0000 0000 0000 0000 0000 0000 0000
00000160: 0000 0000 0000 0000 0000 0000 0000 0000
00000170: 0000 0000 0000 0000 0000 0000 0000 0000
00000180: 0000 0000 0000 0000 0000 0000 0000 0000
00000190: 0000 0000 0000 0000 0000 0000 0000 0000
000001a0: 0000 0000 0000 0000 0000 0000 0000 0000
000001b0: 0000 0000 0000 0000 0000 0000 0000 0000
000001c0: 0000 0000 0000 0000 0000 0000 0000 0000
000001d0: 0000 0000 0000 0000 0000 0000 0000 0000
000001e0: 0000 0000 0000 0000 0000 0000 0000 0000
000001f0: 0000 0000 0000 0000 0000 0000 0000 0000
0.0 0.0 0.0 0.0 0.0 0.0 0.0 0.0
0.0 0.0 0.0 0.0 0.0 0.0 0.0 0.0
0.0 0.0 0.0 0.0 0.0 0.0 0.0 0.0
0.0 0.0 0.0 0.0 0.0 0.0 0.0 0.0
0.0 0.0 0.0 0.0 0.0 0.0 0.0 0.0
0.0 0.0 0.0 0.0 0.0 0.0 0.0 0.0
0.0 0.0 0.0 0.0 0.0 0.0 0.0 0.0
0.0 0.0 0.0 0.0 0.0 0.0 0.0 0.0
0.0 0.0 0.0 0.0 0.0 0.0 0.0 0.0
0.0 0.0 0.0 0.0 0.0 0.0 0.0 0.0
0.0 0.0 0.0 0.0 0.0 0.0 0.0 0.0
0.0 0.0 0.0 0.0 0.0 0.0 0.0 0.0
0.0 0.0 0.0 0.0 0.0 0.0 0.0 0.0
0.0 0.0 0.0 0.0 0.0 0.0 0.0 0.0
0.0 0.0 0.0 0.0 0.0 0.0 0.0 0.0
0.0 0.0 0.0 0.0 0.0 0.0 0.0 0.0

network_body._body_endoder.seq_layers.2.weight f4 [128, 128]
00000000: 5dcd 173d 9ce6 38bd ffc9 63bc 519e 8e3c
00000010: 13d8 91bb 0f79 863d e6fc 92bd 087a ccbc
00000020: 8230 143e cac2 7d3d ab0b 49be 77a4 193d
00000030: 3c11 4b3d 95e4 a53d 3391 373c 9d5b 19bc
00000040: 3dfb 78bd 32d7 003e 929f 39bd 1353 b13d
00000050: 2741 8abd 2913 b3bd 978e 3bbd 64e9 053d
00000060: 21f5 ddbd 2695 c53c 94f5 1bbe db32 d93a
00000070: e947 4c3d 3da2 e7bd fa78 cfbc 11d7 f6bd
00000080: fce5 7bbd 6a89 683e 4968 693d a10b 62b9
00000090: cb0c 71bd 0f61 efbc d1d7 39bd e1da bebd
000000a0: 3b8b f63d f5b5 40bc b202 383e 3c59 e0bd
000000b0: 8732 bbbc ff37 e1bd abef fc3c 5d2d 443e
000000c0: 1d5f c23d a449 883c 32e5 61bc 6feb 37bd
000000d0: 55e5 e8bd 9e75 f83c 4886 a8bc cde8 e8bd
000000e0: fd31 053d 2368 82bc b7bb bdbd 7a34 34bd
000000f0: d982 ac3c cd3e 0cbe 9a96 7f3d a2bf 52bd
00000100: 1b08 96bd 273c dd3c 09df eabc 779e c23d
00000110: 15c3 0c3c e425 5fbd 4470 eabd 0cab eb3c
00000120: 1798 8dbd 1a81 f3bc 3119 d03c 57aa 5ebd
00000130: 4d95 a43d 4d62 acbd 0846 733d 67d4 943c
00000140: 21c9 cebd 2627 403e 47af 283d b589 b5bb
00000150: 1709 ec3c 5a1e 08be 7f34 43bd 5f98 b83d
00000160: fe61 553c 3d4c fbbd b128 023e 6a52 933c
00000170: 3d1b 23bd 7f5a 6cbd 78b1 ca3d 787b 393d
00000180: 39e0 f3bd 0eeb e83c af08 09be a101 64bd
00000190: 1103 503d ef47 6a3c 055d be3c d2a5 08bd
000001a0: 7cb8 af3d c3c9 ac3b 9257 c33d 0933 9bbd
000001b0: cf00 8f3c dd24 5abd 5c9c 09be db4c 07bb
000001c0: 7d37 9d3c be3f 463d ea80 95bd 0cc9 873d
000001d0: 2eee 033d 7c9c 6a3c 0456 a73d c529 043d
000001e0: b64a 39bd 0f3b ecbd 6e94 d93d 281e afbd
000001f0: 0131 013d 7dce bf3c c25c 0a3d 201a 3f3d
00000200: 49ef 863d 40f4 963d 152a 023e df5f 96bc
00000210: 6527 15bc 2fc3 1abe 95de 363d b4bd 963c
00000220: faaa bfba 9406 43be e599 df3d 3ff7 bf3d
00000230: 1a25 36be b273 a33c 5436 e3bd 64da c8bd
00000240: 64b8 4cbd 5668 eb3d 65b8 05bc a557 15bd
00000250: d8b6 573d 6413 8ebd 57b8 1fbe af8a 123e
00000260: e1d6 b83d a8fb 5c3d 9f45 983d c5d3 38bd
00000270: bb38 68be d7b7 3cbd 4ef8 5fbd b3b6 48bc
00000280: d46e a9bc 4b2e 9fbd 8213 b8bc 89a5 013e
00000290: 23c1 8abd 0b6a 5a3d 169c 433c 170f e9bc
000002a0: 8cdd 5f3d 22dc e43d 308a 0a39 4057 8c3d
000002b0: 3150 303e 84d5 c0bc 522a 7fbd aefa 343c
000002c0: fd8b f23d 72b2 49bd f47d 4fbe 78f1 d4bc
000002d0: 31e0 31be f57a c2bd f124 4dbd a7cd 29bd
000002e0: 469c 05be 6c74 f23d 01ef 263d bc2e afbd
000002f0: f74f d4bc 8271 9d3d bcb5 0abe 418e 43bd
00000300: 7bb3 87ba 2afe 10bd 9e94 9fbd d836 c7bd
00000310: ab4d be3d 5d61 36bd 8423 e23c af67 a1bc
00000320: 8542 58bd 5b38 083e a886 4dbd 1b47 3c3e
00000330: d85d 93bc 323c d53d d940 dc3d 5ea9 30bc
00000340: 78e6 833d 84f4 9b3d 073c f9bd 5327 ef3c
00000350: b75a 7c3d b6f3 63bb 6bc7 873d d85d d13d
00000360: 0dfd 9e3b bd28 5a3d 7b94 463e 7827 873d
00000370: b8ca 8bbe 416c 483d 9608 c13d 67a1 48bd
00000380: 5c7e 7cbd 0c14 c5bd 7925 1dbe d3ea e03d
00000390: 47c7 c73c 0b19 153d 773c 383d 46c0 ad3d
000003a0: 193b 973d b80b 153e 9e3f 89bc d392 8abd
000003b0: 82e1 4dbd d72a 873d d198 ddbd 9d36 ce3d
000003c0: 27b4 ef3c b82a e43c 366c 2cbd c959 173e
000003d0: db82 c33b 19bb 833d 7030 013d 66e1 c2bd
000003e0: 719b aebd fdb9 ec3c e833 303e 7361 e43c
000003f0: 53b4 943d 0eb2 d03d c152 36bd dfb2 33be
0.037061084 -0.0451418 -0.01390314 0.017409476 -0.004450807 0.06566059 -0.07177143 -0.024960533
0.1447163 0.061953343 -0.19633357 0.03751036 0.049576983 0.08100239 0.011204052 -0.009360221
-0.060786474 0.1258209 -0.045318194 0.08658423 -0.06750708 -0.08743889 -0.04579028 0.03269328
-0.1083777 0.024118971 -0.152304 0.0016570942 0.049873266 -0.11310241 -0.02532624 -0.120527394
-0.061498627 0.2270867 0.05698422 -0.00021557372 -0.05885009 -0.029221086 -0.045371834 -0.093190916
0.12038275 -0.011762132 0.17969778 -0.1095452 -0.022851242 -0.109970085 0.030876001 0.1915793
0.09490798 0.016636677 -0.013787555 -0.04490226 -0.113718666 0.030329522 -0.020571843 -0.11372528
0.032518376 -0.015918797 -0.092643194 -0.043995358 0.021058487 -0.13695832 0.062399484 -0.051452287
-0.07325765 0.027006222 -0.028670805 0.09502881 0.008591433 -0.054479495 -0.11447194 0.028768085
-0.069137745 -0.029724646 0.025402637 -0.054361667 0.08036289 -0.08417187 0.05939296 0.018167688
-0.10096956 0.18764934 0.041182783 -0.0055400976 0.028812928 -0.13292828 -0.047657486 0.090134375
0.013023851 -0.12270401 0.12710835 0.017983634 -0.0398209 -0.05770349 0.09897131 0.045283765
-0.119080015 0.028432395 -0.13382219 -0.055665616 0.050784174 0.014299377 0.023237715 -0.033361264
0.085801095 0.0052730753 0.09538187 -0.075780936 0.01745644 -0.05325781 -0.13438553 -0.0020645175
0.019191498 0.048400633 -0.07299979 0.066301435 0.032209568 0.014319535 0.08170703 0.032266397
-0.045237266 -0.11534702 0.10624014 -0.08550674 0.031540874 0.023413891 0.033779867 0.046655774
0.06588609 0.07370806 0.12711366 -0.018356262 -0.009103631 -0.15113519 0.044645865 0.018401004
-0.0014623099 -0.19045478 0.10918025 0.0937333 -0.1778759 0.019952629 -0.11094347 -0.0980728
-0.049980536 0.1149451 -0.008161639 -0.036460537 0.052664608 -0.06937292 -0.15597664 0.14310716
0.0902536 0.053950936 0.07435154 -0.045123834 -0.22677891 -0.04607376 -0.05468016 -0.01225059
-0.02068273 -0.077725016 -0.02247024 0.12660803 -0.06775119 0.053323787 0.011939069 -0.028449578
0.054654643 0.111747995 0.00013212184 0.06852579 0.1721809 -0.023539312 -0.06229622 0.011046095
0.11843107 -0.049242444 -0.20262891 -0.025994048 -0.17370678 -0.094961084 -0.05008406 -0.04145589
-0.13047895 0.11838612 0.040755276 -0.08553836 -0.025917036 0.076876655 -0.13545889 -0.047743086
-0.0010353172 -0.03539864 -0.07792018 -0.097272575 0.09292158 -0.044526447 0.027604826 -0.01970276
-0.052797813 0.13302748 -0.050177246 0.183865 -0.017989084 0.10411872 0.10754556 -0.010782568
0.06440443 0.07614997 -0.121696524 0.029193556 0.06160995 -0.0034782714 0.06629833 0.102229774
0.0048519433 0.053261507 0.19392578 0.06599325 -0.273031 0.048931364 0.09425466 -0.04898205
-0.061643943 -0.09622964 -0.15346326 0.10982289 0.024387015 0.036400836 0.04497954 0.08483939
0.07384319 0.14555252 -0.016753968 -0.06766286 -0.05026389 0.06599968 -0.10820163 0.100690104
0.029260708 0.027852401 -0.042095385 0.14780344 0.005966527 0.064321704 0.031540334 -0.095156476
-0.08525742 0.02889728 0.172073 0.027878499 0.072609566 0.10190211 -0.044512514 -0.17548703

action_model._continuous_distribution.log_sigma f4 [1, 6]
00000000: 0000 0000 0000 0000 0000 0000 0000 0000
00000010: 0000 0000 0000 0000
0.0 0.0 0.0 0.0 0.0 0.0

action_model._continuous_distribution.mu.weight f4 [6, 128]
00000000: 0a14 e13a 29c4 8d3b 368e 0bbc 47b8 b8bc
00000010: 4671 c1bc 5888 353d 8367 2e3d 13a3 3b3d
00000020: e937 b0bb d226 8e3a 2913 87bc 773a d93c
00000030: 1118 00bc 5f63 d1bb 12cf 133b 3804 80bb
00000040: 703c 53bc 9bba 933c 50c2 aabc 394d 9fbc
00000050: 5814 0cbb 875a ffba e3c9 293c a75d 863c
00000060: 5712 fb3c 88dc 283d 655d 773c 4999 8bbc
00000070: dbe9 3dbc 41ce 0dbc 4ae5 d73a 9f7f 083c
00000080: 9e52 20bc 7559 403c e371 803c 6192 a7bb
00000090: bec1 ab3c 7835 0d3c 3403 8d3c 9bd2 5f3c
000000a0: 3588 773c 3f31 9dbc 781c 7d3a 3676 9f3c
000000b0: 2523 013c 03b4 42bc 73af 373d 0932 acbc
000000c0: a3d9 15bc 2e2d c1bc ad5a 793c 80ee a63c
000000d0: e270 f0bb b614 b6bc e7cc 3dbd aa74 afba
000000e0: f02b a5ba 2add 3cbb 11f6 843b 63af cebc
000000f0: 8213 323c 8542 e9bc 466d 1d3b 411b 103c
00000100: 1a7a b5bc e2e6 0c3d d81a 253c 3625 33ba
00000110: 93c3 38bb 42f8 433c 66f2 c43c 35eb 283c
00000120: bba3 b9bc 6513 87bc 5731 403c a7b5 1f3a
00000130: f7f8 54bc bff8 2e3c ea1c 023d 6b2f d6bb
00000140: 3b70 b6bb 9da7 d63c b495 b6bc 4f99 55bc
00000150: d76f 77bc be05 84bc c424 a93c f418 82bc
00000160: 4316 613b 9f3b 40bc 4416 0bbc ca8a 0e3d
00000170: a758 5bbc 5f7d 48bc 68bd 443d 17e1 183d
00000180: 6fd3 68bc 07db 083d 2b9c 88bb 5b3a df3c
00000190: d065 36bc ea4b 8e3c 87d7 d83b 1f01 adbc
000001a0: de1b ad3c 3f9a 10bc baf1 603c 7b7b 41bc
000001b0: 9f99 ddbc ad71 59bb 5019 f33b a827 2fbb
000001c0: f66b a93c 4516 5cbb b3de 193d 1777 06bd
000001d0: e0f1 5ebc e390 493b b62d a5bc 7225 693c
000001e0: 1f5d 43bc e664 9f3c 670a 66bc 67c4 1dba
000001f0: bbb8 003c 58db 54bb ba08 973b 2914 4cbc
00000200: 26c1 b43a 7f1f 2e3c 9055 f6bb bbce 1c3d
00000210: 5d11 1bbd 58d7 ad3b 3800 ecbc cfb4 003c
00000220: 2b01 553c a2d5 5a3c 80bd c0bc c40a 04bc
00000230: 73e7 dd3c 0c31 b439 7b3f a83c 4774 5fbb
00000240: 0be2 9b3c fc8b b4ba 3de1 b63c cad2 d8bb
00000250: 1a7c 64bc aaa0 cf3c 2cc4 2bbc 117f 853c
00000260: 0eac 94bc df77 2bbc d36b 13bc 9207 31bc
00000270: 2f36 a1ba 7885 de3b cb72 a03c f72d b03c
00000280: 4999 0c3d c444 193d bc2f 30bc f4b3 113c
00000290: 55f2 703c e5c0 3ebd 34bb 0abc 7bee 473c
000002a0: 8ae1 ad3c 82df cbbc c2db 1fbd 4a81 32bb
000002b0: 6d31 2cbc 77bd fa3a 1f9a c4bc b097 8c3c
000002c0: 4af8 e8bc 26d7 18bc 73b3 a4bc 879c 563b
000002d0: 485d 04bd e710 2abc 8ea1 2abd dd54 57ba
000002e0: 4f42 7ebc 657a 003c 839c d5bc b8b4 cdbc
000002f0: 196e 803c af44 15bc c168 b6b7 cb90 13bc
00000300: e7a4 683c c17d 213a 4ff7 973c 2b24 88bb
00000310: c543 833c 7667 c2bb 748d a73b c839 04bc
00000320: 84ef b83b 5fda 29bc 6fa4 3cbb 078f 7b3c
00000330: d1fb 0a3c 6de0 7cbc a727 abbc e500 ad3c
00000340: e35b 26bc df95 18bc 3b97 983c fc59 343b
00000350: cbbe 7dbb f401 133d eb2a 12bd e621 453c
00000360: 5a5b 04bc ecb9 383d ea43 0bbc 87d6 133c
00000370: 7924 8dbc cf75 ec3b 8dfe ccbc 4b71 78bc
00000380: efa8 c23b 1528 b9bc 7b73 f23b 8a39 59bc
00000390: e700 a2bc 4c02 4cbc 9b1e bd3c e5d3 2fbb
000003a0: 6fa2 33bc bcf0 493c dabf 3dbc af6d b0bc
000003b0: dc9f 8dbc a7cb 373c 3f6d 1bbc 623b 50bc
000003c0: c3e6 79bc c7df edbc 1319 a43b ad80 163d
000003d0: 7296 e7bb ffaf d73c 0666 0c3d 4f7e cabb
000003e0: b40d a53b 7ba2 a13b d80c b53c 133e 7cba
000003f0: ae6b 153a bd7b 283c ad65 b83b 4d0b 193c
0.001717211 0.0043263626 -0.008517792 -0.022548808 -0.023613583 0.04431948 0.042579185 0.045809817
-0.0053777588 0.001084531 -0.016488628 0.026517136 -0.007818238 -0.00639002 0.0022553843 -0.003906753
-0.012892827 0.018033316 -0.020844609 -0.019446002 -0.002137443 -0.0019481935 0.010363075 0.016402079
0.030648394 0.04122594 0.015097951 -0.017040865 -0.0115914 -0.008655132 0.0016471532 0.0083312085
-0.0097853225 0.011740078 0.015679305 -0.0051138853 0.020966407 0.008618705 0.017213441 0.013661052
0.015108158 -0.019188521 0.0009655426 0.019465547 0.007881914 -0.011883738 0.044845056 -0.021019952
-0.009146127 -0.023581114 0.015219373 0.020377398 -0.0073376754 -0.022226673 -0.04633799 -0.0013386209
-0.0012601595 -0.0028818347 0.0040576537 -0.025230115 0.010868909 -0.028474102 0.002402143 0.00879556
-0.02215295 0.034399875 0.010077201 -0.0006833853 -0.0028192743 0.011961045 0.024041366 0.010309984
-0.02266108 -0.01648874 0.011730514 0.0006092437 -0.012998811 0.010679423 0.031765856 -0.0065364144
-0.005567578 0.026202971 -0.02228818 -0.01303704 -0.015102348 -0.01611602 0.020647414 -0.01588104
0.0034345544 -0.011732965 -0.008489195 0.03480033 -0.013387836 -0.012236922 0.048032194 0.037324037
-0.014210566 0.033412006 -0.0041690073 0.027249506 -0.011132672 0.017370183 0.0066174897 -0.021118699
0.021131452 -0.008825838 0.013729507 -0.011809225 -0.027050791 -0.0033179328 0.007418789 -0.0026726518
0.020681363 -0.003358261 0.0375659 -0.032828417 -0.013607472 0.0030756525 -0.020163398 0.014230119
-0.011924057 0.019457292 -0.014040566 -0.0006018341 0.007856543 -0.0032479372 0.0046091946 -0.012455978
0.0013790473 0.010627626 -0.007517524 0.03828309 -0.037858356 0.005305212 -0.028808698 0.007855608
0.013000767 0.013356598 -0.02352786 -0.008059207 0.027087903 0.00034368818 0.020538082 -0.0034096406
0.019028684 -0.0013774629 0.022324199 -0.006616925 -0.013945604 0.025345165 -0.010483783 0.016295942
-0.018148448 -0.010465591 -0.008997875 -0.010805028 -0.0012299473 0.006790813 0.019585988 0.021506293
0.03432587 0.037419096 -0.010753568 0.008893002 0.014706214 -0.046570677 -0.008467484 0.012202854
0.02122571 -0.02488685 -0.039027937 -0.0027237707 -0.010509831 0.0019129951 -0.023999272 0.017162174
-0.028438706 -0.009328639 -0.0201051 0.0032747106 -0.032315522 -0.010380006 -0.041657977 -0.0008214245
-0.015518739 0.007841681 -0.026075607 -0.025110587 0.015677499 -0.009110614 -2.174487e-05 -0.009006689
0.014199472 0.00061604014 0.018550543 -0.004154702 0.016023526 -0.0059327437 0.005113298 -0.008070417
0.005643787 -0.010367005 -0.0028784533 0.015353925 0.008482889 -0.015434367 -0.020892931 0.02111859
-0.010153743 -0.009313076 0.0186268 0.0027519455 -0.0038718458 0.035890535 -0.03568546 0.012032008
-0.008078421 0.045099184 -0.008500079 0.009023315 -0.017229306 0.0072161923 -0.025023723 -0.01516373
0.0059405486 -0.02260212 0.0073990203 -0.013258347 -0.01977582 -0.0124517195 0.023085883 -0.002682918
-0.01096402 0.012325462 -0.0115813855 -0.021536676 -0.017288141 0.011217988 -0.0094864955 -0.0127094705
-0.015252772 -0.02903737 0.005007872 0.03674381 -0.007067495 0.026329039 0.034276985 -0.006179608
0.005037034 0.0049326993 0.022100851 -0.0009622287 0.00056999444 0.010283408 0.005627355 0.009341073

action_model._continuous_distribution.mu.bias f4 [6]
00000000: 0000 0000 0000 0000 0000 0000 0000 0000
00000010: 0000 0000 0000 0000
0.0 0.0 0.0 0.0 0.0 0.0
