results/PlayerAgentTest/TestPlayerAgent/TestPlayerAgent-38781.onnx (onnx, 275220 bytes, 7 tensors)

network_body._body_endoder.seq_layers.0.weight f4 [128, 396]
0	0xbc1d0e95	-0.009585996
1	0xbd3faf58	-0.04679808
2	0xbc9d7057	-0.019218607
3	0x3ccf21d7	0.02528469
4	0xbc2e2b98	-0.010630511
5	0x3cda08ba	0.02661549
6	0xbd2a1a39	-0.041528914
7	0xbba696a2	-0.005083875
8	0x3c17a640	0.009255946
9	0x3d6293bc	0.05531667
10	0x3d4ab08b	0.04948477
11	0x3d165ca5	0.036709446
12	0x3d271090	0.04078728
13	0x3c92d690	0.017924577
14	0xbda37281	-0.07980824
15	0xbdd123d9	-0.102119155
16	0x3c599a1b	0.0132813705
17	0xbd80fecd	-0.062985994
18	0x3cba5d92	0.022749696
19	0x3c9e322d	0.019311035
20	0x3d2606bd	0.04053377
21	0xbca5f27e	-0.02025723
22	0x3c95a424	0.018266745
23	0xbdd03243	-0.10165837
24	0xbd0b7e36	-0.03405591
25	0xbd25fb87	-0.04052308
26	0x3a6ea311	0.0009103278
27	0xbd4bbd4c	-0.049741074
28	0x3c9734fc	0.018457882
29	0x3be90993	0.007111737
30	0xbd859f65	-0.06524543
31	0x3d5969ff	0.0530796
32	0xbd9784b6	-0.073983595
33	0x3d1190bb	0.035538416
34	0xbd8a070d	-0.06739626
35	0xbdaaba4c	-0.083363146
36	0xbe02c01f	-0.12768601
37	0x3d93eaed	0.07222543
38	0xbce4545c	-0.027872257
39	0x3bedf60b	0.0072619966
40	0x3d5f993f	0.054589506
41	0xbc4c27c6	-0.012460655
42	0xbc8f863d	-0.017520064
43	0xbc5d7160	-0.0135158
44	0x3ce6f546	0.028193127
45	0x3d2e5dd9	0.04256997
46	0x3c39d305	0.011341815
47	0xbe0c9fa9	-0.1373278
48	0x3dd94127	0.1060813
49	0x3c17ca2a	0.009264508
50	0x3db0339c	0.08603594
51	0xbcf31f61	-0.029678049
52	0x3d0546b6	0.03253814
53	0x3c7da38a	0.015480885
54	0xbd13e129	-0.0361034
55	0x3c34a70e	0.011026157
56	0xbd0d5194	-0.034501627
57	0x3cc477d7	0.023982925
58	0x3c41ee9e	0.011836676
59	0x3d66069d	0.05615865
60	0x3ca88818	0.020572707
61	0xb7403fec	-1.1458975e-05
62	0x3d160218	0.03662309
63	0xbc637505	-0.01388288
64	0xbad13647	-0.001596161
65	0xbd5f18d4	-0.054467037
66	0x3d05600c	0.0325623
67	0x3d29965a	0.041403152
68	0x3c877e1f	0.016539631
69	0xbc0f2643	-0.00873715
70	0x3d0326e6	0.03201952
71	0xbd1b9d2c	-0.037991688
72	0x3d3c3851	0.045952145
73	0xbd79232d	-0.060824562
74	0x3d77c294	0.0604883
75	0x3ccea869	0.025226789
76	0x3d122c9c	0.035687074
77	0x3c78d6bf	0.015187918
78	0xbd3852ce	-0.045000844
79	0x3d4bd98f	0.049768027
80	0x3c3e54da	0.01161691
81	0x3d86c370	0.065802455
82	0x3ccf5097	0.025306983
83	0xbcb32e66	-0.02187271
84	0xbd527eaf	-0.051390346
85	0x3d91ea8b	0.07124814
86	0xbd99f3f9	-0.07517237
87	0xbc56896f	-0.01309429
88	0x3da2e9cf	0.07954752
89	0x3cb3f593	0.021967685
90	0xbd66eef3	-0.056380223
91	0xbce51609	-0.027964609
92	0xbd8d1c13	-0.0689012
93	0xbc0b1d11	-0.008490817
94	0x3b90c4dd	0.004417999
95	0xbd0e480c	-0.034736678
96	0x3b0a5b2f	0.0021111479
97	0x3d92ae6f	0.07162177
98	0x3c9098cd	0.017650986
99	0xbd1e801b	-0.03869639
100	0xbcf21c8a	-0.029554624
101	0xbd39c1b3	-0.04535074
102	0xbdb01633	-0.08597984
103	0x3d94e07e	0.07269381
104	0xbbf82fed	-0.0075740726
105	0xbd402390	-0.046908915
106	0xbc5454f5	-0.012959708
107	0x3d947c79	0.07250304
108	0xbd6f2658	-0.058386177
109	0x3d5103ee	0.05102914
110	0x3d11cad6	0.03559383
111	0xbc7665e2	-0.015038939
112	0xbdd28457	-0.10279148
113	0x3cecfc58	0.02892892
114	0xbd8c1195	-0.06839291
115	0xbd88ac64	-0.06673506
116	0xbde0defd	-0.10980032
117	0xbd7739fb	-0.06035803
118	0x3c9ac5c6	0.018893134
119	0xbd8d55ad	-0.06901107
120	0xbc1597fa	-0.009130472
121	0xbcbdd062	-0.023170654
122	0x3d9faf31	0.07797087
123	0xbda52e6a	-0.080654934
124	0x3dbb99ef	0.0916022
125	0x3bef2343	0.0072979047
126	0x3cea7ce6	0.02862401
127	0x3c841db7	0.01612745
128	0x3cc4d56f	0.024027554
129	0x3cac988c	0.021068834
130	0xba92aa27	-0.0011189625
131	0xbd6d0b3c	-0.057872042
132	0xbb5183ba	-0.0031969384
133	0x3c977b73	0.018491482
134	0x3d06178a	0.032737292
135	0x3c1c6952	0.009546595
136	0x3d1c2ecf	0.038130578
137	0xbcb111fa	-0.021615017
138	0x3b205ab8	0.0024468135
139	0xbd8b1889	-0.06791789
140	0x3de0bb57	0.10973232
141	0x3c6892db	0.014195169
142	0x39978d93	0.00028906445
143	0xbd4d2d45	-0.050092
144	0xbc7817ad	-0.0151423635
145	0x3ca2acb5	0.019857744
146	0x3d6d2def	0.057905134
147	0xbd621a9c	-0.055201158
148	0xbd43fb0f	-0.04784685
149	0x3dc0d252	0.094151154
150	0xbcc25ae3	-0.023724979
151	0x3ce486b1	0.027896257
152	0xbb5225f9	-0.003206609
153	0x3d8ea882	0.06965734
154	0x3d8b7027	0.06808501
155	0x3d1564de	0.036473148
156	0xbd111a59	-0.035425518
157	0x3b8d645e	0.004314943
158	0x3d8b8a06	0.06813435
159	0x3d8ea2ee	0.0696467
160	0xbd21f212	-0.039537497
161	0x3c88b458	0.016687557
162	0x3c5cbd18	0.013472818
163	0x3c87819d	0.016541297
164	0xbb9c0aef	-0.0047620456
165	0x3dc30b82	0.09523679
166	0x3df92ebb	0.12167116
167	0x3d42a039	0.04751608
168	0xbc0b8360	-0.008515209
169	0xbda5901b	-0.080841266
170	0xbd308d06	-0.04310324
171	0xbcda496f	-0.026646344
172	0xbc8c2953	-0.017109549
173	0xbc6ec4c9	-0.014573284
174	0xbd57b9b7	-0.052667346
175	0xbc6d833c	-0.014496621
176	0xbdc57bf4	-0.09642783
177	0x3ded87f1	0.115981944
178	0xbc4411ec	-0.0119671635
179	0xb94e6678	-0.00019683864
180	0xbcafd448	-0.021463528
181	0x3c14dd9c	0.009086039
182	0xbcb65928	-0.02225931
183	0x3ba301c7	0.004974577
184	0xbd3ad6da	-0.045615055
185	0x3c918a2a	0.017766077
186	0x3d0caa56	0.034342133
187	0x3d5f3bd5	0.05450042
188	0xbd759e83	-0.05996562
189	0x3d105d37	0.035245147
190	0xbd883d0b	-0.06652268
191	0xbd0338b7	-0.03203651
192	0x3b41def5	0.0029582356
193	0x3b88c86f	0.004174284
194	0x3cf46578	0.02983354
195	0xbd930f8b	-0.07180699
196	0x3dc54e2b	0.0963405
197	0x3ca3fa0c	0.020016693
198	0xbcd5a2df	-0.02607864
199	0xbcd77d21	-0.026304783
200	0xbda682ad	-0.08130393
201	0xbcb2d542	-0.021830205
202	0x3d09472b	0.033515137
203	0x3b76888a	0.0037618005
204	0x3c3d264e	0.011544777
205	0xbd06bba0	-0.032893777
206	0xbd52629e	-0.05136358
207	0xbd167b06	-0.036738418
208	0x3d5c5430	0.053791225
209	0x3d15942b	0.036518257
210	0xbca5f8c7	-0.020260228
211	0xbd86a0b5	-0.06573621
212	0xbd845fdb	-0.064635955
213	0xbc1f7d83	-0.009734514
214	0xbd2795e6	-0.04091444
215	0xbdd67ae8	-0.10472661
216	0xbc38a108	-0.011268862
217	0xbbb60fb0	-0.0055560693
218	0x3d6247e3	0.055244338
219	0x3d11c98f	0.035592612
220	0xbcd58c4e	-0.026067879
221	0xbdeb20e6	-0.11480884
222	0x3d80910e	0.06277667
223	0xbbf2425a	-0.0073931636
224	0xbd266640	-0.040624857
225	0x3d76930f	0.06019884
226	0x3c3166af	0.010827704
227	0x3de0b900	0.10972786
228	0x3d111af1	0.035426084
229	0xbd426d2a	-0.04746739
230	0x3c719795	0.014745613
231	0x3c15a811	0.009134308
232	0xbc9819f0	-0.018567055
233	0x3d81272a	0.06306298
234	0x3d262ea8	0.04057184
235	0xbc5a4bdc	-0.01332375
236	0x3d464baf	0.04841202
237	0xbd485bd6	-0.048915707
238	0xb98610f4	-0.00025571103
239	0xbd104d63	-0.03523005
240	0xbe2f317f	-0.17108725
241	0x3d42834c	0.047488496
242	0xbc259f7d	-0.010108826
243	0x3db62db4	0.08895436
244	0x3cb18e1d	0.02167421
245	0xbc1797db	-0.009252514
246	0xbc4ff6b0	-0.012693092
247	0x3d159015	0.03651436
248	0xbd60baa3	-0.05486549
249	0xbdbb63a3	-0.091498636
250	0x3dbcca92	0.09218325
251	0xbd9cf72d	-0.076643325
252	0x3cc7c770	0.024387091
253	0xbd0de56a	-0.034642614
254	0xbda24554	-0.079233795
255	0x3c5da82a	0.013528863

network_body._body_endoder.seq_layers.0.bias f4 [128]
0	0x3a8a0c0f	0.0010532158
1	0x3b0c45f1	0.0021403993
2	0x3b8dff26	0.0043333946
3	0xbb49afe9	-0.0030775017
4	0x3b9ffbfc	0.004882334
5	0x3a7688d4	0.0009404544
6	0xba60f78f	-0.0008581811
7	0xb96d49da	-0.00022629593
8	0xb9649f04	-0.00021803012
9	0x3ad82d0c	0.0016492917
10	0xbb446c2c	-0.0029971702
11	0xbb7f7dde	-0.0038984935
12	0xbb19ad54	-0.002344926
13	0x3a4681a2	0.00075724174
14	0x3be80d51	0.0070816656
15	0x3ab8c354	0.0014096298
16	0xb8ed422b	-0.000113133654
17	0x3a9e4497	0.0012074885
18	0xba3a42d2	-0.0007105294
19	0xbadabee8	-0.0016688975
20	0xba8a80b9	-0.0010566927
21	0x3aeccf39	0.0018067128
22	0xbabf67de	-0.0014603098
23	0xba4d53f4	-0.00078326394
24	0xbb40309f	-0.0029325855
25	0x3afc1d74	0.0019234852
26	0x3b338816	0.0027394346
27	0x3b0c7161	0.0021429884
28	0xba59f749	-0.00083147414
29	0xbb25fa6b	-0.0025326263
30	0xbb6675ba	-0.0035165385
31	0xbaf1b46b	-0.001844061
32	0x3a1dc85c	0.00060189306
33	0x3a84503a	0.001009471
34	0xba6aec41	-0.0008961596
35	0xba00ad00	-0.00049085915
36	0xbb0e9b06	-0.0021759882
37	0x3abb8bad	0.0014308594
38	0x3aa16ac1	0.001231514
39	0xbab8921a	-0.0014081628
40	0xbb4e7ddd	-0.0031508126
41	0xb9894396	-0.00026181032
42	0xba8a4667	-0.0010549546
43	0xbaa86ab4	-0.0012849183
44	0xba8e1f38	-0.0010843044
45	0xbb3026a9	-0.0026878512
46	0x3af942a5	0.0019017054
47	0x3b5ecfef	0.003399845
48	0x39eac4e3	0.0004477865
49	0xb569e620	-8.713414e-07
50	0x3b1e6c96	0.002417361
51	0xbac9c26e	-0.0015393028
52	0x3b69a9df	0.003565423
53	0x3b034341	0.00200291
54	0x39a36328	0.0003116366
55	0x3aa6481a	0.0012686283
56	0xbb81b314	-0.0039581154
57	0x3b0b4ec4	0.0021256665
58	0xb9d9077b	-0.0004139504
59	0xbbec2899	-0.007206988
60	0x3b42718f	0.0029669737
61	0x3ace2563	0.0015727695
62	0xbb5dec58	-0.0033862796
63	0xba05b2f9	-0.00051002164
64	0xbb0c043a	-0.0021364824
65	0x3a8d0200	0.0010758042
66	0xbbc1e58b	-0.005917256
67	0x3ace4888	0.0015738169
68	0x393b7458	0.00017877051
69	0x3bf3a7fe	0.0074357977
70	0x3ab21e48	0.0013589347
71	0x3b80c11d	0.003929271
72	0xba997db4	-0.0011710436
73	0x3ad70fd4	0.0016407915
74	0x3b39742d	0.0028298006
75	0x38ce9453	9.850473e-05
76	0x3b3420cd	0.002748537
77	0xba886aaf	-0.0010407771
78	0xbb730aea	-0.0037085363
79	0xbb037ea0	-0.0020064488
80	0x3a0b599a	0.0005315781
81	0xbb36f616	-0.0027917675
82	0x3bae8633	0.0053260564
83	0x3b0714c4	0.0020611743
84	0x3bcc6425	0.006237524
85	0xba926064	-0.0011167643
86	0xbb087d1b	-0.0020826522
87	0xbb964243	-0.0045855357
88	0x3b75d8b7	0.0037513205
89	0xbaa9259a	-0.0012904883
90	0xbbc44e37	-0.0059907692
91	0xb9b54dad	-0.00034580883
92	0x3b8ef6f2	0.0043629343
93	0x3b7ce158	0.0038586464
94	0xba6a9ad8	-0.0008949465
95	0x3a8f255a	0.0010921166
96	0xbb027364	-0.0019905204
97	0xbb4bef2d	-0.0031117902
98	0x3b029bef	0.001992937
99	0x3ace1184	0.0015721773
100	0xbb351192	-0.002762888
101	0x3b60af5a	0.0034284205
102	0xbbaf4f1a	-0.005350006
103	0x393acb07	0.00017813976
104	0x39b05c0b	0.00033637913
105	0x3aab8ece	0.0013088824
106	0xbb58d3c7	-0.0033085214
107	0xbb10c535	-0.00220902
108	0x3aff42f9	0.0019474915
109	0x3a38c1ca	0.000704792
110	0x3b0d21b8	0.002153499
111	0xba5d2250	-0.0008435594
112	0x3a67bdb1	0.0008840217
113	0xbb832f27	-0.0040034237
114	0x3a6657d7	0.0008786893
115	0xba82de97	-0.000998455
116	0xba3e2485	-0.00072533666
117	0x3ae128b1	0.0017178265
118	0xbaa12d73	-0.001229687
119	0x3b39dd55	0.0028360684
120	0xbab136dd	-0.0013520379
121	0xba215aa2	-0.0006155168
122	0xbac8df03	-0.0015325252
123	0x3be219a7	0.0069000307
124	0x3c1b3f12	0.009475486
125	0xbbb29437	-0.0054497975
126	0xbb9afe3c	-0.004730014
127	0x3b311745	0.0027021926

network_body._body_endoder.seq_layers.2.weight f4 [128, 128]
0	0xbca09bab	-0.019605478
1	0xbcf1a8d0	-0.029499441
2	0xbcc7bb97	-0.024381442
3	0xbd4b6ace	-0.049662404
4	0xbdd69706	-0.10478024
5	0xbcdebfce	-0.027191069
6	0x3d8ea699	0.0696537
7	0xbded6b6c	-0.11592755
8	0xbcf77b82	-0.03021026
9	0x3e392e4e	0.1808407
10	0xbc76dfb8	-0.015067987
11	0x3d92c74d	0.0716692
12	0xbe157ad1	-0.14597632
13	0x3d4f25a0	0.05057299
14	0x3d0283cb	0.03186397
15	0x3bbc14bf	0.005739778
16	0xbd6714c0	-0.056416273
17	0xbdcc85eb	-0.0998648
18	0x3cbf05e5	0.02331824
19	0x3dce0ca7	0.10061007
20	0xbd5166e1	-0.051123504
21	0x3d90bc0c	0.07067117
22	0x3d571ce2	0.05251778
23	0x3e234014	0.15942413
24	0xbcfd6a68	-0.030934528
25	0xbccadc55	-0.024763266
26	0xbda58768	-0.08082467
27	0x3de5dbe8	0.112235844
28	0xbd54c1c1	-0.05194259
29	0xbcd074ff	-0.025446413
30	0x3d81b773	0.06333818
31	0x3ad02f55	0.0015883247
32	0x3cf9e4cf	0.030504612
33	0xbd41b314	-0.047289923
34	0xbde8ccdc	-0.11367199
35	0x3d9dbc4f	0.07701933
36	0xbc9e360a	-0.019312877
37	0xbdbf1cd2	-0.09331669
38	0x3c1d30fe	0.0095942
39	0xbc863de7	-0.01638694
40	0x3b893cb3	0.004188144
41	0xbb1fae47	-0.0024365352
42	0x3e00ff09	0.12597288
43	0x3cff8537	0.031191451
44	0x3dbbf356	0.09177272
45	0x3d846d66	0.064661786
46	0x3d182f45	0.037154455
47	0xbe3d4bf8	-0.18486011
48	0x3dac3b98	0.08409804
49	0x3cc405a5	0.023928473
50	0x3cf1aff2	0.029502843
51	0x3d84a916	0.06477563
52	0xbdfa3bdd	-0.12218449
53	0x3a95b744	0.0011422415
54	0xbdc32735	-0.095289625
55	0x3d3e8ec5	0.046522874
56	0x3da3cbae	0.07997833
57	0x3c91113c	0.017708413
58	0xbd8dab40	-0.06917429
59	0x3c8a0985	0.016850242
60	0xbdcc9df4	-0.09991065
61	0x3cdfd437	0.027322872
62	0x3e0cdd15	0.13756211
63	0x3d104782	0.035224445
64	0x3d82d8c9	0.06389005
65	0xbd8ab70e	-0.06773196
66	0xbdf25da7	-0.11834269
67	0x3d6681e4	0.056276217
68	0x3dd4488b	0.10365399
69	0x3d5089d5	0.050912697
70	0xbcff074e	-0.031131413
71	0x3e3e9daf	0.18614839
72	0xbdb6da71	-0.08928383
73	0x3d7be0ae	0.061493568
74	0xbdfe8e87	-0.12429529
75	0xbd6b9834	-0.0575182
76	0xbd9b7552	-0.075907364
77	0xbcbd0f23	-0.023078507
78	0xbdc0d5d0	-0.094157815
79	0x3daba39f	0.083808176
80	0xbca5dfc2	-0.020248298
81	0xbcc5d46a	-0.024149138
82	0x3d4dc54b	0.05023698
83	0x3dab6b14	0.08370033
84	0xbd43abdc	-0.04777132
85	0xba8a22f4	-0.0010538981
86	0x3ce35f5c	0.027755432
87	0x3d8304c9	0.06397397
88	0xbde739e8	-0.112903416
89	0x3e609f78	0.21935833
90	0xbd763fbb	-0.06011937
91	0xbd6192bc	-0.055071577
92	0x3d0e01f4	0.03466983
93	0xbd49bac5	-0.049250383
94	0xbe12d599	-0.14339294
95	0xbe026f86	-0.12737855
96	0x3ddcfe91	0.10790742
97	0xbd1ba0dc	-0.037995204
98	0xbdef173d	-0.11674354
99	0xbe1e1143	-0.15436272
100	0x3c6fe39d	0.01464167
101	0xbd25d42d	-0.04048555
102	0x3c6b3dd9	0.014358007
103	0x3d43db5d	0.047816623
104	0x3cab9263	0.020943826
105	0xbe167385	-0.14692505
106	0x3d9dbd85	0.077021636
107	0x3db8f847	0.0903173
108	0xbdbd1f21	-0.09234453
109	0xbdf128f3	-0.117753886
110	0xbd9e9d9e	-0.07744907
111	0xbe164d69	-0.14677967
112	0x3cb81df3	0.022475218
113	0xbd126b20	-0.035746694
114	0x3c9aac0a	0.018880863
115	0x3d2308e2	0.039803393
116	0xbde4885b	-0.1115882
117	0x3d2b917f	0.041886803
118	0x3d679140	0.056535006
119	0x3ce8be6e	0.028411116
120	0xbcabc773	-0.020969128
121	0x3d784fe9	0.060623083
122	0x3cca66e7	0.02470727
123	0x3dffb852	0.12486328
124	0xbe03ce39	-0.12871636
125	0x3c471c3b	0.012152727
126	0x3e16f4e1	0.14741851
127	0xbd8daf46	-0.069181964
128	0x3cf40554	0.029787697
129	0x3dd64c18	0.104637325
130	0xbd27d902	-0.04097844
131	0x3d04751f	0.032338258
132	0xbd873e7b	-0.06603714
133	0x3e3f19da	0.18662205
134	0xbcfdd045	-0.0309831
135	0x3d1e05fc	0.038579926
136	0x3dae38f3	0.08506956
137	0x3d61f308	0.055163413
138	0x3e3eddd2	0.18639305
139	0xbcae6211	-0.021286996
140	0x3e01833b	0.12647717
141	0xbce09e94	-0.027419366
142	0xbc1365a5	-0.008996402
143	0xbb757d56	-0.003745874
144	0xbd5e7810	-0.05431372
145	0xbd8b15d0	-0.0679127
146	0xbe6b7c7e	-0.22996709
147	0xbd4907e3	-0.049079787
148	0x3d1d9eb8	0.038481444
149	0xbac4d62e	-0.0015017444
150	0x3dbf6938	0.09346241
151	0x3e2e7198	0.1703552
152	0xbd967278	-0.07346052
153	0x3d66c6c1	0.05634189
154	0x3d9cb386	0.07651429
155	0x3b038d3d	0.0020073198
156	0xbd8d7ce1	-0.069085844
157	0xbb314a20	-0.0027052239
158	0xbd2be6ad	-0.041968036
159	0x3cf50dbb	0.029913774
160	0x3dcc03ff	0.099617
161	0x3cc4cd0b	0.024023553
162	0x3a8f59f6	0.0010936845
163	0x3d90df6a	0.07073863
164	0x3e05d950	0.1307118
165	0x3d34a0d2	0.044098683
166	0xb986dff6	-0.00025725336
167	0x3ccf77dc	0.025325708
168	0x3e119491	0.1421683
169	0x3cbe07d4	0.023197092
170	0x3cbb4f19	0.022864865
171	0x3d2523ed	0.040317465
172	0x3de16c33	0.110069655
173	0xbe813bd7	-0.25240967
174	0xbcadc0e3	-0.02121014
175	0xbdda9564	-0.10673025
176	0x3d917f30	0.07104337
177	0xbde6ceff	-0.1126995
178	0xbd4600f5	-0.048340756
179	0xbe218031	-0.15771557
180	0x3d6799e2	0.05654324
181	0xbd079da6	-0.03310933
182	0x3cc80c60	0.024419963
183	0x3c60d24c	0.013722014
184	0xbd209de6	-0.039213084
185	0xbdd97998	-0.10618895
186	0xbc166a09	-0.009180554
187	0xbdbdcdfc	-0.09267804
188	0xbdba9ebb	-0.09112307
189	0x3db9b86f	0.09068381
190	0xbc8a632a	-0.016892988
191	0xbdbe1fd6	-0.09283416
192	0x3daea1c7	0.0852695
193	0x3d333f9e	0.043761842
194	0x3d557740	0.05211568
195	0xbe12c47f	-0.1433277
196	0xbe06dbc0	-0.13169765
197	0xbdc2d044	-0.0951238
198	0xbd8683d5	-0.06568114
199	0x3bbe7fe4	0.0058135856
200	0xbd004d48	-0.0313237
201	0xbdbccf6d	-0.09219251
202	0x3d80503b	0.06265303
203	0xbdf5d50b	-0.12003525
204	0x3bd2f4ff	0.006437897
205	0xbda3f51d	-0.08005736
206	0x3de05ff9	0.10955805
207	0xbd27bfd5	-0.04095443
208	0x3deb3cd4	0.114862114
209	0x3c89dc54	0.016828693
210	0x3da667cd	0.08125267
211	0xbc550a80	-0.013002992
212	0x3e2b13f9	0.16706838
213	0xbdca4702	-0.09876825
214	0xbdca4e1c	-0.098781794
215	0xbd30aa99	-0.043131445
216	0x3dde698b	0.108599745
217	0x3dccf723	0.10008075
218	0x3c0156e6	0.007894253
219	0xbd7b5442	-0.06135965
220	0x3d87a797	0.06623762
221	0x3de8179d	0.11332629
222	0x3cf4b95b	0.02987354
223	0x3d9b84e5	0.07593707
224	0xbd400847	-0.046882894
225	0x3d9e0993	0.0771667
226	0x3d6cd858	0.05782351
227	0xbd591ce7	-0.05300608
228	0xbd54440c	-0.051822707
229	0x3ccbeb71	0.02489254
230	0x3e08dfbf	0.13366602
231	0x3de69f61	0.11260868
232	0xbc9d18c2	-0.019176845
233	0x3cd09f2d	0.025466526
234	0xbd0c8c31	-0.034313384
235	0x3d5a8f9c	0.053359613
236	0xbd9ceeec	-0.07662758
237	0xbe0e08f9	-0.1387061
238	0x3dac41a9	0.08410961
239	0xbda4582f	-0.08024632
240	0xbd6a3d84	-0.057187572
241	0x3b32776e	0.002723183
242	0x3e047adb	0.1293749
243	0xbda18ad7	-0.0788781
244	0xbc9e4b82	-0.019323114
245	0x3cf8e900	0.03038454
246	0x3dcaad43	0.09896328
247	0x3cd1067b	0.025515785
248	0x3da53476	0.08066647
249	0xbdf5331b	-0.11972638
250	0xbd368bec	-0.044567034
251	0xbda63da0	-0.08117223
252	0x3bb98104	0.005661132
253	0x3dc132a7	0.09433489
254	0x3ce1bf9d	0.027557189
255	0xbe69d752	-0.22836044

network_body._body_endoder.seq_layers.2.bias f4 [128]
0	0x397966e0	0.00023784814
1	0xba07213c	-0.00051547936
2	0x3b0b7864	0.0021281475
3	0x3b8f32ea	0.004370083
4	0xb9b3f8cd	-0.00034326912
5	0xbb12cc0d	-0.0022399456
6	0xba56824d	-0.00081828685
7	0xbac3b970	-0.0014932584
8	0xbb9bc605	-0.0047538304
9	0xbb489a23	-0.003060945
10	0x3b360555	0.0027774174
11	0xbbbc6dde	-0.005750402
12	0xbb212a73	-0.0024591952
13	0x3bd6894c	0.006547129
14	0x398f84af	0.00027373942
15	0xb9c1fe03	-0.00037001082
16	0x3ae36038	0.0017347401
17	0x3ae1bd99	0.0017222642
18	0xbb7c4e19	-0.0038498698
19	0x3a4cf0b0	0.00078178477
20	0x38c964a4	9.603173e-05
21	0xbb2f9f76	-0.0026797927
22	0x3a02a12a	0.0004983122
23	0x3b264d24	0.002537557
24	0xbb6910bb	-0.003556295
25	0xbb4a3e79	-0.003085999
26	0xba444f8c	-0.000748866
27	0xbaf78f4f	-0.0018887314
28	0x3b1fe6b8	0.0024398994
29	0xbb4b3739	-0.0031008257
30	0x3b49c2b4	0.0030786218
31	0xb99ccadb	-0.00029905778
32	0x3964691c	0.0002178293
33	0xbb5f0f25	-0.0034036126
34	0xbb37e973	-0.002806273
35	0xb972bf18	-0.00023150106
36	0x3b37a13a	0.0028019683
37	0x3b6c248e	0.003603253
38	0x3af63103	0.0018782917
39	0xbb11e651	-0.0022262523
40	0xbb61b72a	-0.003444145
41	0xba685b4a	-0.0008863701
42	0x398d128c	0.00026907434
43	0x3b41985e	0.002954028
44	0xbb065021	-0.0020494538
45	0x3b514d52	0.0031936956
46	0x3a880544	0.0010377546
47	0xbac64194	-0.0015125745
48	0x3b2fccd9	0.002682498
49	0xbabd710c	-0.0014453246
50	0x390c6a0f	0.0001339095
51	0x39d819a6	0.0004121784
52	0xbb8123a5	-0.0039410167
53	0x3b23ed8b	0.0025013413
54	0x3bc67459	0.00605635
55	0xb917b3bb	-0.00014467437
56	0x3a2c0a06	0.0006562773
57	0xb7fafb7c	-2.9919429e-05
58	0xb976af39	-0.00023525664
59	0x3b584471	0.0032999779
60	0xbbfa4274	-0.0076373164
61	0xbb343973	-0.0027500063
62	0xbab97189	-0.0014148216
63	0x3aad9080	0.0013241917
64	0xbae0bf3d	-0.0017146837
65	0xbb0d86b5	-0.0021595184
66	0x3ac56f1a	0.0015063018
67	0x3b91bec2	0.004447789
68	0x3b535b3b	0.0032250423
69	0xbb117b68	-0.00221988
70	0x3b417f36	0.0029525287
71	0xbb14f957	-0.0022731626
72	0xba4785ff	-0.00076112145
73	0x3b183033	0.0023222088
74	0xba897ed5	-0.0010490069
75	0xbabf11a0	-0.0014577396
76	0x3b1771b2	0.002310854
77	0xba862dbb	-0.0010237017
78	0xbb0bc3cb	-0.0021326419
79	0x3b871897	0.0041228044
80	0xba85a940	-0.0010197535
81	0xbb905ab4	-0.004405344
82	0xba529d12	-0.00080342696
83	0xbb8961ba	-0.004192558
84	0xbaf2a81b	-0.0018513234
85	0x3b3821ff	0.0028096435
86	0xbae07989	-0.0017126064
87	0xbb1c0370	-0.002380576
88	0x3aebeba1	0.00179993
89	0x3b29d17d	0.0025912218
90	0xbb56a994	-0.0032754885
91	0xbb6e9a43	-0.0036407865
92	0x3aed8a95	0.0018122966
93	0xbb00f866	-0.0019679307
94	0x3a986014	0.0011625313
95	0xbb43fa6a	-0.0029903897
96	0xb9cd02fc	-0.0003910287
97	0x3b95e375	0.004574234
98	0xbb8b6952	-0.0042544985
99	0x3b1675fd	0.002295851
100	0xbb30103d	-0.0026865148
101	0xbb0b2e88	-0.0021237452
102	0xbb2f55ab	-0.0026753943
103	0xbb1d1236	-0.0023967153
104	0xbabcc4b8	-0.0014401888
105	0xbb9024d5	-0.004398922
106	0xbb6c335b	-0.0036041352
107	0x3b1197a0	0.002221562
108	0xbb49f93d	-0.0030818724
109	0x3b4773e9	0.0030434078
110	0x3a348232	0.00068858557
111	0x397ffcb6	0.00024412837
112	0xb909ae4b	-0.00013130267
113	0xbbd8ad6d	-0.006612471
114	0x3af72674	0.0018856064
115	0xbb2001e1	-0.0024415182
116	0x3b0c434a	0.0021402412
117	0xb8c01174	-9.158524e-05
118	0x3b1f1491	0.0024273733
119	0x3aa3e0b5	0.0012502881
120	0xbacb321e	-0.0015502607
121	0x3b0f27d7	0.0021843815
122	0x3a7f1d7a	0.00097318704
123	0xbb80e0fe	-0.003933071
124	0x3acda638	0.0015689796
125	0x3b458f44	0.0030145207
126	0x3b802e5d	0.003911777
127	0xb98a47d6	-0.00026374933

action_model._continuous_distribution.log_sigma f4 [1, 6]
0	0xbc2c4c3f	-0.010516225
1	0xbbeaa100	-0.007160306
2	0xbaf658d2	-0.0018794781
3	0xbba5a2eb	-0.0050548217
4	0x37b86c5e	2.1984972e-05
5	0x3b90448b	0.004402702

action_model._continuous_distribution.mu.weight f4 [6, 128]
0	0x3c7df3b1	0.015499995
1	0xbae8c141	-0.001775779
2	0xbd0b7a4f	-0.03405219
3	0xbc63b9c5	-0.013899271
4	0xbcb10839	-0.021610366
5	0xbb789575	-0.003793088
6	0xba2fb667	-0.00067029
7	0x3afd6352	0.0019331968
8	0x3931b0b2	0.0001694586
9	0x3c6d20fa	0.014473194
10	0xbcbc4fb3	-0.022987222
11	0x3c2fb836	0.010725072
12	0x3c109174	0.008823741
13	0xbc035b0e	-0.008017315
14	0x3d377b7b	0.044795495
15	0x3cb3add6	0.021933477
16	0x3b072187	0.002061935
17	0x3c82d601	0.015971186
18	0x3cde61d9	0.027146267
19	0x3a4f1071	0.00078988733
20	0xbc74959d	-0.014928249
21	0x3c1045c0	0.008805692
22	0x3bdec07a	0.0067978473
23	0x3c3d3ffd	0.0115509005
24	0xbc6001bb	-0.013672288
25	0xbbe62ef7	-0.0070246416
26	0xbc26d80d	-0.010183346
27	0x3ca83d2b	0.02053698
28	0xbc095f8b	-0.008384596
29	0x3c85ff9b	0.016357234
30	0xbaf2aa16	-0.0018513824
31	0x3c665b44	0.014059845
32	0x3cd1f883	0.025631195
33	0xbc2dd1b0	-0.010609075
34	0x3b51f685	0.0032037806
35	0xbc4192ce	-0.011814786
36	0xbc18a97e	-0.009317754
37	0x3ab89a0f	0.0014083999
38	0x3bedac6b	0.00725322
39	0x3b66fbd0	0.0035245307
40	0x3c395916	0.011312744
41	0xbbb2acf0	-0.0054527447
42	0xbc960d70	-0.018316954
43	0x3cab853e	0.020937558
44	0x3ce15e3c	0.027510755
45	0xbaf14d10	-0.0018409807
46	0xbc33098e	-0.010927571
47	0x3c64e469	0.013970473
48	0xbcb3d011	-0.0219498
49	0x3c8a6013	0.016891515
50	0xbbbdd971	-0.0057937433
51	0xbc609b2b	-0.01370887
52	0x3c8e83ea	0.017396886
53	0xbd1259b8	-0.035730094
54	0xbb74f36b	-0.0037376534
55	0x3ca6fb58	0.020383522
56	0x3cb58e78	0.022162661
57	0x3c267603	0.010159972
58	0xbb688f94	-0.003548597
59	0x3a5205bf	0.00080117205
60	0x3b7d0c23	0.003861197
61	0x3d009e8a	0.031401195
62	0x3b75162a	0.0037397244
63	0x3ccc5845	0.024944434
64	0xbc608ab7	-0.013704947
65	0x3c80d95e	0.015728649
66	0x3c7b29f0	0.015329823
67	0x3b9eb40c	0.0048432406
68	0x3c70b1e3	0.014690849
69	0x3caa1340	0.020761132
70	0x3ce73c75	0.02822707
71	0xbcd990c7	-0.026558293
72	0x3c990e12	0.018683467
73	0xbb69d9e3	-0.003568285
74	0xbac50d15	-0.0015033806
75	0xbd2da528	-0.042393833
76	0x3bbf8167	0.0058442834
77	0x3c267e3a	0.010161931
78	0x3c27eab2	0.010248827
79	0xbc79a510	-0.015237108
80	0x3c371c73	0.011176216
81	0xbabf58a7	-0.0014598564
82	0xbc8c241a	-0.017107058
83	0x3bc4d625	0.0060069733
84	0x3b0d631e	0.002157397
85	0xbce41138	-0.027840242
86	0x3be9a107	0.0071297917
87	0x3bba85f1	0.0056922366
88	0xbcc86232	-0.024460886
89	0xbc553604	-0.013013367
90	0xbbbe862c	-0.0058143344
91	0x3ca5c34e	0.02023473
92	0xbcb6b08b	-0.02230098
93	0xbc3a68ec	-0.011377554
94	0xbafcc234	-0.0019283951
95	0xbc8624f5	-0.016375044
96	0xbc02237b	-0.0079430295
97	0xb9fac248	-0.00047828467
98	0xbcec29c0	-0.028828502
99	0xbcef0ee6	-0.029181909
100	0x3cc6ecaf	0.024282781
101	0x3d3e88e8	0.046517283
102	0xbb1b814a	-0.0023728185
103	0x3ca75c14	0.020429648
104	0x39fdfc94	0.00048444106
105	0x3c962f37	0.01833306
106	0x3cb8e4d1	0.022570046
107	0x3ce75292	0.028237615
108	0x3d082e5b	0.033247333
109	0x3b538c21	0.0032279568
110	0x3b70151d	0.0036633678
111	0xbcb404ed	-0.021975005
112	0x3cce2662	0.025164787
113	0x3c40f163	0.011776301
114	0x3c43f03d	0.011959133
115	0x3c19c38e	0.009385003
116	0x3a8047d7	0.0009787035
117	0x3c45a1a0	0.01206246
118	0xbd07435f	-0.033023234
119	0x3c287107	0.010280854
120	0x3b21874e	0.0024647298
121	0xbca3b35a	-0.019982982
122	0x3cb3114b	0.021858832
123	0x3c8c0818	0.017093703
124	0xbc452f66	-0.012035226
125	0xbd4dc532	-0.05023689
126	0xbc8f8da8	-0.017523602
127	0xbc274d29	-0.0102112675
128	0x3b93ae11	0.0045068343
129	0xbd074096	-0.03302058
130	0xbcd6e7fd	-0.026233668
131	0x3c9348cd	0.01797905
132	0xbbbeb920	-0.0058204085
133	0x3c842d34	0.016134836
134	0xbc4603c3	-0.012085858
135	0x3b9124f7	0.0044294554
136	0x3b6c9fe3	0.0036106042
137	0xbc731151	-0.0148356715
138	0xbc70b96e	-0.014692647
139	0x3c1445aa	0.009049812
140	0xbcf31565	-0.029673288
141	0x3cddc46f	0.027071206
142	0xbc09283a	-0.008371407
143	0xbbc56f7d	-0.0060252533
144	0xbc8ea5b6	-0.017413002
145	0xbd171fb7	-0.03689548
146	0x3b99ff4d	0.0046996237
147	0xbbfd24fa	-0.007725355
148	0xbd7d11ec	-0.06178467
149	0x3a4929c8	0.00076737674
150	0xbc3de9d8	-0.011591397
151	0xbd796e95	-0.060896475
152	0xbc0b955c	-0.008519497
153	0x3c6b174e	0.014348818
154	0xbbecab9e	-0.007222607
155	0x3cf8875b	0.03033798
156	0x3b524b68	0.0032088403
157	0x3be0b070	0.0068569705
158	0x3d2a433e	0.041568033
159	0x3bde3d64	0.0067822207
160	0xbc884816	-0.016635936
161	0x3bfd5a73	0.0077317297
162	0x3c9de4ec	0.019274198
163	0x3cd93d73	0.02651856
164	0x3c26935f	0.010166972
165	0xbd01f949	-0.031731877
166	0x3b13bc7c	0.0022542765
167	0x3bfb991b	0.0076781637
168	0xbc18da0d	-0.009329331
169	0x3b167375	0.0022957001
170	0xbc72cb38	-0.014818959
171	0x3c76a40e	0.015053762
172	0x3b00dfed	0.001966472
173	0xbcf98471	-0.03045866
174	0x3a4a0f5d	0.0007707978
175	0xbcff40d1	-0.031158837
176	0xbb73f67b	-0.0037225771
177	0x3c671732	0.014104651
178	0x3c3a49c3	0.011370125
179	0xbb289105	-0.0025721204
180	0xb8ea0e28	-0.00011160626
181	0xbb753b35	-0.0037419323
182	0x3ca95292	0.020669255
183	0x3b239202	0.0024958854
184	0xbc1f3931	-0.009718225
185	0xbcc90403	-0.024538046
186	0x3c6eaca1	0.014567525
187	0xbca562ca	-0.020188708
188	0xbc94b9a1	-0.018154921
189	0xbccaeb20	-0.02477032
190	0x3c9f0321	0.019410672
191	0xbc9d88f0	-0.019230336
192	0xbc90562d	-0.017619217
193	0x3bcbb8a2	0.0062170783
194	0x3c5967b8	0.013269357
195	0x3ca9b1fe	0.020714756
196	0x3ae08a7e	0.0017131118
197	0xbc149584	-0.00906885
198	0xbb840222	-0.0040285746
199	0x3bb7c631	0.005608343
200	0x3c52cbc8	0.012865968
201	0x3cd2d07c	0.025734179
202	0x3d1333eb	0.035938185
203	0xbc898bca	-0.01679029
204	0x39b02683	0.0003359803
205	0x3c9c8b56	0.01910941
206	0x3be52076	0.006992395
207	0x3d1a24f7	0.03763291
208	0x3c9e60e8	0.019333318
209	0x3c08bacc	0.008345317
210	0x3c259b71	0.010107861
211	0x3ca52a98	0.020161912
212	0x3c859839	0.016307937
213	0xbc0ff98f	-0.008787527
214	0xb9ddadaf	-0.0004228181
215	0x3bf47db5	0.0074612745
216	0xbbad98ac	-0.005297741
217	0xbc8f2130	-0.01747188
218	0x3c3003e7	0.010743118
219	0xbb45999e	-0.0030151377
220	0x3a4b695a	0.0007759534
221	0xbc13de67	-0.009025193
222	0xbc5adab2	-0.013357805
223	0x3c4a1a09	0.012335309
224	0xbc5f65ce	-0.013635112
225	0xb9ca6cdf	-0.00038609558
226	0xb9f11ef8	-0.00045990176
227	0x3b7db278	0.0038711112
228	0x3ce8ed51	0.028433474
229	0xbcc2797f	-0.023739574
230	0x3c9ed6db	0.01938956
231	0xbbd07843	-0.0063619926
232	0xbaf54d5c	-0.0018715071
233	0x3bb5d477	0.0055490094
234	0x3c83aa09	0.01607229
235	0xbcb6a3ba	-0.022294868
236	0xbc8df052	-0.017326508
237	0xbbcf8c9c	-0.0063339006
238	0x3ce03669	0.027369695
239	0xbcb65daa	-0.02226146
240	0xbc8df99c	-0.017330937
241	0xbc09248e	-0.008370532
242	0xbbd1cc72	-0.0064025456
243	0xbd17069d	-0.03687154
244	0x3be2f3aa	0.0069260197
245	0x3ca66dff	0.020316122
246	0x3ca2f95f	0.0198943
247	0xbbd33db6	-0.0064465655
248	0xbcbe0624	-0.023196287
249	0x3b93bee1	0.0045088385
250	0x3d515465	0.051105876
251	0x3b0ccc0a	0.0021483921
252	0xbb506c78	-0.0031802934
253	0x3cbc6049	0.022995131
254	0xbbebb5b4	-0.0071932916
255	0xbc69b0dc	-0.014263358

action_model._continuous_distribution.mu.bias f4 [6]
0	0xbb19b53b	-0.002345397
1	0x3acd4d63	0.0015663322
2	0xbb1fc3c5	-0.0024378162
3	0x3b64a055	0.0034885604
4	0x3b2058db	0.0024467024
5	0xbb76f830	-0.0037684552
