results/PlayerAgentTest/EasyPlayer/EasyPlayer-189236.onnx (onnx, 275220 bytes, 7 tensors)

network_body._body_endoder.seq_layers.0.weight f4 [128, 396]
0	0x3d194834	0.037422374
1	0xbc1670bd	-0.009182152
2	0x3d88019a	0.066409305
3	0xbd1112db	-0.035418373
4	0x3ca73199	0.020409392
5	0xbd808177	-0.062746935
6	0x3d0fdbff	0.035121914
7	0xbd1e950b	-0.038716357
8	0x3c82cf4f	0.015967993
9	0xbd8f4a2a	-0.069965675
10	0xbd50df65	-0.050994296
11	0xbde90f81	-0.1137991
12	0x3cc8a5b8	0.024493083
13	0x3c844233	0.016144847
14	0x3dab3dc1	0.08361388
15	0x3d0eb25e	0.034838073
16	0x3de0cb29	0.1097625
17	0x3c72cfc5	0.014820044
18	0x3ce6bfa8	0.02816756
19	0x3d548390	0.05188328
20	0x3cad0013	0.0211182
21	0x3a1b9376	0.0005934754
22	0x3c7c78a6	0.015409624
23	0x3d2e94c4	0.042622343
24	0x3d569088	0.05238393
25	0xbd7e67a6	-0.062110566
26	0xbd50ae8d	-0.050947715
27	0x3d9e8e28	0.07741958
28	0x3cdf09fc	0.02722644
29	0x3dbde796	0.09272687
30	0x3bd8735d	0.0066055492
31	0xbb3bceb0	-0.002865713
32	0x3d78d02b	0.0607454
33	0x3d89ec91	0.067345746
34	0xbe09dbcc	-0.13462752
35	0xbda4ce97	-0.080472164
36	0x3c53e673	0.012933361
37	0x3cc51790	0.024059087
38	0x3da8ee13	0.08248534
39	0xbd07acd6	-0.033123814
40	0x3c464b1b	0.0121028675
41	0xbd32d9c7	-0.04366472
42	0x3d13477a	0.035956837
43	0xbda72eb9	-0.081632085
44	0xbd806d22	-0.062708154
45	0xbd5a7171	-0.053330842
46	0x3c2a53c1	0.010395945
47	0x3d6bd830	0.05757922
48	0x3d400160	0.04687631
49	0x3ccad7d2	0.024761114
50	0xbc5190db	-0.012790884
51	0x3b3b4199	0.0028573035
52	0xbca70742	-0.020389203
53	0x3c7bfde0	0.015380353
54	0xbd414b45	-0.047190923
55	0xbda06b15	-0.07832924
56	0xbd90b666	-0.0706604
57	0xbd7d4c31	-0.06184024
58	0xbd66dad7	-0.056361046
59	0xbd59d100	-0.053177834
60	0x3afe8f74	0.0019421414
61	0xbd26bc99	-0.040707204
62	0xbd05391b	-0.032525163
63	0x3dc4cfce	0.09609948
64	0xbcdb8468	-0.026796535
65	0xbd4b60b3	-0.049652766
66	0xbd519f3d	-0.051177252
67	0xbdafd85c	-0.08586189
68	0xbc51fa05	-0.012815957
69	0x3cf780fd	0.030212874
70	0xbcac213e	-0.021011945
71	0x3d170349	0.036868367
72	0xbcf37bf9	-0.0297222
73	0x3c986e4e	0.018607285
74	0x3cedcb87	0.029027713
75	0x3cf8625c	0.030320339
76	0xbcddf160	-0.027092636
77	0x3b8961fe	0.00419259
78	0x3d6feab5	0.058573443
79	0x3c4db2fc	0.01255488
80	0x3cb4cbc8	0.022069827
81	0xbb8d80c3	-0.004318328
82	0xbd9080c9	-0.07055814
83	0x3da60ab0	0.08107507
84	0x3d235a9c	0.039881334
85	0x3d97c8ee	0.07411371
86	0x3c9bcf8b	0.019019863
87	0x3e005b44	0.12534815
88	0x3cb05c6f	0.02152845
89	0x3c860114	0.016357936
90	0xbd2f7db4	-0.04284449
91	0xbe079aba	-0.13242617
92	0xbc3a8b40	-0.011385739
93	0x3ca7d474	0.020487048
94	0xbd25ae3e	-0.040449373
95	0xbd49f6e9	-0.049307737
96	0xbac51877	-0.0015037198
97	0x3ccb6a14	0.024830855
98	0x3c754525	0.014970099
99	0x3d59a6d0	0.0531376
100	0x3baf3601	0.005347014
101	0x3bdb5f71	0.006694727
102	0x3b2fbef9	0.002681671
103	0x3d78c47c	0.060734257
104	0xbbcee0ae	-0.006313405
105	0xbd0586d5	-0.03259929
106	0x3be362cd	0.006939268
107	0xbd1f2e5c	-0.03886257
108	0x3d7c228d	0.061556388
109	0xbcb09b17	-0.021558328
110	0x3bf1f301	0.0073837047
111	0x3da57002	0.080780044
112	0x3bbea887	0.00581843
113	0xbd055c50	-0.03255874
114	0xbd47f0f4	-0.048813775
115	0x3ca0f2f3	0.019647097
116	0x3d556129	0.052094612
117	0xbd5d735d	-0.054065097
118	0xbd1d1aa3	-0.03835548
119	0xbd1c485f	-0.038154956
120	0x3d060389	0.032718215
121	0xbd6342e5	-0.055483717
122	0xbd0d3c5c	-0.03448139
123	0x3cb4e794	0.022083081
124	0xbd97e1e0	-0.07416129
125	0x3c81be7f	0.015837906
126	0xbcb5a6ba	-0.022174228
127	0xbc91a3fe	-0.017778393
128	0xbde1aee0	-0.11019683
129	0xbc3857e8	-0.011251427
130	0x3c451727	0.012029446
131	0xbcd098cd	-0.025463486
132	0x3d4709b6	0.048593245
133	0xbc6dfc8d	-0.014525545
134	0x3cbca975	0.023030022
135	0xbde97506	-0.113992736
136	0x3de30f54	0.11086908
137	0x3d106d5f	0.035260554
138	0x3cf91f69	0.030410485
139	0xbc6a32aa	-0.014294306
140	0xbcc0304e	-0.023460533
141	0xbd858913	-0.065202855
142	0xbcd078a1	-0.025448145
143	0x3d5787e6	0.052619837
144	0x3cb08c5d	0.021551305
145	0xbc5d80fe	-0.013519524
146	0x3b27de4b	0.0025614675
147	0xbd8a76d8	-0.06760949
148	0x3d95552a	0.072916344
149	0x3cf6c36e	0.030122485
150	0xbd8c020a	-0.068363264
151	0x3cfbd136	0.030739408
152	0xbd6ed374	-0.058307126
153	0xbc8a0392	-0.016847406
154	0xbc44ead1	-0.012018875
155	0xba2ef7ca	-0.00066744967
156	0xbcf5e5bb	-0.03001677
157	0x3ce1c8e0	0.027561605
158	0xbc62428c	-0.013809811
159	0x3cb66d33	0.022268867
160	0x3c95af66	0.018272113
161	0xbcfee08e	-0.031112935
162	0xbc25fa40	-0.010130465
163	0xbd47d14d	-0.04878359
164	0xbbb54a7a	-0.00553256
165	0xbda75535	-0.08170549
166	0x3cb1ad47	0.02168907
167	0x3ce9e0a3	0.028549498
168	0x3d12c9ed	0.035837103
169	0x3d49f3f9	0.049304936
170	0x3c1a176a	0.009404996
171	0x3d4e93f1	0.050434057
172	0x3c7f5caf	0.015586062
173	0x3cabed68	0.020987228
174	0xbd8a3791	-0.0674888
175	0x3cc1d4a5	0.023660967
176	0xbcfb9638	-0.030711278
177	0xbc88b304	-0.016686924
178	0x3c595c69	0.013266661
179	0xbdcdfc49	-0.10057885
180	0xbd118c48	-0.035534173
181	0xbca95413	-0.020669973
182	0xbccc9e3c	-0.024977796
183	0x3cb8c0c1	0.02255285
184	0x3ddd52e8	0.10806829
185	0xbd7443a2	-0.059634812
186	0xbd51182d	-0.051048446
187	0xbb3b0491	-0.0028536657
188	0xbd4c9253	-0.049944233
189	0xbc0395b4	-0.0080312975
190	0x3bbff001	0.005857468
191	0x3cdc4c13	0.026891744
192	0xbda0a1db	-0.078433715
193	0xbe1286a8	-0.1430918
194	0xbbce3917	-0.0062934267
195	0x3d8751a5	0.06607369
196	0x3cde85b7	0.02716337
197	0x3c744283	0.014908436
198	0x3c86f19a	0.016472626
199	0xbd31e860	-0.0434345
200	0xbca75973	-0.020428395
201	0xbd4eeaa9	-0.050516758
202	0xbd64fffc	-0.05590819
203	0xbd00be3b	-0.031431418
204	0x3c534153	0.0128939925
205	0x3d875f23	0.06609943
206	0xbd58f5d8	-0.05296883
207	0xbcdb1aa0	-0.026746094
208	0xbce5b32b	-0.028039536
209	0xbd351cd0	-0.04421693
210	0x3c574733	0.013139534
211	0xbcfe21a0	-0.031021893
212	0xbd1e4bed	-0.038646627
213	0x3da18ebf	0.07888555
214	0xbd3924a8	-0.045200974
215	0x3cf5af0b	0.029990694
216	0xbd9c8031	-0.07641638
217	0x3d2b4a96	0.041819178
218	0xbcdea106	-0.027176391
219	0x3d93db04	0.07219508
220	0x3d74e81d	0.059791673
221	0x3d916051	0.07098449
222	0xbd2de67f	-0.042456146
223	0x39807530	0.00024501374
224	0x3b6defa4	0.0036306167
225	0xbd4d3722	-0.050101407
226	0x3de3604e	0.11102353
227	0xbcbe3662	-0.023219291
228	0xbc2a4c96	-0.010394236
229	0x3c81c4b8	0.015840873
230	0x3d5014be	0.05080103
231	0x3bcb9c67	0.006213713
232	0xbc600595	-0.013673206
233	0x3cf568d0	0.029957205
234	0xbd430caa	-0.0476195
235	0xbd6293df	-0.055316802
236	0x3da57a43	0.0807996
237	0xbe006923	-0.12540106
238	0x3d5927a9	0.05301634
239	0xbb56c94a	-0.0032773786
240	0xbd224384	-0.03961517
241	0x3d2538e4	0.04033746
242	0x3c83fa18	0.016110465
243	0x3cd24e79	0.025672184
244	0xbca0c8f8	-0.01962708
245	0xbce179c6	-0.027523886
246	0x3cca7662	0.024714652
247	0xbc8c2cdf	-0.01711124
248	0x3bd12e4e	0.006383694
249	0xbcc61ef6	-0.024184685
250	0xbbd25663	-0.0064189895
251	0x3d31a29e	0.043367974
252	0x3d177b49	0.03698281
253	0x3ba18fbf	0.004930466
254	0xbcf523b4	-0.029924251
255	0x3a425034	0.0007412464

network_body._body_endoder.seq_layers.0.bias f4 [128]
0	0x3a60c9a6	0.000857497
1	0x3c6d1794	0.0144709535
2	0xb9f416cc	-0.00046556292
3	0xbb8cf5fd	-0.004301785
4	0xba51aff1	-0.00079989346
5	0xbbb2d302	-0.005457283
6	0xbb9d1b67	-0.0047945264
7	0xbb08c682	-0.0020870273
8	0xbc1151b8	-0.008869581
9	0xbb7c86d7	-0.003853252
10	0xbb68e2e0	-0.0035535619
11	0xbbcfa912	-0.0063372934
12	0xb9f104c0	-0.0004597064
13	0x3a0b7309	0.0005319571
14	0x3aeb87f2	0.0017969592
15	0xbc0c5a8b	-0.008566509
16	0xbbe012cf	-0.0068381797
17	0xb9619a55	-0.00021515165
18	0x3a858a58	0.0010188324
19	0xbb6548ff	-0.0034986136
20	0x3c2139cc	0.00984044
21	0xbb374f2c	-0.0027970774
22	0xbb7fbd75	-0.0039022837
23	0xbbc94792	-0.006142565
24	0x3b715dd5	0.003682961
25	0xbbf66ab2	-0.0075200433
26	0x3bd2cb25	0.006432908
27	0xbae58d59	-0.0017513438
28	0x3a3f4229	0.00072959304
29	0x3b8e6f97	0.0043467986
30	0x3a4b6726	0.0007759206
31	0x3b7fe4a7	0.00390462
32	0x3bbf26b2	0.0058334703
33	0xbbfe21b0	-0.0077554807
34	0x3c0c5bf0	0.0085668415
35	0xb8e7fb04	-0.00011061694
36	0x3c0556a5	0.008138333
37	0xbaad9964	-0.0013244567
38	0xbaec1e10	-0.001801433
39	0xbabbf11f	-0.0014338827
40	0xba47c6a6	-0.00076208485
41	0x3a975acb	0.0011547444
42	0xba29d0ed	-0.0006477971
43	0xbb611e53	-0.003435035
44	0x3c08312a	0.008312503
45	0x3c4061fc	0.011742111
46	0xbbb7cf3e	-0.005609422
47	0xbc0364d1	-0.008019642
48	0xbb14280d	-0.002260688
49	0xbb9560cf	-0.0045586596
50	0xba9c4b51	-0.0011924302
51	0x3a9b501a	0.0011849434
52	0x3bf223a8	0.0073895045
53	0xbbae21bd	-0.0053140805
54	0xbbdccd58	-0.006738346
55	0x3af4ca8d	0.0018676087
56	0xbb2ce628	-0.00263823
57	0x3acdf05c	0.0015711891
58	0x3ab486ad	0.0013773047
59	0xbb755738	-0.003743602
60	0x3b9fa8bc	0.0048724096
61	0x3b4c93e8	0.0031216089
62	0x3a8ca229	0.001072948
63	0x3b91a969	0.004445244
64	0x3c6071f2	0.013699042
65	0xbbbc36bc	-0.0057438295
66	0xbb26d6c0	-0.002545759
67	0xbaf31d8d	-0.0018548236
68	0xbbb03ea9	-0.0053785634
69	0xbb86604e	-0.004100836
70	0xba3143f3	-0.00067621394
71	0xba48359b	-0.00076373824
72	0xbb972810	-0.00461293
73	0xbb952daf	-0.004552565
74	0xbb290b24	-0.0025793994
75	0x3b74d80c	0.003736022
76	0xbb7ad738	-0.0038275253
77	0xbb8cc690	-0.0042961314
78	0x3c35fae3	0.011107179
79	0x3c146af5	0.009058704
80	0x3be2f374	0.0069259945
81	0x38f3b34d	0.0001162054
82	0x3c516bdd	0.012782064
83	0xb9c67ce6	-0.0003785856
84	0x3c15432b	0.009110252
85	0xbbb6ba70	-0.0055764243
86	0xbb650962	-0.003494822
87	0x3c686982	0.014185311
88	0x3ba11375	0.0049156495
89	0xbbccebfe	-0.0062537184
90	0xbb2e781c	-0.0026621884
91	0xbbf0fba0	-0.007354215
92	0x3bed23b1	0.0072369208
93	0xbb883b91	-0.0041574915
94	0xb96b0366	-0.00022412612
95	0x3b8f04ee	0.0043646013
96	0xbbc42475	-0.0059857913
97	0x3c1bf3a4	0.009518538
98	0x3b7f6266	0.0038968562
99	0xbb0a70f9	-0.0021124466
100	0xbc05eaf2	-0.008173691
101	0x3c6a8334	0.014313508
102	0xbaea014b	-0.0017853169
103	0xbb0a5ab2	-0.0021111188
104	0xbb9e02ea	-0.0048221247
105	0xba926a97	-0.0011170682
106	0xbb7670bb	-0.0037603814
107	0xbb0c05a9	-0.0021365678
108	0xbbe541ac	-0.006996354
109	0xbb1ff660	-0.0024408326
110	0xbb0c1221	-0.002137311
111	0xbaf82b4a	-0.00189338
112	0xbc05073c	-0.008119401
113	0x3bdf077d	0.0068063126
114	0xbb7eede9	-0.003889913
115	0x3babf865	0.005248117
116	0x3b9d6e30	0.004804395
117	0xbaa78029	-0.0012779284
118	0xbb6fb875	-0.003657845
119	0x3c52f072	0.012874709
120	0xbb93c375	-0.0045093843
121	0x3c52005e	0.01281747
122	0xbb1753b3	-0.002309066
123	0xbb981513	-0.004641184
124	0xbc01776c	-0.007902008
125	0xba76c84e	-0.0009414003
126	0x3a7312e3	0.00092725287
127	0xbafda522	-0.0019351582

network_body._body_endoder.seq_layers.2.weight f4 [128, 128]
0	0xbd744c93	-0.05964334
1	0xbe357534	-0.1772049
2	0xbd95d0d7	-0.07315224
3	0x3db5cd2a	0.088770226
4	0xbd4d9f37	-0.050200667
5	0x3d3996e9	0.045309935
6	0x3d0d8244	0.03454806
7	0xbd55dbda	-0.05221162
8	0xbda21216	-0.07913606
9	0x3e012f85	0.12615784
10	0xbd95f83e	-0.07322739
11	0xbdc8f599	-0.09812469
12	0xbd4af49d	-0.049549688
13	0xbd3eb796	-0.0465618
14	0xbdc5b5c9	-0.096538134
15	0xbd89ed9e	-0.06734775
16	0xbe20201f	-0.15637253
17	0x3cc6d44f	0.024271159
18	0xbdf378e6	-0.11888294
19	0x3d4be1fd	0.049776066
20	0xbd4f696d	-0.05063765
21	0x3b14b09c	0.0022688275
22	0xbe43f042	-0.1913462
23	0x3d8e073a	0.06934972
24	0x3e26e510	0.16298318
25	0x3cda17e0	0.026622713
26	0x3d640d8f	0.055676993
27	0x3c31b3f1	0.010846124
28	0x3c07b3a8	0.0082825795
29	0xbca2b495	-0.019861499
30	0xbd2b7f2f	-0.04186934
31	0x3e590d92	0.21196583
32	0x3e1bd12c	0.15216511
33	0x3d834bb9	0.06410927
34	0xbda3f99b	-0.08006593
35	0xbd3ba255	-0.04580911
36	0x3c8bb479	0.01705383
37	0xbe39f240	-0.18158817
38	0xbe29942c	-0.1656043
39	0x3ceb0d0e	0.028692748
40	0xbe201fc3	-0.15637116
41	0x3dff03ba	0.12451883
42	0xbd2094bb	-0.03920434
43	0xbe424838	-0.18972862
44	0xbd974079	-0.07385344
45	0xbd8087b4	-0.06275883
46	0x3d899c87	0.06719308
47	0xbd6311a6	-0.055436753
48	0xbe161a4b	-0.14658467
49	0x3de53ff9	0.111938424
50	0xbdb54e13	-0.08852782
51	0x3cbbe650	0.02293697
52	0xbde1c3e6	-0.11023693
53	0xbd533d5a	-0.05157218
54	0x3d82df43	0.0639024
55	0x3e0dc682	0.13845256
56	0xbe08a742	-0.13345054
57	0xbd9d4da6	-0.07680826
58	0x3c008793	0.007844823
59	0xbbd907be	-0.0066232374
60	0xbe0a579c	-0.13509983
61	0x3d83e983	0.06441023
62	0xbd1c69e4	-0.038186923
63	0x3cd6a90d	0.026203657
64	0xbcfb71a1	-0.03069383
65	0x3d0c3b04	0.03423597
66	0x3e5cdc90	0.21568513
67	0xbd55cdc9	-0.052198205
68	0x3d26abf2	0.040691324
69	0x3e0b8ce0	0.13627958
70	0x3da3ecdc	0.08004162
71	0x3bfa29c1	0.007634372
72	0xbd72c2cc	-0.059267804
73	0xba2225bb	-0.0006185432
74	0x3d8e9f68	0.06963998
75	0x3e53be59	0.2067808
76	0x3dcb415c	0.09924576
77	0x3d4bf395	0.049792845
78	0xbd38902d	-0.04505937
79	0xbcbf5320	-0.023355067
80	0xbdca59f0	-0.098804355
81	0xbd642c73	-0.055706453
82	0x3d25acf9	0.040448163
83	0xbd5b4d3d	-0.053540457
84	0x3e47d596	0.1951507
85	0x3dbb4f37	0.091459684
86	0x3abbead3	0.0014336951
87	0xbe16b24d	-0.14716454
88	0x3cba95c4	0.022776492
89	0xbd839ef3	-0.064268015
90	0xbbaff78a	-0.005370085
91	0x3e248f80	0.16070366
92	0xbcef473a	-0.029208768
93	0xbbe938e8	-0.0071173795
94	0x3cc2c159	0.023773836
95	0xbd2fd1b4	-0.042924598
96	0xbdae4de9	-0.08510954
97	0x3db94694	0.09046665
98	0x3e1962e5	0.14979132
99	0xbde5e550	-0.112253785
100	0x3d4771c4	0.04869248
101	0xbcacca8a	-0.021092672
102	0x3d0aa693	0.033850264
103	0xbcbf06ee	-0.023318734
104	0x3e7e2cc0	0.24821758
105	0xbcf1c343	-0.029512053
106	0x3d51fb51	0.051265065
107	0xbd3facc8	-0.046795636
108	0xbc496267	-0.012291527
109	0xbd7bb9db	-0.061456542
110	0x3dff9d47	0.1248117
111	0x3dce1d83	0.10064223
112	0x3a943b6c	0.0011309213
113	0x3e11033b	0.14161389
114	0xbbd87d62	-0.0066067437
115	0xbdee280f	-0.11628734
116	0xbda404f4	-0.08008757
117	0x3da9dad6	0.08293693
118	0x3db28e9d	0.087186076
119	0xbe64048a	-0.22267357
120	0x3ca76258	0.020432636
121	0x3daaa6cf	0.083325975
122	0x3c91fb75	0.0178201
123	0xbd842b6d	-0.06453595
124	0x3c86b25a	0.016442467
125	0xbcbcae50	-0.023032337
126	0xbd3315fc	-0.043722138
127	0x3e320a63	0.17386775
128	0x3c71d360	0.014759868
129	0x3bb1c016	0.0054245098
130	0x3e4711c3	0.1944037
131	0xbdc61360	-0.09671664
132	0x3d107105	0.035264034
133	0x3e24a39e	0.1607804
134	0x3e1d9208	0.15387738
135	0xbd383740	-0.044974566
136	0x3c8888e5	0.016666839
137	0x3d7fb5cc	0.062429234
138	0x3dd7fb70	0.10546005
139	0x3c634a65	0.0138727175
140	0xbdb088f8	-0.08619875
141	0xbc1b8a73	-0.009493458
142	0xbdc3fe31	-0.095699675
143	0xbe5d9d48	-0.2164203
144	0x3d0e606d	0.034759928
145	0x3e2c37d6	0.16818175
146	0x3d581a07	0.052759197
147	0x3e292e0f	0.16521476
148	0xbe175d26	-0.14781627
149	0xbdd888af	-0.10572945
150	0x3da4ca38	0.08046383
151	0x3d96e5a2	0.07368018
152	0x3dcb58f0	0.09929073
153	0xbc149515	-0.009068747
154	0x3c9c9757	0.019115133
155	0x3d9015e5	0.07035426
156	0xbc76d16e	-0.01506458
157	0x3dbf39cd	0.093371965
158	0x3dbc86b5	0.09205381
159	0x3d82c7a8	0.06385738
160	0x3b8c1796	0.0042752726
161	0xbe21be3b	-0.15795223
162	0x3e069ac3	0.13144974
163	0x3c44825c	0.011993971
164	0xbe5efb37	-0.21775518
165	0x3d5a522d	0.053301025
166	0x3d3b1b84	0.045680538
167	0x3e78c836	0.24295124
168	0xbd11dded	-0.035612036
169	0x3db3d4d6	0.087808296
170	0x3ccb4372	0.024812434
171	0xbd22f01d	-0.03977977
172	0x3c33c7d3	0.010972935
173	0x3e5ea0f3	0.21741085
174	0xbdbe7103	-0.09298899
175	0x3dfbf870	0.12303245
176	0x3c8265bb	0.01591765
177	0xbdd6ded5	-0.104917206
178	0xbe2e0c8a	-0.16996971
179	0x3cf49857	0.029857798
180	0xbdb15732	-0.08659209
181	0x3d588149	0.05285767
182	0x3d63476c	0.055488035
183	0xbdb435e1	-0.08799339
184	0x3e1644bd	0.14674659
185	0x3d8eca17	0.06972139
186	0xbd95d0cc	-0.073152155
187	0x3e0917da	0.13388005
188	0x3e0d7fae	0.13818237
189	0x3d405917	0.046959963
190	0xbcd31904	-0.025768764
191	0x3e1e491d	0.15457578
192	0xbbc4f97b	-0.0060111857
193	0xbd1afdb4	-0.037839606
194	0xbb8bcf36	-0.004266645
195	0xbdd15658	-0.10221547
196	0x3c7f7e30	0.01559405
197	0xbd9c4ec4	-0.07632211
198	0xbd7dab39	-0.06193087
199	0xbe031895	-0.12802346
200	0xbdf5b8fd	-0.11998174
201	0x3ab1740f	0.0013538616
202	0xbd8c1eef	-0.068418376
203	0xbd61d3b6	-0.055133544
204	0x3da07ce9	0.07836325
205	0xbde0b7f3	-0.109725855
206	0x3d96dabd	0.0736594
207	0x3e0f126f	0.13971876
208	0xbe0fb8af	-0.14035295
209	0x3e4a5cfe	0.19762036
210	0xbdbd0ab3	-0.09230556
211	0xbd5c2370	-0.053744733
212	0x3d6a6847	0.057228353
213	0xbd5c0498	-0.05371532
214	0x3bb6e701	0.005581737
215	0x3d95570d	0.07291994
216	0x3c83782d	0.016048515
217	0x3d261fc6	0.040557645
218	0x3d82c46f	0.06385123
219	0x3cce5e37	0.02519141
220	0x3c61f669	0.013791659
221	0x3d0c3ca9	0.034237538
222	0xbbf25e2b	-0.0073964796
223	0xbde05638	-0.10953945
224	0x3db628a3	0.088944696
225	0x3de6ad2b	0.11263498
226	0x3da1f00f	0.07907116
227	0xbb7e08f5	-0.0038762663
228	0x3b85a22d	0.0040781708
229	0x3db536f0	0.08848369
230	0x3da6abbd	0.08138225
231	0x3c41848e	0.011811389
232	0x3ca98c6c	0.020696841
233	0x3cb39e37	0.021926029
234	0xbaada0d7	-0.0013246787
235	0x3cbe9e4b	0.02326884
236	0xbdc7d771	-0.09757889
237	0xbde0c04b	-0.10974177
238	0xbe3296ee	-0.17440388
239	0x3c876f9c	0.016532712
240	0xbdbf2dd4	-0.09334913
241	0xbe0ae9a2	-0.13565686
242	0x3e2d328e	0.16913816
243	0x3d9b6334	0.07587281
244	0x3b99dd9c	0.0046956073
245	0xbd9a2cfd	-0.07528112
246	0xbd8a45b0	-0.06751573
247	0x3e320fc6	0.1738883
248	0x3bbf68a1	0.00584133
249	0x3da7248a	0.08161266
250	0x3ca6461f	0.020297108
251	0x3db9124b	0.09036692
252	0x3d7ac800	0.06122589
253	0xbc8d1450	-0.0172216
254	0x3bd99810	0.0066404417
255	0x3de89c44	0.1135793

network_body._body_endoder.seq_layers.2.bias f4 [128]
0	0xbbb02ef9	-0.0053766933
1	0xbaf7f8d4	-0.0018918761
2	0x3c7ca2d0	0.015419677
3	0xbb882b73	-0.00415557
4	0x3c8a94a5	0.016916582
5	0xbbaf75e3	-0.0053546294
6	0xbad8c7db	-0.0016539054
7	0xbbedb740	-0.007254511
8	0xbbf78fc9	-0.0075549823
9	0xb9b0c6e0	-0.0003371751
10	0xbbe47f69	-0.0069731963
11	0xba292391	-0.0006452138
12	0x3bc39e6f	0.0059698145
13	0x3b8ef121	0.004362241
14	0xbb1101fa	-0.0022126422
15	0xbb8b0a14	-0.0042431448
16	0x3bcbc15c	0.0062181186
17	0xbb8aee2e	-0.004239819
18	0xbbab495d	-0.0052272514
19	0x3ba8d4cf	0.005152322
20	0x3b1ec556	0.0024226508
21	0xbb960a68	-0.0045788772
22	0xbbf81425	-0.007570761
23	0x3c7b4ab1	0.015337632
24	0x3c443c99	0.011977338
25	0xbb6d3b19	-0.0036198555
26	0x3b95c47e	0.004570543
27	0xb9c23547	-0.00037042258
28	0x3c37daa2	0.01122156
29	0xbaece27e	-0.0018072871
30	0xbc093db1	-0.008376525
31	0xbb968a33	-0.0045941113
32	0x38521fa6	5.0097377e-05
33	0xbba21205	-0.0049459958
34	0x3bb221fc	0.00543618
35	0xbc314672	-0.010820018
36	0x3c0dde30	0.008658931
37	0x3babf53b	0.0052477396
38	0xbbca4109	-0.0061723036
39	0x3b5925b9	0.0033134057
40	0xbbd3556f	-0.0064493935
41	0x3b977f79	0.00462335
42	0x3c132195	0.008980175
43	0xbbbd64ec	-0.005779853
44	0x3c55b7c9	0.013044306
45	0xbb84da2b	-0.004054328
46	0xba6757fb	-0.0008825061
47	0xbc4e9f0f	-0.012611165
48	0x38ec747d	0.000112750546
49	0xbba10255	-0.004913608
50	0xba929c84	-0.0011185561
51	0xbb7f1959	-0.003892502
52	0x3bfd04f0	0.007721536
53	0xbb848ad0	-0.004044868
54	0xbbe52b36	-0.0069936765
55	0xbb6eb2cb	-0.0036422487
56	0xbb6269f2	-0.0034548012
57	0x3c0ffe32	0.008788632
58	0xbbddc8a8	-0.006768305
59	0x3b59f777	0.0033259073
60	0x38e1ea9a	0.00010772534
61	0x3b479cbc	0.0030458411
62	0xbb1f2cd6	-0.00242882
63	0xb9308800	-0.00016835332
64	0xbb4a3592	-0.0030854684
65	0x36acb840	5.147449e-06
66	0x3af16d8a	0.0018419486
67	0x3ac3a275	0.0014925735
68	0x3c1a957a	0.009435052
69	0xba83afb4	-0.001004687
70	0x3b379c93	0.002801691
71	0xbbc54888	-0.0060206093
72	0xbc1256b8	-0.008931808
73	0xbbcffb0e	-0.0063470667
74	0xb8703de3	-5.7278095e-05
75	0xbbefc0d6	-0.007316689
76	0x3c5fef35	0.013667871
77	0x3ad2cce2	0.0016082788
78	0xbb9bb98e	-0.0047523445
79	0x3c086f56	0.008327326
80	0x3ab4db53	0.0013798274
81	0x3bdbfb7f	0.0067133303
82	0xbc2c732d	-0.010525507
83	0xbc0b0e81	-0.008487345
84	0x3bf6cfe9	0.007532109
85	0x3be49556	0.00697581
86	0x3b8e6397	0.004345368
87	0xbb819543	-0.003954561
88	0xbbbf53e0	-0.005838856
89	0x3abe8503	0.001453549
90	0xbc088ca6	-0.008334314
91	0xbbdbb9bc	-0.006705491
92	0xba91b875	-0.0011117595
93	0xbb5c2266	-0.003358984
94	0xbc2b219b	-0.010445024
95	0xbbdb9a7b	-0.006701765
96	0x39251c6d	0.00015746216
97	0xbc0b89a4	-0.008516703
98	0x3be1014d	0.00686661
99	0xbb56e20e	-0.0032788548
100	0xbbc68474	-0.00605827
101	0xbb08888f	-0.0020833348
102	0x3c67e36e	0.014153345
103	0xbc0f4292	-0.008743899
104	0x3b8e018f	0.004333682
105	0x3b6f78b8	0.003654046
106	0x3c09f4d6	0.00842019
107	0x3b984e31	0.004647993
108	0x3c0306f3	0.007997262
109	0xbc94cadb	-0.018163135
110	0x3c95e403	0.018297201
111	0xbbe763d8	-0.007061463
112	0x3c3c9f9b	0.011512662
113	0xbc36bc30	-0.011153266
114	0xbb4bac5e	-0.003107808
115	0xbb4f21ea	-0.0031605908
116	0x3a5b8371	0.00083737733
117	0x39bd797c	0.00036139402
118	0xbb295c7d	-0.002584248
119	0xbc14caec	-0.0090815835
120	0x3bc88601	0.00611949
121	0x3b36cf98	0.0027894732
122	0x39f40ac2	0.00046547322
123	0x3c0117de	0.007879226
124	0x3bef3000	0.007299423
125	0xbc1d3cef	-0.009597047
126	0xbc8475ab	-0.01616939
127	0xbaa71462	-0.0012747163

action_model._continuous_distribution.log_sigma f4 [1, 6]
0	0xbc94d558	-0.018168136
1	0xbd9c7781	-0.07639981
2	0xbb9e2c63	-0.0048270687
3	0xbb8adad4	-0.004237512
4	0x3c2fbc50	0.01072605
5	0xbbb085ea	-0.0053870576

action_model._continuous_distribution.mu.weight f4 [6, 128]
0	0x3ccda05a	0.025100876
1	0xbc7619a3	-0.015020761
2	0xbcd23849	-0.025661604
3	0xbc543f20	-0.012954503
4	0xbd3abfc4	-0.04559304
5	0xbc6c340c	-0.014416706
6	0x3c425676	0.011861434
7	0x3c82e509	0.015978353
8	0x3bd6b8d1	0.0065527936
9	0x3c6a6af4	0.014307726
10	0x3cd87301	0.026422026
11	0xbc297f5e	-0.010345308
12	0xbd19c3c6	-0.03754022
13	0xba9bab51	-0.0011876618
14	0x3c309c36	0.010779431
15	0x3c57bebb	0.013168032
16	0xbbc3e35e	-0.005978032
17	0x3c5cfdb2	0.01348822
18	0x3c609405	0.013707166
19	0xbbb38646	-0.005478653
20	0xbc6aae41	-0.014323772
21	0xbc15e023	-0.009147677
22	0xbc4c5b7d	-0.012472984
23	0xbbf8f4ba	-0.007597533
24	0xbcf53ce8	-0.029936269
25	0x3c05c604	0.008164886
26	0x3ccd3961	0.025051774
27	0x39f8c5ce	0.00047449622
28	0xbc05e145	-0.008171384
29	0x3ca462ba	0.020066608
30	0x3c2d0239	0.010559612
31	0x3a6de629	0.0009075129
32	0xbcaf4ca2	-0.021398846
33	0x3ab96224	0.0014143628
34	0x3af1e33e	0.0018454564
35	0x3c803ede	0.015654977
36	0xbc3f3c3d	-0.011672077
37	0xbccef932	-0.02526531
38	0x3be1ca9c	0.006890608
39	0xba76a549	-0.00094087847
40	0xbc1061e4	-0.008812401
41	0x3ca2e8ec	0.019886456
42	0x3d26a62b	0.040685814
43	0x3d237197	0.03990325
44	0xbc8ce1a6	-0.017197441
45	0xbb974fa7	-0.0046176496
46	0xbc8fc0ad	-0.01754793
47	0x3b8d4261	0.0043108915
48	0xbc4122c6	-0.011788076
49	0x3ce539bd	0.027981633
50	0xbcd652e2	-0.026162568
51	0xbb3066da	-0.0026916773
52	0xbd02f1da	-0.03196893
53	0xbb922515	-0.004459987
54	0x3d5595ec	0.05214493
55	0xbcd56fc1	-0.026054265
56	0x3c9cf0b8	0.019157752
57	0xbd3e82f9	-0.046511624
58	0x3ba93036	0.005163218
59	0x3c1c32e9	0.009533622
60	0x3bd44d9f	0.0064789797
61	0x3ccef6b2	0.025264118
62	0x3d466352	0.048434563
63	0xbbcbfd81	-0.0062252884
64	0x3cafc8d6	0.02145807
65	0xbb96401b	-0.0045852787
66	0x3b4d0e13	0.0031288906
67	0x3ccf07bf	0.025272248
68	0xbb8ba992	-0.0042621577
69	0xbbcca679	-0.006245431
70	0x3c363e01	0.011123181
71	0x3c6d028a	0.014465937
72	0x3cc2d57b	0.023783436
73	0x3c81da24	0.015851088
74	0x3bab8eeb	0.005235543
75	0x3ca9449c	0.020662598
76	0xbd5cd453	-0.053913426
77	0x3b9c8686	0.0047767786
78	0x3c845bf4	0.016157128
79	0x3b940478	0.0045171343
80	0x3b9ba890	0.004750319
81	0x3cee0c13	0.029058492
82	0x3d033295	0.03203066
83	0x3b00a870	0.0019631647
84	0xbbccabce	-0.0062460667
85	0xbbde4f45	-0.006784352
86	0x3c249b94	0.010046858
87	0x3c942fbd	0.01808917
88	0x3c54b4da	0.0129825715
89	0x3abf4c83	0.0014594946
90	0xbc1270b8	-0.008938007
91	0x3c964877	0.0183451
92	0x3d28a234	0.041170314
93	0x3b837e10	0.0040128306
94	0x3c943977	0.018093808
95	0xbb38f900	-0.0028224587
96	0x3d0720d9	0.03299031
97	0x3b48cf23	0.0030641041
98	0xbcd56828	-0.026050642
99	0xbb8faa08	-0.004384283
100	0x3ce2a33c	0.027665727
101	0xb8cf30ba	-9.879605e-05
102	0xb9bc0144	-0.00035859097
103	0x3c6a1828	0.014287986
104	0xbc1d2897	-0.009592197
105	0x3ba81c65	0.005130338
106	0xbc0267b5	-0.007959296
107	0xbd14f8dc	-0.036370143
108	0xbd16270d	-0.036658335
109	0x3d02c15b	0.03192268
110	0xbd409ed0	-0.047026455
111	0x3c8ab93d	0.016934032
112	0xbc854200	-0.016266823
113	0x3cb25000	0.021766663
114	0x3c3390f9	0.010959857
115	0xbb9d0af4	-0.0047925655
116	0x3cbdcde3	0.023169464
117	0xbc31e118	-0.010856889
118	0xbd1c9801	-0.0382309
119	0x3c91cfbb	0.017799249
120	0x3bd1201c	0.0063820016
121	0x3bc65d18	0.006053578
122	0xbb90616c	-0.004406145
123	0xbc8df029	-0.017326431
124	0x3c209571	0.009801255
125	0x3b271940	0.0025497228
126	0x3c30874f	0.010774448
127	0xbc642d5c	-0.01392683
128	0xb9e156bd	-0.0004297997
129	0x3ab1ffe1	0.0013580286
130	0x3c84e5c1	0.016222836
131	0xbb1a9968	-0.0023589972
132	0x3c772b3b	0.015085991
133	0xbd3c5580	-0.045979977
134	0xbbe3fc40	-0.006957561
135	0xbc4cb641	-0.012494625
136	0xbab883ee	-0.0014077404
137	0xbd0ab23d	-0.033861388
138	0xbca407b1	-0.020023199
139	0x3c18430b	0.009293328
140	0xbbacf21b	-0.0052778847
141	0x3c6823e5	0.014168714
142	0xbcafbbee	-0.021451917
143	0xbd256191	-0.04037625
144	0x3c24d799	0.010061168
145	0xbb7165c2	-0.0036834334
146	0x3b6114f2	0.003434476
147	0x3c86aeff	0.016440867
148	0x3c27a3d3	0.01023193
149	0xbb4e1c7f	-0.003145009
150	0xbca93e98	-0.02065973
151	0x3d3a5c70	0.04549831
152	0x3cc4d479	0.024027096
153	0xbcdfd984	-0.0273254
154	0x3cc8703f	0.024467586
155	0x3c941e3a	0.01808082
156	0x3ce5caef	0.028050868
157	0xbd444ef7	-0.04792687
158	0xbd18b9a2	-0.03728641
159	0x3b460f73	0.003022161
160	0xbd1a25f6	-0.03763386
161	0xbc2e5f29	-0.010642805
162	0x3c745533	0.014912891
163	0xbb0b149c	-0.0021222
164	0x3cde3842	0.027126435
165	0x3c3951ff	0.011311053
166	0xbd0d6c75	-0.03452726
167	0xbb92de4c	-0.0044820663
168	0xbbdb44b1	-0.0066915383
169	0x3cb05927	0.021526886
170	0x3d36d856	0.044639908
171	0xbd0afc21	-0.033931855
172	0x3d12129d	0.035662282
173	0xbce15728	-0.02750738
174	0xbc197d3a	-0.009368235
175	0xbd36f6c1	-0.044668917
176	0xbb18fbc5	-0.0023343426
177	0xbd0727c1	-0.032996897
178	0xbba0fffc	-0.004913328
179	0xb9bb1083	-0.00035679722
180	0x3d01a479	0.031650994
181	0xbcfb4e2a	-0.03067692
182	0xbca5b0e3	-0.020225948
183	0xbbbe33a8	-0.0058044977
184	0x3c96dbd1	0.018415364
185	0xb9051bdf	-0.00012694251
186	0xbc0a073e	-0.008424578
187	0xbcfa369e	-0.030543622
188	0xbba1572e	-0.0049237227
189	0x3cd5ce59	0.02609937
190	0xbc7a6bc9	-0.015284487
191	0x3bc36214	0.0059626196
192	0xbb9106cb	-0.0044258586
193	0xba60f882	-0.00085819524
194	0x3cb00f50	0.021491677
195	0x3ce15f2a	0.027511198
196	0x3cab58fd	0.020916456
197	0x3b9af4f5	0.004728908
198	0x3ccf01a3	0.025269335
199	0xbcfca24b	-0.030839106
200	0xbce374ef	-0.02776572
201	0xbcbe39df	-0.023220954
202	0x3c87b231	0.01656446
203	0xbcbd1d8a	-0.023085374
204	0x3cd58631	0.026064964
205	0x3c855e1e	0.01628023
206	0xbbf57e84	-0.0074918885
207	0x3d11e523	0.035618912
208	0xbc5b7909	-0.013395556
209	0x3d049642	0.03236986
210	0x3c115ece	0.008872701
211	0xbc718f7b	-0.014743681
212	0x3c6bb99c	0.014387514
213	0x3d00eff7	0.03147885
214	0x3c836cfa	0.016043175
215	0xbd10d0ce	-0.03535538
216	0xbd168f6b	-0.036757868
217	0xbc20b5a0	-0.009808928
218	0xbbb46e5a	-0.005506319
219	0xbc36b405	-0.011151318
220	0xbcb3100d	-0.02185824
221	0xbcb1b7b0	-0.021694034
222	0xbce7488c	-0.028232835
223	0x3b7bbc56	0.0038411818
224	0x3a5e85f1	0.0008488587
225	0xbd0184d0	-0.0316208
226	0x3bcc3207	0.0062315497
227	0xbc3ce995	-0.0115303
228	0x3b8af317	0.0042404043
229	0x3c077247	0.008266992
230	0x3d4f93ad	0.050677944
231	0xbc88e91a	-0.016712714
232	0x3ca638cf	0.02029076
233	0x3c922545	0.017840037
234	0x3d0b3b02	0.03399182
235	0xbcca0262	-0.02465934
236	0x3cdb3fab	0.026763758
237	0xbc0a80b3	-0.008453536
238	0x3a8632ea	0.0010238562
239	0xbc32e2ed	-0.010918361
240	0x3c66eb75	0.014094223
241	0xbc6c1488	-0.014409192
242	0xbcbb0860	-0.022831142
243	0xbbde9104	-0.0067921896
244	0x3c2013a4	0.009770308
245	0xbade24ef	-0.0016948263
246	0xbd2b3684	-0.041800037
247	0xbd0aee8e	-0.03391891
248	0x3c562432	0.013070153
249	0x3c26805e	0.010162441
250	0x3c99c2a1	0.018769564
251	0xbbb8969b	-0.005633188
252	0x3cd5b18e	0.026085641
253	0x399af58d	0.00029556119
254	0xbc1707e5	-0.009218191
255	0xbd131eb2	-0.035917945

action_model._continuous_distribution.mu.bias f4 [6]
0	0xbbfc5ebb	-0.0077017224
1	0x3c3fd338	0.011708073
2	0x3ba6d167	0.0050908807
3	0x3b20f4b8	0.0024559926
4	0x3ae70a9c	0.0017627063
5	0x3b519744	0.003198103
