results/PlayerAgentTest/EasyPlayer/EasyPlayer-500045.onnx (onnx, 275220 bytes, 7 tensors)

network_body._body_endoder.seq_layers.0.weight f4 [128, 396]
000000 46 f3 30 3d 15 d8 15 3d 2a 07 50 3d f5 a1 ae bc
       0.043200754 0.036583025 0.050788082 -0.021317462
000010 9a ab b4 bc ac 05 1a bd 51 67 df bd d2 ea 17 bd
       -0.022054482 -0.037603065 -0.10908378 -0.037089176
000020 56 d7 39 bd ba cb 8a 3b aa f3 54 3d b2 2e bd bc
       -0.045371376 0.004235712 0.05199019 -0.023093555
000030 a7 bf 1e bc e5 83 a9 bd 8b 31 8e bb 56 48 2b bd
       -0.009689248 -0.0827711 -0.004339402 -0.04181703
000040 ce 0c 0e bd 7b fd 95 3d 98 4b 06 bc 04 f3 c7 bc
       -0.03468018 0.07323738 -0.008196734 -0.024407871
000050 6d 48 bd bb 1b c3 1f 3d bd 7f 9a bd 3f b3 f1 3c
       -0.005776456 0.039004426 -0.075438954 0.029504417
000060 fa b4 07 3e c3 a0 31 3d d1 c4 ce 3d c9 dd f8 3c
       0.13252631 0.043366205 0.100961335 0.030379193
000070 49 be a6 3d 80 4b 9b 3d 33 3f c4 bd 26 67 10 3d
       0.08141763 0.0758276 -0.09582367 0.03525462
000080 e1 57 0e bd 30 82 c5 3c 94 4d f6 bc dd 95 a2 bd
       -0.034751777 0.02410993 -0.030066289 -0.079387404
000090 ab c5 37 bd f0 67 9f 3c 83 8b c3 3d 88 5f 1e 3d
       -0.044866245 0.019458741 0.09548094 0.038665324
0000a0 46 8d 98 bc 79 bc 25 bc 9a 60 9c 3c d8 58 c6 3b
       -0.018622052 -0.010115736 0.019089032 0.0060530715
0000b0 03 be ab 3c e5 62 eb bb f8 41 28 3d d3 37 19 3e
       0.020964628 -0.00718342 0.041078538 0.14962701
0000c0 f8 7c 06 bd 98 c5 de 3c b5 bb 20 3d f2 ba 5f bd
       -0.032834023 0.02719383 0.03924151 -0.054621644
0000d0 0c 61 c6 3d 52 e1 c9 bd 78 1f f4 3b f6 5e 2f 3d
       0.09686479 -0.098574296 0.0074500404 0.04281517
0000e0 df e5 bb bc cd ce d4 bc 6f 1b 1e bd d3 90 be 3a
       -0.02293676 -0.025977517 -0.03860038 0.0014539011
0000f0 57 21 81 3b 75 67 97 bc ab 1a 28 bd ea 63 f9 bc
       0.003940742 -0.01848195 -0.041041058 -0.03044315
000100 9d 1f 8c bc 4b 27 37 bc 82 e6 c1 3d 96 45 2a 3d
       -0.017104918 -0.011178802 0.09467794 0.04157027
000110 fe fb 87 3d 20 95 be 3d 6e 3a 4a bd 12 e5 7a bd
       0.066398606 0.09305787 -0.04937213 -0.061253615
000120 82 cf 2e 3d 83 ec e9 3c ae e2 ae ba d1 d6 a3 3d
       0.042678364 0.02855516 -0.0013342702 0.07999957
000130 f5 34 d4 bd d7 12 82 bb 1e dc 0c 3d cc dc d3 bd
       -0.10361663 -0.003969531 0.034389608 -0.10344848
000140 96 71 fb bd 33 91 20 3b b6 99 d2 bc c0 38 ea 3c
       -0.12277524 0.0024500608 -0.02570806 0.028591514
000150 bc b3 76 bd 63 28 10 bd 98 f6 a3 3d 63 06 b7 bc
       -0.06023 -0.035194766 0.080060184 -0.022341913
000160 e2 3a ef 3c 54 51 18 bd 44 3f 4b 3d f5 ee aa bd
       0.029202882 -0.037186936 0.04962088 -0.08346359
000170 62 84 35 3d d4 4d 0c 3d 6f 7e a0 3d 5d 6f ad bd
       0.044315703 0.03425391 0.07836615 -0.084685065
000180 b2 bd 3f bd 5b b8 93 bc 96 20 9e 3a 13 37 6e 3a
       -0.046811767 -0.018032243 0.0012064155 0.0009087186
000190 6c 57 9c 3d 97 0c 47 bc 14 ff a2 bc ae 57 2b 3d
       0.07633862 -0.012148998 -0.019897021 0.041831665
0001a0 44 f7 be bc 8d 18 ac bc 36 cc 15 3d ea a0 bd 3c
       -0.023311265 -0.0210078 0.036571704 0.023148019
0001b0 9e 4e 82 3d 6b 13 9d 3c 30 3d 12 3d 6c bd 02 bd
       0.06362651 0.019174298 0.035702884 -0.031918928
0001c0 1b 2c 0e 3c 0a 6e d6 bc 6e 3d de bb 0d da 90 3d
       0.008677508 -0.026175518 -0.0067822253 0.0707284
0001d0 55 6c 60 bd e6 b9 3a 3d 17 fc 15 bd 43 cd 77 3d
       -0.054790813 0.045587443 -0.036617365 0.060498487
0001e0 c8 99 97 bb 75 47 39 3d b7 e7 8b bc 59 4c 03 bd
       -0.0046264865 0.045234162 -0.017078264 -0.032055233
0001f0 51 ce 68 3c 1d 98 15 3c a7 99 aa bd 9c 39 ea bc
       0.014209346 0.009130505 -0.08330088 -0.028591923
000200 9f dc b6 3c 36 c9 86 bd 49 72 8c bc 5e c8 1d 3d
       0.022321997 -0.06581347 -0.01714434 0.038521163
000210 36 80 26 3d ea df d5 bb 36 82 18 bc d1 58 8e 3d
       0.040649615 -0.006526937 -0.009308388 0.06950534
000220 75 42 90 3b 4d 1b 26 bb 83 21 e8 b8 59 a3 6b bb
       0.0044024535 -0.0025345862 -0.00011068864 -0.0035955517
000230 65 a6 2c bd 87 67 40 3d 3e b3 c4 3c bd 4e c6 ba
       -0.042150874 0.04697373 0.02401125 -0.0015129667
000240 71 aa 26 bd aa 1d 0c 3d 60 d2 5c ba 0d 58 90 3c
       -0.04068989 0.034207977 -0.00084236823 0.01762011
000250 e6 8d 40 bd 27 b1 6b 3d 0b 7b 84 3d 00 07 e7 3d
       -0.047010325 0.057541993 0.06468781 0.11280632
000260 0a de 01 bd 93 aa ff bc c0 12 ed bc 02 e6 d5 3c
       -0.031705894 -0.031209266 -0.028939605 0.026110653
000270 02 25 40 3a ea 4d 58 3d 4b c8 bd 3c f5 17 e1 bd
       0.00073297333 0.05280868 0.023166796 -0.109908976
000280 a2 d3 35 bd 66 ad c7 bb c1 f7 84 3d 98 bb 50 3d
       -0.044391282 -0.0060936688 0.06492568 0.050960153
000290 da b4 3b 3d 3f e8 3a 3c 70 5f 8d bd d1 c5 3d bc
       0.04582677 0.011407911 -0.06902969 -0.011582808
0002a0 da 5c 2f bb dd cb 16 3d 2d 98 4a 3d 5a 0a 88 3d
       -0.0026758225 0.036815513 0.049461532 0.066425994
0002b0 28 e2 c3 bd 02 b0 18 3d ae 33 b4 3b 70 f2 dd 3c
       -0.0956462 0.03727723 0.0054993248 0.027093142
0002c0 1c 67 95 bd 19 50 63 bd 21 e2 ec 3c 80 b7 c4 3d
       -0.07295057 -0.05549631 0.02891642 0.09605312
0002d0 1c 9b 4a 3c 3f 92 c2 bc d5 96 d3 bc 52 11 f9 bc
       0.0123660825 -0.023751376 -0.025828758 -0.030403767
0002e0 ef b2 b9 bd a2 cd a1 3d 67 05 ec 3c 0c 2e 48 3b
       -0.09067332 0.079005495 0.02881117 0.0030545024
0002f0 6e 14 46 3d dc b7 63 bd 18 b4 32 3d 2d 72 09 3c
       0.048359327 -0.055595264 0.043628782 0.008389038
000300 25 82 03 3e 8d 0e 1b 3d 82 b3 89 bb cc b7 a8 3b
       0.12842615 0.037855674 -0.004202307 0.0051488634
000310 3c 32 32 bd bb 42 5d bc 6d e5 75 3c 46 b9 fd bd
       -0.04350494 -0.013504679 0.015008313 -0.12388854
000320 70 04 ad 3d e1 b4 78 bd f7 fb 1d bc 36 6b 5b bd
       0.08448112 -0.060719375 -0.009642593 -0.05356904
000330 22 e2 61 bc 31 6a d3 bd fa 41 57 bd 2d b3 6a bd
       -0.013786824 -0.10322989 -0.052553155 -0.05729978
000340 bb ef 3e 3c 8e 8e 7c bd 38 4b a4 bc 0a 61 84 3d
       0.011653836 -0.06165939 -0.020055398 0.06463821
000350 ae 76 9c 3d 79 9b 55 3d 7c cc de bc 95 71 91 bd
       0.07639824 0.052150223 -0.027197115 -0.07101742
000360 62 e7 af 3c bb 89 10 3e 93 4f 2d 3a c3 66 8e bc
       0.021472637 0.1411504 0.0006611284 -0.017382985
000370 6c d0 29 3d 5b 81 9f 3b 16 e2 b6 3c a3 a6 e6 3c
       0.041458532 0.0048677153 0.022324603 0.02815563
000380 e8 e3 17 bc 34 bd 09 bd ce 82 06 3d ca f0 ce 3c
       -0.009270646 -0.033627704 0.03283959 0.025261302
000390 dc cf 25 bd b1 ae e0 3d 9f 35 3f bd d0 b8 74 3d
       -0.040481433 0.1097082 -0.046681996 0.059746563
0003a0 6f 4f 00 bb d0 32 85 bd bb 65 1c bd c5 eb 47 3d
       -0.0019578596 -0.06503832 -0.038182955 0.04880883
0003b0 7b 41 80 bd 72 c9 4a bc 1e 92 e1 bc b2 2d ae bd
       -0.062624894 -0.01237713 -0.027535494 -0.085048094
0003c0 56 2e a8 bc cf 27 f9 bb ef 2e 47 bc e6 c2 16 bd
       -0.020529907 -0.0076036225 -0.012157186 -0.036806963
0003d0 c3 46 7b bc 4c b9 64 39 6c cb f9 bb 62 d4 31 3d
       -0.015336695 0.00021812803 -0.0076231267 0.043415435
0003e0 17 29 d6 bc 58 e5 65 3d 8f c1 9c 3b c6 7b a1 3c
       -0.02614264 0.056126922 0.004783816 0.01971234
0003f0 08 c0 2b bd 5b f3 b4 3d 4b 8a f1 bd b1 c0 39 bd
       -0.041931182 0.08835479 -0.117939554 -0.04534978

network_body._body_endoder.seq_layers.0.bias f4 [128]
000000 b6 59 38 39 02 76 1c bb 6a d2 50 3c ce 34 50 3c
       0.00017581027 -0.002387405 0.012745479 0.012707902
000010 6a 99 4f ba 61 29 76 bc 69 56 6b bb 2e ba ba b9
       -0.0007919284 -0.015024514 -0.0035909659 -0.000356154
000020 a8 27 32 3c 1f e7 01 3c 4e a3 f5 3a c7 c7 05 bc
       0.010873713 0.007928639 0.0018740685 -0.008165306
000030 ef 01 41 3c d1 80 47 3c 92 3e 15 bb 78 33 2b 3c
       0.011780246 0.012176708 -0.002277289 0.010449283
000040 32 88 ef 38 65 f2 57 bc f3 69 51 ba ae 18 1c 3c
       0.000114217764 -0.01318035 -0.0007988505 0.0095273685
000050 a1 e9 25 3b 71 ce 7b b9 ee 91 f9 3b 7e 84 41 3c
       0.0025316256 -0.00024014131 0.007616273 0.011811374
000060 d8 9a 81 3b ff 0d 99 b9 89 64 17 3b e9 e3 79 3c
       0.0039552264 -0.00029192862 0.0023100695 0.015252092
000070 20 80 48 3c 7d ec f8 3b 97 13 fe 3a 6f d7 b9 3b
       0.012237579 0.007596551 0.00193845 0.0056714336
000080 a4 45 d6 39 08 31 8a bb 66 4c 9e bb de c8 7b 3c
       0.00040869147 -0.0042172708 -0.0048308847 0.015367715
000090 aa 4a c7 b9 5a 15 47 bb 38 19 bc 3b d3 5b d7 3b
       -0.00038011867 -0.0030377717 0.005740311 0.0065722256
0000a0 57 72 71 bb 0b ab 8c b9 f5 63 1d bb f3 72 b9 3a
       -0.0036841833 -0.00026830318 -0.0024015878 0.0014148637
0000b0 b6 c2 68 bb 8e fa 46 3b ac 2d 92 3b a3 f3 96 ba
       -0.0035516447 0.0030361745 0.004461011 -0.0011516701
0000c0 42 34 dc 3b 67 a4 33 bb e1 25 bf ba 25 a3 c0 bb
       0.006720097 -0.0027411224 -0.0014583432 -0.0058788233
0000d0 e8 e0 29 3c 27 82 60 bc d2 95 07 3a 22 c2 cb 3b
       0.010368563 -0.013702906 0.0005172166 0.006218211
0000e0 d0 c3 3e 3a 76 1f 2d ba 6d d6 e1 3b 3d 5e 8f 3c
       0.0007277103 -0.00066041143 0.0068920166 0.017500991
0000f0 29 a5 9f ba c8 96 b5 bb ac 88 68 3c 7e c2 86 3b
       -0.0012179959 -0.005541656 0.014192741 0.0041125407
000100 ce a1 33 bc 36 78 35 39 97 ba 6f 3b 9d 4d 0c bb
       -0.01096387 0.00017306287 0.0036579722 -0.0021408566
000110 99 94 12 bc 21 e8 8b bb ca 65 14 3c 73 7a 45 3b
       -0.008946561 -0.0042696153 0.0090574715 0.00301328
000120 b5 a2 57 3a 1a 3c a4 bb cd dd 8e 39 b8 7e 9d bb
       0.00082258444 -0.0050120475 0.00027249605 -0.004806366
000130 09 e6 31 3b 05 e6 cd 3b 8c 93 0e 39 f6 b5 54 3c
       0.0027145168 0.006283524 0.00013597141 0.012982836
000140 71 5e 19 bc 98 78 57 3c 01 97 70 3b bc 2c 4a 3c
       -0.0093608955 0.01315131 0.00367111 0.012339767
000150 93 8c 69 bc 46 bd fb bb 02 b9 90 3b 5c 1b 25 3c
       -0.014254707 -0.0076824753 0.004416586 0.010077324
000160 df c5 2f bc 97 ab bb 3a 34 f7 90 3b e6 1a d9 38
       -0.0107283285 0.0014318106 0.004424 0.000103523766
000170 ba 41 2b 3c 35 e8 22 3c 88 0e 12 3b 6e 13 1e 3c
       0.010452682 0.009943058 0.0022286493 0.009648187
000180 e0 7d 4d bc 3d 41 2c 3b 2a 9b 37 3c 70 d2 8f 39
       -0.012542218 0.0026284002 0.011206428 0.00027431874
000190 b0 6b de 3b 82 48 93 3b 6f ee 86 b9 ec 28 31 bc
       0.0067877397 0.0044947276 -0.0002573612 -0.010812979
0001a0 2f 98 f8 3b bf 49 3d 3c 2d ef 04 3c e3 40 fd bb
       0.007586501 0.011553227 0.008113665 -0.0077286824
0001b0 c8 dd 39 3b 85 06 05 3a c1 c7 46 bc 42 1a 13 3c
       0.0028360952 0.0005074519 -0.012132586 0.008978428
0001c0 bd ca a6 3b 4f c0 cf ba be d6 71 3c 37 ab 17 b9
       0.0050900863 -0.0015850159 0.014760671 -0.00014464265
0001d0 9f f1 23 3b 56 ed a9 3b bb e7 9a bb 23 94 d4 bb
       0.0025015844 0.0051857634 -0.0047273315 -0.006487386
0001e0 34 d0 ba 3c af fb 14 bb dc 35 02 3a 96 66 08 3c
       0.022804357 -0.0022733023 0.0004967132 0.00832524
0001f0 85 39 30 3c 85 27 83 b9 d0 d9 3c 3b ec 11 0b bc
       0.010755901 -0.0002501571 0.002881635 -0.00848816

network_body._body_endoder.seq_layers.2.weight f4 [128, 128]
000000 bb 98 46 3e 9f 3e 6c 3e e7 c4 e1 bc e6 9c ed 3b
       0.193942 0.23070763 -0.02755971 0.0072513698
000010 e1 6c 79 3d e5 c4 7b bd c7 cf b5 3d f4 8c 8b bd
       0.06089485 -0.06146707 0.08877521 -0.06813994
000020 91 36 36 3d e8 e8 23 3b bc c3 00 bd be e9 14 bc
       0.044485632 0.002501065 -0.031436667 -0.009088932
000030 5d e4 0a be 41 06 5f 3e 11 57 21 bd fd fe c3 bd
       -0.13563676 0.2177973 -0.039389674 -0.095701195
000040 5c c0 cb 3d 6d 03 26 bd 04 1f be bc e4 0b d5 3d
       0.09948799 -0.04053061 -0.023208149 0.104026586
000050 9d 5e 6e be 97 e7 a7 bd 2c 2c 02 3d 42 8e f1 3c
       -0.2327828 -0.08198469 0.031780407 0.02948678
000060 ad 09 90 ba 1b 88 d9 bd f1 6a 62 bd 2b 6d 94 3d
       -0.0010989212 -0.10621663 -0.05527777 0.07247385
000070 60 b9 28 3c 9d 9f 35 bd 92 16 e7 3d 37 52 63 3d
       0.010298103 -0.044341672 0.11283602 0.055498328
000080 17 87 b1 bd 54 48 1f 3e 12 34 9e bd a5 49 86 3d
       -0.086683445 0.15554935 -0.077247754 0.06557015
000090 4d e7 13 bd 1b fc 6d 3d ff d9 e8 3a 93 95 3c 3d
       -0.036109257 0.058101755 0.0017765163 0.046041083
0000a0 c2 f2 40 bd f3 90 86 bc 6f 25 39 be 8d f1 32 bd
       -0.047106512 -0.016426539 -0.18080686 -0.043687392
0000b0 38 77 e5 bd a4 ee 90 3d 30 87 06 3d ec ab 05 bd
       -0.1120438 0.07076767 0.03284377 -0.03263466
0000c0 a6 a2 b1 bc bd f0 32 bc fe 53 28 3d 60 00 b3 bd
       -0.021684002 -0.010921654 0.041095726 -0.08740306
0000d0 53 9b 94 bd 5a 4c 98 bd 4e f3 01 be 44 61 49 be
       -0.07256188 -0.07436438 -0.1269047 -0.1966601
0000e0 9d 1c 4d be e8 dc 7c bd 0b 4f 89 3d e6 22 ee ba
       -0.20030446 -0.06173411 0.067045294 -0.001816836
0000f0 16 53 2d bd 71 70 b1 bc 3f 5b 3a 3e 5e 61 b3 3d
       -0.042315565 -0.021660062 0.1819887 0.08758806
000100 ac b3 5d 3d 8f 7a be bd 82 77 0c 3d eb 6d 96 3c
       0.054126427 -0.0930072 0.03429366 0.01836296
000110 09 1a ed bd b6 f1 bc bd 0b 9d 3d be 9a e5 de 3d
       -0.115772314 -0.0922579 -0.18516938 0.10883637
000120 49 67 41 3c dd 6c 6e 3d 9a f8 0d be 21 1c 8e 3d
       0.01180441 0.05820929 -0.13864365 0.06938959
000130 e2 17 88 bc e7 ed 9f 3d b6 3f 7c bc 67 25 f1 bd
       -0.01661295 0.07809048 -0.015396049 -0.11774712
000140 ce f1 8f 3d 57 26 91 bd 84 91 31 3e 04 47 cf bc
       0.070285425 -0.07087391 0.17340666 -0.025302418
000150 09 30 86 bc ee e9 3c 3e 7a 41 99 3b e4 0e 1d bc
       -0.016380327 0.18448612 0.004676995 -0.00958607
000160 54 2b 33 be a2 bc a7 bd d2 cf b7 3d d2 13 e4 bc
       -0.17496997 -0.08190276 0.089751855 -0.027841482
000170 4f e4 65 3c 44 a3 df bd 7b 3b 28 bc c7 85 b3 3d
       0.014031484 -0.10919812 -0.0102680875 0.087657504
000180 9f 44 83 3d f9 b1 9f 3c 23 49 9e bd 0c 53 34 bd
       0.06409573 0.019494044 -0.077287935 -0.044024512
000190 0e ae b6 3d a6 d5 0a 3c a5 f5 2b bb 88 7d 7c bd
       0.08919917 0.008473789 -0.0026238945 -0.061643153
0001a0 c3 f0 a5 3d 51 6d ce 3d d5 38 7d 3d 2b 14 aa bd
       0.08102562 0.10079444 0.061821777 -0.08304628
0001b0 f4 d8 cc bc 38 dc fd 3d ab 6c 19 3d 0b fa 50 bd
       -0.025005795 0.12395519 0.03745715 -0.05101971
0001c0 e0 9f 08 3e d5 55 ab bd 1b 80 35 3e 6e 5a 4e be
       0.13342237 -0.083659805 0.1772465 -0.20151684
0001d0 f1 c5 ee bc 72 be 0d be 47 60 ac 3d a5 a9 30 3e
       -0.02914712 -0.1384218 0.08416801 0.17252214
0001e0 4a f5 f1 3d 63 3a c9 bc 37 fa 17 3d 34 e5 c0 3b
       0.11814363 -0.024563974 0.037103858 0.005886698
0001f0 89 5c e3 3d 62 58 d9 bd 23 9f 86 3d d1 21 99 3b
       0.11101634 -0.10612561 0.06573322 0.0046732207
000200 08 4a 1b 3d b9 78 1f bc a0 3c 32 bc ad 03 4b bd
       0.0379124 -0.009733372 -0.010878712 -0.049564052
000210 70 10 91 bd 17 51 b2 bc b4 fb 68 bb 52 e2 8c bd
       -0.07083213 -0.021767182 -0.0035550417 -0.06879105
000220 30 55 03 3d 16 a0 e0 bd fc 7a e9 3a 74 2c 53 be
       0.032063663 -0.10968034 0.0017813141 -0.20622426
000230 c1 e2 39 3d cd 00 4c 3d 4d 92 ab 3d 35 eb 39 be
       0.045382265 0.04980545 0.08377514 -0.1815613
000240 d8 2c 2f be fb 8f 88 3d 26 5d 9f 3d ac a2 04 3d
       -0.1710695 0.06668087 0.077814385 0.0323817
000250 7e 5b 15 bc 10 4e 49 bc b8 4e c7 bd 5b f9 9c bc
       -0.009116052 -0.012286678 -0.09731811 -0.01916187
000260 8a 50 44 3e a0 a3 5b bd 6b a5 af 3d f9 73 2e bd
       0.19171348 -0.05362284 0.08576473 -0.04259107
000270 20 40 36 3c ab dd 01 be a6 61 9d 3d 76 9e f9 bd
       0.011123687 -0.12682216 0.076846406 -0.12188427
000280 7a f4 b0 bb f5 73 de bd f0 c6 dc 3c c3 74 82 be
       -0.0054002376 -0.10861961 0.02695033 -0.25479707
000290 c4 ed cb 3b 77 f4 18 3e fd c3 28 bc 56 f4 67 bd
       0.006223412 0.14937006 -0.0103006335 -0.0566295
0002a0 47 db b8 3d 19 d8 40 bd f1 63 16 3e f9 fd 19 be
       0.09026199 -0.047081087 0.14686562 -0.15038289
0002b0 e8 3a 04 bd 81 b9 16 be 88 29 56 3e 0c 78 bc bd
       -0.03228274 -0.14719202 0.2091428 -0.092025846
0002c0 b7 e0 0b 3e 9f bb 1d 3d f2 c3 f7 bd a6 eb b3 3d
       0.1365994 0.038509008 -0.120979205 0.08785181
0002d0 3e b7 59 bd 3c c4 06 3d 7b 31 2c 3d 03 c9 d0 3d
       -0.05315327 0.032901987 0.042039376 0.1019459
0002e0 b5 85 a4 3b f6 a0 0c bd a6 e0 4f bd fc 51 70 bd
       0.005020822 -0.03433319 -0.05075135 -0.058671936
0002f0 23 51 96 3d 14 4e 44 be 0f e8 4f 3d 2f fd c9 bb
       0.07339694 -0.1917041 0.050758418 -0.006164215
000300 bd fb 00 3e 7d 43 57 bc b3 12 94 bd 54 7e b4 bd
       0.1259603 -0.013138649 -0.07230129 -0.08813158
000310 62 63 bd 3c e4 7f 65 bd f8 bc be bc 4f 78 08 3c
       0.023118678 -0.05603017 -0.023283467 0.008329465
000320 bc 2a c2 bd 7a 52 aa ba d6 08 d3 bd 77 a2 8b bd
       -0.09480807 -0.0012994551 -0.1030442 -0.06818097
000330 9b b5 a5 ba e1 69 3f bd 08 55 87 bd 4a f9 fe 3a
       -0.0012642624 -0.046731833 -0.06608015 0.0019452956
000340 f2 fd a6 bc 08 be a9 bc 35 d1 36 3c 27 20 0a be
       -0.020384762 -0.020720497 0.011158277 -0.13488828
000350 d8 4a 00 3c 16 eb ab bd 24 79 7e 3d 19 72 b8 bd
       0.007830344 -0.083944485 0.062127247 -0.090061374
000360 94 c6 13 3d a0 6f bd 3c 88 c4 29 3d 3d 42 26 be
       0.03607805 0.023124516 0.041447192 -0.16236205
000370 d4 37 35 3d 9f 4d 24 3b 94 c2 81 3d 8f ea 00 3e
       0.044242695 0.002507068 0.06335941 0.12589477
000380 b2 3b 8c bc de 0c 3c 3c fc 5e 90 3c 1f f0 51 3e
       -0.017118309 0.011477677 0.017623417 0.20501755
000390 50 8e 16 3e 4f cc dc bd ff 0b 4e 3a 79 fe 0a 3e
       0.14702725 -0.10781156 0.0007860064 0.13573636
0003a0 6a e6 1e 3d da f7 fb 3b 93 11 af bd 27 c7 3b bd
       0.03879396 0.0076894583 -0.08548274 -0.045844223
0003b0 76 6c 83 3c e0 c0 94 bd 92 f7 2d 3e 3b c3 46 bd
       0.01604293 -0.072633505 0.16988972 -0.04852603
0003c0 99 30 62 3e 32 b6 c9 bc ca 92 48 3d 63 07 b0 bd
       0.22088851 -0.02462301 0.048968114 -0.08595159
0003d0 28 f2 69 3d f1 53 06 3d 24 96 8b 3d a7 37 64 3c
       0.057115704 0.032794897 0.068157464 0.013929284
0003e0 3a 5e f9 bd 70 73 b5 3d 6c 7a 61 bd ae 07 0c be
       -0.121761754 0.088599086 -0.05504839 -0.13674805
0003f0 cd f1 81 3c 50 76 13 3d be 68 df bd 10 70 d9 3d
       0.01586237 0.036001503 -0.1090865 0.10617077

network_body._body_endoder.seq_layers.2.bias f4 [128]
000000 6c b4 4a 3c 65 69 ed bb c5 4c df 3b 02 9e 1c 3c
       0.0123721175 -0.00724523 0.0068145716 0.009559156
000010 e7 e1 69 3c db 86 69 3c 66 fe 02 3c 2b 9f 89 bb
       0.014275051 0.014253343 0.007995224 -0.0041998825
000020 de f4 86 bb e7 23 76 3b e2 23 11 3b 8b 9b bf 3b
       -0.004118546 0.003755802 0.0022146632 0.0058473996
000030 06 93 cf 3b 49 bd 60 3b e3 2e ca 39 03 2e e3 3b
       0.006334665 0.003429251 0.00038563376 0.0069329753
000040 c5 9d af 3b 81 8a 7b 3b a0 6d 63 3b 3d 28 45 3b
       0.0053593838 0.0038382115 0.0034702793 0.0030083798
000050 4a 4c 35 3c ca ad 80 bc 70 81 dc 3b 19 fd af bb
       0.011065552 -0.01570787 0.0067292973 -0.0053707478
000060 12 5c c5 3b 86 e1 1f 3b 07 a6 dd 3b ad 0e 83 bb
       0.0060229385 0.0024395897 0.006764177 -0.003999552
000070 86 81 55 3b 4b dc a7 3b 05 91 78 3b 45 1e b1 3a
       0.0032578423 0.0051226965 0.0037928235 0.0013513049
000080 a8 b5 9e 3b c5 cc 13 3b 22 57 43 bb 9f 47 fb 3b
       0.0048434325 0.0022552472 -0.0029806574 0.00766845
000090 0b 69 c2 bb 79 e2 10 bc 64 f9 9d 3b f2 75 00 3b
       -0.0059329323 -0.008843058 0.0048209894 0.001960155
0000a0 6f 13 8c 3c 83 9e 2f 3b d8 85 dc 3b 74 86 43 bb
       0.01709911 0.0026797361 0.0067298226 -0.002983478
0000b0 1d ce ac bb 26 04 54 bc b7 3a fd 3a 02 92 49 3c
       -0.005273594 -0.012940442 0.0019319867 0.012302877
0000c0 e3 62 57 3c 89 51 1d bc 0c bc 5d 3c b0 62 b5 bb
       0.013146135 -0.009601959 0.013533603 -0.005535446
0000d0 c3 d3 68 bc 1a 05 c7 bb b2 f2 6a 3b 54 f1 9e 39
       -0.014210644 -0.006073606 0.0035850224 0.00030315912
0000e0 13 de 96 3b be aa c4 3b 92 51 1d bb cd 17 0b bc
       0.00460411 0.0060017994 -0.0024004919 -0.008489561
0000f0 75 21 44 bb f3 6b 1e 3c 84 6d 50 3c 6b e9 fe 39
       -0.0029927169 0.009669292 0.012721423 0.00048620565
000100 5a 40 20 3b 56 1e 3a 3b 17 f1 52 3c 05 54 02 3a
       0.002445242 0.002839943 0.012874863 0.00049716263
000110 48 8b 20 37 15 5e 30 3c 36 e3 0d bc 57 ab 30 bc
       9.569172e-06 0.010764618 -0.008660128 -0.010783038
000120 0b f0 f7 bb 2c ec 8d 3b 44 5f e8 3b e4 9f 17 bb
       -0.007566457 0.0043311324 0.0070914347 -0.0023136074
000130 ec c3 82 bb 60 63 05 bc 1e 28 c8 3b 04 b9 17 3b
       -0.003990641 -0.008141369 0.006108298 0.002315105
000140 98 b6 2e 3c 08 e6 85 39 36 34 2d 3b 9d 52 45 bb
       0.010663651 0.00025539123 0.0026428825 -0.0030109056
000150 27 72 ff ba d4 3d 46 3c 47 0a 15 bc 05 98 a7 bb
       -0.0019488976 0.012099702 -0.009096689 -0.0051145577
000160 14 87 50 3b e7 54 36 bb c7 10 31 ba 72 2e 98 3b
       0.0031818794 -0.0027821602 -0.0006754514 0.0046442086
000170 17 41 15 bc 4b 0b 59 3b 6c cb 1d 3c 08 90 93 3c
       -0.009109757 0.0033118303 0.009631019 0.018013015
000180 1b f3 a7 bb 4d 4e 00 bb a7 73 12 3c a8 7c 89 3b
       -0.005125416 -0.001957792 0.0089387065 0.0041957684
000190 e5 ae 8a 3b ee bb 90 3a 74 7e 5a bb 59 a4 c0 3b
       0.004232275 0.0011042336 -0.0033339532 0.005878967
0001a0 47 3f 83 3b 21 57 d4 3b f8 08 7b 3b 7d 05 c7 b9
       0.004005346 0.006480113 0.0038304906 -0.00037960327
0001b0 00 f3 5a 3b 33 f2 42 bc 08 5f 29 3b c2 9b 0c bc
       0.0033409 -0.011898565 0.0025843997 -0.008582057
0001c0 28 57 ec 3b 45 dc f2 ba 9d ec 31 bc 49 c8 c0 3b
       0.0072125383 -0.001852878 -0.010859636 0.005883251
0001d0 62 2d 36 3c d6 13 3e bc e3 e5 25 bc 9f ab 6b ba
       0.011119219 -0.011601409 -0.01012561 -0.0008990112
0001e0 2c b7 d3 3b 01 cf 62 3c 7c 95 b6 3a 82 30 76 3b
       0.006461045 0.013843299 0.0013930048 0.0037565534
0001f0 b9 44 cf 3b ae 80 19 bc bb db de bb eb 9d db 3b
       0.006325331 -0.009369059 -0.0068010963 0.006702175

action_model._continuous_distribution.log_sigma f4 [1, 6]
000000 25 37 2c bd e0 a3 ea bd a4 2a ca bc a5 25 5c bc
       -0.042044777 -0.11457038 -0.024678536 -0.0134367095
000010 bf 7a cf 3c 9c a1 36 3b
       0.025327085 0.0027867323

action_model._continuous_distribution.mu.weight f4 [6, 128]
000000 96 c0 96 3a 87 01 4f 3a 49 90 93 3c ba 1a a2 3c
       0.0011501487 0.0007896651 0.018013136 0.019788135
000010 44 bb 1b 3d 30 a4 bd 3c 8a 9c 01 bd ae 54 3b 3c
       0.038020387 0.02314958 -0.031643428 0.011433763
000020 14 aa 85 bc bc 25 a5 3c a1 28 8f bd 6b 87 ac bc
       -0.016316451 0.020159595 -0.06990171 -0.021060666
000030 7a f4 ea ba 69 45 a1 bc 04 5c 19 ba d3 be 8f bc
       -0.0017925643 -0.019686418 -0.0005850198 -0.017547047
000040 46 c8 2f 3d 22 74 84 3b ba 24 3a 3c 6d 99 d1 bb
       0.042915605 0.0040421644 0.011361295 -0.0063964636
000050 c5 f9 87 3c 91 ad 68 3c 0d cc 1a bd c9 c5 e8 bc
       0.016598592 0.014201538 -0.037792254 -0.028414624
000060 18 65 58 3c 70 27 05 3d 43 6f 38 bd 83 ee 1d bc
       0.013207696 0.032508314 -0.045027982 -0.009639385
000070 0f 18 21 bc 1e be 4f 3c 61 7d 09 3d f3 cf 20 3d
       -0.009832396 0.012679605 0.033566836 0.039260816
000080 76 b9 8d 39 d1 38 71 bc 2e ad 29 3c 2c 7a c9 3a
       0.00027031795 -0.014723019 0.010356231 0.0015371493
000090 6b 20 34 3c 1b f5 8a 3b 71 7f 9d bc e2 bf 75 3c
       0.010994057 0.0042406446 -0.019225808 0.014999362
0000a0 94 a5 21 bd e4 43 30 bd fe e3 7a 3c 8a 01 d5 bc
       -0.03946455 -0.043033496 0.015313147 -0.02600171
0000b0 3a f9 29 3d 99 a8 25 bb 10 57 8f bc 39 c9 6b bd
       0.041497447 -0.0025277494 -0.01749757 -0.057564948
0000c0 fa 7c 20 bd 07 e2 dc 39 88 78 cb b9 fd bd 97 bc
       -0.039181687 0.00042130073 -0.0003880898 -0.01852321
0000d0 c5 9e b8 3b 08 63 42 39 b5 46 2c bd 3b 76 b5 3c
       0.005634161 0.00018538174 -0.04205962 0.022151103
0000e0 9a f5 41 bc e3 2c 9c 3c 7d 0f 68 3b 26 79 87 3c
       -0.011838341 0.019064372 0.0035409622 0.01653726
0000f0 e7 e9 05 3d 7b d7 92 bc eb 20 e7 3a ec ee aa 3c
       0.03269377 -0.017925015 0.0017633712 0.02086588
000100 89 99 41 bc 06 a4 87 3c 82 e3 b6 bc d0 f1 1a ba
       -0.011816391 0.016557705 -0.022325281 -0.00059106667
000110 d5 59 26 3c a6 0e 3d 3d 3b c0 68 3c 89 ec dd bb
       0.010153254 0.046156548 0.014205988 -0.006772582
000120 a7 2b 06 3d 2f 1f 11 bd 5e 8c 14 bc 92 34 14 3b
       0.032756474 -0.03543013 -0.009066669 0.0022614342
000130 08 d4 f0 3c f3 50 9d bb 65 50 93 bb e0 64 aa 3c
       0.02939798 -0.0048009097 -0.0044956678 0.020800054
000140 47 58 f9 bc dd 99 25 3d c5 d9 fc bb 86 de 6d bc
       -0.030437602 0.04042994 -0.00771639 -0.014518386
000150 4f 6e d2 bb cd 76 a1 bc f6 b0 db 3c e2 7a 21 3d
       -0.006421841 -0.019709969 0.02681778 0.03942383
000160 d4 12 10 bc 45 87 8f bc c0 48 1d 3d af 0f 66 bd
       -0.0087935515 -0.017520556 0.038399458 -0.0561673
000170 56 30 c6 3a 1f 2f c8 3c e7 8c c9 bc d7 c9 31 3d
       0.0015120606 0.024436532 -0.02460332 0.04340538
000180 f5 42 d2 3a db 4f 33 3b b8 d6 b1 3c dd d8 5a bd
       0.0016041683 0.002736083 0.021708831 -0.053429473
000190 54 51 a0 3c 5e 43 cd 3c 28 fe c1 3c 6b 88 03 ba
       0.01957003 0.025056537 0.023680761 -0.0005017581
0001a0 ad 06 25 bc 33 4a 3e bc 48 38 7e 3c 29 35 a6 bb
       -0.010072392 -0.01161437 0.015516348 -0.005072255
0001b0 32 1a d9 ba 09 e4 e2 3c e0 86 40 3b 34 7f 9c 3b
       -0.0016563593 0.027696626 0.0029377267 0.004775906
0001c0 1b e6 52 ba 22 b4 91 3c ea 66 4e bc 04 33 39 bc
       -0.00080451526 0.01778609 -0.012597779 -0.011303667
0001d0 de f9 be 3c c3 ff ff 3b b5 a3 0d 3c f0 e4 14 bc
       0.023312505 0.0078124716 0.008644988 -0.009087786
0001e0 46 aa dd bc 51 47 28 bd d6 f8 85 ba 8a c0 c6 3c
       -0.027058732 -0.041083638 -0.0010221254 0.024261732
0001f0 a7 8c 0e 3d bc dd 80 3c 46 73 21 bc 56 21 bf bb
       0.034802105 0.015730731 -0.0098541435 -0.0058328314
000200 52 2f 61 3d cd b3 11 bd 74 dc 75 3d ad a6 78 bd
       0.05497677 -0.035571862 0.060024694 -0.06070583
000210 76 c1 14 bd fc 2d 4c 3d 1e a4 e5 3c b9 b6 5b 3c
       -0.03631731 0.04984854 0.028032359 0.013410264
000220 83 ab b0 3c ca b8 15 3c d8 c9 ce 3a c8 b4 4a 3d
       0.021566158 0.009138295 0.0015776707 0.049488813
000230 bf 2b 81 bd c3 ea 54 3c cd e6 b2 bc a0 a8 01 3c
       -0.06307172 0.012995425 -0.02183857 0.0079137385
000240 60 f1 22 3d 2a b7 ec bc 5c e4 29 bd 27 06 48 3b
       0.039780974 -0.028895933 -0.041477546 0.0030521245
000250 96 5e fd bc 72 d5 8e 3a 9f 3f 68 3c 9a c2 e1 3a
       -0.030928891 0.0010897352 0.014175325 0.0017224133
000260 bd 17 5d bd 54 4d 76 bc 8b 31 04 3d 73 1f 96 3c
       -0.053977717 -0.015033085 0.03227381 0.018325543
000270 a6 dd 15 3c d8 84 9f 3c 18 e6 71 bc 10 1c c3 bc
       0.009147083 0.019472525 -0.014764331 -0.023817092
000280 77 bf 5a 3d 24 8e 14 bd 7e ad 2a bb e3 65 9d 3c
       0.05340525 -0.03626837 -0.002604335 0.019213622
000290 85 1f 92 bc cc 06 55 ba 70 d8 3b 3d c9 73 2f bb
       -0.017837295 -0.0008126318 0.045860708 -0.0026771894
0002a0 ca 87 e0 3c 9b 0e 40 3c ee a2 6a bc a7 d6 1e bc
       0.0274085 0.011722232 -0.014321072 -0.009694732
0002b0 9f 8b 56 3c f7 32 88 ba 5b 69 1f 3d 89 b2 d3 bb
       0.013094812 -0.0010391165 0.038918834 -0.006460492
0002c0 fb 55 95 3c 8e 80 a5 3b 2a 07 b3 bc a8 53 37 3b
       0.018229475 0.0050507253 -0.021854002 0.0027973447
0002d0 e6 fd 7b 3b b1 5a 13 bc 93 3a d7 bc 3d b2 ea 3c
       0.0038450896 -0.0089937905 -0.026273048 0.028649444
0002e0 a3 68 03 bd 5b 27 0b bd 42 10 d2 bc 4f ff 9c bc
       -0.03208221 -0.03397308 -0.025642518 -0.01916471
0002f0 2b 8d 11 bc dd bc 2b 3d e9 3f 68 bd b0 86 0d bd
       -0.008883755 0.04192816 -0.056701574 -0.034552276
000300 71 c1 b2 3c d1 9b 91 bc 5a 2c 23 bc a4 18 ec bc
       0.021820756 -0.017774494 -0.009959305 -0.028820343
000310 d0 62 c3 bc 3d f8 cf bc 83 f0 59 bc ec 98 36 3c
       -0.023850828 -0.025386924 -0.013301971 0.011144858
000320 7b 8e 44 3c f3 d5 3a bd 0b d0 29 3d bb f6 39 3c
       0.011996861 -0.045614194 0.04145817 0.011350329
000330 49 1c 93 3c b1 1f 54 bb 22 0c d7 3c da 54 08 bc
       0.017957823 -0.0032367522 0.026250903 -0.008321011
000340 21 fc 8a 3c d0 e7 ce 3c 5f 6e ef bb 04 b2 a9 bc
       0.016965928 0.025257021 -0.0073068584 -0.020714767
000350 50 f7 90 bc 0d 5a 52 3d 75 45 ca 3b 82 12 dd bb
       -0.017696053 0.05135541 0.0061728307 -0.006746591
000360 47 db 9f 3c fd 82 66 bb a7 3d c0 3c 7b ea 05 bd
       0.01951374 -0.003517329 0.023466898 -0.03269432
000370 88 84 ac bc 2e cf 23 3c c6 26 88 3c af 1e 18 bd
       -0.02105929 0.009998126 0.016620051 -0.037138637
000380 ce 5b 2a 3b 92 9f 4c 3c 95 46 91 bc 69 00 29 bd
       0.0025994661 0.012489216 -0.017733851 -0.041260157
000390 03 da 62 3d e7 ee a2 3c 13 b8 d6 bc 08 10 6a 3d
       0.055383693 0.019889308 -0.02621082 0.057144195
0003a0 7a fd b6 bb 2a 1b 89 3c ec 9e de 3c 79 0b 2a bd
       -0.005584416 0.016736586 0.02717539 -0.041514847
0003b0 9a a8 06 3d 2b 9d 05 3d 8d 06 fe 3c d7 d6 53 bb
       0.032875635 0.03262059 0.031008983 -0.00323241
0003c0 9e 0f 3d bd 65 82 63 3c 5f 3b e7 bb b7 eb 38 bb
       -0.04615747 0.013886069 -0.007056638 -0.002821667
0003d0 41 5a ff bc 4d d8 44 bc 0f b6 06 3c 22 04 6d 38
       -0.031170966 -0.012014461 0.008222117 5.6509052e-05
0003e0 aa d2 cd bc c5 e1 4e 3d f9 75 e3 3c cd e9 fe 3c
       -0.025124867 0.05050828 0.027766215 0.031117344
0003f0 6e 13 3f 3d a0 17 da 3b 77 07 5a 3a f7 59 59 bd
       0.04664939 0.0066556484 0.00083171524 -0.053064313

action_model._continuous_distribution.mu.bias f4 [6]
000000 42 67 35 bb 89 7d e4 3a 02 28 16 3c 3c b1 10 3b
       -0.0027679955 0.0017432432 0.009164812 0.0022078296
000010 12 a1 d9 bb 8d 4c 11 3a
       -0.0066415155 0.0005542718
