results/PlayerAgentTest/EasyPlayer/EasyPlayer-258217.onnx (onnx, 275220 bytes, 7 tensors)

network_body._body_endoder.seq_layers.0.weight f4 [128, 396]
0	0x3d814fe9	0.0631407
1	0x3cc86665	0.024462888
2	0xbd2c5953	-0.042077374
3	0x3e12c484	0.14332777
4	0xbd4bedcd	-0.04978733
5	0x3d17c834	0.037056163
6	0xbcb8f3fb	-0.022577276
7	0xb8cee5ce	-9.86565e-05
8	0xbc80e0b6	-0.01573215
9	0xbda7b023	-0.08187892
10	0x3d4a9747	0.049460676
11	0xba42f084	-0.00074363523
12	0x3c652ecc	0.013988208
13	0xbbb85296	-0.0056250794
14	0x3bc99971	0.006152325
15	0x3a9a7f09	0.0011787127
16	0xbc0d9e73	-0.008643734
17	0x3d11256d	0.035436083
18	0xbe42e47f	-0.19032477
19	0xbd2128ca	-0.03934554
20	0xbd063042	-0.032760866
21	0x3d449ec8	0.048002988
22	0x3dd8b02f	0.10580479
23	0x3ce44286	0.027863752
24	0xbcec6476	-0.028856497
25	0xbd6dd9ff	-0.058069225
26	0x3d4a2a7f	0.049356934
27	0x3d5ba8c8	0.05362776
28	0xbe287242	-0.16449836
29	0xbdc101d1	-0.094241746
30	0x3d85970d	0.06522951
31	0x3cd8abb9	0.026449071
32	0x3b6b80cf	0.003593493
33	0xbd464e52	-0.048414536
34	0x3d2fa505	0.042881984
35	0x3d84d119	0.06485195
36	0x3baaa24a	0.0052073346
37	0xbd50a9ba	-0.050943114
38	0xbc05d2bb	-0.008167918
39	0x3d1b7670	0.037954748
40	0x3d26692b	0.04062764
41	0xbcb647bd	-0.022251004
42	0x3d5ee1e6	0.054414652
43	0x3d37487b	0.044746857
44	0xbbc7a945	-0.0060931765
45	0x39e9c191	0.0004458544
46	0x3c8c9378	0.017160162
47	0xbc8f79cb	-0.01751413
48	0x3c8fea73	0.017567849
49	0xbc34a5ec	-0.011025887
50	0x3d906da2	0.07052161
51	0xbc9e3a0a	-0.019314785
52	0x3b7ec7d9	0.0038876443
53	0xbcb57bc0	-0.022153735
54	0xbab35b1d	-0.001368377
55	0x3d0a60c7	0.0337837
56	0x3d54b23c	0.05192779
57	0xbd970526	-0.07374029
58	0x3d88333d	0.06650398
59	0xbd85bd32	-0.06530227
60	0x3da931dc	0.08261463
61	0x3caedf5e	0.021346744
62	0xbc12c672	-0.008958446
63	0x3d3738b3	0.044731807
64	0x3d1903f8	0.0373573
65	0xbb4e98f1	-0.0031524266
66	0x3c8fa373	0.017533993
67	0x3d80e09b	0.0629284
68	0xbcc1bdd5	-0.02365009
69	0x3ce7e853	0.028309023
70	0xbc606e33	-0.013698149
71	0xbd1ee421	-0.03879178
72	0x3d0127cd	0.031532098
73	0xbd3929bd	-0.04520582
74	0xbdaa1cf8	-0.083063066
75	0xbcf29107	-0.02961017
76	0x3ca9dda1	0.020735564
77	0xbcdee5c3	-0.027209168
78	0xbda549ec	-0.0807074
79	0x3d1295b6	0.035787307
80	0x3d1d5496	0.038410746
81	0xbd2bea93	-0.041971754
82	0x3d86fbc1	0.06590987
83	0x3e0dd3d7	0.13850342
84	0xbcc7dcdc	-0.024397306
85	0xbd9233db	-0.07138797
86	0xbcb85d48	-0.022505417
87	0x3ca2b00d	0.019859338
88	0x3dc234f9	0.0948276
89	0x3c8b44b6	0.017000537
90	0xbc70020b	-0.014648925
91	0x3d755251	0.059892956
92	0x3c406598	0.011742972
93	0xbd2658e1	-0.040612105
94	0x3b99f487	0.0046983394
95	0xbcdb3ea8	-0.026763275
96	0x3d8cbe4b	0.06872233
97	0xbcba9c2f	-0.022779552
98	0xbc894cf8	-0.016760334
99	0x3d01ac27	0.031658318
100	0xbb159783	-0.0022825904
101	0xbda7cc93	-0.08193316
102	0x3caa4974	0.020786978
103	0xbb791c7a	-0.0038011358
104	0xbd74779e	-0.05968439
105	0x3bcf1e4d	0.006320751
106	0x3da78f55	0.08181635
107	0x3ddeef5a	0.108854964
108	0xbded5078	-0.11587614
109	0x3d9374d9	0.07200021
110	0xbbfad3d7	-0.007654648
111	0x3ae03665	0.0017106055
112	0xbc9cb9a2	-0.019131485
113	0x3c72eaa9	0.014826455
114	0xbd040f0f	-0.032240923
115	0xbcd23b6b	-0.025663098
116	0x3d19058f	0.037358817
117	0x3cc582a3	0.024110144
118	0x3d0ea149	0.034821782
119	0x3de1cdb8	0.11025566
120	0xbd3c1fd5	-0.045928795
121	0x3b4edf1b	0.0031566087
122	0xbc875e86	-0.016524564
123	0xbdbe9ba4	-0.0930703
124	0x3db2ed59	0.08736677
125	0x3d0b9213	0.034074854
126	0xbb3baf1f	-0.0028638316
127	0xbd76b1e1	-0.060228232
128	0xbd16b3f4	-0.03679271
129	0xbd8122ed	-0.0630549
130	0x3d0126d7	0.03153118
131	0x3d3997a3	0.045310628
132	0xbc439a41	-0.0119386325
133	0x3c1adcd9	0.009452068
134	0xbd30df12	-0.043181486
135	0xbd846946	-0.06465392
136	0xbbeb4fcf	-0.007181145
137	0x3d193c5f	0.03741109
138	0xbd18c6e6	-0.03729906
139	0xbc3f8bdf	-0.011691063
140	0xbd334232	-0.0437643
141	0xbcb77343	-0.022393828
142	0xbc0ecdef	-0.008716091
143	0xbb9a09c3	-0.0047008707
144	0xbd361ae0	-0.044459224
145	0x3cfe2730	0.031024545
146	0x3d34d747	0.044150617
147	0x3b68827f	0.0035478172
148	0x3d7ba1d3	0.061433624
149	0xbcb25680	-0.021769762
150	0x3d5a4582	0.053288944
151	0xbce62947	-0.028095854
152	0xbd12a349	-0.035800252
153	0x3d3b8a59	0.045786235
154	0x3be23fb1	0.0069045653
155	0xbbca70bb	-0.0061779893
156	0xbdb3d799	-0.08781356
157	0xbbf6911e	-0.0075246235
158	0x3e37b2a0	0.17939234
159	0xbc7c6055	-0.015403827
160	0x3ba2f70f	0.0049732993
161	0x3d92dce0	0.07171035
162	0xbd0cb7a0	-0.034354806
163	0x3cc26fcd	0.023734951
164	0xbcc214ba	-0.023691524
165	0xbb8e6dd7	-0.00434659
166	0xbcbe6736	-0.023242574
167	0x3ce48468	0.027895167
168	0x3d989b04	0.07451442
169	0xbc91f238	-0.017815694
170	0xbd86a851	-0.065750726
171	0xbcafcc57	-0.021459742
172	0x3d64226d	0.055696893
173	0xbcec6be1	-0.028860034
174	0xbd7c1d21	-0.061551217
175	0x3d5c7df2	0.05383105
176	0xba3a0414	-0.00070959446
177	0xbd221624	-0.039571896
178	0x3bbffcb1	0.0058589806
179	0x3db444b2	0.08802165
180	0xbbbb8510	-0.0057226494
181	0x3c783c7f	0.015151142
182	0x3c624a5b	0.013811673
183	0x3db8d1db	0.09024402
184	0xbc7bee8d	-0.015376699
185	0xbd03ff15	-0.032225687
186	0xbda1eb2b	-0.07906183
187	0x3d57d0b5	0.052689273
188	0x3ab0061d	0.0013429556
189	0xbda4af11	-0.08041204
190	0x3d6b7e73	0.05749364
191	0xbd021b75	-0.031764466
192	0xbd62e764	-0.055396453
193	0xbcf106cd	-0.029422188
194	0x3ca489d2	0.02008525
195	0xbd82c094	-0.063843876
196	0xbcf70914	-0.030155696
197	0xbcc5cc63	-0.02414531
198	0xbd7b6adf	-0.061381217
199	0x3d3a1a39	0.045435164
200	0x3d65a232	0.056062885
201	0xbddaa6b7	-0.106763296
202	0x3cd81aeb	0.026380023
203	0x3cd88d90	0.02643469
204	0xbc7a950b	-0.015294324
205	0xbb81a986	-0.0039569763
206	0xbc24fedd	-0.01007053
207	0xbd2ecff3	-0.042678785
208	0xbd1e6599	-0.03867111
209	0xbbdec5b7	-0.006798472
210	0xbbdfe80f	-0.0068330835
211	0xbe1f0e70	-0.15532851
212	0xbc997e8e	-0.018737104
213	0xbd4428c2	-0.047890432
214	0xbca1fcac	-0.019773804
215	0x3dabf0b6	0.08395521
216	0x3b89c0a3	0.0042038723
217	0x3c4c798f	0.012480154
218	0xbd21471d	-0.03937446
219	0xbd4eed4e	-0.05051928
220	0x3d09262c	0.03348367
221	0xbdb09bef	-0.08623492
222	0xbe0b7a11	-0.13620783
223	0xbbb1cff5	-0.0054264017
224	0x3d4260a9	0.047455464
225	0x3ba61c6c	0.005069306
226	0x3b7a9146	0.0038233562
227	0xbc05be69	-0.008163073
228	0xbd8f15fe	-0.069866166
229	0xbd923842	-0.071396366
230	0x3d40efd7	0.04710373
231	0x3d2b0773	0.04175515
232	0x3cefc10c	0.029266857
233	0x3d198854	0.03748353
234	0x3cb23b99	0.021756934
235	0x3d52e271	0.051485483
236	0x3cb893ab	0.022531351
237	0xbd6d0d15	-0.057873804
238	0xbdc74722	-0.097303644
239	0x3d5a704b	0.053329747
240	0x3bcc5c1f	0.0062365676
241	0xbcef1168	-0.029183105
242	0xbd309407	-0.04310992
243	0xbd01a43e	-0.031650774
244	0xbcb004e5	-0.021486709
245	0x3d95319a	0.07284851
246	0xbcaacd12	-0.020849738
247	0x3ba07717	0.004897009
248	0x3d5f29a7	0.054483082
249	0xbd01d7b6	-0.03169986
250	0xbc6cefa1	-0.014461429
251	0x3d4ebfdd	0.050475944
252	0xbcdf1e57	-0.027236147
253	0xbd1497f7	-0.036277737
254	0x3c9968f5	0.018726805
255	0xbc1e2872	-0.009653198

network_body._body_endoder.seq_layers.0.bias f4 [128]
0	0x3c5224e6	0.01282618
1	0xbc171466	-0.009221172
2	0xbb36b487	-0.0027878599
3	0x3bcfa337	0.0063365954
4	0xbbc686c4	-0.006058546
5	0x3befd0ec	0.0073186066
6	0x3b04fea6	0.0020293384
7	0xbb8d81bb	-0.0043184436
8	0x3c205946	0.009786909
9	0xbbe42a69	-0.0069630635
10	0x3c4210d4	0.011844832
11	0xbb56704c	-0.0032720743
12	0x3b3db532	0.0028947112
13	0xbaf99684	-0.001904205
14	0xbbe07fe5	-0.0068511837
15	0xbb86e0eb	-0.004116168
16	0xbb9718d9	-0.0046111164
17	0x3c602e22	0.013682874
18	0x3bda2b67	0.006658006
19	0x3b950e1a	0.0045488
20	0xbbd58be9	-0.0065169227
21	0x39aefb3e	0.00033375056
22	0x3b2116c8	0.002458023
23	0xbbda3099	-0.0066586253
24	0xbc018a91	-0.007906572
25	0xbbb5a2af	-0.005543075
26	0x3c2111fd	0.009830949
27	0x3c1a659b	0.009423639
28	0xbbc1ebc0	-0.005917996
29	0xbc8eb3f6	-0.017419796
30	0xbc26e57a	-0.010186547
31	0x3c2d2591	0.010568039
32	0xba92521e	-0.0011163389
33	0xbba3552c	-0.0049845185
34	0xbb86c961	-0.0041133617
35	0x3c0df40d	0.008664143
36	0xbb67265d	-0.003527067
37	0xbbda3e83	-0.006660284
38	0x3bafc985	0.005364599
39	0xbb910f5b	-0.0044268793
40	0xbaa0d7f7	-0.0012271394
41	0xbc0c9481	-0.008580328
42	0xbc1f58cf	-0.009725763
43	0xbb8d956f	-0.0043207924
44	0x3bae2723	0.005314724
45	0xbbf52bab	-0.0074820123
46	0x3b652032	0.0034961817
47	0x3b2fd6e8	0.0026830975
48	0x3bdb90e5	0.0067006224
49	0x3be913d2	0.0071129585
50	0x3b27d005	0.0025606167
51	0x3ba034af	0.004889093
52	0x3b9050c8	0.004404161
53	0xbb15df0f	-0.002286855
54	0xbc06d4ed	-0.008229476
55	0xbbb496ff	-0.005511164
56	0x3ae6ca0c	0.0017607822
57	0x3bbc546d	0.005747369
58	0x3c5b8815	0.013399144
59	0x3bc3a97f	0.0059711332
60	0x3b2d2d65	0.0026424762
61	0xba055aef	-0.00050870975
62	0x3b85a528	0.004078526
63	0xbba69695	-0.0050838687
64	0x3c40834e	0.0117500555
65	0x3bb4aad9	0.0055135307
66	0x3b74740b	0.0037300612
67	0x3bd97ea8	0.006637413
68	0x3c37e2e2	0.011223527
69	0xbb51e55b	-0.0032027576
70	0x3b9025a7	0.0043990198
71	0xbc2dfc9e	-0.010619311
72	0x3a40c9f3	0.00073543115
73	0xbc01106c	-0.00787745
74	0xbad66ab0	-0.00163587
75	0x3c4fbf2c	0.012679856
76	0xbbff14ff	-0.0077844854
77	0x3c59bb1a	0.013289237
78	0x3bc67e72	0.006057554
79	0xbbb0ce99	-0.005395722
80	0xbc412169	-0.011787751
81	0xbc357ac5	-0.011076634
82	0xbbc78ad2	-0.0060895467
83	0xbbb49523	-0.0055109425
84	0x3b8524c0	0.004063219
85	0x3c06ddfd	0.008231637
86	0xbbdcc55a	-0.0067373933
87	0xba84bb92	-0.0010126701
88	0x3bc25d04	0.0059314985
89	0xbbbee62f	-0.00582578
90	0x3c7c4b5e	0.015398828
91	0xbbe39371	-0.0069450666
92	0xbba68732	-0.0050820345
93	0x3c271d0f	0.010199799
94	0xbb8cb96c	-0.004294565
95	0x3c0e9cbf	0.008704363
96	0xbc11340d	-0.0088625075
97	0xbc3522f8	-0.0110557005
98	0xb9d8c15b	-0.00041342792
99	0xbc1f5424	-0.0097246505
100	0xb95f403b	-0.00021290865
101	0xbc297ee8	-0.010345198
102	0xbb49b5b0	-0.003077846
103	0x3b800cb4	0.0039077643
104	0x3ad72911	0.0016415437
105	0xbc892d0a	-0.01674511
106	0xbc0795c4	-0.008275453
107	0xbbcdf22e	-0.0062849736
108	0x3beed490	0.007288523
109	0x3bd7a9a2	0.006581501
110	0xbbbc5925	-0.0057479315
111	0xba2545da	-0.0006304659
112	0xbbdd3216	-0.0067503555
113	0x3c242f5c	0.010021057
114	0xbb2bfb68	-0.002624238
115	0xbb3d1b7c	-0.0028855493
116	0xbc365058	-0.011127554
117	0x3c0c4fde	0.008563964
118	0xbac45df6	-0.0014981616
119	0x3c359a6d	0.011084181
120	0xbc7abf7f	-0.015304445
121	0xbb6b46a9	-0.003590027
122	0xbaf0a3f7	-0.0018359412
123	0xbb895e1f	-0.0041921283
124	0xbc286f23	-0.010280403
125	0x39b759e4	0.00034971454
126	0x3ad7779b	0.0016438843
127	0x3c13af0b	0.009013901

network_body._body_endoder.seq_layers.2.weight f4 [128, 128]
0	0xbe11ea8b	-0.14249627
1	0x3e0d386f	0.13791059
2	0x3c0d7ef1	0.008636222
3	0x3beb956e	0.0071894443
4	0x3ca0cd72	0.019629214
5	0x3df08908	0.11744887
6	0x3d6a45cb	0.057195466
7	0x3dea2b4a	0.11434038
8	0x3d720d33	0.05909462
9	0xbda8b349	-0.08237321
10	0xbc45ceac	-0.0120732
11	0xbcabcd81	-0.020972015
12	0xbd19c25b	-0.037538867
13	0xbe02657f	-0.1273403
14	0xbd3f5275	-0.046709497
15	0x3d1d584f	0.038414296
16	0x3d425324	0.04744257
17	0xbc55e7e8	-0.013055779
18	0x3d8d1467	0.06888657
19	0x3d6ae01b	0.05734263
20	0xbc820986	-0.015873682
21	0x3df49a57	0.119435005
22	0x3ce663d3	0.028123772
23	0xbd70e24c	-0.058809564
24	0xbd26805c	-0.040649757
25	0xbd1f8780	-0.038947582
26	0xbdb7fe69	-0.08984072
27	0xbcfd010c	-0.030884288
28	0xbdd80240	-0.10547304
29	0xbd66ee3b	-0.056379538
30	0x3a4be7aa	0.0007778356
31	0x3db7e72c	0.089796394
32	0x3da766c0	0.08173895
33	0xbd8f641d	-0.07001517
34	0xbcc8efad	-0.024528349
35	0x3d5c6601	0.053808216
36	0x3dfe3298	0.12411994
37	0xbd299c56	-0.04140886
38	0x3db52aa0	0.08846021
39	0xba1fc465	-0.0006094634
40	0xbe085d05	-0.13316734
41	0x3c3b2116	0.0114214625
42	0xbaeac972	-0.0017912819
43	0xbb954e1c	-0.0045564305
44	0x3e045556	0.12923178
45	0x3e14faee	0.14548847
46	0x3dac0f21	0.08401323
47	0xbdb3149b	-0.087441646
48	0xb9c01a18	-0.00036640535
49	0x3dd18950	0.102312684
50	0xbe2c19d9	-0.16806735
51	0x3c5a4a23	0.01332334
52	0xbd43cec6	-0.047804616
53	0xbdc8d1ee	-0.09805666
54	0x3e228b0e	0.15873358
55	0xbdea5ce6	-0.114435
56	0xbdc779a9	-0.09740002
57	0xbe00e8dd	-0.1258883
58	0x3d0ef8f3	0.034905385
59	0x3d489302	0.048968323
60	0xbd2ecff2	-0.04267878
61	0xbe37298d	-0.17886944
62	0x3d357d85	0.044309158
63	0xbd7d66ec	-0.061865732
64	0xbcce08df	-0.025150714
65	0xbdd82af3	-0.10555067
66	0x3db796a8	0.08964282
67	0x3df29add	0.11845944
68	0xbe0fb8ea	-0.14035383
69	0x3e44a70d	0.1920435
70	0xbd2fc9d7	-0.0429171
71	0xbdaad12a	-0.08340676
72	0xbdcd76fd	-0.10032461
73	0x3dd8c96b	0.105852924
74	0x3d0ecf5c	0.034865722
75	0xbd7d6436	-0.061863147
76	0x3dd0823a	0.10181089
77	0x3b17b3ad	0.0023147867
78	0x3b29a2c3	0.0025884367
79	0x3d36bafb	0.044611912
80	0x3e0f8ab1	0.1401775
81	0x3d9fefbf	0.078094
82	0xbd155a73	-0.036463212
83	0x3ddc6365	0.107611455
84	0x3b875c59	0.0041308817
85	0xbd864319	-0.065557666
86	0x3c179b2f	0.009253307
87	0xbca33f04	-0.01992751
88	0xbd92fa77	-0.07176679
89	0xbe7dda3e	-0.24790284
90	0x3c18da71	0.009329424
91	0xbe025505	-0.12727745
92	0x3c2c44b3	0.010514426
93	0xbcda7747	-0.026668204
94	0x3dc0e9b3	0.094195746
95	0xbd82374d	-0.06358204
96	0x3d2b996e	0.04189437
97	0xbcccce24	-0.02500064
98	0xbddafed1	-0.106931336
99	0xbd3afaac	-0.045649216
100	0x3d9b1e5d	0.07574151
101	0x3cd0da45	0.025494704
102	0xbd769972	-0.06020493
103	0x3d3fac99	0.04679546
104	0xbd6783ba	-0.05652211
105	0x3d99b290	0.07504761
106	0x3cdfc1b9	0.027314054
107	0x3dd063fd	0.10175321
108	0xbd19efd6	-0.03758224
109	0xbdcdbd95	-0.100459255
110	0xbc6257f3	-0.013814914
111	0xbcbc1382	-0.02295852
112	0xbc4b60d1	-0.01241322
113	0x3dbd5d82	0.09246351
114	0x39f03cbb	0.00045821615
115	0xbd4ff0f4	-0.0507669
116	0x3d15c5b7	0.03656551
117	0xbca0feae	-0.01965269
118	0x3d909fef	0.07061755
119	0x3df5a484	0.119942695
120	0xbc792d81	-0.015208603
121	0x3e3dd136	0.18536839
122	0xbdaeab53	-0.08528771
123	0x3cd25b6f	0.025678365
124	0xbd3f2c10	-0.04667288
125	0xbc759784	-0.014989737
126	0xbcc65cce	-0.024214175
127	0xbd1a9425	-0.037738938
128	0xbd003c34	-0.031307414
129	0x3db175ea	0.086650684
130	0x3e0ada59	0.13559856
131	0x3e067d9c	0.13133854
132	0xbe85be50	-0.2612176
133	0xbdcc2fd1	-0.09970058
134	0xbe154f95	-0.1458114
135	0x3aece292	0.0018072894
136	0x3dc6bf3f	0.09704446
137	0xbd21ca02	-0.03949929
138	0x3d4b90e9	0.049698744
139	0x3d1e601c	0.038665876
140	0x3daf0edd	0.08547757
141	0xbdda9038	-0.10672039
142	0xbe090bff	-0.13383482
143	0xbd56af0a	-0.052413024
144	0xbded4c4b	-0.11586817
145	0x3d8f6255	0.07001177
146	0xbd427dc6	-0.04748323
147	0xbd9de3b6	-0.07709448
148	0x3d98a424	0.07453182
149	0x3db2f810	0.087387204
150	0xbdb11060	-0.086457014
151	0x3d971769	0.07377512
152	0x3daef01e	0.085418925
153	0x3c175326	0.009236133
154	0xbdf5e16d	-0.12005887
155	0x3d1ee850	0.03879577
156	0xbd9c0946	-0.07618956
157	0xbcfce82d	-0.030872429
158	0x3d4400ee	0.04785245
159	0x3ddb1447	0.10697227
160	0x3e2f1e35	0.17101367
161	0xbd7d22f3	-0.06180091
162	0x3e454d9e	0.1926789
163	0xbdbb135d	-0.09134553
164	0x3d9042a3	0.0704396
165	0x3d1ed02d	0.03877275
166	0xbe232478	-0.1593188
167	0x3c9cc4bc	0.019136779
168	0xbc2a259c	-0.010384943
169	0x3cd4c505	0.025972852
170	0x3e098859	0.13430919
171	0x3dbcacb3	0.09212627
172	0x3c514135	0.012771894
173	0xbe0de7e6	-0.13857993
174	0xbca20088	-0.019775644
175	0x3a83d22b	0.0010057142
176	0x3dc1d014	0.09463516
177	0xbce7718c	-0.028252386
178	0xbde04c67	-0.109520726
179	0x3e458867	0.19290315
180	0x3c76fb1e	0.015074519
181	0x3db1f986	0.08690171
182	0x3d4a2271	0.049349252
183	0x3c1fc11b	0.00975063
184	0x3cab338c	0.020898603
185	0x3d6daf59	0.058028553
186	0xbdbf52de	-0.093419775
187	0x3c2aee5f	0.010432809
188	0xbc3645be	-0.011125026
189	0x3b05658d	0.0020354718
190	0xbd5eeea7	-0.054426815
191	0xbdc79f79	-0.09747214
192	0xbd87c9a6	-0.06630258
193	0x3d78847d	0.060673226
194	0xbde4fffd	-0.111816384
195	0x3d4d7348	0.05015877
196	0xbba2fde0	-0.004974112
197	0x3c85566d	0.016276563
198	0x3cf854eb	0.03031393
199	0xbbab7d60	-0.0052334517
200	0x3d174f62	0.03694094
201	0x3d43b1d3	0.04777701
202	0x3dd9db85	0.10637573
203	0x3cb21fe2	0.021743719
204	0x3cef6ca3	0.029226607
205	0xbc6edcb0	-0.014578983
206	0xbdb77c1a	-0.08959217
207	0xbe017c6b	-0.12645118
208	0x3d6778d3	0.05651171
209	0x3d28f3a0	0.041247964
210	0x3d8d167f	0.068890564
211	0x3dcdf952	0.1005732
212	0x3e3a309c	0.18182606
213	0x3cdea5fb	0.027178755
214	0x3dcae17f	0.09906291
215	0xbe27a577	-0.16371714
216	0xbdf8af76	-0.121428415
217	0xbb574562	-0.0032847752
218	0x3d4a9d63	0.049466502
219	0x3e17f148	0.14838135
220	0x3d876aea	0.06612189
221	0x3d390be5	0.04517736
222	0x3e468667	0.19387208
223	0xbde0e0dd	-0.10980389
224	0x3d38879d	0.045051206
225	0xbdc0ca8f	-0.09413635
226	0xbd14b6bc	-0.03630708
227	0x3cea212f	0.028580276
228	0xbdb185c0	-0.08668089
229	0xbd7fd375	-0.06245752
230	0xbc6ed880	-0.014577985
231	0xbc7c4892	-0.0153981615
232	0x3cc7035e	0.024293598
233	0xbdb283c5	-0.08716539
234	0xba920b79	-0.0011142335
235	0x3d8e88c9	0.069596834
236	0x3c717590	0.014737502
237	0xbe1292c1	-0.14313795
238	0xbdb848fb	-0.08998295
239	0xbccbd585	-0.024882087
240	0xbc90ea34	-0.017689802
241	0xbb956b63	-0.0045599206
242	0xbb0d9405	-0.002160312
243	0x3d550442	0.052006014
244	0xbdbe51d0	-0.09292948
245	0x3db5ab6a	0.08870585
246	0x3b76d2c0	0.0037662238
247	0x3d08c20c	0.033388183
248	0x3d47b859	0.048759792
249	0x3e0bf95f	0.13669346
250	0xbe1f0e30	-0.15532756
251	0xbd81cec6	-0.06338267
252	0x3cd1b116	0.025597136
253	0xbda4f549	-0.08054597
254	0x3dbab332	0.0911621
255	0xbe3d927a	-0.18512908

network_body._body_endoder.seq_layers.2.bias f4 [128]
0	0xbabe6338	-0.0014525419
1	0x3b83ad19	0.0040184376
2	0xba63cb3b	-0.00086896465
3	0x3bb47dae	0.0055081462
4	0xbbf97e83	-0.0076139583
5	0x3a07b953	0.0005177457
6	0x3b57a6bd	0.003290578
7	0x3a389ff5	0.00070428784
8	0xbb1eeffa	-0.0024251924
9	0x3abec5c3	0.0014554787
10	0x3b353a5f	0.00276532
11	0xbbd54298	-0.0065081827
12	0x3be160c5	0.006877991
13	0xbc0de7b9	-0.008661204
14	0xba820707	-0.0009920307
15	0x3b56dc64	0.0032785172
16	0xba9e9f09	-0.001210184
17	0xbb7c81af	-0.0038529446
18	0x3c1a89d0	0.009432271
19	0xbc052d74	-0.008128513
20	0xbadb13d3	-0.0016714282
21	0x3ad494f3	0.0016218707
22	0xbbc2e9ef	-0.005948297
23	0xb9904d14	-0.00027523248
24	0xbbfab811	-0.007651337
25	0xbbcb7124	-0.006208556
26	0x3c0d6704	0.008630518
27	0x3ae0c6d5	0.00171491
28	0x3c175bae	0.009238167
29	0xbab14462	-0.0013524408
30	0x3a83aa74	0.0010045306
31	0x3c0991e8	0.008396603
32	0x384283da	4.6376e-05
33	0xbb1d5e47	-0.0024012493
34	0xbb4effaf	-0.0031585505
35	0x3b395dbc	0.002828463
36	0xbbdeab8a	-0.0067953514
37	0x3a3259d1	0.0006803545
38	0x3ab591b7	0.001385263
39	0x3ae7c4c7	0.0017682546
40	0xbaffc232	-0.0019512831
41	0xbb162985	-0.002291293
42	0xbb030616	-0.0019992641
43	0xbbbb5674	-0.005717093
44	0xbad461ce	-0.0016203464
45	0xbc17b2b3	-0.009258914
46	0xba6ae782	-0.0008960889
47	0x3bb3945e	0.005480333
48	0xbb916f49	-0.004438315
49	0x3bc14989	0.0058986587
50	0x3c347a82	0.011015536
51	0xbbf882ec	-0.0075839665
52	0xbc492978	-0.012277953
53	0xba9e995b	-0.0012100147
54	0xbaff60f4	-0.001948385
55	0xbb4fc57f	-0.003170341
56	0x3c329fbb	0.0109023405
57	0xbc3d134d	-0.011540246
58	0xbac6075b	-0.0015108393
59	0xbbda90c7	-0.006670091
60	0x3c3d08e8	0.011537768
61	0xbbd7d389	-0.0065864963
62	0x3bce7f81	0.0063018207
63	0xbae62843	-0.0017559606
64	0x3bf424cd	0.007450676
65	0x3c34bbaf	0.011031075
66	0xbb88d1a3	-0.0041753813
67	0x387b5c81	5.9929214e-05
68	0x3abce30f	0.001441093
69	0x3b78a203	0.0037938363
70	0x3b76155a	0.0037549348
71	0x3a35f98b	0.0006941787
72	0x3c54dba6	0.012991821
73	0xbc02c0b1	-0.0079805115
74	0xbafdf924	-0.0019376618
75	0xbb247d40	-0.002509907
76	0xbc4e243a	-0.012581879
77	0x3b7963f2	0.0038053957
78	0xbbacf7bd	-0.005278556
79	0xbbbac74f	-0.005700029
80	0xbba6fafd	-0.005095838
81	0xbc308eff	-0.01077628
82	0x3c2b7174	0.010464061
83	0x3c642f66	0.013927316
84	0x3bc2445f	0.0059285606
85	0xbbe833e3	-0.0070862635
86	0x3c52968d	0.012853277
87	0x3bcab1ef	0.006185762
88	0x3c0f3062	0.008739563
89	0xbc29f26b	-0.010372738
90	0xbc0b1cc5	-0.008490746
91	0xba3beb6a	-0.00071685633
92	0xbbcf4dac	-0.006326398
93	0x3b335c23	0.002736815
94	0xb9a3b619	-0.00031225456
95	0xbb7dc80f	-0.003872398
96	0xbc1f95d4	-0.009740312
97	0x3bbb00ec	0.005706897
98	0xbb2b72dc	-0.002616099
99	0x3b31a694	0.0027107345
100	0x3bda391a	0.006659639
101	0xbb85deaf	-0.004085384
102	0x3b87f3cc	0.004148936
103	0xbb4801ea	-0.003051872
104	0xb9cd2768	-0.00039130007
105	0xbb00f74c	-0.001967865
106	0x3b89710b	0.004194384
107	0xba3232a0	-0.0006797705
108	0xbb65aba7	-0.003504494
109	0xbbd3bea3	-0.0064619347
110	0x3bd22722	0.0064133564
111	0xbb9dc406	-0.0048146276
112	0xba87e15f	-0.0010366848
113	0xbba143c6	-0.0049214093
114	0x39cb429e	0.0003876881
115	0xbbc06db3	-0.005872452
116	0x3b2d8d7a	0.0026482032
117	0xbbca4073	-0.0061722337
118	0x3bf0f227	0.0073530856
119	0x3c2aee5a	0.010432804
120	0xba15f48f	-0.0005720341
121	0x3adb30b3	0.0016722888
122	0xbadf5de3	-0.001704153
123	0x3b91f987	0.004454795
124	0xbb458b59	-0.0030142872
125	0xbac4b9c5	-0.0015008977
126	0xbbe0de66	-0.0068624495
127	0xbaea7537	-0.0017887716

action_model._continuous_distribution.log_sigma f4 [1, 6]
0	0xbce454b4	-0.02787242
1	0xbdb0552f	-0.086099975
2	0xbbd90583	-0.0066229715
3	0x3c4de742	0.012567343
4	0xb90bfc58	-0.00013350078
5	0x3b197efe	0.002342164

action_model._continuous_distribution.mu.weight f4 [6, 128]
0	0x3bc2afd6	0.0059413714
1	0x3cff9a5d	0.031201536
2	0xbd0558b6	-0.032555304
3	0xbcc775b8	-0.024348125
4	0x3c436306	0.0119254645
5	0x3c4ebad4	0.0126177855
6	0xbaa632a9	-0.0012679893
7	0xbd25b42f	-0.04045504
8	0xbc72496c	-0.014788013
9	0x3bb886af	0.00563129
10	0x3d33db4c	0.04391031
11	0x3c9ad2ad	0.018899286
12	0xbce23f86	-0.027618181
13	0xba05d6a9	-0.0005105534
14	0xbb27c9ed	-0.0025602535
15	0xbc4ba8e5	-0.012430404
16	0x3ce38cef	0.027777163
17	0xbc4f9dfe	-0.012671946
18	0xbc042173	-0.008064616
19	0xbc8354d4	-0.01603166
20	0x3cd42343	0.02589572
21	0xbd11cd5e	-0.035596244
22	0xbd3e2db4	-0.046430305
23	0x3cbf90e8	0.023384526
24	0xbbe4aba9	-0.0069784713
25	0x3c9508a4	0.018192597
26	0xbc824e64	-0.01590652
27	0xbd1c16ab	-0.038107555
28	0xbd04d049	-0.0324252
29	0x3bb8f601	0.0056445603
30	0x3d3579fd	0.04430579
31	0x3ca1b1e7	0.01973815
32	0xbd69da5e	-0.057093017
33	0x3c17271f	0.009225636
34	0xbc27ceb4	-0.010242153
35	0xbc55e0e4	-0.013054106
36	0xbc50ca75	-0.012743582
37	0xbd35fa6d	-0.044428278
38	0xbc94ecb5	-0.018179277
39	0x36707d60	3.5835765e-06
40	0xbc9063bc	-0.017625682
41	0x3b83eb69	0.004025866
42	0xbd176586	-0.036962055
43	0x3c183f93	0.009292501
44	0xbcb9bac8	-0.022672072
45	0x3b9e5f17	0.004833113
46	0x3cd04ac1	0.02542627
47	0x3cdbfaa5	0.026852915
48	0x3b0333b8	0.002001984
49	0x3b82c8a9	0.0039912057
50	0x3cb5f9a8	0.022213772
51	0x3d5c9f9f	0.053863164
52	0xbc2eb464	-0.010663126
53	0xbcf1149a	-0.029428769
54	0xbd21f856	-0.039543472
55	0x3c3ddd1d	0.011588362
56	0xbd2aac01	-0.041667942
57	0xbc98d973	-0.018658375
58	0xbc845e28	-0.016158178
59	0xbc2d12be	-0.0105635505
60	0xbc92214e	-0.017838147
61	0xbae132ee	-0.0017181316
62	0x3c161274	0.009159673
63	0xbb65c5d7	-0.0035060549
64	0xbb7d7cbc	-0.0038679084
65	0x3c88d8d9	0.016704964
66	0x3c9293b1	0.01789269
67	0x3d13e1f6	0.036104165
68	0xbc860424	-0.016359396
69	0x3d82e950	0.06392157
70	0x3d0db212	0.03459365
71	0x3d1cda86	0.038294338
72	0x3cb4dc34	0.022077657
73	0x3c0dc123	0.008652004
74	0xbca768b4	-0.020435669
75	0xba63b5cc	-0.00086864526
76	0xbc2390a4	-0.0099832155
77	0x3d283421	0.04106534
78	0x3cd3c34e	0.025849964
79	0xb9f6682a	-0.00046998385
80	0x3c62f618	0.013852619
81	0x3bfa6f45	0.007642659
82	0xbd121d2a	-0.035672344
83	0x3cfc30d3	0.030785
84	0x3d20fddb	0.039304595
85	0xbb103f54	-0.0022010403
86	0xbcf5c426	-0.030000757
87	0x3cdf1686	0.02723242
88	0x3cb01512	0.021494422
89	0xbbe1c194	-0.0068895314
90	0x3c3bab95	0.011454483
91	0x3b5546e1	0.0032543468
92	0x3bf3c39a	0.007439089
93	0x3ccef222	0.025261942
94	0xbc70eb6c	-0.014704566
95	0xbcd3ad5b	-0.025839498
96	0x3cb5c39a	0.022187997
97	0xbd01df6c	-0.031707212
98	0xbd0b9ca0	-0.034084916
99	0x3c14a6ba	0.009072954
100	0x3c8e02b4	0.017335273
101	0x3c9ea259	0.019364523
102	0xbc1b68d0	-0.0094854385
103	0xbc8b92de	-0.017037805
104	0x3c2257e3	0.009908649
105	0x3bdaec39	0.006680992
106	0xbd428b00	-0.047495842
107	0xbc71247f	-0.014718174
108	0x3b58e235	0.0033093814
109	0x3c8608b3	0.01636157
110	0xbcd2b4e1	-0.025721015
111	0xbb4ab767	-0.003093207
112	0x3c9a7134	0.018852808
113	0xbc564cf4	-0.0130798705
114	0x3c3b7923	0.011442455
115	0x3b60b249	0.0034285954
116	0xbb039475	-0.00200775
117	0xbc360b84	-0.011111144
118	0x3d2534d3	0.04033358
119	0xb9a19404	-0.00030818593
120	0xbc283f1c	-0.010268953
121	0xbcb084d4	-0.021547712
122	0x3c15f702	0.0091531295
123	0xbc8c9243	-0.017159587
124	0x3cb4a4f8	0.02205132
125	0xbcd2005e	-0.02563494
126	0xbca4554d	-0.020060206
127	0x3b77cbca	0.0037810677
128	0xbc5c262f	-0.013436838
129	0x3ca60a8b	0.0202687
130	0x3bd073b6	0.00636145
131	0x3cd41715	0.025889913
132	0xbcc9d279	-0.024636494
133	0x3c8d9128	0.01728113
134	0x3c98961d	0.018626267
135	0x3c60bf7d	0.013717529
136	0x3c655a27	0.013998545
137	0x3ab13b8a	0.0013521772
138	0x3c78d20d	0.015186799
139	0xbd1d75e6	-0.038442515
140	0x3caed110	0.021339923
141	0xbd4aa4bb	-0.049473505
142	0x3c1df871	0.009641753
143	0x3cf5a8e4	0.02998776
144	0xbc93841a	-0.018007327
145	0xbc9b9e31	-0.01899633
146	0x3d5b29a4	0.05350651
147	0xbd7fb6ed	-0.06243031
148	0xbc709faa	-0.014686504
149	0xbb79b8e1	-0.0038104581
150	0xbca45a9a	-0.020062733
151	0xbb61877b	-0.0034413028
152	0xbc88175f	-0.016612707
153	0xbcf18d9f	-0.029486476
154	0x3d7428af	0.05960911
155	0xbba2bbe9	-0.0049662483
156	0x3cf71b19	0.030164288
157	0xbc516d38	-0.012782387
158	0x3b6a4b2e	0.0035750377
159	0x3c50f9f4	0.012754906
160	0xbb330a69	-0.0027319437
161	0xbb73f174	-0.0037222775
162	0xbba7e6e3	-0.0051239594
163	0xbc119042	-0.008884491
164	0xbb5df45d	-0.0033867576
165	0xbcb0bdec	-0.021574937
166	0xbb9c47ea	-0.004769315
167	0xbcde1303	-0.027108675
168	0xbcaff1ca	-0.021477599
169	0x3c80d4b1	0.01572642
170	0xbcde7054	-0.027153172
171	0x3a9c6dd4	0.0011934587
172	0xbc56cf4f	-0.01311095
173	0xbca1f45c	-0.01976984
174	0x3c2d06f9	0.010560744
175	0x3b6dda84	0.0036293576
176	0x3b53ec15	0.003233676
177	0x3cce8dc4	0.025214083
178	0x3d07b1c5	0.03312852
179	0xbcc4838d	-0.02398851
180	0xbd58d4f2	-0.052937455
181	0x3c732ea4	0.014842663
182	0x3be3ed84	0.0069558043
183	0xbc6a5ab3	-0.014303851
184	0x3c8b499d	0.017002875
185	0xbcd0499a	-0.025425721
186	0x3bb53dd4	0.005531052
187	0xbd0adc48	-0.033901483
188	0x3d9b2462	0.07575299
189	0xbcc21def	-0.023695914
190	0x3cce9fc7	0.025222672
191	0xbd3473b6	-0.044055663
192	0x3d0296fa	0.031882264
193	0x3d55ea42	0.05222536
194	0xbcfb1cb1	-0.03065333
195	0xbc5a07de	-0.01330754
196	0x3ccd47f7	0.02505873
197	0xbbe01497	-0.006838392
198	0x3c3788df	0.011202066
199	0x3c0f8cea	0.008761624
200	0x3c4f5a34	0.012655783
201	0xbd05eb56	-0.032695137
202	0x3c1955c7	0.00935883
203	0xbbbf543f	-0.0058389003
204	0xbccf49a6	-0.025303673
205	0x3c4f7f48	0.012664624
206	0xbcd1de4f	-0.0256187
207	0x3bc26323	0.005932228
208	0xba2400f6	-0.00062562467
209	0xbcf76dec	-0.030203782
210	0x3d376c26	0.044780873
211	0x3d6a2d5f	0.057172175
212	0x3c6879b2	0.014189171
213	0xbc10883c	-0.008821543
214	0xbb8c2e2b	-0.0042779646
215	0x3cca9580	0.02472949
216	0x3c099e2f	0.00839953
217	0x3b8de1ae	0.0043298816
218	0xbce07d8d	-0.027403617
219	0x3c54c1c3	0.0129856495
220	0xbb3fc821	-0.0029263573
221	0x3cfeac5e	0.03108805
222	0x38d5e543	0.00010199335
223	0xbcbcb613	-0.023036039
224	0xbc8e28a5	-0.017353365
225	0x3d06a8cf	0.032875832
226	0xbc4e3305	-0.012585406
227	0xbacc8e7d	-0.001560643
228	0x3d25315e	0.040330283
229	0xbafb041d	-0.0019151006
230	0xbd3057ff	-0.04305267
231	0x3a34c64d	0.0006896004
232	0xbc303bbd	-0.01075643
233	0xbd3f8451	-0.046757046
234	0x3c350906	0.011049515
235	0x3b01a7b9	0.0019783808
236	0xbcd0aa2f	-0.025471775
237	0xbcdbb1f3	-0.026818251
238	0xba0e947d	-0.00054389966
239	0xbc2cd924	-0.010549817
240	0xbb91dcdc	-0.0044513773
241	0xbb06f7c8	-0.0020594466
242	0x3c288172	0.010284768
243	0xbcf872e6	-0.030328225
244	0x3cbd8b4d	0.023137713
245	0xbca4fdaf	-0.020140497
246	0x3c4e3222	0.012585195
247	0x3d2d00d1	0.042237107
248	0xbae4afbb	-0.0017447391
249	0x3c03cd38	0.008044533
250	0xbcea6d3e	-0.028616544
251	0x3d0c024e	0.034181885
252	0xbcc4461c	-0.023959212
253	0x3b002862	0.001955532
254	0xbcf5d8ae	-0.030010547
255	0xbca16d35	-0.019705394

action_model._continuous_distribution.mu.bias f4 [6]
0	0x3a3c14d6	0.00071747357
1	0x3c3bea3d	0.011469421
2	0x3b015bdc	0.001973859
3	0x3b9a9c66	0.004718351
4	0x38c0e233	9.197406e-05
5	0x3b22e52a	0.002485583
