results/PlayerAgentTest/EasyPlayer/EasyPlayer-500.pt (torch, 550249 bytes, 12 tensors)

network_body._body_endoder.seq_layers.0.weight f4 [128, 396]
00000000: cd79 13bd cfbb 2b3d f4a2 163d e361 9e3c
00000010: 7076 63bb e8f6 aabd 8240 8a3c e062 2cbd
00000020: c0c6 7a3d 3c72 8b3c 3120 283c a365 7a3d
00000030: f6b7 b73b bc10 efbd e59d 7a3d 2c66 e4bd
00000040: 9fc2 24bd c6f4 be3c cad1 6b3d 8f8b d4bc
00000050: 19b3 1f3c 8f99 c93b 2268 c43d 2a70 21bc
00000060: b90b a63d e0be df3c 2e4d 9f3d 45a3 9f3c
00000070: ec78 2dbc 298e 213c c643 e33c 2d16 0e3d
00000080: 27f0 3d3d 3618 503d 47e9 f6bb 9d18 f6bb
00000090: 298d 183a d378 cf3c 20e2 86bd a115 67bc
000000a0: b9f6 25bd d9dd 073d 2d0d 88bd f405 4e3d
000000b0: 76b2 60bd a542 8abc 5f1f a53d 447c eb3c
000000c0: e5c2 013b 9de2 e93b 6f78 b53d 7cd4 583d
000000d0: 33d0 f23d ab63 363d 8294 ff3c 833e 583d
000000e0: c149 fabd 5961 e0ba 0fc0 34bd fac2 debc
000000f0: 92f2 963d 04a6 99bd b878 69bd 26fe 93bd
00000100: 52a8 7abb ec83 b3bc 1017 8b3d 56f7 b2bc
00000110: 90a7 e7bc 7cc6 84bd f702 653d 29a6 0fbd
00000120: 8ea8 183b 61cc 273d 3b33 3cbc 4fd8 cfbd
00000130: a10e 7cbd ecff 3b3c 67c4 ac3d 4aa6 28bd
00000140: c967 32bd 235d fcbc 3f16 12bd 6e0e fa3c
00000150: 6b9d 8f3d c833 42bb f670 2a3c cd77 21bd
00000160: 968d acbd dfa9 923c 1cb6 813d 0e65 a73c
00000170: d34b b3bc 4a2c 02bc 6a22 f4bc e1b9 57ba
00000180: 73c1 6e3c 346a 50bc 5b7e 7e3d ab39 8abd
00000190: 3a8d c3bb 9ae8 b8bc 8b4a 1dbb 8226 5dbc
000001a0: 5a50 9dbd 50b5 afbd eb7d c1b9 3677 73bd
000001b0: fac5 283c adf6 73bd 5ba5 06bd 5528 133c
000001c0: cc63 43bc 7eb7 d539 b5d6 ab3d 4633 e03c
000001d0: bb58 2a3d cb70 23bd 0d2c c93c 8977 67bb
000001e0: 5e92 f1bc e65c 893d 955c dbbc ed2a 4e3c
000001f0: 7f0f 693d fe4d b4bc 106d 29bc f0fa 8c3d
00000200: 0c06 3abc 4ed3 acbb 73b6 153d ad92 2abc
00000210: 31cc 0cbc 1bad 96bb f63d 91bc cb7c 3dbd
00000220: 0a6f 91bd 93bb c03c 4968 78bb f9a5 19bb
00000230: 9e7e 233d d46e 863c 06a2 d73d acb1 593c
00000240: 7454 e1bc 1c8a 943c c912 253d 5ae9 d23c
00000250: c9a7 023c d617 71bd 3ef5 823d 5e31 c63c
00000260: 8b1f 68bd 5bd2 0f3c 5b24 92bd aa14 843a
00000270: 9f5f 093d 53a4 88bd 2281 b83b fbea f3bc
00000280: 672d 4bbc 445f c9bc 13a1 7abb 17ef 973d
00000290: 93e7 603c a155 d9bc 00ee 3a3d f362 93bd
000002a0: 7a1a d33c add1 083c aaa8 4cbd 7510 69bd
000002b0: e748 d23c ae82 8a3c 573b 343d 5b31 11bc
000002c0: cdc0 06bd 752d 06bd 93ad 9fbc 2af1 08bd
000002d0: 3527 78bd a1c6 96bd 185c c5bc b677 543c
000002e0: 26d3 0dbe 9ea8 20bd 3d4b ab3c dbde 76bc
000002f0: 704a efbd 695d f5bc c8b0 3cbd e9ba 84b9
00000300: bc1f 603d ea61 843c e25e e5bc 174c 833d
00000310: 3884 633d c705 113d 401b 06bd 2414 d13b
00000320: a8bf ecbb 3dc4 9fbc bcb0 0c3c ee5f 2fbd
00000330: 92f6 513c 2a9f f8bd 4b8a 3d3d 2cdd 9cbd
00000340: 3bbd 843d 86fb 91bd ef35 39bd ef14 373d
00000350: 989e 583d e7f7 253b 3ad5 14bd 9c25 0ebe
00000360: 3eb1 0fbd 375e f83d 2869 983c e28f 3b3d
00000370: 44b2 19bd 4a25 133d e902 863d 173a 58bd
00000380: 0f66 9c3c c234 8ebc f6a1 2ebd c051 983d
00000390: e3e2 203c 2a6b b2bd e95b 913c 8cad e0bd
000003a0: bcb7 9abb 6c90 e7bc 5a31 743d 26fa babc
000003b0: db0e 90bc 51df 433a 16ea af3c 173f 5fbc
000003c0: 8118 dfbc b707 37bd a262 ba3d 960e 8cbc
000003d0: 4033 883d 58a5 44bb f4e5 82bd 3f5d b13c
000003e0: e1f4 0f3c 2ea1 f4bb 6a48 ea3c 58af 33bd
000003f0: d1cc 96bd b792 263d 9e66 123d 95c0 39bd
-0.03600483 0.041927155 0.036776498 0.019333785 -0.0034708045 -0.08347875 0.016876463 -0.042086482
0.0612247 0.017022245 0.010261581 0.061132085 0.0056066466 -0.11673114 0.061185736 -0.111523
-0.040224668 0.023310076 0.057573117 -0.025945453 0.00974729 0.006152339 0.09590174 -0.009853402
0.08107705 0.027312696 0.07778393 0.019487033 -0.010587912 0.009860554 0.027742278 0.034689117
0.046371605 0.05080434 -0.007535133 -0.0075102584 0.00058193743 0.025326168 -0.06586099 -0.014104278
-0.040518496 0.033170555 -0.06643138 0.050298646 -0.054857694 -0.016877482 0.08062624 0.028745778
0.0019800004 0.00713761 0.088608615 0.052937016 0.11856117 0.044528645 0.031198744 0.05279399
-0.12221099 -0.0017118856 -0.044128474 -0.027192581 0.07370485 -0.07502368 -0.056999892 -0.07226209
-0.00382473 -0.021913491 0.06791508 -0.021846455 -0.028278142 -0.064831704 0.05591103 -0.035070572
0.0023293826 0.040966395 -0.011486824 -0.101486795 -0.06153739 0.011474591 0.08435898 -0.04117421
-0.04355601 -0.03080613 -0.035665747 0.030524459 0.07012447 -0.0029632915 0.010402909 -0.03942089
-0.08425443 0.017903266 0.06333563 0.020433929 -0.021886742 -0.00794513 -0.029801566 -0.0008229297
0.014572489 -0.012720633 0.06213222 -0.067492805 -0.0059677633 -0.02257185 -0.002400073 -0.0134979505
-0.076813415 -0.085795045 -0.00036905645 -0.05943986 0.010301108 -0.05956142 -0.03287254 0.008981784
-0.011925649 0.00040763238 0.083905615 0.0273682 0.041588526 -0.03990249 0.024557138 -0.0035319051
-0.029488739 0.06707172 -0.026777545 0.0125834765 0.056899544 -0.022009846 -0.010340944 0.068838
-0.011353981 -0.005274213 0.03655095 -0.010410947 -0.008593605 -0.0045982725 -0.01772974 -0.04626159
-0.07101257 0.023526942 -0.0037903956 -0.0023444875 0.039915673 0.016410269 0.105289504 0.013286989
-0.02750609 0.018132262 0.040301118 0.025746036 0.007974573 -0.058860622 0.063944325 0.024193462
-0.056670707 0.00877818 -0.071358405 0.0010076959 0.033538457 -0.06671967 0.005630628 -0.029775133
-0.0124009615 -0.024581559 -0.003824298 0.0741865 0.013727087 -0.026530089 0.04563713 -0.071966074
0.025769461 0.008350772 -0.049965538 -0.05690046 0.025669528 0.016908016 0.044001903 -0.008861865
-0.032898713 -0.032758195 -0.019491946 -0.033433117 -0.060584266 -0.07362104 -0.024091765 0.012967994
-0.13850078 -0.039223306 0.0209099 -0.015067781 -0.1168412 -0.029951768 -0.04606703 -0.0002531626
0.054717764 0.01615997 -0.027999345 0.06410997 0.055546016 0.0354059 -0.03274083 0.006380575
-0.0072249956 -0.019502753 0.008587059 -0.042816095 0.012815135 -0.12139733 0.046274465 -0.07659373
0.06481405 -0.071280524 -0.04521745 0.0446977 0.05288562 0.0025324763 -0.03633616 -0.13881534
-0.03508114 0.12127345 0.01860483 0.045791514 -0.037523523 0.035924233 0.06543524 -0.052789774
0.019091634 -0.017359141 -0.042634927 0.074374676 0.009819719 -0.08711846 0.017744021 -0.109706014
-0.00472161 -0.028267108 0.059617378 -0.022824358 -0.017585209 0.00074719364 0.021473926 -0.013625882
-0.027233364 -0.04468509 0.09100844 -0.017096799 0.066504 -0.003000578 -0.06391516 0.021650909
0.008786411 -0.007465503 0.028598983 -0.043868393 -0.073632844 0.040667262 0.035742395 -0.045349676

network_body._body_endoder.seq_layers.0.bias f4 [128]
00000000: 0000 0000 0000 0000 0000 0000 0000 0000
00000010: 0000 0000 0000 0000 0000 0000 0000 0000
00000020: 0000 0000 0000 0000 0000 0000 0000 0000
00000030: 0000 0000 0000 0000 0000 0000 0000 0000
00000040: 0000 0000 0000 0000 0000 0000 0000 0000
00000050: 0000 0000 0000 0000 0000 0000 0000 0000
00000060: 0000 0000 0000 0000 0000 0000 0000 0000
00000070: 0000 0000 0000 0000 0000 0000 0000 0000
00000080: 0000 0000 0000 0000 0000 0000 0000 0000
00000090: 0000 0000 0000 0000 0000 0000 0000 0000
000000a0: 0000 0000 0000 0000 0000 0000 0000 0000
000000b0: 0000 0000 0000 0000 0000 0000 0000 0000
000000c0: 0000 0000 0000 0000 0000 0000 0000 0000
000000d0: 0000 0000 0000 0000 0000 0000 0000 0000
000000e0: 0000 0000 0000 0000 0000 0000 0000 0000
000000f0: 0000 0000 0000 0000 0000 0000 0000 0000
00000100: 0000 0000 0000 0000 0000 0000 0000 0000
00000110: 0000 0000 0000 0000 0000 0000 0000 0000
00000120: 0000 0000 0000 0000 0000 0000 0000 0000
00000130: 0000 0000 0000 0000 0000 0000 0000 0000
00000140: 0000 0000 0000 0000 0000 0000 0000 0000
00000150: 0000 0000 0000 0000 0000 0000 0000 0000
00000160: 0000 0000 0000 0000 0000 0000 0000 0000
00000170: 0000 0000 0000 0000 0000 0000 0000 0000
00000180: 0000 0000 0000 0000 0000 0000 0000 0000
00000190: 0000 0000 0000 0000 0000 0000 0000 0000
000001a0: 0000 0000 0000 0000 0000 0000 0000 0000
000001b0: 0000 0000 0000 0000 0000 0000 0000 0000
000001c0: 0000 0000 0000 0000 0000 0000 0000 0000
000001d0: 0000 0000 0000 0000 0000 0000 0000 0000
000001e0: 0000 0000 0000 0000 0000 0000 0000 0000
000001f0: 0000 0000 0000 0000 0000 0000 0000 0000
0.0 0.0 0.0 0.0 0.0 0.0 0.0 0.0
0.0 0.0 0.0 0.0 0.0 0.0 0.0 0.0
0.0 0.0 0.0 0.0 0.0 0.0 0.0 0.0
0.0 0.0 0.0 0.0 0.0 0.0 0.0 0.0
0.0 0.0 0.0 0.0 0.0 0.0 0.0 0.0
0.0 0.0 0.0 0.0 0.0 0.0 0.0 0.0
0.0 0.0 0.0 0.0 0.0 0.0 0.0 0.0
0.0 0.0 0.0 0.0 0.0 0.0 0.0 0.0
0.0 0.0 0.0 0.0 0.0 0.0 0.0 0.0
0.0 0.0 0.0 0.0 0.0 0.0 0.0 0.0
0.0 0.0 0.0 0.0 0.0 0.0 0.0 0.0
0.0 0.0 0.0 0.0 0.0 0.0 0.0 0.0
0.0 0.0 0.0 0.0 0.0 0.0 0.0 0.0
0.0 0.0 0.0 0.0 0.0 0.0 0.0 0.0
0.0 0.0 0.0 0.0 0.0 0.0 0.0 0.0
0.0 0.0 0.0 0.0 0.0 0.0 0.0 0.0

network_body._body_endoder.seq_layers.2.weight f4 [128, 128]
00000000: 4ee8 c53d d817 41bd f057 f6bd f753 ad3d
00000010: 4525 1ebe 077c 623d 210d 313c 5169 a43d
00000020: 8e61 85bd 1ace 30be 831e bb3b e3a6 89bc
00000030: adec a63d 8a1f d0bb e4a2 f5bd 42d6 763d
00000040: fee5 ca3d f807 c5bc a010 6a3d f747 8dbd
00000050: 170a f83c 2a13 c73c 10cf 6d3e 392e 563e
00000060: c292 fabc 24fa 8e3d f291 5c3d 0ed3 083b
00000070: 5c43 0bbe 3fd1 453c 1881 1fbe 6179 053d
00000080: 6ce4 b5bd 6727 30bb a718 a8bd ee95 b63d
00000090: e782 133e cb28 bb3d 9940 0a3d be15 23be
000000a0: 75d7 4fbe 84d8 bb3d 045f 47bd ed71 25bc
000000b0: cd95 a0bd 64b6 a03c 235f e7bc 49eb 97bc
000000c0: 7580 4fbd 28fd aabd 4bbf 1a3e 8926 9bbd
000000d0: fc5e a83d 67c5 82bd 670a be3d a9e9 bb3d
000000e0: 7e1b 6e3d 0349 8a3d d476 b13d 01c3 e5bd
000000f0: 7d5d ba3d 5f01 b53d a0dc 97bc 284d db3d
00000100: 3959 4dbe 9b4a 9a3c 17d6 64bc 44b2 78bc
00000110: 7972 ca3d de96 de3d 1114 7dbd 0503 8c3e
00000120: 3bd2 2e3e 63b9 153e 3eda 0cbe b222 a7bc
00000130: 9bb4 643e e78f 53bd 7160 ff3c 3fe2 573d
00000140: 2f2c f1bd d3af 8a3d 5c1d 173d 3f86 23bd
00000150: 88c5 14bd f16b d3bd 2259 db3c 649d 05be
00000160: 831b 64be 8040 c4bd f59f 38bc dd8a 9dbd
00000170: 0e20 66bc 67e9 523d 2aab f03a 941e cfbd
00000180: 59bc 6fbd f94c f03c 67b4 42bd 10ec b8bd
00000190: 559c 14bd 9abd a83b 0c71 d23d f0ca b53a
000001a0: fb11 b0bd e5f7 7e3c e4fd e63d a035 f33d
000001b0: de86 6c3d d40d 68be a31c 303c 857a 85bd
000001c0: 1ae2 b7bc 680c c53d 2bc4 f73c 9932 f63d
000001d0: 0170 56be fb95 ed3b 7c1e f3bd 1ff5 0f3e
000001e0: e6be 983b 1786 bbbb c64a 443d c551 9abd
000001f0: b485 4f3c 7edc 903c e457 c4bb 1022 123e
00000200: 1bc4 c53d d510 b23c 2ec6 d73c 6339 b2bc
00000210: 5e78 84bc f872 103e 5fba 44bd 7cf5 a7bd
00000220: c627 17be e861 1bbd 756e 02bd 940e 25bd
00000230: 81dd 0cbe 0ea2 d13d ff1f 82bd 3333 52bd
00000240: acb5 80bd 26ec a63d 695a 943b 0e71 3e3c
00000250: 7a2d 833d b399 8e3d dfcd 8e3c 2a5f 13bd
00000260: 8f36 62bc c12c cbbb d8f0 143d 29e2 2a3d
00000270: cc89 e13a 5b69 eabd 7a60 74be 172a 9dbd
00000280: 3cd2 34bd f6c0 41bd df60 c43d 7f88 b4bc
00000290: 6ea6 733d 5fa6 b9bd 7624 abbd ba1e 5d3d
000002a0: 7fd5 353d 0434 993c ece3 3a3d c568 aabd
000002b0: f9cf 8abd bbc0 eebd 1b5e 0cbc 2a35 6f3b
000002c0: 17a9 bcbb 5254 993d e7ce 443c c683 a9bd
000002d0: 7a6e a03c 44c8 5c3d edc4 f9bd f260 93bd
000002e0: 7633 99bd ea28 a2bd 0bef c0bd 96d1 39bb
000002f0: 4d7d ccbc ede3 bb3d 0be7 c03d 082b 263e
00000300: 8eb4 99bc 0e3a 09be a0ee 4c3c 737f de3d
00000310: aad0 d3bd c60e 08be effd f3bd e289 0abd
00000320: 3e4e 4cbd 4163 30be 29a1 113e fd64 3abd
00000330: f3b0 ebbb 56dc aabc d085 c7bd c2df 14be
00000340: 9741 de3d 4327 ccbd 32e1 f43d 6552 3abb
00000350: 7580 b03c 7639 efbc a224 a3bd fe59 55bd
00000360: 44fc f0bd 673e b43d 1844 123e e594 203e
00000370: 5aa0 0c3e 9c13 28bd 22ac 9a3d dce0 423e
00000380: e163 5bbd 4314 253d 8f74 19bd 1752 dabd
00000390: f931 52bb 6210 3f3d 099d 533e d09d a0bd
000003a0: 54d0 1cbd 6dca 3c3c ed40 5d3e a072 51bb
000003b0: 7998 e5bd 3677 813d ba17 cdbd a31d e23d
000003c0: d08f d9bd 33b9 f33c 87e1 34be 9006 3a3c
000003d0: e24c 663d 18bb ae3d e3dd a0bd 3f0e ab3d
000003e0: 1003 303e fc06 063d afa4 03be b760 0b3e
000003f0: d153 963d 38b3 4cbc 545a b43d 8714 f0bd
0.09663449 -0.04714188 -0.120284915 0.08463281 -0.15443905 0.055294063 0.010806353 0.080279
-0.06512748 -0.17266122 0.0057104244 -0.01680321 0.08150611 -0.006351416 -0.119939595 0.060262926
0.09907149 -0.024051651 0.05714476 -0.06898492 0.030278249 0.02430113 0.2322352 0.2091607
-0.030587558 0.06981304 0.05385012 0.0020877752 -0.13599914 0.012073814 -0.15576589 0.03258646
-0.08881459 -0.0026878954 -0.08207827 0.089153156 0.14405404 0.0913864 0.03375301 -0.15926263
-0.20297034 0.091721565 -0.0486746 -0.010097963 -0.07841072 0.01961822 -0.028243607 -0.01854481
-0.050659616 -0.08349067 0.15112035 -0.075757094 0.08221242 -0.06385308 0.09279328 0.091754265
0.058131687 0.06752207 0.08665243 -0.11218835 0.09099863 0.08838152 -0.01853782 0.10708076
-0.20053567 0.018834403 -0.013967059 -0.015179221 0.09885115 0.108686194 -0.061786715 0.27346054
0.17072384 0.146215 -0.13755128 -0.020402286 0.2233452 -0.051650908 0.031173917 0.052706
-0.117760055 0.06771817 0.036893234 -0.03992295 -0.036321193 -0.103233226 0.0267759 -0.13048321
-0.2227612 -0.09582615 -0.0112686055 -0.07692502 -0.014045728 0.05149212 0.0018361558 -0.10113254
-0.05852923 0.029333578 -0.047535326 -0.090294 -0.036281902 0.0051495554 0.10275468 0.0013869684
-0.085971795 0.015562032 0.112788945 0.118754625 0.057745807 -0.22661525 0.010749015 -0.06517509
-0.02244668 0.09621507 0.030244907 0.120213695 -0.20941164 0.007250545 -0.11871049 0.1405835
0.0046614287 -0.005722772 0.047922872 -0.075351276 0.012666155 0.017683264 -0.0059919227 0.14270806
0.09656545 0.021736542 0.026339617 -0.02175588 -0.016170677 0.14106357 -0.0480293 -0.08201119
-0.14761266 -0.037935168 -0.03184362 -0.040297106 -0.13756372 0.102359876 -0.06353759 -0.05131836
-0.06284651 0.081505105 0.0045273793 0.011623634 0.06405158 0.069629095 0.017432151 -0.035979427
-0.013806953 -0.0062004034 0.0363625 0.04171959 0.0017207204 -0.11445876 -0.23864928 -0.076740436
-0.044145808 -0.047303163 0.09588789 -0.022037743 0.05948489 -0.09064936 -0.08356564 0.05398438
0.04439306 0.01870156 0.04562752 -0.083207645 -0.06777949 -0.11657854 -0.008567358 0.0036500194
-0.005757462 0.07486786 0.01201222 -0.08277087 0.01958393 0.053901926 -0.12195764 -0.07196225
-0.074805185 -0.0791796 -0.09420594 -0.0028353683 -0.024962092 0.09174333 0.09419068 0.16227353
-0.018762853 -0.13401052 0.0125080645 0.10864153 -0.10342534 -0.13286886 -0.11913668 -0.0338229
-0.049879305 -0.17225362 0.14221634 -0.045506466 -0.007192725 -0.020857017 -0.097423196 -0.14538482
0.10852354 -0.09968426 0.11957015 -0.0028430459 0.021545628 -0.029202204 -0.079659715 -0.052087776
-0.11766866 0.08800965 0.14283788 0.15681799 0.13733044 -0.041034326 0.07552363 0.1903109
-0.05356205 0.040302526 -0.037464675 -0.10660189 -0.0032073243 0.046646483 0.20665373 -0.078426
-0.038284615 0.011522871 0.21606798 -0.003195919 -0.112107225 0.06321566 -0.10014291 0.11040809
-0.10623133 0.029751396 -0.17664157 0.011354104 0.056225665 0.08531779 -0.078548215 0.083523266
0.17188668 0.032721505 -0.1285579 0.13611113 0.073402055 -0.012493901 0.08806291 -0.11722665

network_body._body_endoder.seq_layers.2.bias f4 [128]
00000000: 0000 0000 0000 0000 0000 0000 0000 0000
00000010: 0000 0000 0000 0000 0000 0000 0000 0000
00000020: 0000 0000 0000 0000 0000 0000 0000 0000
00000030: 0000 0000 0000 0000 0000 0000 0000 0000
00000040: 0000 0000 0000 0000 0000 0000 0000 0000
00000050: 0000 0000 0000 0000 0000 0000 0000 0000
00000060: 0000 0000 0000 0000 0000 0000 0000 0000
00000070: 0000 0000 0000 0000 0000 0000 0000 0000
00000080: 0000 0000 0000 0000 0000 0000 0000 0000
00000090: 0000 0000 0000 0000 0000 0000 0000 0000
000000a0: 0000 0000 0000 0000 0000 0000 0000 0000
000000b0: 0000 0000 0000 0000 0000 0000 0000 0000
000000c0: 0000 0000 0000 0000 0000 0000 0000 0000
000000d0: 0000 0000 0000 0000 0000 0000 0000 0000
000000e0: 0000 0000 0000 0000 0000 0000 0000 0000
000000f0: 0000 0000 0000 0000 0000 0000 0000 0000
00000100: 0000 0000 0000 0000 0000 0000 0000 0000
00000110: 0000 0000 0000 0000 0000 0000 0000 0000
00000120: 0000 0000 0000 0000 0000 0000 0000 0000
00000130: 0000 0000 0000 0000 0000 0000 0000 0000
00000140: 0000 0000 0000 0000 0000 0000 0000 0000
00000150: 0000 0000 0000 0000 0000 0000 0000 0000
00000160: 0000 0000 0000 0000 0000 0000 0000 0000
00000170: 0000 0000 0000 0000 0000 0000 0000 0000
00000180: 0000 0000 0000 0000 0000 0000 0000 0000
00000190: 0000 0000 0000 0000 0000 0000 0000 0000
000001a0: 0000 0000 0000 0000 0000 0000 0000 0000
000001b0: 0000 0000 0000 0000 0000 0000 0000 0000
000001c0: 0000 0000 0000 0000 0000 0000 0000 0000
000001d0: 0000 0000 0000 0000 0000 0000 0000 0000
000001e0: 0000 0000 0000 0000 0000 0000 0000 0000
000001f0: 0000 0000 0000 0000 0000 0000 0000 0000
0.0 0.0 0.0 0.0 0.0 0.0 0.0 0.0
0.0 0.0 0.0 0.0 0.0 0.0 0.0 0.0
0.0 0.0 0.0 0.0 0.0 0.0 0.0 0.0
0.0 0.0 0.0 0.0 0.0 0.0 0.0 0.0
0.0 0.0 0.0 0.0 0.0 0.0 0.0 0.0
0.0 0.0 0.0 0.0 0.0 0.0 0.0 0.0
0.0 0.0 0.0 0.0 0.0 0.0 0.0 0.0
0.0 0.0 0.0 0.0 0.0 0.0 0.0 0.0
0.0 0.0 0.0 0.0 0.0 0.0 0.0 0.0
0.0 0.0 0.0 0.0 0.0 0.0 0.0 0.0
0.0 0.0 0.0 0.0 0.0 0.0 0.0 0.0
0.0 0.0 0.0 0.0 0.0 0.0 0.0 0.0
0.0 0.0 0.0 0.0 0.0 0.0 0.0 0.0
0.0 0.0 0.0 0.0 0.0 0.0 0.0 0.0
0.0 0.0 0.0 0.0 0.0 0.0 0.0 0.0
0.0 0.0 0.0 0.0 0.0 0.0 0.0 0.0

action_model._continuous_distribution.log_sigma f4 [1, 6]
00000000: 0000 0000 0000 0000 0000 0000 0000 0000
00000010: 0000 0000 0000 0000
0.0 0.0 0.0 0.0 0.0 0.0

action_model._continuous_distribution.mu.weight f4 [6, 128]
00000000: 4ad9 b33c ed6c c1bb 8a99 6abb 3075 0dbb
00000010: 8f52 66bc f791 35bb f0e8 153d 57eb 2d3d
00000020: 00ca 243a 8ad5 dcbc 9503 7e3b a553 813b
00000030: c390 d2ba cd89 8e3c 4744 8e3c 3848 55bb
00000040: 855f f43c 5edf 34bb da70 ef39 a363 d0ba
00000050: 7411 a93c f399 3dba 1e68 913c efaf c1bb
00000060: 4fda ef3b f968 96bb e1b3 4aba 1f99 943c
00000070: 06a6 8ebb e9f7 c13c ca2c fbbb 249a 99bc
00000080: 16b8 163d b88b a43c 883c 1dbc 9ee9 93bb
00000090: 553d f0bc 64ae a0bb 9b9a ae3b cfa3 1bbc
000000a0: 629c dc3b 4741 27ba 9c9d 903c 3ba3 1fbc
000000b0: 0216 cbbb 31a3 1fbc 4398 6b3d bac3 04bb
000000c0: 0b43 d03c cf7c 653b d2d5 3b3b 45c9 55bc
000000d0: aa13 8cbc bb08 ad3c d7cb 213b 381e 623b
000000e0: ba7d 663b cf96 fbbc 851c 45bc f322 ef3c
000000f0: 0b1c ef3a af73 633b faac 79bb d399 ffbc
00000100: b281 82ba b267 ea3b 5a91 e0bc 9574 9f3c
00000110: 1db3 59bb 2302 803c bd9f 3d3c 60b6 e93c
00000120: 22fb 8b3c e9ea b63c f3d0 6c3b bf32 cebc
00000130: 2af2 61bc ea98 6dbc 8782 45bd dfd9 8dba
00000140: 1ff2 b03b 5e19 a239 3055 e2bb 6cef 9ebc
00000150: dc19 bcba 7618 a1bc c8c1 58bb e8c3 ff3b
00000160: 96ed 4a3c df71 693c bac2 483c 7390 53bc
00000170: 438b e43c 22a6 fbbb c3ef 5b3b e331 b43c
00000180: 2924 2b3b dabb 503c 82c7 623d cbef b83b
00000190: 8751 4a3c 67cf a33b 01d9 1fbc 426e c5bb
000001a0: 5f01 a937 0f6f babb e374 fb3b b57d d13c
000001b0: c620 c8bc 2101 143c 3bc8 92bc b284 c9bb
000001c0: b7be c2bc 275b fdbc 3704 d4bb c01c 18bc
000001d0: 12b6 c63c 3843 6cbb 621a 26bb a207 9fbc
000001e0: 5d40 7abc 4592 f83b 535b 70bc dd79 e6bb
000001f0: a38e 02bd 4fc8 2dbc 3494 45bd 0ef4 ae3c
00000200: b723 80bc 8719 013d 2e05 283c c276 f2bb
00000210: 38eb 78bc c6b0 b43c 6801 333c ea91 773c
00000220: e536 e93c be17 213c 38e4 6b3c 98b7 e1bb
00000230: 3f1d 50bc 3083 57bc a687 47bb c771 02bb
00000240: b406 12bd 67bc 4a3d ffb8 8a3b 3c42 48bc
00000250: f34d 9bbc 1d24 043c e708 8c3c 9f5b 11bc
00000260: 87aa 4838 5396 8bbc d5c4 a43c 78ba 0d3d
00000270: d86f 8bbc 5f3b 73bc c213 b33b 2a81 39bc
00000280: da6d ce3c 0f61 89bc 6ae2 6fbc 7006 6e3b
00000290: c3d6 92bc b93e 1e3d d351 cb3b fbb7 a3bc
000002a0: 26ef 3b3c ae59 05bd 2169 2a3c d5d1 8e3b
000002b0: 549c 353c d993 16bd 69e5 91bb c82b e9bc
000002c0: ce04 34bd 4d1d e3bc 2413 353b 044f 843c
000002d0: 3a71 acbc a2e4 70bc 70ed ccbc 22c2 9cbc
000002e0: 1984 ab3c 1b44 40bc ddb0 a43c 53c2 803a
000002f0: 9bec 18bd ad73 65bc 6f30 49bc 6ab2 0bbc
00000300: 4c39 c5bb 4d8a c73c 9e1b a03c 7bae 0abd
00000310: 2dec 06bd bbd5 8f3c 4e22 243c 828e 563c
00000320: 670e e53b 6bf5 063c af4b d0bc 3fbb 6f3c
00000330: 7f27 38bc 3465 91bc c92a a63c e904 453c
00000340: 3a09 efbc 5b4a 34bc 1da6 103c 8f69 693c
00000350: effd dc3a bbc0 f63c f814 b6bc db5a 773b
00000360: b2b5 90ba 38b6 663c 4233 a0ba 5037 ba3b
00000370: 83b7 68bc 7ead 38bc ddcc 713c 475a cdbc
00000380: 9cfe 80ba 070b c23c 9f2d aa39 5495 3eba
00000390: cc30 363c 5063 63ba e3ad cd3a 3607 013c
000003a0: 21a9 a3bb 7b49 eb3c 5518 a3bb d5dc eb3c
000003b0: 802e 7cbc 937f d2bb ffe3 fbbc 184a f03c
000003c0: 2751 44bd 52cb 5ebc d3be b6bb c295 96bc
000003d0: 319a 193c e42d aebc 0a22 f43b 2999 023d
000003e0: f879 833c 0cae bcbc 4346 e5bc 95bc f03c
000003f0: cfb4 383c baf8 ec3c abbc d0bc 33ab a8bc
0.021954197 -0.0059028775 -0.0035797083 -0.0021584742 -0.014057769 -0.002770541 0.0365991 0.042460766
0.0006286204 -0.026957292 0.003875946 0.003946739 -0.0016064871 0.017399693 0.017366542 -0.0032544266
0.029830704 -0.0027598958 0.00045669713 -0.0015898835 0.020638205 -0.0007232718 0.017749842 -0.0059108655
0.0073197256 -0.0045901504 -0.00077324925 0.01813942 -0.0043532876 0.023677783 -0.0076652514 -0.018750258
0.03679665 0.020086154 -0.009596951 -0.0045139333 -0.02932612 -0.0049036015 0.005328489 -0.009499504
0.0067325095 -0.00063802715 0.017653279 -0.009743507 -0.006197692 -0.009743498 0.057518255 -0.0020258264
0.025422594 0.0035017019 0.0028661382 -0.013048475 -0.01709922 0.021122327 0.0024688148 0.0034502875
0.0035170154 -0.03071156 -0.012030725 0.02919147 0.001824261 0.0034706404 -0.0038097487 -0.031201279
-0.0009956865 0.0071534747 -0.027413059 0.01946477 -0.0033218332 0.015626019 0.011573729 0.028529346
0.017087523 0.02232881 0.0036135286 -0.025170682 -0.013790647 -0.01450179 -0.048220184 -0.0010822377
0.005399957 0.00030917948 -0.006907128 -0.019401275 -0.0014350968 -0.019664984 -0.0033074487 0.0078053363
0.012385746 0.01424834 0.012253458 -0.012912857 0.027898436 -0.0076797167 0.0033559657 0.021996444
0.0026114082 0.0127401 0.055366047 0.00564382 0.012348539 0.0049990895 -0.009756328 -0.0060251066
2.0147008e-05 -0.0056895087 0.007673846 0.025572637 -0.02442969 0.009033472 -0.017917743 -0.0061498517
-0.02377258 -0.030927254 -0.006470229 -0.009284198 0.02425674 -0.0036050808 -0.0025345315 -0.01941282
-0.015274134 0.007585796 -0.014670211 -0.00703357 -0.03187431 -0.010606839 -0.04823704 0.021356609
-0.01564203 0.031518485 0.010255141 -0.007399411 -0.015192799 0.022056948 0.010925628 0.015110472
0.028468559 0.009832321 0.014397673 -0.006888341 -0.012702285 -0.013153836 -0.0030445843 -0.0019904242
-0.035650924 0.04949608 0.004233479 -0.012222823 -0.018958068 0.008065251 0.017094089 -0.008871942
4.784253e-05 -0.017039454 0.020113388 0.03460166 -0.017021105 -0.014845698 0.005465002 -0.011322299
0.025198866 -0.016769914 -0.014641384 0.0036319755 -0.017924672 0.038634036 0.0062048226 -0.01998519
0.011470592 -0.03255623 0.010401041 0.00435851 0.011084635 -0.036762092 -0.0044523966 -0.02846326
-0.043949895 -0.027723933 0.0027629817 0.016150959 -0.021050084 -0.014702948 -0.025015563 -0.019135538
0.020937013 -0.011734988 0.020103866 0.0009823538 -0.03733502 -0.01400463 -0.012279614 -0.008526424
-0.006018793 0.02435794 0.019544419 -0.033857804 -0.03294008 0.01755797 0.0100179445 0.0130955
0.0069902423 0.008237223 -0.025426714 0.014632045 -0.011239885 -0.017748453 0.020284073 0.012025096
-0.029179204 -0.011004056 0.008828667 0.014246359 0.0016860346 0.030121198 -0.022226796 0.0037743363
-0.0011040478 0.01408153 -0.0012222307 0.0056828633 -0.014203909 -0.0112718325 0.014758316 -0.025067462
-0.0009841505 0.023686899 0.00032458917 -0.00072701764 0.0111200325 -0.00086741615 0.0015692081 0.007875254
-0.004994527 0.028721562 -0.004977266 0.028791824 -0.015391946 -0.0064238994 -0.030748365 0.029332206
-0.047928955 -0.01359828 -0.0055769472 -0.018381957 0.009375141 -0.021262117 0.007450347 0.031884346
0.01604937 -0.02303221 -0.027987605 0.029386798 0.011273577 0.028927196 -0.025480589 -0.020589447

action_model._continuous_distribution.mu.bias f4 [6]
00000000: 0000 0000 0000 0000 0000 0000 0000 0000
00000010: 0000 0000 0000 0000
0.0 0.0 0.0 0.0 0.0 0.0

network_body._body_endoder.seq_layers.0.weight f4 [128, 396]
00000000: 021a 84bb 6027 5abb c0d9 8e3b 57ce 0e3d
00000010: 5600 05bd bf2c f0bc 6d2c 163d 1ecb 19bd
00000020: 1b91 a2bc 480d 0d3a 0a2a b73c 81fa 51bd
00000030: c033 243d 7dba 50bc 738c 88bd 5034 b93d
00000040: 93bf 123d e332 c83d 2755 2fbd 8348 b93c
00000050: 5471 46bd 1405 983c a48a f03c 1acb 20bd
00000060: 3d2a 63bb 46df 17bd 5056 e23c a71c 01bc
00000070: b986 13bc d75b 15bd 4075 393d 8092 10bd
00000080: cb9f 39bd 7093 8c3b 0a12 883d 7a4e f9bc
00000090: 2572 8c3c 436b 263c ce9e f0b9 37a0 d13d
000000a0: 7583 683d f50c 1bbe 4db2 213d 6d48 7eb9
000000b0: 09a8 213d ecf8 f1bc 844f 933c 9922 063c
000000c0: 62c0 47bd ac0b d33d 2ae3 dc3d 9b4c 9ebd
000000d0: 5c23 fcbc ad4c 433b c81b 863d 83c0 153d
000000e0: 7880 de3d cab5 9a3d a9e4 8b3c 1f8f d7bc
000000f0: 06d6 0a3b 6e74 ae3d 877a 0fbc 7c00 e63d
00000100: fb56 a2bd a2e6 88bc 9ba9 033d 9baa d93c
00000110: d5ad edbb f463 143d dfcc 6fbc 9480 00bd
00000120: 26c2 8fbc a73c b53c fbd9 35b9 e5a6 e03b
00000130: 22e4 b0bc 12cb b83b 8a7d a13c f45e c8bc
00000140: 3c69 603d 9b88 3abc db82 553d 0bff 393b
00000150: acea df3c ba98 6a3d 039d 663c a257 d5bb
00000160: 1243 fabc 3a34 913c 773d a9bd 434a 15bd
00000170: 9fff 5dbd e2eb 603c d655 29bd 5f9f e3bc
00000180: 1ca5 d63d 98b1 84bd 4572 5d3d 7a51 83bd
00000190: 8e3b 05bd 803c 06bd 0964 8c3d de73 e13c
000001a0: 71d8 223d 2535 0bbc 0c7e f0bc 4577 973d
000001b0: 9b2e c13d 08ee 813d 7d95 e6bc 8076 71bc
000001c0: 27e6 4c3d 2f03 bc3d 288d 9dbc baaa 8dbc
000001d0: 5ac5 deb9 201b 95bc f7c5 643d 8053 503d
000001e0: eb96 ee3c cfda 36bc 8838 a73d 901c 6c3d
000001f0: 7cd6 a93d ebad 09bd eeda 173d 8e9e 0cbd
00000200: 2ac3 303a 14d9 1bbc e3a9 c73d d620 3ebd
00000210: 5ac0 6ebc b9c8 1dbd fe73 f4bb a73c 843a
00000220: baae 463d 57ab deba e395 a43c ec02 e0bc
00000230: 5e62 a4bc d697 9e3d 7366 a83c ac83 723d
00000240: fd05 bebc 4026 8cbc b2d3 033d e32c c53c
00000250: 60d7 933c 41bd 0d3d f6f8 ebbc 3195 c0bc
00000260: 7d77 41bc 4246 5e3c 7b45 e23b 8b9f db3d
00000270: ed7b 273d 130e 22bc a32c 3a3d 7b5d 1c3d
00000280: 08d1 343d 1ca9 93bc 614c d63b 527e 863d
00000290: 59c7 3d3d 92bb b43c 4413 263d a44a 473c
000002a0: b7e7 dbbd 4e19 cdbc de6b 0e3c dea9 a83d
000002b0: 77d8 9dbd 0b9c c1bb 9ed0 6abc 3ad2 233c
000002c0: 4752 9dbd a7d6 5f38 f2b3 f63c 0269 66bd
000002d0: 3cba 333c ed80 24bd 0810 2d3c c98f fab9
000002e0: b489 45bd 62b3 33bd 08fa 1fbd 1cda 86bc
000002f0: 676c 16bd 0ddf 843b 0dfd ad3b ec13 3abc
00000300: 209a 323b 29ef 983c 6bcb f8bc b2d9 a23c
00000310: 146c 41bd 58b9 963c ed98 25bd c985 88bb
00000320: 48af d1bc 0d63 52bd 087c e33b 695b 323d
00000330: 7dbf 843d acb7 60bd ad8a de3c 7b2e 403d
00000340: ad06 5ebd 4b93 3d3d c62d 023d fadb e5b8
00000350: 4431 31bd a516 eebc 360e 46bd 0099 7cbb
00000360: 2cc3 0abd 93ce 233c c99b 2d3d 25c5 9b3d
00000370: 74e0 81bd a128 1fbd d37c 57bd a230 4dbd
00000380: 8dae 093d 2869 713c 5e09 1fbd f28f e5bb
00000390: 3114 5ebd 4b60 d5bd df0c e53c 17d4 3c3c
000003a0: 52e5 463d 5b70 89bb 2b71 d5bc ee2f 443c
000003b0: 07ea 2ebc fdd6 5ebd 551a 373d 275e 4f3b
000003c0: 58d4 b43d 5df8 003d e040 883d 9050 7a3d
000003d0: 00c3 58bd 1d13 a43c bf7c 9d3c 1668 d4bd
000003e0: 93d0 bf3d 7a70 9d3c 01a4 32bb f7d0 c73d
000003f0: c000 57bd 065b 883d 6e43 96bd 6193 f43c
-0.0040314207 -0.003328763 0.004359454 0.03486475 -0.032471023 -0.029318212 0.03666346 -0.037547223
-0.019844582 0.0005380702 0.022358913 -0.05126429 0.040088415 -0.012739775 -0.066674136 0.09043181
0.03582723 0.09775331 -0.042805817 0.022617584 -0.048447922 0.018557109 0.029362984 -0.039256193
-0.0034662627 -0.037078165 0.027629048 -0.007880366 -0.009004288 -0.03646454 0.045277834 -0.035295963
-0.045318406 0.004290037 0.06644066 -0.030432928 0.017144272 0.010157409 -0.00045894686 0.10235637
0.056765992 -0.15141661 0.03947668 -0.00024250308 0.03946689 -0.02953764 0.017982252 0.00818696
-0.048767455 0.103049606 0.107855156 -0.07729455 -0.03077858 0.002980034 0.065482676 0.036560547
0.10864347 0.07554205 0.017076807 -0.026313363 0.0021184697 0.08518301 -0.00875724 0.11230561
-0.079267465 -0.016711537 0.03214417 0.026570609 -0.0072533884 0.036228135 -0.014636247 -0.03137262
-0.017548632 0.022123648 -0.00017342709 0.006855833 -0.021593157 0.0056394422 0.019713182 -0.02445934
0.05478786 -0.011385108 0.052126747 0.0028380777 0.02733358 0.057274558 0.01407552 -0.006510691
-0.03054956 0.017725099 -0.082636766 -0.036447775 -0.054198857 0.013728114 -0.041341625 -0.027785955
0.10480711 -0.06479186 0.054064054 -0.06412025 -0.0325275 -0.03277254 0.06855018 0.02752107
0.039757196 -0.008496557 -0.029356979 0.07395796 0.094327174 0.06344229 -0.028147453 -0.014737725
0.050024178 0.09180295 -0.019232348 -0.017293323 -0.00042490178 -0.01820141 0.055852856 0.05086088
0.029124698 -0.0111605665 0.08165079 0.057644427 0.08292863 -0.033613127 0.037074022 -0.034330897
0.0006742949 -0.009512205 0.097492 -0.046418034 -0.014572227 -0.038521502 -0.0074601164 0.0010088877
0.048506476 -0.0016988319 0.020091003 -0.027345143 -0.020066436 0.07743804 0.020556664 0.059207603
-0.023196215 -0.017108083 0.03218431 0.024069255 0.018047035 0.034604315 -0.028805237 -0.02350864
-0.011808273 0.013566555 0.0069052554 0.1072379 0.04088967 -0.009891051 0.045452725 0.038175087
0.04414466 -0.018024974 0.006539867 0.065670624 0.04633269 0.022062097 0.040545717 0.012163792
-0.107375555 -0.02503648 0.00869271 0.082355246 -0.07707303 -0.0059084943 -0.014331965 0.009998852
-0.07681709 5.3367254e-05 0.030115101 -0.056252487 0.010969695 -0.040162016 0.010562904 -0.00047790844
-0.048227027 -0.043872245 -0.039056808 -0.016461425 -0.036724474 0.00405491 0.005309707 -0.011357289
0.002725251 0.018668728 -0.030370435 0.019879196 -0.047222212 0.018398926 -0.040429045 -0.004166339
-0.025596276 -0.051363993 0.006942276 0.043544207 0.06481836 -0.054862663 0.027165735 0.046919327
-0.054205585 0.046283048 0.031781934 -0.00010960545 -0.043259874 -0.029063532 -0.048353396 -0.0038543344
-0.033877537 0.009997982 0.042384896 0.07605962 -0.06341639 -0.038857106 -0.052609276 -0.050095208
0.03361373 0.014734544 -0.038827293 -0.007005685 -0.054218475 -0.10418757 0.027960239 0.0115251755
0.04855854 -0.004194302 -0.02605494 0.011974318 -0.010675914 -0.054404248 0.044702847 0.0031641813
0.08829564 0.031486858 0.06652999 0.061111987 -0.05292034 0.020028645 0.019224523 -0.10371415
0.09365954 0.019218672 -0.0027258398 0.09756654 -0.05249095 0.06657986 -0.0733708 0.029855432

network_body._body_endoder.seq_layers.0.bias f4 [128]
00000000: 0000 0000 0000 0000 0000 0000 0000 0000
00000010: 0000 0000 0000 0000 0000 0000 0000 0000
00000020: 0000 0000 0000 0000 0000 0000 0000 0000
00000030: 0000 0000 0000 0000 0000 0000 0000 0000
00000040: 0000 0000 0000 0000 0000 0000 0000 0000
00000050: 0000 0000 0000 0000 0000 0000 0000 0000
00000060: 0000 0000 0000 0000 0000 0000 0000 0000
00000070: 0000 0000 0000 0000 0000 0000 0000 0000
00000080: 0000 0000 0000 0000 0000 0000 0000 0000
00000090: 0000 0000 0000 0000 0000 0000 0000 0000
000000a0: 0000 0000 0000 0000 0000 0000 0000 0000
000000b0: 0000 0000 0000 0000 0000 0000 0000 0000
000000c0: 0000 0000 0000 0000 0000 0000 0000 0000
000000d0: 0000 0000 0000 0000 0000 0000 0000 0000
000000e0: 0000 0000 0000 0000 0000 0000 0000 0000
000000f0: 0000 0000 0000 0000 0000 0000 0000 0000
00000100: 0000 0000 0000 0000 0000 0000 0000 0000
00000110: 0000 0000 0000 0000 0000 0000 0000 0000
00000120: 0000 0000 0000 0000 0000 0000 0000 0000
00000130: 0000 0000 0000 0000 0000 0000 0000 0000
00000140: 0000 0000 0000 0000 0000 0000 0000 0000
00000150: 0000 0000 0000 0000 0000 0000 0000 0000
00000160: 0000 0000 0000 0000 0000 0000 0000 0000
00000170: 0000 0000 0000 0000 0000 0000 0000 0000
00000180: 0000 0000 0000 0000 0000 0000 0000 0000
00000190: 0000 0000 0000 0000 0000 0000 0000 0000
000001a0: 0000 0000 0000 0000 0000 0000 0000 0000
000001b0: 0000 0000 0000 0000 0000 0000 0000 0000
000001c0: 0000 0000 0000 0000 0000 0000 0000 0000
000001d0: 0000 0000 0000 0000 0000 0000 0000 0000
000001e0: 0000 0000 0000 0000 0000 0000 0000 0000
000001f0: 0000 0000 0000 0000 0000 0000 0000 0000
0.0 0.0 0.0 0.0 0.0 0.0 0.0 0.0
0.0 0.0 0.0 0.0 0.0 0.0 0.0 0.0
0.0 0.0 0.0 0.0 0.0 0.0 0.0 0.0
0.0 0.0 0.0 0.0 0.0 0.0 0.0 0.0
0.0 0.0 0.0 0.0 0.0 0.0 0.0 0.0
0.0 0.0 0.0 0.0 0.0 0.0 0.0 0.0
0.0 0.0 0.0 0.0 0.0 0.0 0.0 0.0
0.0 0.0 0.0 0.0 0.0 0.0 0.0 0.0
0.0 0.0 0.0 0.0 0.0 0.0 0.0 0.0
0.0 0.0 0.0 0.0 0.0 0.0 0.0 0.0
0.0 0.0 0.0 0.0 0.0 0.0 0.0 0.0
0.0 0.0 0.0 0.0 0.0 0.0 0.0 0.0
0.0 0.0 0.0 0.0 0.0 0.0 0.0 0.0
0.0 0.0 0.0 0.0 0.0 0.0 0.0 0.0
0.0 0.0 0.0 0.0 0.0 0.0 0.0 0.0
0.0 0.0 0.0 0.0 0.0 0.0 0.0 0.0

network_body._body_endoder.seq_layers.2.weight f4 [128, 128]
00000000: 48c4 a9bd 1999 713c ecf4 d33a 8e2c 173d
00000010: 3c7f ffbd 5731 2dbd a62e fcbc bd08 32bd
00000020: f702 59bb 7bf2 0e3d 799b 00bd 26e3 73bb
00000030: 1617 51be c6bf 973c d375 2abd e71e 193e
00000040: ce0b 093d 4e97 09bd 22fb 38bd 4ecd 9fbc
00000050: 3c31 063e 58a1 a1bc 90e3 9d3d 976f 86bd
00000060: 9076 8f3d d50c f7bd 6586 0bbe 94c1 83bd
00000070: 468a 24bc e7f6 f3bd 5baa bdbc 5e5d 97bc
00000080: e1d8 d33c ca30 b83d 7223 b23c 375c 163e
00000090: f6df a4bd 1437 a2bd 0cd5 dd3d 0c26 7c3d
000000a0: 1cc4 0bbd 3954 783d a0e0 473e 7301 263d
000000b0: 6257 e4bb 1e4e a73d e49e 8f3b 0f22 53bd
000000c0: 6c73 1f3d a99a 143e edab cf3d e65a 103d
000000d0: e553 143e 2676 04be d5a1 f43b 3b88 58bc
000000e0: 627a 06be e8ab 09be 1df5 a83d 0772 373d
000000f0: 8bf7 f2bd dc98 663d 0b25 ed3c fcd4 873d
00000100: d7d8 733d 25c8 2c3e f781 d0bd 6e2d ed3d
00000110: 02f4 f5bc 3584 3ebe 7a7d 203e 4774 1cbd
00000120: 0cc7 11be 1046 9c3c e4e3 91bd 7e7e a33c
00000130: 54f4 b43c 76ce d9bb 2a77 dcbb a8ca 2e3e
00000140: f449 b83c d90a 1f3d 37f7 3fbc d549 8fbd
00000150: 9b98 933d 2ee8 b13c 7a19 c93c 30fb b73c
00000160: cd80 1ebd ca84 da3d d400 f1bd 4e31 e33c
00000170: d0ca 3dbe c5a1 533d 795c ab3d f6ed 9abd
00000180: 244b 643d 2fa6 3f3e fa33 2fbe 6283 96bd
00000190: 2b8b e73d 7299 023e 7d91 4fbe d28d e43d
000001a0: 2807 243c 8aea ddbd 32f6 083d cbab ffbd
000001b0: 9bfb dbba 6474 383e fd92 ecbc 24ac 0bbe
000001c0: 73ce 6cbe 20f1 d6bd 7fed c23d 1fe3 50bd
000001d0: 1e07 1d3e db5d 43bd 48ac 8dbd 7446 bb3d
000001e0: a2a4 dd3c 569b 31be cbf2 5f3e aa9b c1bd
000001f0: 8d2f c1bc 4a6e 893d 1e47 3cbd 3a0a d53d
00000200: 8a83 293c 3569 7a3d 12ed 81bc 49f0 64bd
00000210: 41d2 25bd 1347 2e3e 5d23 eabd a3c6 bf3c
00000220: f31e fabd 8ee3 ebbc a55e 563d d52c 0abe
00000230: b0da 883d 3012 4a3c 15f2 05bd 8a0f 943c
00000240: 0ee3 d7bc f94e b4bd c8be 853a 42df f83c
00000250: 11e0 9b3d cb9f dbbc 0ac1 07be 0a3b 02bc
00000260: 902e 2abe f566 4b3e 7d7d 1c3d fc9c 8c3b
00000270: bec9 31be e590 d9bd 59ec 653d 3d4a 23be
00000280: e752 643d dabf c4bc 695a a9bd c8b4 3a3d
00000290: bd7b 4c3e 8270 bf3d 3248 55bd 5eb1 cdba
000002a0: 6277 5dbd 6457 acbd d30e 57bd 6bcc 023d
000002b0: e6f9 f8bd dc0e 863d 85cd 71bd 06da 7b3d
000002c0: 5a92 d7ba 695d 5abd 2dc1 063e da71 b0bc
000002d0: 94cc b3bc 449d a03c b19c ad3c 2ec1 e6bc
000002e0: e6f3 62bc 34ac fc3c d569 0ebd 903d 46bd
000002f0: 5342 27bd c156 98bd bf0a 953b d227 783c
00000300: 90ac 01be dafc a73d d5b0 4d3e 0fce 99bd
00000310: 9ba5 1fbd 4df0 5ebc 38f6 ba3d c5c2 0a3c
00000320: d838 5ebe 8b2f 75bd 0933 7d3c df26 ff3b
00000330: 2863 a03d bf2b 2ebd 0b16 3dbe 933e 65bd
00000340: 66d2 e439 a7b0 6a3c 1bdf 673c 4cfb 4abd
00000350: 344e 26bc 7b65 5fbe 2c58 a63c fcce 813d
00000360: 80aa f33d cdf4 a23d 9168 b2bd ba21 383e
00000370: c052 763c 46aa 11be 5e48 93bd 5e99 4d3d
00000380: 24ed e53d 5e2c 8c3e b94b 4cbd 64d3 743e
00000390: 4ef9 333c 359e 57be 0151 a43c 01ed be3d
000003a0: 9acd 5c3d 2747 023e 22c9 10be 18d5 003e
000003b0: 9db3 91bd 4dea 70bd 6d63 fa3c e096 063b
000003c0: c0e9 003e a797 35bd 0742 7f3d 3d2e 3b3d
000003d0: 1d0f da3d 49fe 663d 8043 92bd 55a9 813e
000003e0: bf2d 25bb 311b 90bb 6a87 6ebc 4055 57bd
000003f0: ce2d 8dbd 10fb 17be 6c94 f53d a72a 10bd
-0.08289391 0.014745974 0.0016171015 0.036907725 -0.1247544 -0.042283382 -0.030783962 -0.043465365
-0.003311334 0.034899216 -0.03139827 -0.0037214248 -0.20418963 0.018524062 -0.041616272 0.14953195
0.033458523 -0.03359156 -0.045161374 -0.019507077 0.13104719 -0.019730255 0.0770942 -0.06564253
0.07005036 -0.120629944 -0.13625486 -0.064334065 -0.010042733 -0.11912327 -0.02315252 -0.018477138
0.025860252 0.08993681 0.021745417 0.14683615 -0.0805053 -0.079206616 0.10831651 0.06155972
-0.03412257 0.060627196 0.19519281 0.040528726 -0.0069684247 0.081691965 0.004382955 -0.051546153
0.038928434 0.14512123 0.10140214 0.035242938 0.14485128 -0.12935695 0.007465581 -0.013216074
-0.13132623 -0.13444483 0.08249877 0.04478648 -0.11863621 0.05629812 0.028948328 0.066324204
0.059532966 0.16873224 -0.10181039 0.11580931 -0.030023579 -0.1860512 0.15672866 -0.03819683
-0.14236087 0.019076377 -0.07123545 0.019957777 0.022089161 -0.0066469265 -0.0067280727 0.17069495
0.022496201 0.038828705 -0.011716655 -0.06996504 0.072068416 0.021717157 0.024548281 0.022458643
-0.038697053 0.10669859 -0.11767736 0.027733471 -0.18534398 0.051667947 0.08367247 -0.07564919
0.055735722 0.18715738 -0.17109671 -0.07349278 0.11305841 0.12753847 -0.20270343 0.111598626
0.010011472 -0.108357504 0.033437915 -0.12483939 -0.0016783358 0.1801315 -0.028878683 -0.13639885
-0.23125629 -0.1049521 0.09517955 -0.05099785 0.15334746 -0.04769693 -0.06917626 0.09144297
0.027056042 -0.17344412 0.21869962 -0.09453519 -0.023582244 0.06710489 -0.04596626 0.10402341
0.010346303 0.06113549 -0.015860114 -0.055893216 -0.040483717 0.170193 -0.11432526 0.023410147
-0.12212934 -0.02879503 0.052336354 -0.13493665 0.06682336 0.012333438 -0.03270157 0.018073816
-0.026353385 -0.08804125 0.0010203952 0.030379895 0.07611097 -0.026809594 -0.13257232 -0.007948646
-0.16619325 0.19863494 0.038205612 0.004291175 -0.17362115 -0.106233396 0.0561336 -0.15946288
0.055743124 -0.024017263 -0.082691975 0.045582563 0.19969077 0.09347631 -0.052070804 -0.0015693118
-0.05406893 -0.08415106 -0.05250437 0.03193323 -0.12157039 0.06545803 -0.05903389 0.06148722
-0.0016446814 -0.05331174 0.13159628 -0.021538664 -0.021948136 0.01960624 0.02119288 -0.028168287
-0.013852095 0.030843832 -0.034768898 -0.048398554 -0.040834736 -0.07438422 0.0045484 0.015146213
-0.12663484 0.082025245 0.20086987 -0.07510006 -0.038976293 -0.013607097 0.09128994 0.008469288
-0.21701372 -0.059859794 0.015454062 0.007786616 0.078314126 -0.04252219 -0.1846544 -0.05596788
0.00043644308 0.014324344 0.014152314 -0.04955606 -0.010150481 -0.21816055 0.020305716 0.06338307
0.11897755 0.07956848 -0.08711351 0.17981616 0.015034378 -0.1422511 -0.07191537 0.05019509
0.112268716 0.273776 -0.049876902 0.23908764 0.010984732 -0.21056445 0.020058157 0.09322549
0.053907014 0.12722455 -0.14139226 0.12581289 -0.07114337 -0.058817197 0.030564988 0.0020536706
0.12589169 -0.04433408 0.062318828 0.045698393 0.10647414 0.05639485 -0.07141781 0.25324503
-0.0025204269 -0.0043977727 -0.014558652 -0.052571535 -0.06893502 -0.14841866 0.119912 -0.035196926

network_body._body_endoder.seq_layers.2.bias f4 [128]
00000000: 0000 0000 0000 0000 0000 0000 0000 0000
00000010: 0000 0000 0000 0000 0000 0000 0000 0000
00000020: 0000 0000 0000 0000 0000 0000 0000 0000
00000030: 0000 0000 0000 0000 0000 0000 0000 0000
00000040: 0000 0000 0000 0000 0000 0000 0000 0000
00000050: 0000 0000 0000 0000 0000 0000 0000 0000
00000060: 0000 0000 0000 0000 0000 0000 0000 0000
00000070: 0000 0000 0000 0000 0000 0000 0000 0000
00000080: 0000 0000 0000 0000 0000 0000 0000 0000
00000090: 0000 0000 0000 0000 0000 0000 0000 0000
000000a0: 0000 0000 0000 0000 0000 0000 0000 0000
000000b0: 0000 0000 0000 0000 0000 0000 0000 0000
000000c0: 0000 0000 0000 0000 0000 0000 0000 0000
000000d0: 0000 0000 0000 0000 0000 0000 0000 0000
000000e0: 0000 0000 0000 0000 0000 0000 0000 0000
000000f0: 0000 0000 0000 0000 0000 0000 0000 0000
00000100: 0000 0000 0000 0000 0000 0000 0000 0000
00000110: 0000 0000 0000 0000 0000 0000 0000 0000
00000120: 0000 0000 0000 0000 0000 0000 0000 0000
00000130: 0000 0000 0000 0000 0000 0000 0000 0000
00000140: 0000 0000 0000 0000 0000 0000 0000 0000
00000150: 0000 0000 0000 0000 0000 0000 0000 0000
00000160: 0000 0000 0000 0000 0000 0000 0000 0000
00000170: 0000 0000 0000 0000 0000 0000 0000 0000
00000180: 0000 0000 0000 0000 0000 0000 0000 0000
00000190: 0000 0000 0000 0000 0000 0000 0000 0000
000001a0: 0000 0000 0000 0000 0000 0000 0000 0000
000001b0: 0000 0000 0000 0000 0000 0000 0000 0000
000001c0: 0000 0000 0000 0000 0000 0000 0000 0000
000001d0: 0000 0000 0000 0000 0000 0000 0000 0000
000001e0: 0000 0000 0000 0000 0000 0000 0000 0000
000001f0: 0000 0000 0000 0000 0000 0000 0000 0000
0.0 0.0 0.0 0.0 0.0 0.0 0.0 0.0
0.0 0.0 0.0 0.0 0.0 0.0 0.0 0.0
0.0 0.0 0.0 0.0 0.0 0.0 0.0 0.0
0.0 0.0 0.0 0.0 0.0 0.0 0.0 0.0
0.0 0.0 0.0 0.0 0.0 0.0 0.0 0.0
0.0 0.0 0.0 0.0 0.0 0.0 0.0 0.0
0.0 0.0 0.0 0.0 0.0 0.0 0.0 0.0
0.0 0.0 0.0 0.0 0.0 0.0 0.0 0.0
0.0 0.0 0.0 0.0 0.0 0.0 0.0 0.0
0.0 0.0 0.0 0.0 0.0 0.0 0.0 0.0
0.0 0.0 0.0 0.0 0.0 0.0 0.0 0.0
0.0 0.0 0.0 0.0 0.0 0.0 0.0 0.0
0.0 0.0 0.0 0.0 0.0 0.0 0.0 0.0
0.0 0.0 0.0 0.0 0.0 0.0 0.0 0.0
0.0 0.0 0.0 0.0 0.0 0.0 0.0 0.0
0.0 0.0 0.0 0.0 0.0 0.0 0.0 0.0

value_heads.value_heads.extrinsic.weight f4 [1, 128]
00000000: 101c 38bd 760f 433e 009b cb3d de5f 063e
00000010: 2b8e e2bd c0ea f7bc b860 5a3d 605f 383c
00000020: 10d6 49be 489b 5b3e a06b ffbb ae6a 2e3e
00000030: c8be f83d 14a6 003e 006b 873c 1ca0 fe3d
00000040: e26d e0bd 40a4 63bd 7881 233d 8603 09be
00000050: 3c62 90bd 50a5 0dbe fc74 13be d8e9 593d
00000060: dc56 0dbd d484 acbd fe4b 4abe baa6 a4bd
00000070: b28a 413e aecb d3bd d8ff 34be 38e1 533d
00000080: c87a 173d 949a 22be 3c90 ad3d 6649 26be
00000090: fa10 aebd c456 233e 7018 5a3e 7836 123d
000000a0: 66c0 58be 46fb 4fbe a0f1 9ebc 8945 05be
000000b0: 106c ddbd c696 313e 0af7 033e b4d2 26be
000000c0: 3b79 3dbe 406d 5fbd c6ec a4bd d236 323e
000000d0: 2c4f 123e 30c9 733c f01b 1b3d 60e6 f83b
000000e0: 1cfa 88bd 3893 a2bd 5016 173d 4c6f 51be
000000f0: 60df 2f3e 0465 263e 0eb8 593e 52a8 0ebe
00000100: d6df 87bd 04d2 0dbe 481a 653d ae53 cdbd
00000110: fdfa 39be 80fa df3d 32ee 2b3e e8d3 8abd
00000120: d68f 533e 00af 1b3a cc90 113e 75aa 35be
00000130: a8bc 23be 2085 16bd be93 343e e8d6 8a3d
00000140: 9ed7 133e f62f 023e 2064 523e a010 323e
00000150: c0a7 f93d 7eb7 173e 340f c0bd 2830 e1bc
00000160: 205f b4bd 3233 03be a4d7 c7bd 601e 83bb
00000170: d08d 6a3c 4e00 0bbe f3e2 51be 5ac3 183e
00000180: b410 c53d bc80 42be 844a 543e 4011 1a3c
00000190: 3c85 acbd c8b8 483d 247d 73bd 9f97 55be
000001a0: 1ce2 b0bd fc9c aa3d f0be ea3c 12cd 16be
000001b0: f4f4 293e 1004 1b3e 989a 5bbd 105d 3c3e
000001c0: af56 1ebe 68c4 3c3e 86b2 3dbe 6011 843d
000001d0: 006d 123d 041f d03d 62d1 533e 283e 483e
000001e0: 0000 1b3c 5cb9 e93d f434 cb3d c848 9b3c
000001f0: 481a e93d 9031 bd3d e8db 6f3d 604b ed3c
-0.044948637 0.19048867 0.09941673 0.13122508 -0.11062273 -0.030263305 0.053314894 0.011253208
-0.19710565 0.21445954 -0.0077948123 0.17032883 0.12145764 0.12563354 0.016530514 0.12432882
-0.109584585 -0.055576563 0.039918393 -0.1338025 -0.07049987 -0.13832593 -0.14400095 0.053201526
-0.034506664 -0.084237725 -0.19755551 -0.08039613 0.18900564 -0.10341583 -0.17675722 0.051728457
0.036982328 -0.1587928 0.08474776 -0.16238937 -0.08499332 0.15951067 0.21298385 0.035696477
-0.21167144 -0.20310697 -0.019402325 -0.13014807 -0.10811627 0.17342672 0.12887207 -0.16291314
-0.18503277 -0.05454755 -0.080529734 0.17403725 0.14288014 0.01487951 0.03786844 0.007595822
-0.066883296 -0.07938236 0.036886513 -0.20452613 0.17175055 0.16249472 0.21261618 -0.13931397
-0.0663449 -0.13849646 0.055933267 -0.10025726 -0.1816215 0.10936451 0.16790083 -0.06778699
0.20660338 0.0005938858 0.14215392 -0.17740805 -0.15989935 -0.03674805 0.17634484 0.06779271
0.1443772 0.12713608 0.20546007 0.17389154 0.12190199 0.1481609 -0.093779 -0.027488783
-0.08807206 -0.12812498 -0.09757927 -0.0040014237 0.014316037 -0.13574335 -0.2049673 0.1491827
0.096223265 -0.18994421 0.2073155 0.009403527 -0.0842385 0.049004346 -0.059445515 -0.2085862
-0.08636877 0.08330724 0.0286555 -0.14726666 0.16597348 0.15138268 -0.05361423 0.18394876
-0.15462755 0.18434298 -0.18525133 0.064486265 0.03574848 0.10162166 0.20685342 0.1955496
0.009460449 0.114123076 0.099222094 0.018955603 0.11381966 0.09237969 0.05855933 0.028966606
