results/PlayerAgentTest/EasyPlayer/EasyPlayer-96094.onnx (onnx, 275220 bytes, 7 tensors)

network_body._body_endoder.seq_layers.0.weight f4 [128, 396]
000000 c1 71 0b bd e8 f8 e6 3d 89 c7 8e bd 83 d1 87 3c
       -0.03404403 0.11277944 -0.06971652 0.016579395
000010 61 0c d9 bc 4c da 99 bc 07 01 b0 bc 58 77 3e 3b
       -0.02649516 -0.01878085 -0.021484865 0.0029062834
000020 8a 11 2e bd 2c e0 c4 bc d3 02 24 3d 12 f3 c9 b8
       -0.042497195 -0.024032675 0.040041756 -9.629702e-05
000030 9e b8 65 bd 71 5a 03 bd 29 e1 0e 3c 5c 8d 3b 3c
       -0.056084268 -0.032068674 0.008720675 0.011447277
000040 15 6a 07 3d bf d4 a1 3c 4c 60 e7 3c 3c 13 c0 3c
       0.033060152 0.019754766 0.02824416 0.023446672
000050 c6 d3 c9 3b 0d 9a f7 bc cf 57 22 3d d5 91 a3 bd
       0.0061592786 -0.030224824 0.039634522 -0.079868
000060 38 7c 93 bd a5 5c 96 3b b4 67 74 bd 3f 9a fe 3c
       -0.07201427 0.004588681 -0.05966921 0.03107941
000070 5e fc 45 bd d9 d7 71 3d 76 b5 69 bc 28 1c a8 3c
       -0.04833638 0.05904374 -0.014264455 0.020521238
000080 a8 b7 c1 3b 94 03 1a 3a 1a a2 88 3c 59 d2 8b 3d
       0.005911786 0.0005875167 0.016678859 0.0682723
000090 b8 5f 98 3d cf 5b f4 bb 5c e7 88 ba 5b 14 ed bc
       0.07440132 -0.0074572335 -0.0010444927 -0.02894037
0000a0 40 d4 10 3d c2 3d 5f 3d 22 3d 81 3c 1a 00 70 3d
       0.035358667 0.054502256 0.01577622 0.058593847
0000b0 a5 f2 87 3c b7 d3 0d bd f9 84 37 3d 4f 41 57 3d
       0.016595194 -0.034625735 0.044804547 0.052552518
0000c0 0e 06 1e 3d 5c a0 07 bd 57 51 22 3d 11 99 1b 3d
       0.038579993 -0.033111915 0.039628353 0.037987772
0000d0 f1 03 6d 3d 72 5a e9 ba 4e 71 64 3d 85 3b ce 3b
       0.057865087 -0.0017803444 0.05577212 0.0062937164
0000e0 fc 02 b3 bd 54 ac 8f bd 25 ee 89 3d a2 c7 de 3c
       -0.087408036 -0.07015291 0.067348756 0.027194802
0000f0 8d 43 1a bd 6d fc 1d bc 23 dc b8 3c 8c 87 5b 3d
       -0.037662078 -0.0096427025 0.022565907 0.053596064
000100 50 ea fa bd 53 af d0 ba 3c a4 d8 bc 43 8f ca 3b
       -0.12251723 -0.0015921391 -0.0264455 0.006181629
000110 65 d8 b9 bd 24 b0 82 3b 31 3f 73 3c 12 24 77 bc
       -0.09074477 0.0039882828 0.014846609 -0.015084283
000120 e2 2a b8 3d 76 dd cd 3d 80 0f dd ba 65 63 00 3d
       0.08992554 0.10052006 -0.0016865581 0.03134479
000130 76 aa 86 bd 59 96 81 3b 96 87 b8 bc e5 80 2e 3b
       -0.065754816 0.0039546904 -0.02252559 0.002662712
000140 83 71 62 bd 1f 34 54 3a b6 91 38 3c 53 75 9e bd
       -0.055284034 0.0008094925 0.011265209 -0.077372216
000150 11 e7 f4 3c 9c 81 74 bc b4 ac e3 3c 79 ce 96 bc
       0.029895337 -0.014923479 0.027792312 -0.018409
000160 b5 da c7 3c 01 35 3f 3d f1 8d bd 3d 27 67 97 3d
       0.02439628 0.046681408 0.09255589 0.073927216
000170 8e b4 b8 3c d0 2b 97 bd 8f 4c cb 3d d5 d2 18 3d
       0.022547033 -0.073814034 0.09926712 0.03731044
000180 c7 8a 0a 3d 51 6a a7 3c 8f 34 1f bc e1 34 28 3a
       0.033823755 0.020436438 -0.009717121 0.0006416571
000190 67 80 bc 3c 13 c9 5b 3b d3 90 31 bc ae 31 72 3b
       0.023010446 0.0033536598 -0.010837751 0.003695588
0001a0 66 78 c2 3d df 62 6c 3d 1f bb d0 ba dc dd 24 bd
       0.094956204 0.05771148 -0.0015924907 -0.040250644
0001b0 0f 72 6f 3b ae 80 d0 bb ee 46 36 bd 6b b2 99 bb
       0.003653649 -0.006362996 -0.044501238 -0.0046904585
0001c0 3a c8 51 bc 90 b0 41 3d 19 0a 2d bd f8 53 d7 3d
       -0.012804085 0.047287524 -0.042245958 0.10514063
0001d0 d2 79 d3 bc 24 b1 0f 3d 5d 47 10 ba 5f ca ca 3c
       -0.025814924 0.035081044 -0.0005503798 0.024754701
0001e0 a6 ab 8a 3d 90 37 4e 3d 1a c5 42 bc 52 be 8a bd
       0.067710206 0.050345957 -0.011887813 -0.06774582
0001f0 ef 08 ff bd b7 ee 95 3c 7e 61 23 3d ce a6 93 3d
       -0.12452876 0.018302305 0.039887898 0.0720955
000200 cb e6 14 bd 45 87 ed bc b4 d0 1a 3d 89 f2 1f be
       -0.036352914 -0.028995166 0.03779669 -0.15619864
000210 40 c7 36 3d 7c 8d e2 3d 2d 00 4a bd 87 a5 1e bd
       0.044623613 0.11062142 -0.049316574 -0.038732078
000220 64 a3 9c bb d7 51 f8 3b bc df 73 3d 8c 7d f2 3c
       -0.00478022 0.0075781154 0.05953954 0.029600881
000230 2d e1 c9 bd 70 89 c6 bd fe 4f 88 3d 59 61 54 3c
       -0.09857402 -0.09694183 0.06655882 0.012962663
000240 3f e5 b0 3b 24 e2 97 3c 1a 02 ce 3c b2 90 14 bd
       0.005398422 0.01854045 0.025147486 -0.036270805
000250 12 80 ef bc ec 75 b7 3d f7 8d e4 3c b3 58 c3 bd
       -0.029235873 0.08958039 0.027899725 -0.095384024
000260 bd 69 cc bd 47 69 c5 3c bb eb e3 bc ac a7 39 3c
       -0.099811055 0.024098052 -0.027822366 0.01133148
000270 5e 93 a8 3b 21 ef b1 bd a4 0c dc bc c6 2a b3 3c
       0.0051445207 -0.08688188 -0.026861496 0.021870982
000280 8b 61 ba 3c 46 89 61 3c 74 1b 23 bd e2 80 83 bd
       0.02275159 0.013765639 -0.039821103 -0.06421067
000290 3d df a1 bd 2d 02 88 bc 2c 05 3d bc 25 e4 d5 bc
       -0.079039074 -0.0166026 -0.011536878 -0.026109764
0002a0 2c 6c a4 bc 6c 73 02 bd d3 d4 69 bd c3 92 95 bb
       -0.020071112 -0.031848356 -0.05708773 -0.0045646145
0002b0 ae 95 8a 3d 6e 51 ce bd f2 6c f5 bd 7f ae 64 bd
       0.067668304 -0.10074125 -0.1198367 -0.055830475
0002c0 f5 11 bf 3c 22 d6 ea 3c 37 f2 07 bd 22 3b b2 3d
       0.023323992 0.02866656 -0.03318998 0.08702685
0002d0 3e 57 0a 3c 1b ac 6f 3c e3 c8 aa 3d bb e7 a5 bd
       0.008443652 0.0146284355 0.08339097 -0.0810084
0002e0 fa 2c e4 bd 1b c1 53 3d 26 60 c9 3c bf 28 0a 3c
       -0.11141391 0.05169783 0.02458198 0.008432566
0002f0 78 19 be bd 1a 2b 96 3d 9c 4f 61 bd 4d c8 76 bd
       -0.092822015 0.0733244 -0.055007562 -0.060249615
000300 76 b0 f9 3c 9d 04 94 bc 1c 4d e5 3d 85 3b 4c bc
       0.030479651 -0.018068606 0.11196348 -0.012465362
000310 a1 50 cf 3c 46 bf 56 bd 9a 23 3b bd 2c 32 d7 3d
       0.025307002 -0.052428506 -0.04568825 0.105076164
000320 4c 89 a4 bd ca db 87 3d 04 49 dc 3b 4b d8 12 3e
       -0.08034 0.06633718 0.0067225713 0.14340322
000330 45 2e 5b bd a0 68 82 3c 0b d8 b3 3a 9a 5c c0 3b
       -0.053510923 0.01591903 0.0013721002 0.005870414
000340 ee 87 4e 3d 75 5d 67 3c 68 4f c4 bd 06 5c 43 3d
       0.0504226 0.014121403 -0.09585458 0.047695182
000350 e4 8f 76 bd 5d ec 5d bd e3 67 16 bd c8 d0 a7 bb
       -0.06019582 -0.05418049 -0.036720168 -0.005121324
000360 1b 97 e2 bc 92 75 18 bc f8 cf 52 3c 82 33 2f 3d
       -0.027659943 -0.009305375 0.012866966 0.04277373
000370 37 e3 c5 3c 4e 1a 14 3c 59 2c 6b bc 0a 2a b4 3d
       0.024156196 0.009039475 -0.014353835 0.08797081
000380 e6 35 39 bd b1 97 63 bc d6 50 27 3d ba 3d 76 3d
       -0.045217417 -0.0138911465 0.040848576 0.06011746
000390 91 38 36 3d 2a 6d 91 bc 85 c1 7b bd e2 7c 25 bd
       0.04448754 -0.017752249 -0.06146385 -0.0404023
0003a0 f9 6a d1 bc 3b 0f 88 3d 68 d7 8a bb eb 5a 81 3d
       -0.025563704 0.0664353 -0.004237104 0.06316169
0003b0 d2 dd 92 3d 07 9c ba bb 58 70 11 3d c2 cd 02 bd
       0.07171215 -0.0056948694 0.03550753 -0.031934507
0003c0 27 68 f5 ba f3 40 13 bc 6a 9e 01 bd ab ef 29 bd
       -0.0018723056 -0.008987653 -0.031645216 -0.04148833
0003d0 b5 5b 96 3d a4 d3 60 bd b3 0a ba 3c fe 16 be 3d
       0.073417105 -0.054889336 0.02271018 0.09281729
0003e0 ea 2f fb bc c6 e4 41 3d 19 db 55 bd 62 0c de 3c
       -0.030662496 0.047337316 -0.0522109 0.027105514
0003f0 25 2b 1e bb 2d b8 de bb 33 26 17 3d 4a 7f f0 3c
       -0.0024134603 -0.006796858 0.036901664 0.029357571

network_body._body_endoder.seq_layers.0.bias f4 [128]
000000 fc ca 59 3a 8e 5e e1 3a 12 07 ed ba e5 81 a5 3b
       0.000830814 0.0017194317 -0.0018083772 0.005050885
000010 c9 01 03 bb d3 7f 13 bb ab 54 0d ba c9 72 79 b9
       -0.0019990078 -0.002250661 -0.00053913397 -0.00023789251
000020 0c 57 1e 3b ad 68 98 ba a1 0e 08 bc 8f f5 b4 3a
       0.002416077 -0.0011627876 -0.008304269 0.0013806092
000030 b3 4d ad bb d5 c4 c6 3b 60 5d c0 36 5d ff cb 3b
       -0.0052888035 0.0060659447 5.732916e-06 0.00622551
000040 03 a9 e1 3a fe f1 21 bc 1b 10 89 3b a4 26 3a b9
       0.0017216507 -0.009884356 0.004182828 -0.00017752737
000050 f1 b3 f6 3b 96 fc 29 3c 0a f6 1f 3b 2e 01 5f ba
       0.007528775 0.010375163 0.0024408125 -0.00085069507
000060 01 fd 83 3b 70 b8 c8 bb 8d 39 8e 3b 3e f5 58 3b
       0.004027963 -0.0061255023 0.0043403567 0.003310516
000070 74 cf 28 3c fc da b6 3b 57 4b 0e bb 75 1a a5 bb
       0.010303367 0.005580304 -0.0021712387 -0.0050385543
000080 c1 5f b1 bb 7a ad 11 bb 3f 6e 85 3b 14 72 2b bc
       -0.005413026 -0.0022228644 0.0040719802 -0.01046421
000090 3a a1 05 b9 03 17 94 3b ca f3 1a bb 2a 3a b5 39
       -0.0001274393 0.004519345 -0.0023643845 0.00034566346
0000a0 55 5b 2e 3b a0 05 a6 bb cc 98 b0 bb 13 76 ef 3a
       0.002660473 -0.0050665885 -0.0053893086 0.0018269442
0000b0 fb df 61 3b 26 d3 3b 3b 83 9f 0d bc f5 a0 4a bb
       0.0034465778 0.002865979 -0.008643988 -0.0030918692
0000c0 42 12 ac b9 be 98 8e ba 1a 2a 01 3b e4 0b 30 39
       -0.0003282 -0.0010879261 0.0019708932 0.00016789098
0000d0 42 cd 94 bb 94 a6 f6 bb 9e 00 0f 3b bb 7e ae ba
       -0.00454107 -0.007527182 0.0021820436 -0.0013312915
0000e0 47 eb 87 39 0c 90 95 3a 04 5c 84 bb ae 9d 82 bb
       0.00025924502 0.0011410727 -0.0040392894 -0.003986082
0000f0 c2 72 cc ba 0b 0d fc ba d8 39 ae 3a eb da 06 3b
       -0.0015598165 -0.0019229961 0.0013292385 0.0020577263
000100 84 95 bd 3b 5e 02 af bb 2a 09 df ba a7 a4 81 3c
       0.005785646 -0.0053408584 -0.0017016281 0.015825583
000110 70 7e 2a 3c 36 eb 86 bb de 9c a1 3b 5c 12 2f 3a
       0.010406122 -0.004117395 0.00493203 0.0006678456
000120 52 55 cd 3b 3b dd 94 bb 19 1c 95 3b e1 a7 86 3b
       0.0062662745 -0.0045429743 0.0045504686 0.004109368
000130 bb 91 14 3c b2 fa 05 3c 96 b9 3c 3c 59 b6 b3 bb
       0.009067948 0.008177446 0.0115188565 -0.005484384
000140 31 03 1a bb 23 63 c5 3b 8e b2 0b 3b 7d 08 10 3b
       -0.0023500437 0.006023781 0.0021316144 0.0021977716
000150 16 95 dd 3b 82 47 05 3a 96 60 69 3b f8 d8 11 3a
       0.006762157 0.0005084203 0.0035610548 0.0005563642
000160 0a 6d 06 ba 97 a2 ec bb 88 d7 22 3c 16 ca 04 bc
       -0.00051279424 -0.0072215307 0.009939082 -0.008104822
000170 03 c8 ae 3b 0c f0 b0 3a 15 06 a1 bb a2 6c 72 bb
       0.005333902 0.0013499274 -0.004914055 -0.003699102
000180 2f 95 9b bb a0 21 a0 bb 34 49 05 3c 0a 3a b2 ba
       -0.0047480087 -0.004886821 0.008135129 -0.0013597619
000190 34 42 ba 3b cf ad b2 ba d0 e8 24 3a 46 96 e6 bb
       0.0056841616 -0.0013632121 0.0006290795 -0.007036957
0001a0 56 33 f1 ba 07 c0 f4 bb a7 af 05 3a 42 98 ab 3b
       -0.001840214 -0.0074691805 0.00050997216 0.0052366564
0001b0 e6 ed f5 bb 1b 20 94 3a 43 62 70 bb 28 b3 1b 3b
       -0.0075051663 0.0011301072 -0.0036679662 0.0023757908
0001c0 45 6e fa bb 38 bb b9 3b 26 e7 3f bc 8b c6 16 3c
       -0.0076425397 0.00566807 -0.011712825 0.00920261
0001d0 f0 af 9c b9 9d 0b 85 bb 03 14 55 bb 35 e1 50 bb
       -0.00029885722 -0.0040602223 -0.0032513149 -0.0031872515
0001e0 f7 45 05 bc 15 ad 84 bb 0c 11 44 39 b1 4c 53 3a
       -0.008134357 -0.0040489533 0.00018698367 0.0008060439
0001f0 b1 91 b1 bb c6 ed 5f b9 c8 bb 8b bb 27 c7 d2 3b
       -0.005418979 -0.00021355515 -0.0042643286 0.006432432

network_body._body_endoder.seq_layers.2.weight f4 [128, 128]
000000 56 5d 4a bd 33 38 32 be ba a0 18 bc fe 7b dd 3d
       -0.04940542 -0.17404251 -0.009315664 0.10814665
000010 eb fa c5 bb c2 d4 e9 bb 6c a7 4c bd 25 3d 03 be
       -0.0060418746 -0.0071359584 -0.049964353 -0.12816294
000020 a3 df f6 bd b2 aa 50 bc 53 c8 43 3d 19 36 79 3d
       -0.12054374 -0.012736009 0.047798466 0.060842607
000030 9a 1b e3 3d 35 d0 a1 3d 82 5c 24 bd 12 0b 5e be
       0.11089249 0.079010405 -0.040127285 -0.2168391
000040 37 80 c4 bd 76 10 34 bd e5 63 0b bd 1d d9 8d bd
       -0.095947675 -0.04396101 -0.034030814 -0.06926177
000050 d2 be 14 bd 1d 17 47 3d 75 e1 2e 3c 0e 32 75 3b
       -0.036314793 0.048606027 0.01067387 0.0037413868
000060 5c 28 a5 bd dc 64 1f 3d fc 5b 71 3c 93 b0 db bd
       -0.080643386 0.038914546 0.014731403 -0.10727038
000070 59 ed dc 3c c1 19 d5 bb b4 38 da bd 84 ae ac 3d
       0.026968645 -0.0065033142 -0.106553465 0.08431724
000080 29 04 08 bd e2 64 c1 3d 48 8f 0a be 11 98 57 bb
       -0.033207092 0.0944307 -0.1353122 -0.0032897035
000090 f7 e8 08 3e bb 76 f8 3a c8 b9 83 bd 9e 53 c3 3d
       0.13370119 0.0018956283 -0.06431919 0.09537433
0000a0 a9 84 d2 bd f7 26 2f 3e 64 6d cd 3c c8 82 26 bd
       -0.10279209 0.17104708 0.025076576 -0.040652066
0000b0 99 6e 01 be 39 73 29 3d 73 21 d3 bc 8e 0e a6 bd
       -0.12639846 0.04136965 -0.025772786 -0.08108245
0000c0 d6 32 b2 bc d0 20 42 3b 73 97 07 bd d5 8a fa bc
       -0.021752756 0.0029621609 -0.033103418 -0.030583778
0000d0 56 ba 70 bd 47 17 55 3c a6 12 77 3d cc 37 19 3e
       -0.058771454 0.013006038 0.06032052 0.14962691
0000e0 c0 4f 01 3e cc 3f ae 3d 0a 8d e6 3d 70 b6 0d 3d
       0.12628078 0.08508262 0.1125737 0.034597814
0000f0 e2 94 c1 3d 40 ea 5d bd 1f 20 5d bd 30 14 2c 3d
       0.09452225 -0.054178476 -0.05398571 0.04201144
000100 a1 9f 93 3d aa 63 6a 3d d5 53 98 bc 56 76 8c 3d
       0.07208181 0.057223953 -0.018594662 0.06858508
000110 4e 71 b6 3d 92 de b0 3d 64 b6 e8 3c 87 25 e0 bc
       0.0890833 0.08636202 0.028407283 -0.027361644
000120 87 26 c4 bb ec 16 bf 3d ac 9d 02 3d 85 25 31 3e
       -0.005986038 0.09330544 0.03188865 0.17299469
000130 00 ed 9f bc a0 6b 90 3c f9 c0 03 bd 54 5d d9 3c
       -0.01952219 0.017629445 -0.032166455 0.02653376
000140 82 e9 09 3e c6 e4 14 3c 8a 33 bf 3c 8b da 14 3e
       0.13467982 0.009087747 0.023340005 0.14536493
000150 b9 7b 8f bd 58 43 7e bd 31 ec a1 3d ee 72 a1 bd
       -0.0700602 -0.062075943 0.07906378 -0.07883249
000160 7e 5b 71 3d f3 85 fb 3c 7b ab 60 3d 27 97 ed bc
       0.058925144 0.03070352 0.054851037 -0.02900274
000170 51 b3 81 3d 65 de c6 3d 36 94 c7 bc a5 3e 00 be
       0.0633303 0.09710387 -0.024362665 -0.12523897
000180 10 2b ee bd 54 83 fb 3a e3 79 1c be a3 13 13 3c
       -0.11629307 0.0019188919 -0.15280871 0.00897685
000190 6f c8 23 3c 67 2f 5a 3d 7d ac 0f bd 0e 02 e7 3d
       0.009996518 0.053267863 -0.035076607 0.11279689
0001a0 b7 d0 48 3d 9c 42 77 3c b9 e0 46 bd 1b 34 05 3e
       0.04902717 0.0150915645 -0.048554156 0.13008158
0001b0 b1 b1 b0 3d fb 3e f0 bc 86 2c 46 bd e7 75 50 bc
       0.08627642 -0.029326906 -0.048382305 -0.012723423
0001c0 94 ac f6 bc db 2a aa bd a5 42 ee bc 9f b7 7a 3c
       -0.030111589 -0.08308955 -0.029084513 0.015302568
0001d0 91 61 0a be c1 c4 82 bd 0d d6 98 bd 3d 50 85 3d
       -0.13513781 -0.06385184 -0.07462702 0.06509445
0001e0 b0 3a d7 bd 37 9b d8 bd 72 cd 95 bd 4a 44 37 bd
       -0.105092406 -0.1057648 -0.07314576 -0.04474286
0001f0 3a 17 5b be 88 05 68 bd b7 30 25 3e 4b 75 c1 3d
       -0.21395579 -0.0566459 0.16131864 0.094462
000200 71 f9 22 3d 14 de 13 bd 49 f1 7f bd 68 8c 9c 3d
       0.039788667 -0.036100462 -0.062485967 0.07643968
000210 08 95 b0 3a 5f e6 f1 bc 07 11 b3 3a 83 29 54 be
       0.0013472149 -0.029528795 0.0013661691 -0.2071896
000220 fa 09 11 be 3e 5d fe 3d 79 ee 24 3e 1d 61 3d 3d
       -0.14163962 0.12420128 0.16106595 0.046235193
000230 f2 e2 b4 bd 9d e9 ab bd 49 c0 92 3d f4 cd 43 3d
       -0.08832349 -0.083941676 0.07165582 0.047803834
000240 8c 05 8a bd 89 fe 8f 3d e0 bf 5c 3d d0 c8 23 be
       -0.06739339 0.070309706 0.053893924 -0.15994573
000250 64 58 72 bd e8 6c 9f 3b 87 88 b6 bd 3e 97 cc 3c
       -0.059166327 0.0048652776 -0.08912759 0.024974462
000260 47 e7 19 be 68 f4 ff 3b 00 7a 2d 3d d4 b5 45 3d
       -0.15029632 0.007811118 0.042352676 0.048269108
000270 9e 8f 72 3d 53 80 00 3e 20 9a 9e 3d d6 5c b4 bd
       0.059218995 0.12548952 0.07744241 -0.088067695
000280 c7 8b 70 bd 9f 72 30 3e 89 03 e8 bc c1 5d dd bd
       -0.058727052 0.17231224 -0.028321998 -0.10808898
000290 d0 7b 2b bc 7e 94 9b 3d 22 3b 05 bc 8a b8 06 bd
       -0.010466531 0.07596682 -0.008131774 -0.032890834
0002a0 80 9e cd 3c 7a 67 1a bd b5 3d 81 bc 65 c2 99 bd
       0.025099993 -0.03769634 -0.015776495 -0.07507781
0002b0 cf e3 ae bd 53 f1 85 3d 4c c7 06 be 17 9b b9 3c
       -0.08539545 0.065401696 -0.13161963 0.02265696
0002c0 c0 74 30 3e e0 e1 2f be 76 5e 4a 3d d9 4d 5d 3d
       0.17232037 -0.17176008 0.04940649 0.05402932
0002d0 5b 54 02 3d b3 0e 33 bc a6 79 f2 bb 7b 00 45 3e
       0.03181873 -0.010928798 -0.0073997555 0.19238465
0002e0 e2 82 de bd 92 8c 15 bd 61 30 23 bd e5 38 62 3d
       -0.10864808 -0.03651101 -0.03984106 0.05523004
0002f0 4a 86 df bc fb bd cd bd e7 6f 5d bd 30 cd 09 3c
       -0.027285714 -0.100460015 -0.054061797 0.008410737
000300 d5 0f e3 3d 11 b3 59 bd cd 06 78 3d ee bf b0 3d
       0.11087004 -0.053149287 0.06055336 0.08630358
000310 28 12 2e bd b0 a4 eb bd c3 50 12 bd f1 11 71 bd
       -0.042497784 -0.11506021 -0.03572155 -0.058855
000320 c1 ae 16 3d 20 89 19 3d 17 5e 39 3d 21 0c 2c 3d
       0.036787752 0.03748429 0.045255747 0.042003755
000330 35 6d 17 bd 0e d0 1d 3e 7d 35 c2 3d 65 9a 2c bd
       -0.036969382 0.15411398 0.09482858 -0.04213943
000340 25 3e e3 bc b7 04 b6 3d af 17 bd 3d 19 e3 90 3d
       -0.027739594 0.08887618 0.09233033 0.070745654
000350 84 65 44 3d 14 73 b0 bd 7b 38 4b bc 1a d3 06 3d
       0.047948375 -0.086156994 -0.012403603 0.032916166
000360 40 d3 92 bd 54 81 fb bd 34 ee ef bc 27 2f 81 bd
       -0.07169199 -0.12280527 -0.029288389 -0.06307822
000370 e5 b4 d3 bc 40 87 22 bd a3 2c 01 bd 5c dd f4 bd
       -0.025843093 -0.039679766 -0.03153671 -0.119562835
000380 5b 74 19 3e b1 08 ef bd f2 86 86 3c 30 89 9f 3c
       0.14985792 -0.1167158 0.016421769 0.019474596
000390 7a 8d 8d 3d 9a 26 5d bd 18 7e de bd 17 6d 02 be
       0.0691175 -0.05399189 -0.10863894 -0.12736927
0003a0 bc 2b 19 be 7e 01 16 3e 52 94 32 3e 71 07 13 bc
       -0.1495809 0.14649007 0.17439392 -0.008973942
0003b0 22 21 12 bd 99 af 0b bd 22 50 e1 3d a9 ee 8d bd
       -0.03567613 -0.03410301 0.11001612 -0.069302864
0003c0 05 4a 07 3c 4e 7b 0f bd ed 59 f5 3d 30 96 08 be
       0.008257394 -0.035029702 0.119800426 -0.13338542
0003d0 a3 5a 35 be 84 0b a9 3d 94 ef 18 3e 8f bd 09 bc
       -0.17710356 0.082541496 0.14935142 -0.008407011
0003e0 6d 80 a4 3d ca ce b3 3d 79 b9 41 bc b6 b4 8f bd
       0.08032308 0.08779676 -0.011824005 -0.0701689
0003f0 44 48 bc 3d f4 fc b4 3d 95 72 2d be 68 c3 6b bc
       0.09193471 0.088373095 -0.16938241 -0.01438985

network_body._body_endoder.seq_layers.2.bias f4 [128]
000000 3b 28 a3 38 d3 94 e2 3a b7 f7 13 3b 93 a4 0d bb
       7.779939e-05 0.0017286785 0.002257807 -0.0021612986
000010 33 36 82 3a 02 ab 8e 39 db a2 9a b9 5e 5e 0f 3b
       0.0009934366 0.0002721176 -0.00029494506 0.0021876316
000020 b3 d7 01 3c 63 10 b5 3b 46 61 24 bb 96 33 ba 3b
       0.007924962 0.005525635 -0.0025082394 0.005682419
000030 0f 90 e1 3b dc 12 b7 bb 46 5f e3 3b 61 b3 8c 3a
       0.006883628 -0.005586965 0.0069388477 0.0010734611
000040 0e 68 40 3b cf f6 08 39 fb 45 a6 bb d4 d9 58 ba
       0.0029358896 0.00013061914 -0.0050742603 -0.0008272205
000050 6d 69 30 3b 4b 33 1d 3a 33 cc 58 3a c4 92 72 3b
       0.0026918307 0.0005996718 0.0008270174 0.0037013749
000060 d3 af 0e 3c eb 41 82 3b 4e 35 59 bb 43 a1 03 3a
       0.008708912 0.003975143 -0.0033143344 0.0005021283
000070 8c 36 05 bb 96 ef c6 ba 9e 96 a8 3a 49 73 f1 ba
       -0.0020326702 -0.0015177603 0.001286227 -0.0018421198
000080 a4 a9 3d bb da 18 30 bb 81 e1 31 3c 18 07 bf ba
       -0.0028940225 -0.0026870281 0.010856987 -0.0014574258
000090 b4 11 81 bb 72 16 85 bb b8 f3 ba bb 2d 8a c1 ba
       -0.003938878 -0.0040615136 -0.005705323 -0.0014765911
0000a0 76 33 ba ba 77 4a 6c ba 80 c0 69 3a 0c 4c b0 3a
       -0.001420601 -0.00090137817 0.00089169294 0.0013450398
0000b0 88 e5 49 3c 2c 9a 73 3c 72 49 d9 bb fa 5b 37 3b
       0.012322791 0.0148683 -0.00663107 0.0027978406
0000c0 6c 93 e9 b7 1d 17 c1 3b 54 2b 9b 3b 8a 82 f0 bb
       -2.7844413e-05 0.005892648 0.0047353897 -0.00733978
0000d0 63 56 44 ba ee f4 ee 39 94 5f 93 3a e5 11 65 39
       -0.0007489679 0.00045577384 0.0011243694 0.00021845808
0000e0 88 e7 f1 bb 66 de d2 b8 b5 15 1a 3b b7 ec f7 39
       -0.007382337 -0.00010055005 0.0023511474 0.00047287878
0000f0 eb 31 c9 3b ac 3c 03 bb fb 24 6f 3b 1d aa b5 3b
       0.006139984 -0.0020025177 0.0036490548 0.0055439607
000100 60 cb 89 bb 46 8d de 3b 1e d7 40 bb 24 78 13 bb
       -0.0042051524 0.0067917434 -0.0029425095 -0.002250203
000110 a3 18 96 39 b4 70 b1 ba 6f f6 9f 3b 49 03 91 bb
       0.00028628585 -0.0013537616 0.004881672 -0.0044254404
000120 c1 a7 a0 3c 3e 26 0e 3c 79 2c be 3a 81 3e 84 ba
       0.019611241 0.00867611 0.0014509103 -0.0010089428
000130 bc 41 a0 3b 7d 14 18 bb 4e ea 25 bb 0b 40 44 ba
       0.0048906486 -0.0023205571 -0.0025316658 -0.000748635
000140 e8 82 9e 3a b8 f2 91 ba ae 6d 1b 3b bc 06 b8 3b
       0.0012093456 -0.0011134958 0.0023716497 0.005616037
000150 ca fc 0d bb 8a 51 0d ba 6e d2 93 bb 02 e3 bc ba
       -0.0021665567 -0.00053908734 -0.004511169 -0.0014410915
000160 81 58 ad 3b 35 d9 df ba c2 5c df b9 ce 54 82 3b
       0.0052900915 -0.0017078283 -0.00042602984 0.0039773947
000170 20 94 a7 3b 57 bc 84 bb 95 1d 33 ba 2e c4 9a 3b
       0.0051140934 -0.004050772 -0.0006832716 0.0047230935
000180 dd 90 41 3b 28 7f ee b9 22 3e ad bb fc 16 1a 3b
       0.0029535808 -0.00045489636 -0.005286948 0.0023512235
000190 bf 50 a4 3a a6 da c4 ba a0 9b 17 3b f6 44 42 ba
       0.0012536271 -0.0015018776 0.0023133531 -0.00074107887
0001a0 5a 46 f9 bb 71 c5 75 3b bd 08 b1 3b 82 b3 83 3b
       -0.0076072635 0.0037501717 0.005402653 0.0040192017
0001b0 49 6a 88 3b 27 15 b6 bb a3 d7 b1 38 22 71 2a bb
       0.004163061 -0.005556721 8.480183e-05 -0.0026007374
0001c0 f3 ce 97 bb 90 2d 50 bb 3d c8 29 3c 30 c3 4b bb
       -0.0046328246 -0.0031765439 0.010362682 -0.0031091683
0001d0 56 1a 24 bb cb 41 65 3b 04 ad 28 3b 9f 06 84 3b
       -0.0025040112 0.0034981843 0.002573789 0.0040291096
0001e0 81 6a ee ba ba 2f e1 ba 27 70 3c 3a 57 aa e0 3b
       -0.00181897 -0.0017180361 0.0007188343 0.0068562436
0001f0 56 6d 01 3b b1 e7 35 3b 3a 2d 93 b8 65 1a f3 3b
       0.0019749007 0.0027756507 -7.01793e-05 0.007418918

action_model._continuous_distribution.log_sigma f4 [1, 6]
000000 9a da 9f bc 0c 77 2b bd f6 ef fb bb b7 63 50 bc
       -0.019513417 -0.04186158 -0.0076885177 -0.012719086
000010 c3 c9 cf b9 1b 8c 31 3a
       -0.0003963244 0.00067728915

action_model._continuous_distribution.mu.weight f4 [6, 128]
000000 64 0a 07 bc 1c 5f a9 bc 18 5e 23 ba 99 56 3c bc
       -0.008242223 -0.020675234 -0.00062319776 -0.011495256
000010 b8 3d 13 3d 04 81 e3 bb a6 c1 b2 bc bc d9 c5 3c
       0.03594753 -0.00694287 -0.021820854 0.024151675
000020 82 08 36 bd e2 84 db 3a 83 23 11 bc b4 4a 03 bd
       -0.044441707 0.0016747976 -0.008858564 -0.032053664
000030 01 cc 95 bc 79 65 bb 3c d2 aa 58 bc 80 d1 52 bc
       -0.018285753 0.022875534 -0.0132243205 -0.0128673315
000040 7c cf d3 3b 76 ad e2 bb f0 70 47 3c d9 e1 34 3d
       0.006463943 -0.006917651 0.0121729225 0.044160698
000050 7e 1f c9 bb b3 fe 11 3c 12 5e 87 bc 46 d6 05 bd
       -0.0061377874 0.008910823 -0.016524348 -0.03267505
000060 82 7e c3 bc 13 e5 fc 3a ac 31 af 3b 33 1c e6 bc
       -0.023864035 0.0019294344 0.0053464975 -0.028089618
000070 e4 8b b0 3c 0a 43 59 bc 19 6d 62 3d af 82 5d bb
       0.02155108 -0.013260612 0.055279825 -0.0033799817
000080 a8 75 4e 3d d9 fa 8a 3b ed 37 b9 bc dc 7f a2 bb
       0.050405174 0.004241329 -0.022609675 -0.0049590897
000090 24 f5 d7 3a fb 23 e6 3b 1c cd 75 3c a5 b3 15 3b
       0.0016476256 0.007023332 0.015002515 0.0022842672
0000a0 1b a7 20 3b 01 81 0e 3c fa 27 50 bc 4f c6 30 3c
       0.0024513665 0.008697749 -0.012704844 0.010789468
0000b0 7b 79 f1 bc d6 b4 4f bd 6e 36 c4 3b 19 53 c1 bc
       -0.029476872 -0.050709568 0.005987934 -0.023599194
0000c0 b1 a4 00 3c 7a 25 c4 bc ab 30 b2 bc 07 90 73 3c
       0.0078517655 -0.023943651 -0.021751722 0.014865882
0000d0 30 24 43 3c 96 77 70 3c 21 89 bb bc af ec 0d 3d
       0.011910483 0.014676949 -0.022892537 0.034649547
0000e0 6c a5 8f 3c 67 70 91 bc 3b cc 8b bb 87 b7 1d 3d
       0.017534934 -0.017753793 -0.0042662895 0.038505103
0000f0 11 35 02 bd 3d 76 40 bc 34 9e bb 3b 86 2f f7 bc
       -0.03178889 -0.01174694 0.0057256464 -0.030174028
000100 10 ad 79 3b 1d a9 8f 3c 20 32 2f 3b bb 81 38 3c
       0.0038097538 0.017536694 0.0026732758 0.011261399
000110 be 4b 09 3d 9f 03 71 bb 33 81 a4 bc 0a 8f ea 3b
       0.0335195 -0.003677584 -0.020081138 0.007158165
000120 4a 35 3c bd 2c 06 06 bd 02 d3 55 bd 0f 03 57 3c
       -0.045949258 -0.03272073 -0.052203186 0.013123288
000130 0e 07 a4 bb 1a aa 82 bc 2b 20 ea 3a a3 ed 4b bb
       -0.005005724 -0.015950251 0.001786237 -0.0031116984
000140 c9 49 43 3d 4c b4 e6 3c 88 c6 08 3b fc f9 1f 3d
       0.04767779 0.028162144 0.0020870287 0.039056763
000150 24 9c eb ba 52 03 1c 3d 1c 85 c1 3b 1b 14 ae 3b
       -0.0017975611 0.038089104 0.0059057605 0.0053124554
000160 86 9f 48 3c f5 67 58 bc 39 14 47 bc 94 ef 6e 3a
       0.012245065 -0.013208379 -0.012150818 0.00091146794
000170 a8 d1 53 3c cf ce d1 3c e0 2b 69 bc ad c5 a0 bc
       0.012928404 0.02561131 -0.014231652 -0.01962551
000180 f8 38 7c 3c bb b0 a5 3a 85 30 3a 3c 5e e4 0e bb
       0.015394442 0.0012641171 0.011364107 -0.0021803598
000190 36 11 57 bb e0 8d 16 3d 99 ff 22 bb 91 a1 04 bb
       -0.0032816655 0.036756396 -0.0024871586 -0.0020237903
0001a0 34 bf 25 3c 9e 30 9e bc d2 e9 dc bc 80 13 39 bc
       0.010116387 -0.019310292 -0.026966963 -0.011296153
0001b0 cc ca e6 ba 2b 8e d6 bb 62 e8 a3 bb 56 27 32 3c
       -0.0017608046 -0.0065477095 -0.0050020674 0.010873636
0001c0 83 66 31 3d c7 d2 08 3d b6 f1 28 bd bf 84 88 3a
       0.043310653 0.033404138 -0.04124614 0.0010415538
0001d0 dc 9d 95 3c 64 be 8c 3a 9d 66 a3 bc aa 47 5f bb
       0.01826375 0.0010737893 -0.01994639 -0.0034069815
0001e0 b5 90 b0 bb d3 fe e9 bb a7 79 a7 bc 99 4b 6e bc
       -0.005388344 -0.007140973 -0.02044375 -0.014544391
0001f0 da 55 97 bc e5 c2 e4 ba 18 d5 80 3d 20 3d dc 3c
       -0.018473554 -0.0017453103 0.062906444 0.026884615
000200 f5 5d 17 3c ff 91 cf bc 3b d7 01 3c 47 a7 4f 3c
       0.00923871 -0.025338171 0.00792485 0.012674159
000210 bb 1e d7 bb 2d bb e8 b9 13 39 70 3c 3d c3 0e 3c
       -0.0065649427 -0.00044389945 0.014662045 0.008713541
000220 88 9f 1c bc c4 32 05 bd ee 69 1c bb 85 17 c1 bc
       -0.00955952 -0.032519117 -0.002386685 -0.023570785
000230 8a 7a 40 bd 87 3b b1 bc f4 c9 c4 bc 1d d7 2c 3c
       -0.046991862 -0.02163483 -0.02402208 0.010549334
000240 0d db 50 bd 56 37 a5 3b e3 1e a8 3c 09 c9 ac bb
       -0.050990153 0.005041997 0.02052254 -0.0052729887
000250 84 07 17 3d dd d2 b0 bc e3 01 9c 3c 79 28 f0 bb
       0.0368724 -0.021584922 0.019043868 -0.0073290435
000260 90 df c3 bc cb 92 ea bc 65 1d 00 bc 04 5b 72 3b
       -0.023910314 -0.02863445 -0.007819508 0.003698052
000270 57 e3 20 bc 29 42 d5 bb 93 c3 6a 3c a3 dc 1a 3d
       -0.009819827 -0.006508131 0.014328855 0.03780807
000280 2f 93 23 3c 0e 80 96 3b ed 09 bb bc dd e5 af 3b
       0.009983822 0.004592902 -0.022831881 0.005367978
000290 89 08 c2 3c f0 fc 84 3c 74 83 15 3d 81 4c 0c 3d
       0.02368571 0.016233891 0.036502317 0.034252647
0002a0 38 54 7f 3c 13 2c 2c 3c aa c6 97 3b ef 77 f6 3b
       0.015584044 0.010508555 0.004631837 0.0075216214
0002b0 92 e8 a1 bc b0 ce 26 bc 08 98 af 3c e4 48 8d 3b
       -0.019764218 -0.010181114 0.021434799 0.0043116678
0002c0 8d 14 24 bc 79 f3 59 bc 35 cc 12 bd 47 67 93 3c
       -0.010014665 -0.013302677 -0.03583928 0.017993582
0002d0 1c 9a d8 ba 0b 07 8a bc 4a f2 a7 bc b1 42 9b bc
       -0.001652542 -0.016849061 -0.020501275 -0.0189527
0002e0 3d 15 0e 3c 4f b0 10 bb ca 4c 6b 3d 95 34 52 bb
       0.008672056 -0.0022077744 0.05744628 -0.0032074798
0002f0 b5 c3 1f bd a5 19 8a 3a d1 cd f6 bc be 22 93 3c
       -0.039005 0.0010536207 -0.030127438 0.017960902
000300 7f 51 dc bb 87 48 57 bd f8 3b 71 ba bf 28 cc ba
       -0.0067235823 -0.0525594 -0.00092023565 -0.0015576108
000310 8a 34 b3 3b d0 d9 bf 3c 67 a8 ff 3c 58 23 a1 3c
       0.0054689096 0.02341929 0.03120823 0.019670174
000320 99 3a 51 3b dd 01 19 bd ae a2 e1 3c 17 2b 3a 3d
       0.0031925796 -0.037355293 0.027543392 0.04545125
000330 4c 07 63 bc a7 b7 d4 3b 07 34 72 3c 90 cc fd 3a
       -0.01385672 0.0064916196 0.014782912 0.0019363333
000340 a4 a4 a4 bc fc c3 71 3c c6 5d 44 bc 57 9f b3 bc
       -0.020098038 0.014756199 -0.011985248 -0.021926565
000350 15 6e ae 3b d8 fb 20 3c fb 80 f9 3b 3c 17 c8 3a
       0.0053231814 0.009825669 0.0076142526 0.0015265713
000360 3c 39 18 bd 7f 6c a2 3c 5f b5 a4 ba ee a9 7f bc
       -0.037163958 0.019827126 -0.001256626 -0.015604479
000370 5b 7d ce bc e4 1f 58 bc 5f 83 c0 bc 24 29 83 bc
       -0.025206259 -0.013191197 -0.023500143 -0.016010828
000380 68 9f cd bc d0 1c 96 3a 2b f8 34 3c 92 6e 4b bc
       -0.025100425 0.0011452679 0.011045496 -0.012416499
000390 fd 3d c1 3c 08 30 14 3b 4e 3c 4e 3c b8 e6 8b bb
       0.023589129 0.0022611637 0.01258762 -0.004269447
0003a0 2e 71 b5 3c e3 51 12 bc 35 61 4b ba c5 bf 7b bc
       0.022148695 -0.008930656 -0.00077583204 -0.015365546
0003b0 26 91 d4 bc bf d8 d0 3c 53 e6 82 3b 61 88 c1 3c
       -0.025948118 0.025493978 0.003994742 0.0236246
0003c0 99 0c f6 3c 4a a1 91 3c a4 12 ba bb bc 47 32 3d
       0.030035304 0.017777104 -0.0056784917 0.043525442
0003d0 dd 8c a0 bc 53 62 1c bc 06 23 f3 3b 82 2e 40 bc
       -0.019598419 -0.009544927 0.0074199466 -0.011729838
0003e0 4c 84 81 3c 5d 88 d1 bb d8 49 27 3d ee fd 41 bc
       0.015810154 -0.0063944296 0.040841907 -0.011840327
0003f0 34 d1 87 3b ce 82 f8 bc 91 cc 0d 3d c0 ae 10 bd
       0.004144812 -0.03033581 0.034618918 -0.035322905

action_model._continuous_distribution.mu.bias f4 [6]
000000 13 15 a9 bb 1c b2 99 bb 5d 7c 79 3a 4f 83 22 39
       -0.005159983 -0.0046904217 0.0009517128 0.0001549844
000010 51 29 dd ba 1d 51 36 3b
       -0.0016873275 0.0027819343
