results/PlayerAgentTest/EasyPlayer/EasyPlayer-1350.onnx (onnx, 274768 bytes, 6 tensors)

network_body._body_endoder.seq_layers.0.weight f4 [128, 396]
000000 03 d4 99 bc 03 0c 22 3c 7d 14 2d 3d 3e 4d c4 3c
       -0.018777853 0.009890559 0.042255867 0.023962613
000010 c3 6f 86 bc 78 4d dc 3c e6 de 03 3d f6 d2 9d bc
       -0.016410714 0.026892409 0.032194994 -0.019265633
000020 a4 32 86 3d b7 ad 15 3d 7c d3 c5 3d 23 bc 98 3b
       0.06552628 0.03654262 0.09659478 0.0046610995
000030 0d 3a 02 be 3f bd 4e bd 88 98 3c bc cd 1e d3 3b
       -0.12717457 -0.050473448 -0.011510976 0.0064428807
000040 9f b2 7c bd f5 04 0a bd ff 2d 43 3d 7e 53 58 3d
       -0.061693784 -0.033696134 0.047651287 0.052814
000050 1e 5a 29 3c 26 b2 b2 3c f3 f9 2a bd a6 c8 b7 bc
       0.010336427 0.021813463 -0.041742276 -0.022434544
000060 3a 1c 64 bc 82 42 a3 bc c7 6b e1 3c aa 6a d2 bd
       -0.013922745 -0.019929174 0.027517213 -0.10274251
000070 7b 42 bc 3d b0 8c 9c 3d 6d bb b1 bc 95 c3 dd 3c
       0.09192368 0.076440215 -0.021695817 0.0270708
000080 db 25 bb bb fd 4e cd bc 82 79 a5 bc e3 01 10 bd
       -0.0057113 -0.025062079 -0.020199541 -0.03515805
000090 ae be 91 3d 66 a4 8f 3d 38 cd 64 bd 25 b3 99 3c
       0.071164474 0.070137784 -0.055859774 0.01876218
0000a0 50 45 cc bd 17 30 8e 3d 07 5b 81 3d 7e f4 4c bd
       -0.09974158 0.06942766 0.0631619 -0.050037853
0000b0 0d bf e8 3c fc 08 31 bd 10 76 91 bd 93 e5 75 3d
       0.028411413 -0.04322146 -0.07102597 0.060033392
0000c0 c9 d0 66 bd 39 97 4a 3c b4 4c d2 3c 18 64 c8 3c
       -0.056351457 0.012365156 0.02567134 0.02446179
0000d0 a1 03 f8 3b 3a b8 10 bc 54 56 4c bd 75 0d 8d bd
       0.007568792 -0.008832986 -0.049887016 -0.06887332
0000e0 b2 94 a5 39 b0 37 08 bd e5 72 c8 3d 0f 33 a9 3d
       0.0003158204 -0.033256233 0.097875394 0.08261692
0000f0 8a 63 13 bd 39 0f f0 bc 75 5e 1f 3d ba 33 1c 3b
       -0.0359836 -0.029304134 0.03890844 0.0023834542
000100 3b e5 0a bd 3b 78 98 bd d1 77 e3 3c 6c 67 f8 3c
       -0.033910017 -0.07444807 0.027767094 0.030322753
000110 df c8 48 bb c1 84 a6 ba 5a 50 7c 3d 4a f2 85 bb
       -0.0030637307 -0.0012704359 0.061600067 -0.004087721
000120 e7 a2 41 bd 41 d7 05 bd f0 f8 9a bb a3 33 8d bc
       -0.047274496 -0.032675985 -0.0047293827 -0.017236536
000130 fe b2 af 3d ec 1a 4b 3d d2 6b 86 3c 84 6b 94 bd
       0.08579062 0.04958622 0.016408835 -0.072470695
000140 cf 08 41 3d 83 2e 7d 3c 96 5e f2 3b 76 bb dd bc
       0.04712754 0.015452984 0.0073965294 -0.027066927
000150 6f c3 80 3d d9 a0 e1 ba fc 6a 22 3d 13 9d 65 3d
       0.06287276 -0.0017214074 0.03965281 0.056058
000160 e7 a6 7a 3d b7 7a 18 3d 14 93 77 bd a2 1b 1d 3d
       0.061194327 0.037226405 -0.060443 0.03835643
000170 8e e4 06 bd 86 05 18 bd f6 24 e5 bd 74 30 6b bc
       -0.03293281 -0.037114643 -0.1118869 -0.014354814
000180 03 89 bb bc 5c 9c c9 bd a2 71 0f 3c ea 01 a4 bc
       -0.02289248 -0.09844276 0.0087551195 -0.020020444
000190 2c ce d9 3c b9 04 e8 bc eb 2b 0b bd bb 0d 74 bb
       0.026587568 -0.028322564 -0.03397743 -0.003723963
0001a0 df da 98 bd e7 05 06 bd b1 12 7b bc 18 98 42 3d
       -0.07463621 -0.032720473 -0.015324281 0.04750833
0001b0 cd 7b 68 bd 7a 30 b3 b7 a8 2e 86 3d 3c bf bf bc
       -0.05675869 -2.1361036e-05 0.06551868 -0.023406617
0001c0 f0 fc 3f 3d 81 4d ab bc 43 c3 8b 3d ee de b1 3c
       0.04687208 -0.02091098 0.068243526 0.021712746
0001d0 73 ee ad 3c c2 11 89 bb e6 0e 2c 3d 81 4f 48 3c
       0.021231866 -0.004183025 0.042006396 0.012225986
0001e0 f7 de 68 bd 52 25 00 be a4 00 db 3d a1 cc 8f bb
       -0.05685326 -0.12514237 0.106934816 -0.0043884073
0001f0 da 79 05 bc 56 a1 fc 3b 37 6a a0 3d 54 a6 f6 3c
       -0.008146727 0.0077096624 0.07832759 0.030108608
000200 38 26 32 bc cb 40 3e bc 11 5f 12 bd 98 bb 7d bb
       -0.01087337 -0.011612128 -0.035735194 -0.003871655
000210 ce 75 44 bc e2 24 ba 3d 8e 91 1e 3d 0a 4d 88 3d
       -0.011990977 0.09089066 0.03871303 0.06655319
000220 92 ae 9f 3d 92 49 22 bd a2 d3 57 3d e5 fe 42 3d
       0.077969685 -0.039620943 0.052692063 0.047606368
000230 50 6f 06 3e 16 31 b3 bb 58 94 35 be 97 3b 80 3d
       0.131284 -0.005468498 -0.1773237 0.06261366
000240 4f 38 91 bc f1 64 41 3d 85 69 83 3d 0f f7 3e 3c
       -0.017727045 0.047215406 0.06416611 0.011655583
000250 8e 43 46 bd 83 4d 27 bd 22 7d 5f bd 3a 26 17 bc
       -0.04840427 -0.040845405 -0.054562695 -0.0092254225
000260 72 cd 45 bd 66 c7 e1 3c 5d 77 59 3c 67 b7 f3 bd
       -0.04829163 0.0275609 0.013273087 -0.119002156
000270 24 81 08 3d 0e 23 04 bd 8e 9a 09 bc d6 e2 36 bd
       0.033326283 -0.032259993 -0.008398665 -0.04464992
000280 03 d5 e2 3c cc 65 09 bd f5 74 74 bd 72 b5 96 bd
       0.027689463 -0.033544347 -0.05968185 -0.07358827
000290 ee 2d 9e bd b8 23 01 bc 71 a9 81 bd fc 0d e9 bc
       -0.07723604 -0.007882051 -0.063311465 -0.028449051
0002a0 e4 2c 5d bd 13 66 55 3d 63 80 38 39 3f 1e d6 bc
       -0.05399789 0.0520993 0.00017595435 -0.02613747
0002b0 81 f8 cd 3d 4d e8 dc bd 6e 0b 2b bd c5 aa 9f 3c
       0.10057164 -0.10786495 -0.041758947 0.019490609
0002c0 05 f2 aa bb d2 21 be b9 d4 d3 89 3d 41 b1 80 3d
       -0.0052168393 -0.00036264822 0.06729856 0.062838085
0002d0 f3 41 98 3c c6 53 de bd bd f0 a1 bd 40 00 b6 bc
       0.018586135 -0.10855822 -0.07907245 -0.022216916
0002e0 1b 13 49 bc 56 eb 40 bd cc dc b0 3d f0 cf 56 bc
       -0.0122726215 -0.047099434 0.08635864 -0.0131111
0002f0 c3 f9 17 3d 8a f0 92 bd c5 5a 16 bd b9 dc 22 bd
       0.037103426 -0.071747854 -0.03670766 -0.03976128
000300 21 7c f2 3a be d3 6c bd 68 26 6f 3d e7 bc 27 bc
       0.0018500128 -0.05781912 0.058386236 -0.010237909
000310 65 ec c7 3d 35 37 80 3d 71 eb be 3c 18 e5 a1 bd
       0.097618856 0.0626053 0.023305627 -0.07905024
000320 63 f0 ba 3d e4 48 d6 3c 0e 7d cc 3b 98 92 2b bb
       0.091278814 0.026157804 0.0062404936 -0.0026179906
000330 71 2a e8 bc 55 72 1c be 44 f6 37 3d 51 e9 9f 3d
       -0.02834055 -0.15277989 0.04491259 0.078081734
000340 82 9a d4 3a c8 9d 6e bd a6 b2 9f bb a4 f3 84 3d
       0.0016220363 -0.05825594 -0.0048735915 0.06491783
000350 35 d6 21 bd bc 1f 60 3c 7d 3b 30 3d 77 6d 3e bd
       -0.039510924 0.013679441 0.043025482 -0.046491113
000360 4f c2 53 ba 05 05 b4 3c 7e f7 3c 3c 2e 3c 71 bc
       -0.00080779655 0.02197505 0.011533616 -0.014723821
000370 ba 11 07 ba 48 40 1e bd 13 fb 24 3d 76 db ac bc
       -0.0005152483 -0.038635522 0.040278506 -0.02110074
000380 b3 29 4a 3d 88 30 89 bd ea ab ab 3c 5a 1e 43 3c
       0.049356174 -0.0669871 0.020955998 0.011909092
000390 c7 c4 10 3c 6b 50 96 bd 7a 38 1f bd cb 92 07 3d
       0.008835978 -0.07339557 -0.03887222 0.033098977
0003a0 64 5b e9 bc 78 e6 52 3d 0c 93 ea 3c fc f3 51 bd
       -0.028485961 0.051489323 0.02863457 -0.051258072
0003b0 76 4e 83 bd 20 99 f5 3c b0 e6 87 3d 2e d7 8e 3b
       -0.064114496 0.029980242 0.06635797 0.0043591475
0003c0 54 f2 c2 bc 3b d5 8a bd 0c 16 49 3c 9d ea 40 bb
       -0.023797192 -0.06778952 0.012273323 -0.0029436715
0003d0 d8 75 7a 3d fc f9 85 bd bf 88 9c bc 9d 3e af 3d
       0.06114754 -0.06541821 -0.019108174 0.085568644
0003e0 2f 81 89 3d 1a bc 56 bd 10 5a aa 3c cd 37 9b 3d
       0.06714093 -0.05242548 0.020794898 0.075790025
0003f0 d0 e2 c5 bb 90 68 1e bd 5c 1c b8 bd db 35 94 3c
       -0.006039001 -0.038673937 -0.08989784 0.018092087

network_body._body_endoder.seq_layers.0.bias f4 [128]
000000 00 00 00 00 00 00 00 00 00 00 00 00 00 00 00 00
       0.0 0.0 0.0 0.0
000010 00 00 00 00 00 00 00 00 00 00 00 00 00 00 00 00
       0.0 0.0 0.0 0.0
000020 00 00 00 00 00 00 00 00 00 00 00 00 00 00 00 00
       0.0 0.0 0.0 0.0
000030 00 00 00 00 00 00 00 00 00 00 00 00 00 00 00 00
       0.0 0.0 0.0 0.0
000040 00 00 00 00 00 00 00 00 00 00 00 00 00 00 00 00
       0.0 0.0 0.0 0.0
000050 00 00 00 00 00 00 00 00 00 00 00 00 00 00 00 00
       0.0 0.0 0.0 0.0
000060 00 00 00 00 00 00 00 00 00 00 00 00 00 00 00 00
       0.0 0.0 0.0 0.0
000070 00 00 00 00 00 00 00 00 00 00 00 00 00 00 00 00
       0.0 0.0 0.0 0.0
000080 00 00 00 00 00 00 00 00 00 00 00 00 00 00 00 00
       0.0 0.0 0.0 0.0
000090 00 00 00 00 00 00 00 00 00 00 00 00 00 00 00 00
       0.0 0.0 0.0 0.0
0000a0 00 00 00 00 00 00 00 00 00 00 00 00 00 00 00 00
       0.0 0.0 0.0 0.0
0000b0 00 00 00 00 00 00 00 00 00 00 00 00 00 00 00 00
       0.0 0.0 0.0 0.0
0000c0 00 00 00 00 00 00 00 00 00 00 00 00 00 00 00 00
       0.0 0.0 0.0 0.0
0000d0 00 00 00 00 00 00 00 00 00 00 00 00 00 00 00 00
       0.0 0.0 0.0 0.0
0000e0 00 00 00 00 00 00 00 00 00 00 00 00 00 00 00 00
       0.0 0.0 0.0 0.0
0000f0 00 00 00 00 00 00 00 00 00 00 00 00 00 00 00 00
       0.0 0.0 0.0 0.0
000100 00 00 00 00 00 00 00 00 00 00 00 00 00 00 00 00
       0.0 0.0 0.0 0.0
000110 00 00 00 00 00 00 00 00 00 00 00 00 00 00 00 00
       0.0 0.0 0.0 0.0
000120 00 00 00 00 00 00 00 00 00 00 00 00 00 00 00 00
       0.0 0.0 0.0 0.0
000130 00 00 00 00 00 00 00 00 00 00 00 00 00 00 00 00
       0.0 0.0 0.0 0.0
000140 00 00 00 00 00 00 00 00 00 00 00 00 00 00 00 00
       0.0 0.0 0.0 0.0
000150 00 00 00 00 00 00 00 00 00 00 00 00 00 00 00 00
       0.0 0.0 0.0 0.0
000160 00 00 00 00 00 00 00 00 00 00 00 00 00 00 00 00
       0.0 0.0 0.0 0.0
000170 00 00 00 00 00 00 00 00 00 00 00 00 00 00 00 00
       0.0 0.0 0.0 0.0
000180 00 00 00 00 00 00 00 00 00 00 00 00 00 00 00 00
       0.0 0.0 0.0 0.0
000190 00 00 00 00 00 00 00 00 00 00 00 00 00 00 00 00
       0.0 0.0 0.0 0.0
0001a0 00 00 00 00 00 00 00 00 00 00 00 00 00 00 00 00
       0.0 0.0 0.0 0.0
0001b0 00 00 00 00 00 00 00 00 00 00 00 00 00 00 00 00
       0.0 0.0 0.0 0.0
0001c0 00 00 00 00 00 00 00 00 00 00 00 00 00 00 00 00
       0.0 0.0 0.0 0.0
0001d0 00 00 00 00 00 00 00 00 00 00 00 00 00 00 00 00
       0.0 0.0 0.0 0.0
0001e0 00 00 00 00 00 00 00 00 00 00 00 00 00 00 00 00
       0.0 0.0 0.0 0.0
0001f0 00 00 00 00 00 00 00 00 00 00 00 00 00 00 00 00
       0.0 0.0 0.0 0.0

network_body._body_endoder.seq_layers.2.weight f4 [128, 128]
000000 99 40 86 bd 4a 09 3b bd 0c e2 01 3e d8 10 cf bd
       -0.0655529 -0.045663156 0.12683886 -0.101106346
000010 73 75 25 3d 1c 39 88 bb 46 d0 1d 3d 75 53 9a bd
       0.04039521 -0.0041571986 0.038528703 -0.075354494
000020 b3 90 2c bd b2 ae cd 3d 1f 26 b5 3d 58 46 c4 bd
       -0.042130183 0.10043086 0.08845162 -0.095837295
000030 e3 9a 59 bc 5f cb 54 bc c7 07 38 bd e9 14 e8 3c
       -0.013281557 -0.012987941 -0.044929292 0.028330283
000040 1b 06 2b 3d e7 5a 34 be be cb 2f 3d 60 34 10 3c
       0.04175387 -0.17612801 0.042918913 0.00880155
000050 26 1b 30 3d f6 30 57 be a9 94 e1 3a 0e 8b c8 3c
       0.04299464 -0.21014771 0.0017210442 0.024480369
000060 79 0b 9d bd 10 ee 47 be 1d 0f 12 bc 0e 9e 20 be
       -0.07668204 -0.19524407 -0.008914736 -0.15685293
000070 00 3c 2d bd b7 fa 1b bd e2 3d 95 bd bf d2 1f bd
       -0.04229355 -0.038080897 -0.07287194 -0.039019343
000080 6f 8e d4 bc 7e 1e 00 bd ec 15 4c 3b ce c8 b3 3d
       -0.025946824 -0.03127908 0.0031140996 0.08778535
000090 e2 20 a2 bd b8 a8 91 bb f7 83 4d 3b 27 6e 0d 3e
       -0.07916428 -0.0044451617 0.0031359175 0.13811551
0000a0 c5 7f d4 bc 93 58 04 3e 54 0c 01 be c0 80 ad 3d
       -0.025939832 0.12924413 -0.12602359 0.08471823
0000b0 6d 33 e3 bd 6a 2c 23 bc 76 13 cd 3c 0d db 02 3d
       -0.11093793 -0.00995932 0.025033694 0.031947184
0000c0 df bf ea bc 92 c0 4a bd 94 8e 89 bd 85 46 41 3d
       -0.028655944 -0.049500056 -0.06716648 0.047186393
0000d0 cd 7e 9b bd f4 22 22 be 1d 88 8a bc 48 14 01 be
       -0.07592545 -0.15833646 -0.016910607 -0.12605393
0000e0 8d 27 34 be ec f4 43 bc 06 4b 07 3d 3d 08 69 bc
       -0.17593212 -0.011960249 0.033030532 -0.014223156
0000f0 8d 2b 79 3a d6 e4 ea 3d 6f 6f c5 3c fc d1 56 bd
       0.0009505086 0.11469428 0.024100987 -0.05244635
000100 a6 02 92 3c 00 44 e5 bc 15 dc 37 3d 4c 95 5d 3c
       0.017823528 -0.027986526 0.04488762 0.013524365
000110 10 ba 29 3e 27 47 16 bd 30 8e 3e bd dd b5 1e 3d
       0.16574883 -0.03668895 -0.04652232 0.038747657
000120 20 50 01 3b 48 d5 9f bc de 69 00 be b2 9b 9f 3c
       0.0019731596 -0.01951088 -0.12540385 0.019483421
000130 1c 4c b0 bd b1 fb 0b 3d e5 e6 8f bd 92 89 08 3e
       -0.08608267 0.03417558 -0.070264615 0.13333729
000140 02 ab 1f bd c0 da b9 3d 97 80 ac 3d 55 ed eb bd
       -0.038981445 0.090749264 0.08422964 -0.11519877
000150 38 63 46 bd a3 0e 00 3d 37 2b 4c 3d 15 62 b6 3b
       -0.048434466 0.03126396 0.0498459 0.0055658915
000160 e2 23 0d 3d 79 4e 75 3d e7 99 f7 bd ba 7e ac bd
       0.03445805 0.05988929 -0.120899014 -0.08422609
000170 30 6e 0f 3e ee bc f2 bd 15 a7 0a be 0d 7a 1e bd
       0.14006877 -0.11852442 -0.13540299 -0.038690615
000180 72 78 04 be 2a 7f c8 3d 66 b3 96 bd bb 41 32 3d
       -0.12936571 0.097898796 -0.07358436 0.043519717
000190 cb 9b 15 bb 62 4d c4 bd 65 16 02 3d c2 f4 ca bd
       -0.0022828456 -0.09585072 0.03175964 -0.09909965
0001a0 3d 33 52 bd 18 11 0d bd 33 42 80 bd c6 1d 1d 3d
       -0.051318396 -0.03444013 -0.062626265 0.038358472
0001b0 57 b1 1e bc 68 fc 04 be 80 da e1 3d e9 bd 55 3c
       -0.009685836 -0.1298691 0.11028004 0.013045766
0001c0 0b 92 52 bd 7f 98 5f 3c ca 78 0c 3e f3 82 06 be
       -0.05140881 0.013647198 0.13717952 -0.1313589
0001d0 ec c8 07 3d 0b 71 93 3d 14 78 6c 3a cf 85 c8 3d
       0.0331506 0.071992956 0.00090205786 0.09791147
0001e0 d5 bb 64 bd 28 d2 fd bd b8 ee 54 3d da 89 4c bd
       -0.055843193 -0.123936 0.051985472 -0.049936153
0001f0 77 56 95 bd e5 67 60 bd 5c de b9 3d c6 0b 37 be
       -0.072918825 -0.05478658 0.09075615 -0.17875585
000200 14 ac 7a bd 19 64 af bd 04 63 0e 3e c7 e9 fb bd
       -0.061199263 -0.08564014 0.13904959 -0.12300449
000210 d5 0e 38 3d a4 23 43 be 81 d2 41 bd 86 e6 36 bd
       0.04493602 -0.19056565 -0.047319893 -0.044653438
000220 65 92 50 bd 66 2b 87 3d 56 bd 10 3c ae d2 d1 3d
       -0.050920863 0.066000745 0.008834204 0.10245262
000230 e8 a3 f7 bd 71 60 1a 3d 8b 14 a4 3d d0 80 03 be
       -0.120918095 0.03768963 0.08011731 -0.12842107
000240 ab 15 ff bd bc f0 ae 3d 70 77 7b 3d a4 65 82 3b
       -0.12455305 0.0854201 0.0613932 0.0039794017
000250 56 f3 3b 3d 2c cb b1 bd 6f da 2d 3c 48 95 00 bc
       0.04588636 -0.0868133 0.010611161 -0.007848091
000260 88 91 bd 3d 39 a8 54 3d 33 23 48 be 74 8c 29 3d
       0.092562735 0.051918242 -0.19544677 0.041393712
000270 21 36 27 be 22 4a 69 bd 45 6f 50 3c b6 f1 7d bc
       -0.16329242 -0.056955464 0.012721841 -0.015499523
000280 a6 6f 8e bc 02 06 9d bd fa 7f 54 bd 15 e2 a5 3d
       -0.017387222 -0.076671615 -0.05187986 0.08099762
000290 e7 d9 00 3c cf 6c 3f 3d dd cb 8e 3d 4d 81 08 bd
       0.007864452 0.046734627 0.069724776 -0.033326436
0002a0 ae 9f 4f bd dd ec 7e bd db 4c 0f bd 4d 83 f0 3d
       -0.05068939 -0.06223761 -0.034985404 0.11743794
0002b0 9f a4 b0 bd 3e df a6 bd 32 38 a4 3d 71 cb 56 bd
       -0.08625149 -0.08148049 0.08018531 -0.05244011
0002c0 11 bd dd 3d 02 b8 1a 3e c4 44 d9 bd 4c 57 12 3e
       0.10827077 0.15109256 -0.10608819 0.14291114
0002d0 bf cb 9f 3d 8d 17 2b 3e dc d3 0f 3e bd 22 62 bd
       0.07802533 0.16708203 0.14045662 -0.05520891
0002e0 cd 96 23 bd 47 43 11 3d 1c 33 c9 3d b3 e9 cb bd
       -0.039938737 0.03546455 0.098242015 -0.09956684
0002f0 14 6a 28 3e a2 e0 4e 3d b1 9f 2b 3d 5a fb d0 bd
       0.16446716 0.050507195 0.04190034 -0.102041915
000300 ba a0 08 3d 13 b0 e2 bc af 9a 82 3d 4c 03 17 3d
       0.033356406 -0.02767185 0.0637716 0.03686838
000310 9f 7b 1b bc e6 6a c5 3d 09 26 cf bd 32 02 19 bc
       -0.009489923 0.0963953 -0.101146765 -0.009338902
000320 df 92 c0 3a 19 87 a1 3c 5b 56 a3 bc ff 37 3f 3d
       0.0014692208 0.01971774 -0.019938638 0.04668426
000330 1c 8b e3 bc db 69 a8 3d 46 bc ba 3c 4b f9 ca 3c
       -0.027776293 0.08223315 0.022794854 0.024777075
000340 12 27 bc bd a6 c9 e4 bc 8a 17 c5 bd 9c a9 a0 3d
       -0.091871396 -0.027928185 -0.0962363 0.078448504
000350 76 fc a7 3c da 98 48 bd e1 13 46 bd 52 29 72 bd
       0.020506125 -0.048973896 -0.0483588 -0.059121437
000360 a4 7b bb 3d c1 6d 89 3d 91 87 29 bd 81 99 21 bd
       0.09154442 0.06710387 -0.04138905 -0.039453033
000370 52 6d cb bd 1d f2 3d bc 45 95 be 3c 7b 35 c5 3c
       -0.099329606 -0.011593369 0.023264537 0.024073353
000380 b5 38 93 bd 77 e9 1d bd 99 79 b2 bc 70 11 42 3d
       -0.071885504 -0.038552728 -0.021786498 0.04737991
000390 d7 aa d1 3d 99 82 a0 3b fa 6a 30 bd 54 04 56 3d
       0.10237663 0.004898381 -0.04307077 0.05225022
0003a0 31 5c 6c 3d d1 a7 92 bd 85 1c 00 bd a8 09 31 3d
       0.057705108 -0.07160915 -0.0312772 0.0432221
0003b0 4a 3a 39 bd 7e a6 f6 3d 26 f6 b5 3c 37 d5 49 be
       -0.045221604 0.120434746 0.0222121 -0.19710241
0003c0 d7 06 79 3c da ed 22 3e 86 f3 be 3d 22 a7 41 bd
       0.015199385 0.15911046 0.09323792 -0.04727853
0003d0 66 c0 8b bc 45 8a 92 3d 0b b3 01 3e e8 b0 ce 3c
       -0.017059516 0.07155279 0.12665956 0.02523084
0003e0 47 50 12 3e ea 2e 3e bc 0f be 53 bd d4 82 eb 3c
       0.14288436 -0.011607865 -0.051694926 0.028748907
0003f0 ce 15 10 3d 93 a2 fa 3c 2a 42 e4 3c 0c fd e3 bc
       0.035177045 0.0305951 0.02786358 -0.027830623

action_model._continuous_distribution.log_sigma f4 [1, 6]
000000 00 00 00 00 00 00 00 00 00 00 00 00 00 00 00 00
       0.0 0.0 0.0 0.0
000010 00 00 00 00 00 00 00 00
       0.0 0.0

action_model._continuous_distribution.mu.weight f4 [6, 128]
000000 24 3d 37 3d 57 c7 20 3d 8d ee 4b 39 63 df d0 bc
       0.044736043 0.039252605 0.00019448456 -0.025497144
000010 7c 0e 06 bd cd 1a e1 3b 13 90 bb bc 4f 9b 2d bc
       -0.032728657 0.00686965 -0.022895848 -0.0105961105
000020 0f b9 f4 3c 7f 17 c1 3b ec 34 c0 3b e7 6a a4 3c
       0.029873399 0.0058926935 0.005865684 0.020070506
000030 4e 2d 1f 3a b2 bd 9c 3b 12 fc 4f 3b 48 8c cd 3c
       0.00060721196 0.0047833556 0.003173594 0.025091305
000040 27 1d a5 bc 10 8b b3 bb b5 44 94 bc 60 59 eb 3c
       -0.020155502 -0.005479224 -0.018099168 0.02872914
000050 ad 6e 31 bc cf d9 11 bc 1f 7f 61 ba 2d 7d 58 bc
       -0.01082961 -0.008902027 -0.00086020114 -0.013213438
000060 c0 d5 4c 3c d3 52 ff 38 02 a5 90 3c e0 03 b5 bc
       0.012502134 0.00012174775 0.017656807 -0.022096574
000070 66 12 0d 3a 17 e3 1c 3c bf 52 2f bc 9d f9 0c bc
       0.0005381465 0.009575627 -0.010700881 -0.008604434
000080 ff 46 1a 3c 4a 90 73 3c 93 33 8e bb df 7c 8d bc
       0.009416341 0.014865944 -0.004339644 -0.017271457
000090 50 9a 30 3b a3 ed c8 bc cd 10 b8 bc 27 84 37 bc
       0.0026947446 -0.024527377 -0.022468949 -0.011200941
0000a0 7f 50 50 bc b2 75 ec 3b cb 30 13 3c b6 85 36 3c
       -0.012714504 0.007216179 0.008983801 0.011140278
0000b0 3b 86 f2 39 1a 53 85 bc 08 a0 58 bb 3e e8 ab 3b
       0.00046257846 -0.016274977 -0.003305437 0.0052461913
0000c0 13 77 9f bc c2 a2 cc bc b2 96 90 3c 22 ff 0e bc
       -0.019465959 -0.024979953 0.017649982 -0.008727821
0000d0 81 01 07 3c 2a c8 45 3b 5d 28 ff ba bb 6d 0b bc
       0.008240105 0.0030179122 -0.0019466985 -0.0085100485
0000e0 18 f6 20 bb 5b 7b 0a 3c ef 12 62 bc 23 77 67 3d
       -0.0024560746 0.008452262 -0.013798459 0.056510102
0000f0 32 e9 d4 3b 06 06 92 3b 34 f8 09 3d e0 89 92 bc
       0.0064975256 0.0044562845 0.03368397 -0.01788801
000100 9d 01 40 3b 25 f3 04 3c 69 76 94 bb a9 da 9f bb
       0.0029297837 0.008114611 -0.004530717 -0.0048783612
000110 ba c0 06 3d 35 50 6c 3b ae dc 32 bb 31 5a 46 bc
       0.032898642 0.003605855 -0.002729218 -0.012106464
000120 35 6b 6e bb 5d c5 d9 bb 17 d3 18 3c 7d 53 52 bc
       -0.0036379818 -0.006645842 0.0093276715 -0.012837288
000130 b2 0b 21 3b 89 ee a4 bc 8b 64 51 3c 4d f1 cd bb
       0.0024573621 -0.020133274 0.012780319 -0.006284869
000140 f0 36 82 3b 18 98 f9 bb 97 0c 3d 3c 23 da 4d bc
       0.003973834 -0.007617008 0.011538646 -0.012564215
000150 f9 87 24 bc b4 0e 20 3b 95 92 53 3c f7 da 8b 3c
       -0.010042184 0.0024422826 0.012913366 0.017072184
000160 50 19 95 3c 0a 2d dc bb 57 68 99 bc 4a 2b 30 bc
       0.018200547 -0.0067192363 -0.01872651 -0.010752508
000170 a8 ef 77 3a f0 3f a3 ba 5f 07 00 3c 20 c6 f5 bc
       0.0009458014 -0.0012454968 0.007814257 -0.0300017
000180 c7 fd 2a bc 0f 61 a1 bc 2b f1 90 3b cf aa 1e bd
       -0.010436482 -0.019699601 0.0044232807 -0.038737115
000190 4b a9 c5 bb bc 19 c5 bc 9d fb ea 3c 1b 98 a5 bb
       -0.006032144 -0.024060123 0.028684432 -0.005053533
0001a0 53 0e 2d 3c 6d c9 28 bc 97 b9 b8 bc 5f 3e 88 3c
       0.010562497 -0.01030193 -0.022549434 0.016631303
0001b0 00 c0 d9 bc 38 71 c1 bc f1 f9 15 3c 32 5b 6d bb
       -0.02658081 -0.023613557 0.009153829 -0.0036217687
0001c0 96 5a 9c bc 4f e7 9b bc eb 4d 2f 3b 0d 53 78 3c
       -0.019086163 -0.019031195 0.0026749324 0.01515652
0001d0 75 91 6d 3c ed fc e1 bc 2e 48 23 bc ee 26 a3 3c
       0.014500012 -0.027586425 -0.009965939 0.019916024
0001e0 7b d9 9b bc 93 9a 31 bd bf 64 0f bd 8b 52 ab bc
       -0.019024601 -0.043360304 -0.03500819 -0.020913383
0001f0 5a 83 1b bc be 12 a8 bc ff a2 23 3d 47 35 bf ba
       -0.009491766 -0.02051675 0.039950367 -0.0014588021
000200 45 4a 76 bb da 37 f8 bb 66 1b b4 bb 75 03 bf 3c
       -0.003758089 -0.0075750174 -0.00549643 0.023317078
000210 ca ba d1 bb 4f cf af ba e0 44 06 bc 03 79 ab 3a
       -0.006400441 -0.0013413223 -0.008195132 0.0013082329
000220 7b 36 2f bc 43 c4 f7 bb 82 f5 e8 3b 2b e6 18 3d
       -0.0106941415 -0.007561238 0.007109345 0.03732888
000230 43 3a 74 bc f9 8e a5 3c f7 0e 03 3d 33 1c a4 3c
       -0.014906469 0.020209776 0.031996693 0.020032978
000240 e7 ce 6c 3c 87 58 79 3c df 62 5e 3b 1f ad 2f bc
       0.014453626 0.0152188605 0.0033933443 -0.010722428
000250 c5 b9 45 3c 66 10 90 bb 8d ff 7f 3b 4a 13 6f 3b
       0.012068217 -0.004396486 0.0039062232 0.0036480003
000260 5e 46 8d 3c 8c 95 18 3d 37 de 81 3a b3 bc 84 bc
       0.017245468 0.037251994 0.0009908144 -0.01620326
000270 62 55 53 bb 55 d9 22 bc a3 32 af 3c ab 41 08 bb
       -0.0032246937 -0.009939511 0.02138645 -0.0020791094
000280 00 ad a1 bc 53 da ce 3c b2 a1 03 bd 7a 88 c1 3b
       -0.019735813 0.02525059 -0.032136627 0.005906162
000290 0b bf 80 ba ca 17 b3 3b 00 27 2c bb 50 cf 7a 39
       -0.000982256 0.0054654824 -0.0026268363 0.00023919088
0002a0 1e 7b 4a 3c ab 4e 42 bc 5b 8e e8 3c 66 3c 48 3c
       0.012358455 -0.011859576 0.028388193 0.012221431
0002b0 a3 14 5a 3b 45 ef d0 3c b3 26 57 bb 10 c9 18 3d
       0.003327646 0.025504718 -0.0032829463 0.037301123
0002c0 9b 1a 7a bc 6a a8 b6 3a c8 22 44 ba a7 0e 42 bc
       -0.015265132 0.0013935689 -0.00074819895 -0.011844314
0002d0 c7 9f dd 39 d3 41 21 bd 75 bd 5b bc 43 f0 5c bc
       0.00042271448 -0.039369415 -0.013411869 -0.013485017
0002e0 f4 13 bf 3c f0 d1 06 3b 8f 14 2c bc 25 83 8e bc
       0.023324944 0.002057191 -0.010502948 -0.017396519
0002f0 a9 26 42 bb 1d a7 cf 3c ef d7 f1 bc e3 89 fa 3b
       -0.0029625094 0.02534824 -0.02952191 0.007645832
000300 0e 9d 1d bc a3 43 21 3c 08 c7 b8 bc 5b d5 f2 bb
       -0.009619964 0.009842786 -0.022555843 -0.007410688
000310 f4 a4 83 bc 17 70 c7 3b 0a 24 c3 bc 50 e6 ce b8
       -0.016069867 0.00608636 -0.023820896 -9.8657445e-05
000320 2b 93 02 bd c3 0f d6 3c af 32 fd bb 3f b9 ee 3b
       -0.03187863 0.026130563 -0.007726989 0.0072852666
000330 52 0e b3 3c 5f 7b 3a 3d 0f f5 15 3d 6f bc 42 bc
       0.021857414 0.045527812 0.03661066 -0.011885746
000340 0b 76 7b ba 59 8c 9e bc c3 82 8c 39 8b 3e c9 bc
       -0.000959248 -0.019354032 0.00026800306 -0.024565956
000350 26 08 cc bc e2 4c fa 3c 7c 8d 87 3b 04 6f 45 bc
       -0.02490623 0.030554239 0.0041367393 -0.012050394
000360 e2 ae 8f bc 70 0b 33 3c 1f a2 c9 3c d0 38 78 bc
       -0.017539445 0.01092802 0.024613438 -0.015150264
000370 e7 be dd bb f6 b2 1f bc 42 8d e9 bc b0 31 39 bc
       -0.006767142 -0.009747257 -0.02850974 -0.01130335
000380 5e 4f 3d bc e6 0a 3c 3b d7 e7 b5 bc 95 79 b2 ba
       -0.011554567 0.002869302 -0.022205276 -0.0013616557
000390 d7 12 34 3c 07 0e 87 3b 63 03 16 bc 6b 9e 23 3d
       0.01099082 0.0041215452 -0.009156081 0.039946
0003a0 d6 68 44 3c cb 00 06 bd 40 9f c4 3b c3 b6 53 bc
       0.011987885 -0.0327156 0.0060004294 -0.012921992
0003b0 9b 1d 85 3c 3b 46 d9 bb b8 03 1e 3d c3 28 01 3c
       0.016249469 -0.0066306866 0.038577765 0.0078832535
0003c0 8f 1f da bc 49 a0 81 bc 84 b0 8c bc 7b d4 74 3c
       -0.026626376 -0.0158235 -0.017174013 0.014943237
0003d0 0d 31 47 bc 9c 11 a3 3b 83 57 2b bb fa 9c 91 bc
       -0.012157691 0.0049764644 -0.002614469 -0.017775048
0003e0 a3 3f 39 bc f7 b9 ad bb 45 a5 8d 3c 22 27 93 3c
       -0.011306676 -0.0053017098 0.01729072 0.017962996
0003f0 67 ad fc 3b 53 68 57 3c d3 7f a7 bb 3b 18 95 3c
       0.007711101 0.013147431 -0.0051116734 0.01820003

action_model._continuous_distribution.mu.bias f4 [6]
000000 00 00 00 00 00 00 00 00 00 00 00 00 00 00 00 00
       0.0 0.0 0.0 0.0
000010 00 00 00 00 00 00 00 00
       0.0 0.0
