results/PlayerAgentTest/EasyPlayer/EasyPlayer-1350.pt (torch, 550249 bytes, 12 tensors)

network_body._body_endoder.seq_layers.0.weight f4 [128, 396]
00000000: 03d4 99bc 030c 223c 7d14 2d3d 3e4d c43c
00000010: c36f 86bc 784d dc3c e6de 033d f6d2 9dbc
00000020: a432 863d b7ad 153d 7cd3 c53d 23bc 983b
00000030: 0d3a 02be 3fbd 4ebd 8898 3cbc cd1e d33b
00000040: 9fb2 7cbd f504 0abd ff2d 433d 7e53 583d
00000050: 1e5a 293c 26b2 b23c f3f9 2abd a6c8 b7bc
00000060: 3a1c 64bc 8242 a3bc c76b e13c aa6a d2bd
00000070: 7b42 bc3d b08c 9c3d 6dbb b1bc 95c3 dd3c
00000080: db25 bbbb fd4e cdbc 8279 a5bc e301 10bd
00000090: aebe 913d 66a4 8f3d 38cd 64bd 25b3 993c
000000a0: 5045 ccbd 1730 8e3d 075b 813d 7ef4 4cbd
000000b0: 0dbf e83c fc08 31bd 1076 91bd 93e5 753d
000000c0: c9d0 66bd 3997 4a3c b44c d23c 1864 c83c
000000d0: a103 f83b 3ab8 10bc 5456 4cbd 750d 8dbd
000000e0: b294 a539 b037 08bd e572 c83d 0f33 a93d
000000f0: 8a63 13bd 390f f0bc 755e 1f3d ba33 1c3b
00000100: 3be5 0abd 3b78 98bd d177 e33c 6c67 f83c
00000110: dfc8 48bb c184 a6ba 5a50 7c3d 4af2 85bb
00000120: e7a2 41bd 41d7 05bd f0f8 9abb a333 8dbc
00000130: feb2 af3d ec1a 4b3d d26b 863c 846b 94bd
00000140: cf08 413d 832e 7d3c 965e f23b 76bb ddbc
00000150: 6fc3 803d d9a0 e1ba fc6a 223d 139d 653d
00000160: e7a6 7a3d b77a 183d 1493 77bd a21b 1d3d
00000170: 8ee4 06bd 8605 18bd f624 e5bd 7430 6bbc
00000180: 0389 bbbc 5c9c c9bd a271 0f3c ea01 a4bc
00000190: 2cce d93c b904 e8bc eb2b 0bbd bb0d 74bb
000001a0: dfda 98bd e705 06bd b112 7bbc 1898 423d
000001b0: cd7b 68bd 7a30 b3b7 a82e 863d 3cbf bfbc
000001c0: f0fc 3f3d 814d abbc 43c3 8b3d eede b13c
000001d0: 73ee ad3c c211 89bb e60e 2c3d 814f 483c
000001e0: f7de 68bd 5225 00be a400 db3d a1cc 8fbb
000001f0: da79 05bc 56a1 fc3b 376a a03d 54a6 f63c
00000200: 3826 32bc cb40 3ebc 115f 12bd 98bb 7dbb
00000210: ce75 44bc e224 ba3d 8e91 1e3d 0a4d 883d
00000220: 92ae 9f3d 9249 22bd a2d3 573d e5fe 423d
00000230: 506f 063e 1631 b3bb 5894 35be 973b 803d
00000240: 4f38 91bc f164 413d 8569 833d 0ff7 3e3c
00000250: 8e43 46bd 834d 27bd 227d 5fbd 3a26 17bc
00000260: 72cd 45bd 66c7 e13c 5d77 593c 67b7 f3bd
00000270: 2481 083d 0e23 04bd 8e9a 09bc d6e2 36bd
00000280: 03d5 e23c cc65 09bd f574 74bd 72b5 96bd
00000290: ee2d 9ebd b823 01bc 71a9 81bd fc0d e9bc
000002a0: e42c 5dbd 1366 553d 6380 3839 3f1e d6bc
000002b0: 81f8 cd3d 4de8 dcbd 6e0b 2bbd c5aa 9f3c
000002c0: 05f2 aabb d221 beb9 d4d3 893d 41b1 803d
000002d0: f341 983c c653 debd bdf0 a1bd 4000 b6bc
000002e0: 1b13 49bc 56eb 40bd ccdc b03d f0cf 56bc
000002f0: c3f9 173d 8af0 92bd c55a 16bd b9dc 22bd
00000300: 217c f23a bed3 6cbd 6826 6f3d e7bc 27bc
00000310: 65ec c73d 3537 803d 71eb be3c 18e5 a1bd
00000320: 63f0 ba3d e448 d63c 0e7d cc3b 9892 2bbb
00000330: 712a e8bc 5572 1cbe 44f6 373d 51e9 9f3d
00000340: 829a d43a c89d 6ebd a6b2 9fbb a4f3 843d
00000350: 35d6 21bd bc1f 603c 7d3b 303d 776d 3ebd
00000360: 4fc2 53ba 0505 b43c 7ef7 3c3c 2e3c 71bc
00000370: ba11 07ba 4840 1ebd 13fb 243d 76db acbc
00000380: b329 4a3d 8830 89bd eaab ab3c 5a1e 433c
00000390: c7c4 103c 6b50 96bd 7a38 1fbd cb92 073d
000003a0: 645b e9bc 78e6 523d 0c93 ea3c fcf3 51bd
000003b0: 764e 83bd 2099 f53c b0e6 873d 2ed7 8e3b
000003c0: 54f2 c2bc 3bd5 8abd 0c16 493c 9dea 40bb
000003d0: d875 7a3d fcf9 85bd bf88 9cbc 9d3e af3d
000003e0: 2f81 893d 1abc 56bd 105a aa3c cd37 9b3d
000003f0: d0e2 c5bb 9068 1ebd 5c1c b8bd db35 943c
-0.018777853 0.009890559 0.042255867 0.023962613 -0.016410714 0.026892409 0.032194994 -0.019265633
0.06552628 0.03654262 0.09659478 0.0046610995 -0.12717457 -0.050473448 -0.011510976 0.0064428807
-0.061693784 -0.033696134 0.047651287 0.052814 0.010336427 0.021813463 -0.041742276 -0.022434544
-0.013922745 -0.019929174 0.027517213 -0.10274251 0.09192368 0.076440215 -0.021695817 0.0270708
-0.0057113 -0.025062079 -0.020199541 -0.03515805 0.071164474 0.070137784 -0.055859774 0.01876218
-0.09974158 0.06942766 0.0631619 -0.050037853 0.028411413 -0.04322146 -0.07102597 0.060033392
-0.056351457 0.012365156 0.02567134 0.02446179 0.007568792 -0.008832986 -0.049887016 -0.06887332
0.0003158204 -0.033256233 0.097875394 0.08261692 -0.0359836 -0.029304134 0.03890844 0.0023834542
-0.033910017 -0.07444807 0.027767094 0.030322753 -0.0030637307 -0.0012704359 0.061600067 -0.004087721
-0.047274496 -0.032675985 -0.0047293827 -0.017236536 0.08579062 0.04958622 0.016408835 -0.072470695
0.04712754 0.015452984 0.0073965294 -0.027066927 0.06287276 -0.0017214074 0.03965281 0.056058
0.061194327 0.037226405 -0.060443 0.03835643 -0.03293281 -0.037114643 -0.1118869 -0.014354814
-0.02289248 -0.09844276 0.0087551195 -0.020020444 0.026587568 -0.028322564 -0.03397743 -0.003723963
-0.07463621 -0.032720473 -0.015324281 0.04750833 -0.05675869 -2.1361036e-05 0.06551868 -0.023406617
0.04687208 -0.02091098 0.068243526 0.021712746 0.021231866 -0.004183025 0.042006396 0.012225986
-0.05685326 -0.12514237 0.106934816 -0.0043884073 -0.008146727 0.0077096624 0.07832759 0.030108608
-0.01087337 -0.011612128 -0.035735194 -0.003871655 -0.011990977 0.09089066 0.03871303 0.06655319
0.077969685 -0.039620943 0.052692063 0.047606368 0.131284 -0.005468498 -0.1773237 0.06261366
-0.017727045 0.047215406 0.06416611 0.011655583 -0.04840427 -0.040845405 -0.054562695 -0.0092254225
-0.04829163 0.0275609 0.013273087 -0.119002156 0.033326283 -0.032259993 -0.008398665 -0.04464992
0.027689463 -0.033544347 -0.05968185 -0.07358827 -0.07723604 -0.007882051 -0.063311465 -0.028449051
-0.05399789 0.0520993 0.00017595435 -0.02613747 0.10057164 -0.10786495 -0.041758947 0.019490609
-0.0052168393 -0.00036264822 0.06729856 0.062838085 0.018586135 -0.10855822 -0.07907245 -0.022216916
-0.0122726215 -0.047099434 0.08635864 -0.0131111 0.037103426 -0.071747854 -0.03670766 -0.03976128
0.0018500128 -0.05781912 0.058386236 -0.010237909 0.097618856 0.0626053 0.023305627 -0.07905024
0.091278814 0.026157804 0.0062404936 -0.0026179906 -0.02834055 -0.15277989 0.04491259 0.078081734
0.0016220363 -0.05825594 -0.0048735915 0.06491783 -0.039510924 0.013679441 0.043025482 -0.046491113
-0.00080779655 0.02197505 0.011533616 -0.014723821 -0.0005152483 -0.038635522 0.040278506 -0.02110074
0.049356174 -0.0669871 0.020955998 0.011909092 0.008835978 -0.07339557 -0.03887222 0.033098977
-0.028485961 0.051489323 0.02863457 -0.051258072 -0.064114496 0.029980242 0.06635797 0.0043591475
-0.023797192 -0.06778952 0.012273323 -0.0029436715 0.06114754 -0.06541821 -0.019108174 0.085568644
0.06714093 -0.05242548 0.020794898 0.075790025 -0.006039001 -0.038673937 -0.08989784 0.018092087

network_body._body_endoder.seq_layers.0.bias f4 [128]
00000000: 0000 0000 0000 0000 0000 0000 0000 0000
00000010: 0000 0000 0000 0000 0000 0000 0000 0000
00000020: 0000 0000 0000 0000 0000 0000 0000 0000
00000030: 0000 0000 0000 0000 0000 0000 0000 0000
00000040: 0000 0000 0000 0000 0000 0000 0000 0000
00000050: 0000 0000 0000 0000 0000 0000 0000 0000
00000060: 0000 0000 0000 0000 0000 0000 0000 0000
00000070: 0000 0000 0000 0000 0000 0000 0000 0000
00000080: 0000 0000 0000 0000 0000 0000 0000 0000
00000090: 0000 0000 0000 0000 0000 0000 0000 0000
000000a0: 0000 0000 0000 0000 0000 0000 0000 0000
000000b0: 0000 0000 0000 0000 0000 0000 0000 0000
000000c0: 0000 0000 0000 0000 0000 0000 0000 0000
000000d0: 0000 0000 0000 0000 0000 0000 0000 0000
000000e0: 0000 0000 0000 0000 0000 0000 0000 0000
000000f0: 0000 0000 0000 0000 0000 0000 0000 0000
00000100: 0000 0000 0000 0000 0000 0000 0000 0000
00000110: 0000 0000 0000 0000 0000 0000 0000 0000
00000120: 0000 0000 0000 0000 0000 0000 0000 0000
00000130: 0000 0000 0000 0000 0000 0000 0000 0000
00000140: 0000 0000 0000 0000 0000 0000 0000 0000
00000150: 0000 0000 0000 0000 0000 0000 0000 0000
00000160: 0000 0000 0000 0000 0000 0000 0000 0000
00000170: 0000 0000 0000 0000 0000 0000 0000 0000
00000180: 0000 0000 0000 0000 0000 0000 0000 0000
00000190: 0000 0000 0000 0000 0000 0000 0000 0000
000001a0: 0000 0000 0000 0000 0000 0000 0000 0000
000001b0: 0000 0000 0000 0000 0000 0000 0000 0000
000001c0: 0000 0000 0000 0000 0000 0000 0000 0000
000001d0: 0000 0000 0000 0000 0000 0000 0000 0000
000001e0: 0000 0000 0000 0000 0000 0000 0000 0000
000001f0: 0000 0000 0000 0000 0000 0000 0000 0000
0.0 0.0 0.0 0.0 0.0 0.0 0.0 0.0
0.0 0.0 0.0 0.0 0.0 0.0 0.0 0.0
0.0 0.0 0.0 0.0 0.0 0.0 0.0 0.0
0.0 0.0 0.0 0.0 0.0 0.0 0.0 0.0
0.0 0.0 0.0 0.0 0.0 0.0 0.0 0.0
0.0 0.0 0.0 0.0 0.0 0.0 0.0 0.0
0.0 0.0 0.0 0.0 0.0 0.0 0.0 0.0
0.0 0.0 0.0 0.0 0.0 0.0 0.0 0.0
0.0 0.0 0.0 0.0 0.0 0.0 0.0 0.0
0.0 0.0 0.0 0.0 0.0 0.0 0.0 0.0
0.0 0.0 0.0 0.0 0.0 0.0 0.0 0.0
0.0 0.0 0.0 0.0 0.0 0.0 0.0 0.0
0.0 0.0 0.0 0.0 0.0 0.0 0.0 0.0
0.0 0.0 0.0 0.0 0.0 0.0 0.0 0.0
0.0 0.0 0.0 0.0 0.0 0.0 0.0 0.0
0.0 0.0 0.0 0.0 0.0 0.0 0.0 0.0

network_body._body_endoder.seq_layers.2.weight f4 [128, 128]
00000000: 9940 86bd 4a09 3bbd 0ce2 013e d810 cfbd
00000010: 7375 253d 1c39 88bb 46d0 1d3d 7553 9abd
00000020: b390 2cbd b2ae cd3d 1f26 b53d 5846 c4bd
00000030: e39a 59bc 5fcb 54bc c707 38bd e914 e83c
00000040: 1b06 2b3d e75a 34be becb 2f3d 6034 103c
00000050: 261b 303d f630 57be a994 e13a 0e8b c83c
00000060: 790b 9dbd 10ee 47be 1d0f 12bc 0e9e 20be
00000070: 003c 2dbd b7fa 1bbd e23d 95bd bfd2 1fbd
00000080: 6f8e d4bc 7e1e 00bd ec15 4c3b cec8 b33d
00000090: e220 a2bd b8a8 91bb f783 4d3b 276e 0d3e
000000a0: c57f d4bc 9358 043e 540c 01be c080 ad3d
000000b0: 6d33 e3bd 6a2c 23bc 7613 cd3c 0ddb 023d
000000c0: dfbf eabc 92c0 4abd 948e 89bd 8546 413d
000000d0: cd7e 9bbd f422 22be 1d88 8abc 4814 01be
000000e0: 8d27 34be ecf4 43bc 064b 073d 3d08 69bc
000000f0: 8d2b 793a d6e4 ea3d 6f6f c53c fcd1 56bd
00000100: a602 923c 0044 e5bc 15dc 373d 4c95 5d3c
00000110: 10ba 293e 2747 16bd 308e 3ebd ddb5 1e3d
00000120: 2050 013b 48d5 9fbc de69 00be b29b 9f3c
00000130: 1c4c b0bd b1fb 0b3d e5e6 8fbd 9289 083e
00000140: 02ab 1fbd c0da b93d 9780 ac3d 55ed ebbd
00000150: 3863 46bd a30e 003d 372b 4c3d 1562 b63b
00000160: e223 0d3d 794e 753d e799 f7bd ba7e acbd
00000170: 306e 0f3e eebc f2bd 15a7 0abe 0d7a 1ebd
00000180: 7278 04be 2a7f c83d 66b3 96bd bb41 323d
00000190: cb9b 15bb 624d c4bd 6516 023d c2f4 cabd
000001a0: 3d33 52bd 1811 0dbd 3342 80bd c61d 1d3d
000001b0: 57b1 1ebc 68fc 04be 80da e13d e9bd 553c
000001c0: 0b92 52bd 7f98 5f3c ca78 0c3e f382 06be
000001d0: ecc8 073d 0b71 933d 1478 6c3a cf85 c83d
000001e0: d5bb 64bd 28d2 fdbd b8ee 543d da89 4cbd
000001f0: 7756 95bd e567 60bd 5cde b93d c60b 37be
00000200: 14ac 7abd 1964 afbd 0463 0e3e c7e9 fbbd
00000210: d50e 383d a423 43be 81d2 41bd 86e6 36bd
00000220: 6592 50bd 662b 873d 56bd 103c aed2 d13d
00000230: e8a3 f7bd 7160 1a3d 8b14 a43d d080 03be
00000240: ab15 ffbd bcf0 ae3d 7077 7b3d a465 823b
00000250: 56f3 3b3d 2ccb b1bd 6fda 2d3c 4895 00bc
00000260: 8891 bd3d 39a8 543d 3323 48be 748c 293d
00000270: 2136 27be 224a 69bd 456f 503c b6f1 7dbc
00000280: a66f 8ebc 0206 9dbd fa7f 54bd 15e2 a53d
00000290: e7d9 003c cf6c 3f3d ddcb 8e3d 4d81 08bd
000002a0: ae9f 4fbd ddec 7ebd db4c 0fbd 4d83 f03d
000002b0: 9fa4 b0bd 3edf a6bd 3238 a43d 71cb 56bd
000002c0: 11bd dd3d 02b8 1a3e c444 d9bd 4c57 123e
000002d0: bfcb 9f3d 8d17 2b3e dcd3 0f3e bd22 62bd
000002e0: cd96 23bd 4743 113d 1c33 c93d b3e9 cbbd
000002f0: 146a 283e a2e0 4e3d b19f 2b3d 5afb d0bd
00000300: baa0 083d 13b0 e2bc af9a 823d 4c03 173d
00000310: 9f7b 1bbc e66a c53d 0926 cfbd 3202 19bc
00000320: df92 c03a 1987 a13c 5b56 a3bc ff37 3f3d
00000330: 1c8b e3bc db69 a83d 46bc ba3c 4bf9 ca3c
00000340: 1227 bcbd a6c9 e4bc 8a17 c5bd 9ca9 a03d
00000350: 76fc a73c da98 48bd e113 46bd 5229 72bd
00000360: a47b bb3d c16d 893d 9187 29bd 8199 21bd
00000370: 526d cbbd 1df2 3dbc 4595 be3c 7b35 c53c
00000380: b538 93bd 77e9 1dbd 9979 b2bc 7011 423d
00000390: d7aa d13d 9982 a03b fa6a 30bd 5404 563d
000003a0: 315c 6c3d d1a7 92bd 851c 00bd a809 313d
000003b0: 4a3a 39bd 7ea6 f63d 26f6 b53c 37d5 49be
000003c0: d706 793c daed 223e 86f3 be3d 22a7 41bd
000003d0: 66c0 8bbc 458a 923d 0bb3 013e e8b0 ce3c
000003e0: 4750 123e ea2e 3ebc 0fbe 53bd d482 eb3c
000003f0: ce15 103d 93a2 fa3c 2a42 e43c 0cfd e3bc
-0.0655529 -0.045663156 0.12683886 -0.101106346 0.04039521 -0.0041571986 0.038528703 -0.075354494
-0.042130183 0.10043086 0.08845162 -0.095837295 -0.013281557 -0.012987941 -0.044929292 0.028330283
0.04175387 -0.17612801 0.042918913 0.00880155 0.04299464 -0.21014771 0.0017210442 0.024480369
-0.07668204 -0.19524407 -0.008914736 -0.15685293 -0.04229355 -0.038080897 -0.07287194 -0.039019343
-0.025946824 -0.03127908 0.0031140996 0.08778535 -0.07916428 -0.0044451617 0.0031359175 0.13811551
-0.025939832 0.12924413 -0.12602359 0.08471823 -0.11093793 -0.00995932 0.025033694 0.031947184
-0.028655944 -0.049500056 -0.06716648 0.047186393 -0.07592545 -0.15833646 -0.016910607 -0.12605393
-0.17593212 -0.011960249 0.033030532 -0.014223156 0.0009505086 0.11469428 0.024100987 -0.05244635
0.017823528 -0.027986526 0.04488762 0.013524365 0.16574883 -0.03668895 -0.04652232 0.038747657
0.0019731596 -0.01951088 -0.12540385 0.019483421 -0.08608267 0.03417558 -0.070264615 0.13333729
-0.038981445 0.090749264 0.08422964 -0.11519877 -0.048434466 0.03126396 0.0498459 0.0055658915
0.03445805 0.05988929 -0.120899014 -0.08422609 0.14006877 -0.11852442 -0.13540299 -0.038690615
-0.12936571 0.097898796 -0.07358436 0.043519717 -0.0022828456 -0.09585072 0.03175964 -0.09909965
-0.051318396 -0.03444013 -0.062626265 0.038358472 -0.009685836 -0.1298691 0.11028004 0.013045766
-0.05140881 0.013647198 0.13717952 -0.1313589 0.0331506 0.071992956 0.00090205786 0.09791147
-0.055843193 -0.123936 0.051985472 -0.049936153 -0.072918825 -0.05478658 0.09075615 -0.17875585
-0.061199263 -0.08564014 0.13904959 -0.12300449 0.04493602 -0.19056565 -0.047319893 -0.044653438
-0.050920863 0.066000745 0.008834204 0.10245262 -0.120918095 0.03768963 0.08011731 -0.12842107
-0.12455305 0.0854201 0.0613932 0.0039794017 0.04588636 -0.0868133 0.010611161 -0.007848091
0.092562735 0.051918242 -0.19544677 0.041393712 -0.16329242 -0.056955464 0.012721841 -0.015499523
-0.017387222 -0.076671615 -0.05187986 0.08099762 0.007864452 0.046734627 0.069724776 -0.033326436
-0.05068939 -0.06223761 -0.034985404 0.11743794 -0.08625149 -0.08148049 0.08018531 -0.05244011
0.10827077 0.15109256 -0.10608819 0.14291114 0.07802533 0.16708203 0.14045662 -0.05520891
-0.039938737 0.03546455 0.098242015 -0.09956684 0.16446716 0.050507195 0.04190034 -0.102041915
0.033356406 -0.02767185 0.0637716 0.03686838 -0.009489923 0.0963953 -0.101146765 -0.009338902
0.0014692208 0.01971774 -0.019938638 0.04668426 -0.027776293 0.08223315 0.022794854 0.024777075
-0.091871396 -0.027928185 -0.0962363 0.078448504 0.020506125 -0.048973896 -0.0483588 -0.059121437
0.09154442 0.06710387 -0.04138905 -0.039453033 -0.099329606 -0.011593369 0.023264537 0.024073353
-0.071885504 -0.038552728 -0.021786498 0.04737991 0.10237663 0.004898381 -0.04307077 0.05225022
0.057705108 -0.07160915 -0.0312772 0.0432221 -0.045221604 0.120434746 0.0222121 -0.19710241
0.015199385 0.15911046 0.09323792 -0.04727853 -0.017059516 0.07155279 0.12665956 0.02523084
0.14288436 -0.011607865 -0.051694926 0.028748907 0.035177045 0.0305951 0.02786358 -0.027830623

network_body._body_endoder.seq_layers.2.bias f4 [128]
00000000: 0000 0000 0000 0000 0000 0000 0000 0000
00000010: 0000 0000 0000 0000 0000 0000 0000 0000
00000020: 0000 0000 0000 0000 0000 0000 0000 0000
00000030: 0000 0000 0000 0000 0000 0000 0000 0000
00000040: 0000 0000 0000 0000 0000 0000 0000 0000
00000050: 0000 0000 0000 0000 0000 0000 0000 0000
00000060: 0000 0000 0000 0000 0000 0000 0000 0000
00000070: 0000 0000 0000 0000 0000 0000 0000 0000
00000080: 0000 0000 0000 0000 0000 0000 0000 0000
00000090: 0000 0000 0000 0000 0000 0000 0000 0000
000000a0: 0000 0000 0000 0000 0000 0000 0000 0000
000000b0: 0000 0000 0000 0000 0000 0000 0000 0000
000000c0: 0000 0000 0000 0000 0000 0000 0000 0000
000000d0: 0000 0000 0000 0000 0000 0000 0000 0000
000000e0: 0000 0000 0000 0000 0000 0000 0000 0000
000000f0: 0000 0000 0000 0000 0000 0000 0000 0000
00000100: 0000 0000 0000 0000 0000 0000 0000 0000
00000110: 0000 0000 0000 0000 0000 0000 0000 0000
00000120: 0000 0000 0000 0000 0000 0000 0000 0000
00000130: 0000 0000 0000 0000 0000 0000 0000 0000
00000140: 0000 0000 0000 0000 0000 0000 0000 0000
00000150: 0000 0000 0000 0000 0000 0000 0000 0000
00000160: 0000 0000 0000 0000 0000 0000 0000 0000
00000170: 0000 0000 0000 0000 0000 0000 0000 0000
00000180: 0000 0000 0000 0000 0000 0000 0000 0000
00000190: 0000 0000 0000 0000 0000 0000 0000 0000
000001a0: 0000 0000 0000 0000 0000 0000 0000 0000
000001b0: 0000 0000 0000 0000 0000 0000 0000 0000
000001c0: 0000 0000 0000 0000 0000 0000 0000 0000
000001d0: 0000 0000 0000 0000 0000 0000 0000 0000
000001e0: 0000 0000 0000 0000 0000 0000 0000 0000
000001f0: 0000 0000 0000 0000 0000 0000 0000 0000
0.0 0.0 0.0 0.0 0.0 0.0 0.0 0.0
0.0 0.0 0.0 0.0 0.0 0.0 0.0 0.0
0.0 0.0 0.0 0.0 0.0 0.0 0.0 0.0
0.0 0.0 0.0 0.0 0.0 0.0 0.0 0.0
0.0 0.0 0.0 0.0 0.0 0.0 0.0 0.0
0.0 0.0 0.0 0.0 0.0 0.0 0.0 0.0
0.0 0.0 0.0 0.0 0.0 0.0 0.0 0.0
0.0 0.0 0.0 0.0 0.0 0.0 0.0 0.0
0.0 0.0 0.0 0.0 0.0 0.0 0.0 0.0
0.0 0.0 0.0 0.0 0.0 0.0 0.0 0.0
0.0 0.0 0.0 0.0 0.0 0.0 0.0 0.0
0.0 0.0 0.0 0.0 0.0 0.0 0.0 0.0
0.0 0.0 0.0 0.0 0.0 0.0 0.0 0.0
0.0 0.0 0.0 0.0 0.0 0.0 0.0 0.0
0.0 0.0 0.0 0.0 0.0 0.0 0.0 0.0
0.0 0.0 0.0 0.0 0.0 0.0 0.0 0.0

action_model._continuous_distribution.log_sigma f4 [1, 6]
00000000: 0000 0000 0000 0000 0000 0000 0000 0000
00000010: 0000 0000 0000 0000
0.0 0.0 0.0 0.0 0.0 0.0

action_model._continuous_distribution.mu.weight f4 [6, 128]
00000000: 243d 373d 57c7 203d 8dee 4b39 63df d0bc
00000010: 7c0e 06bd cd1a e13b 1390 bbbc 4f9b 2dbc
00000020: 0fb9 f43c 7f17 c13b ec34 c03b e76a a43c
00000030: 4e2d 1f3a b2bd 9c3b 12fc 4f3b 488c cd3c
00000040: 271d a5bc 108b b3bb b544 94bc 6059 eb3c
00000050: ad6e 31bc cfd9 11bc 1f7f 61ba 2d7d 58bc
00000060: c0d5 4c3c d352 ff38 02a5 903c e003 b5bc
00000070: 6612 0d3a 17e3 1c3c bf52 2fbc 9df9 0cbc
00000080: ff46 1a3c 4a90 733c 9333 8ebb df7c 8dbc
00000090: 509a 303b a3ed c8bc cd10 b8bc 2784 37bc
000000a0: 7f50 50bc b275 ec3b cb30 133c b685 363c
000000b0: 3b86 f239 1a53 85bc 08a0 58bb 3ee8 ab3b
000000c0: 1377 9fbc c2a2 ccbc b296 903c 22ff 0ebc
000000d0: 8101 073c 2ac8 453b 5d28 ffba bb6d 0bbc
000000e0: 18f6 20bb 5b7b 0a3c ef12 62bc 2377 673d
000000f0: 32e9 d43b 0606 923b 34f8 093d e089 92bc
00000100: 9d01 403b 25f3 043c 6976 94bb a9da 9fbb
00000110: bac0 063d 3550 6c3b aedc 32bb 315a 46bc
00000120: 356b 6ebb 5dc5 d9bb 17d3 183c 7d53 52bc
00000130: b20b 213b 89ee a4bc 8b64 513c 4df1 cdbb
00000140: f036 823b 1898 f9bb 970c 3d3c 23da 4dbc
00000150: f987 24bc b40e 203b 9592 533c f7da 8b3c
00000160: 5019 953c 0a2d dcbb 5768 99bc 4a2b 30bc
00000170: a8ef 773a f03f a3ba 5f07 003c 20c6 f5bc
00000180: c7fd 2abc 0f61 a1bc 2bf1 903b cfaa 1ebd
00000190: 4ba9 c5bb bc19 c5bc 9dfb ea3c 1b98 a5bb
000001a0: 530e 2d3c 6dc9 28bc 97b9 b8bc 5f3e 883c
000001b0: 00c0 d9bc 3871 c1bc f1f9 153c 325b 6dbb
000001c0: 965a 9cbc 4fe7 9bbc eb4d 2f3b 0d53 783c
000001d0: 7591 6d3c edfc e1bc 2e48 23bc ee26 a33c
000001e0: 7bd9 9bbc 939a 31bd bf64 0fbd 8b52 abbc
000001f0: 5a83 1bbc be12 a8bc ffa2 233d 4735 bfba
00000200: 454a 76bb da37 f8bb 661b b4bb 7503 bf3c
00000210: caba d1bb 4fcf afba e044 06bc 0379 ab3a
00000220: 7b36 2fbc 43c4 f7bb 82f5 e83b 2be6 183d
00000230: 433a 74bc f98e a53c f70e 033d 331c a43c
00000240: e7ce 6c3c 8758 793c df62 5e3b 1fad 2fbc
00000250: c5b9 453c 6610 90bb 8dff 7f3b 4a13 6f3b
00000260: 5e46 8d3c 8c95 183d 37de 813a b3bc 84bc
00000270: 6255 53bb 55d9 22bc a332 af3c ab41 08bb
00000280: 00ad a1bc 53da ce3c b2a1 03bd 7a88 c13b
00000290: 0bbf 80ba ca17 b33b 0027 2cbb 50cf 7a39
000002a0: 1e7b 4a3c ab4e 42bc 5b8e e83c 663c 483c
000002b0: a314 5a3b 45ef d03c b326 57bb 10c9 183d
000002c0: 9b1a 7abc 6aa8 b63a c822 44ba a70e 42bc
000002d0: c79f dd39 d341 21bd 75bd 5bbc 43f0 5cbc
000002e0: f413 bf3c f0d1 063b 8f14 2cbc 2583 8ebc
000002f0: a926 42bb 1da7 cf3c efd7 f1bc e389 fa3b
00000300: 0e9d 1dbc a343 213c 08c7 b8bc 5bd5 f2bb
00000310: f4a4 83bc 1770 c73b 0a24 c3bc 50e6 ceb8
00000320: 2b93 02bd c30f d63c af32 fdbb 3fb9 ee3b
00000330: 520e b33c 5f7b 3a3d 0ff5 153d 6fbc 42bc
00000340: 0b76 7bba 598c 9ebc c382 8c39 8b3e c9bc
00000350: 2608 ccbc e24c fa3c 7c8d 873b 046f 45bc
00000360: e2ae 8fbc 700b 333c 1fa2 c93c d038 78bc
00000370: e7be ddbb f6b2 1fbc 428d e9bc b031 39bc
00000380: 5e4f 3dbc e60a 3c3b d7e7 b5bc 9579 b2ba
00000390: d712 343c 070e 873b 6303 16bc 6b9e 233d
000003a0: d668 443c cb00 06bd 409f c43b c3b6 53bc
000003b0: 9b1d 853c 3b46 d9bb b803 1e3d c328 013c
000003c0: 8f1f dabc 49a0 81bc 84b0 8cbc 7bd4 743c
000003d0: 0d31 47bc 9c11 a33b 8357 2bbb fa9c 91bc
000003e0: a33f 39bc f7b9 adbb 45a5 8d3c 2227 933c
000003f0: 67ad fc3b 5368 573c d37f a7bb 3b18 953c
0.044736043 0.039252605 0.00019448456 -0.025497144 -0.032728657 0.00686965 -0.022895848 -0.0105961105
0.029873399 0.0058926935 0.005865684 0.020070506 0.00060721196 0.0047833556 0.003173594 0.025091305
-0.020155502 -0.005479224 -0.018099168 0.02872914 -0.01082961 -0.008902027 -0.00086020114 -0.013213438
0.012502134 0.00012174775 0.017656807 -0.022096574 0.0005381465 0.009575627 -0.010700881 -0.008604434
0.009416341 0.014865944 -0.004339644 -0.017271457 0.0026947446 -0.024527377 -0.022468949 -0.011200941
-0.012714504 0.007216179 0.008983801 0.011140278 0.00046257846 -0.016274977 -0.003305437 0.0052461913
-0.019465959 -0.024979953 0.017649982 -0.008727821 0.008240105 0.0030179122 -0.0019466985 -0.0085100485
-0.0024560746 0.008452262 -0.013798459 0.056510102 0.0064975256 0.0044562845 0.03368397 -0.01788801
0.0029297837 0.008114611 -0.004530717 -0.0048783612 0.032898642 0.003605855 -0.002729218 -0.012106464
-0.0036379818 -0.006645842 0.0093276715 -0.012837288 0.0024573621 -0.020133274 0.012780319 -0.006284869
0.003973834 -0.007617008 0.011538646 -0.012564215 -0.010042184 0.0024422826 0.012913366 0.017072184
0.018200547 -0.0067192363 -0.01872651 -0.010752508 0.0009458014 -0.0012454968 0.007814257 -0.0300017
-0.010436482 -0.019699601 0.0044232807 -0.038737115 -0.006032144 -0.024060123 0.028684432 -0.005053533
0.010562497 -0.01030193 -0.022549434 0.016631303 -0.02658081 -0.023613557 0.009153829 -0.0036217687
-0.019086163 -0.019031195 0.0026749324 0.01515652 0.014500012 -0.027586425 -0.009965939 0.019916024
-0.019024601 -0.043360304 -0.03500819 -0.020913383 -0.009491766 -0.02051675 0.039950367 -0.0014588021
-0.003758089 -0.0075750174 -0.00549643 0.023317078 -0.006400441 -0.0013413223 -0.008195132 0.0013082329
-0.0106941415 -0.007561238 0.007109345 0.03732888 -0.014906469 0.020209776 0.031996693 0.020032978
0.014453626 0.0152188605 0.0033933443 -0.010722428 0.012068217 -0.004396486 0.0039062232 0.0036480003
0.017245468 0.037251994 0.0009908144 -0.01620326 -0.0032246937 -0.009939511 0.02138645 -0.0020791094
-0.019735813 0.02525059 -0.032136627 0.005906162 -0.000982256 0.0054654824 -0.0026268363 0.00023919088
0.012358455 -0.011859576 0.028388193 0.012221431 0.003327646 0.025504718 -0.0032829463 0.037301123
-0.015265132 0.0013935689 -0.00074819895 -0.011844314 0.00042271448 -0.039369415 -0.013411869 -0.013485017
0.023324944 0.002057191 -0.010502948 -0.017396519 -0.0029625094 0.02534824 -0.02952191 0.007645832
-0.009619964 0.009842786 -0.022555843 -0.007410688 -0.016069867 0.00608636 -0.023820896 -9.8657445e-05
-0.03187863 0.026130563 -0.007726989 0.0072852666 0.021857414 0.045527812 0.03661066 -0.011885746
-0.000959248 -0.019354032 0.00026800306 -0.024565956 -0.02490623 0.030554239 0.0041367393 -0.012050394
-0.017539445 0.01092802 0.024613438 -0.015150264 -0.006767142 -0.009747257 -0.02850974 -0.01130335
-0.011554567 0.002869302 -0.022205276 -0.0013616557 0.01099082 0.0041215452 -0.009156081 0.039946
0.011987885 -0.0327156 0.0060004294 -0.012921992 0.016249469 -0.0066306866 0.038577765 0.0078832535
-0.026626376 -0.0158235 -0.017174013 0.014943237 -0.012157691 0.0049764644 -0.002614469 -0.017775048
-0.011306676 -0.0053017098 0.01729072 0.017962996 0.007711101 0.013147431 -0.0051116734 0.01820003

action_model._continuous_distribution.mu.bias f4 [6]
00000000: 0000 0000 0000 0000 0000 0000 0000 0000
00000010: 0000 0000 0000 0000
0.0 0.0 0.0 0.0 0.0 0.0

network_body._body_endoder.seq_layers.0.weight f4 [128, 396]
00000000: 351d 403b fa3d a03c 2718 a53d 5664 6f3c
00000010: 6830 bcbd 6856 9bbd e925 f93c dec1 ccbb
00000020: 63cc 3ebd ac37 be3c 594b 0f3d c2a9 a93d
00000030: b653 e8bb 4444 85bd 2a8f a1bd 1f94 ca3c
00000040: 35e4 12be 403d 693c d1b5 653d 81b9 9bbd
00000050: 73ef 593c 369f 40bb 405a a3bd cc36 fa3d
00000060: 3f6b bebd 7293 debb 4a15 c2bd 33b4 163d
00000070: 7f57 19bd 5077 863d cf9f 233d e752 b13b
00000080: 8e5c 9c3b 0587 d93d 6ce1 7b3d 5e61 8fbd
00000090: 5611 b4bd 59fb 0abc 7659 283d dfb9 86bc
000000a0: 83e2 8bbd cf49 9d3d 10c2 183b af0b 18bd
000000b0: 687d eabb 5a7c 433b 4eca 5dbd 0d85 83bd
000000c0: c831 923d 4c6d 43bd a20c 593a d455 cbbc
000000d0: ce32 1a3d 1fb6 d73c 5f99 6cbb b09f aa3d
000000e0: 2d17 aabd 69dd c9bd 4b6d dfbd 5d12 1b3d
000000f0: def4 a9bd c328 323d c6c3 86bc cc91 3ebd
00000100: 15c9 74bd d2f9 0cbd 5be2 96bd 014a a3bd
00000110: 8da8 b0bd a850 473d 0c30 d9bc 92bb 5b3c
00000120: 0a8e 033c 45d6 8ebd 43d0 b43d e786 503b
00000130: cd89 ea3d 1ce4 0a3d 67ce b5bd f6bb a2bb
00000140: a895 abbc 979e a63d 1734 42bc 4648 80bb
00000150: 56e6 8b3d ed62 77bc 9655 15bc d904 48bd
00000160: 7e77 3ebd 7ea6 a23c 6e02 163d 1c3e f53c
00000170: ae0c 6a3d 00f0 2fbc dded 7abd 12d5 bcbc
00000180: 2580 b03d 0afa cbbc a012 943d 95f1 633a
00000190: 05db 3f3b 08b5 313d f7fe 2a3d bf94 63bd
000001a0: 4bc0 683d 6909 9ebd 3f68 ba3a fc25 923c
000001b0: 6902 39bc 15aa 48bd 1e4f 313d d88b 05be
000001c0: 4029 483d bb45 ceb9 2b36 9b3d 858d c9bd
000001d0: d07b 08bc 2285 96bd e93b a2ba 15ca 15bc
000001e0: 45c1 0f3d 2aa0 99bc 999f aa3c 0ffd 9c3d
000001f0: 7999 2b3d 4653 333d f115 04bd d781 8bbd
00000200: 3670 5f3d 39f0 87bd 500c d5bc 37b4 82bd
00000210: 4885 293d b97f a23d 1288 44bc e36f b7bb
00000220: b702 86ba 0326 0e3d 0a8a 573d 38c1 b5bb
00000230: ecff 413b ca41 cb3d 3ee9 0e3d 238e d23c
00000240: 86fa 043d 864d 0cbc 34c3 0b3d b5aa 013d
00000250: f812 8d3c 8d0d 81bc ffcd 37bd 9a8d e1bd
00000260: f60b a63d f234 e83c 37bf 69bd c9e6 a4bb
00000270: 8726 d73d efdb 10bd b5e2 77bc 8ef4 0b3d
00000280: 1d0c 503d f894 643c b963 833d f826 403d
00000290: 2cf0 933d 683a cdbd d7f9 bb3d c394 8b3c
000002a0: c96a 8f3d 25c7 40bd b48e 31bc 0f35 f73c
000002b0: d1fa b13c b56f 543d 181a 6fbd 4f0f aa3c
000002c0: 7093 88bc 32b9 8c3d 6eee 833b b474 03bd
000002d0: e410 46bc ace2 b6bd ae66 5abc c2bc bf3d
000002e0: c3ab 79bc 0916 8abb 8501 f83c a611 293d
000002f0: 272f 7a3d 6e8e 7abd 89d9 8c3d e456 67bd
00000300: 75b9 acbd f4e2 f63c 3e8d b13b 268a e53b
00000310: cba8 38bd 8b4b 6c3c 118a 083e 498f 65bd
00000320: 7f25 933c 0c53 9bbd 7195 943c 9216 a53d
00000330: 2775 a6bd 1b63 d0bc 2393 e43c c93d 693c
00000340: ca99 d53d 6665 ce3c 6314 b0bc c71e adbd
00000350: 2163 42bd 140e dd3d 6738 ff3c 9001 1eba
00000360: 8f48 2ebd e858 0a3d 422e 6d3d 5185 afbc
00000370: 201b f93c 46e1 b7bd caea 443d 17a2 e03c
00000380: 8942 433d ed14 333c 06fd 903d 6b8e 54bd
00000390: 801c 193d 3718 183e 57a6 1ebb 733e cbbc
000003a0: 8f90 a3bc 370c b23c d08f fd3c 701b 83bc
000003b0: 5dfb fabc ef56 71bd 444e 833d 9dd7 c3bc
000003c0: c764 fd3b 708e 473d 98e5 87bd ec15 553d
000003d0: f4e6 69ba ea59 753d dd6b e0bd f64d b33d
000003e0: e9c8 843b e731 d13c af5a 3d3d c238 9f3c
000003f0: ce50 b73c 1293 ca3c e07e 7d3c a8c4 ac3d
0.0029314284 0.019560803 0.08061247 0.014611324 -0.0918892 -0.0758484 0.030413585 -0.0062486967
-0.046581637 0.023219906 0.034983966 0.08284332 -0.0070900572 -0.06507161 -0.078886345 0.024728833
-0.14344867 0.014235795 0.056081597 -0.076037414 0.013301718 -0.0029391772 -0.07976198 0.12217483
-0.09297799 -0.006792479 -0.09476717 0.036792945 -0.03743696 0.06565726 0.039947327 0.005411494
0.0047717756 0.10621456 0.061494276 -0.07000993 -0.08792369 -0.0084827775 0.04110094 -0.016446052
-0.06830313 0.076800935 0.002330903 -0.037120517 -0.007156063 0.0029828758 -0.05414801 -0.06421862
0.07138401 -0.047711655 0.00082797755 -0.0248212 0.037646107 0.02633196 -0.0036102158 0.08331239
-0.08305202 -0.09856684 -0.10909518 0.03785931 -0.08298658 0.043495905 -0.016450774 -0.04652576
-0.05976208 -0.034417935 -0.07367393 -0.079730995 -0.086258985 0.048660904 -0.026512168 0.0134114195
0.00802947 -0.069744624 0.08828785 0.003181869 0.11452065 0.03390895 -0.08877259 -0.0049662543
-0.020945385 0.08135717 -0.0118532395 -0.0039148657 0.068310425 -0.015099269 -0.009114644 -0.048832748
-0.046500675 0.01985478 0.03662341 0.029936843 0.057141 -0.010738373 -0.061262 -0.023050819
0.08618192 -0.024899501 0.07230115 0.00086953613 0.0029274833 0.043385535 0.04174706 -0.055561777
0.05682401 -0.077166386 0.0014221742 0.017840378 -0.0112920785 -0.048990328 0.043288343 -0.13041627
0.048867464 -0.00039343335 0.07578691 -0.09841446 -0.0083303 -0.07349612 -0.0012377474 -0.009142418
0.035096426 -0.01875313 0.020828055 0.076654546 0.04189441 0.043780588 -0.032247487 -0.06811874
0.054550372 -0.06637616 -0.026006848 -0.063820295 0.041386873 0.079345174 -0.011995332 -0.0055980547
-0.0010224198 0.03470422 0.05262188 -0.005546715 0.0029602004 0.09924658 0.034890406 0.025702542
0.03246548 -0.008563405 0.034121707 0.03165694 0.017220959 -0.015753532 -0.044874188 -0.110133365
0.0810775 0.028345559 -0.057067122 -0.0050323945 0.105053954 -0.035365995 -0.015129735 0.034168772
0.050792802 0.013951533 0.06415505 0.046912163 0.072235435 -0.10020906 0.091785125 0.017038709
0.070027895 -0.04706492 -0.010837246 0.030176667 0.021726044 0.051864345 -0.058374494 0.020759253
-0.016671866 0.06871261 0.004026226 -0.03209372 -0.012088988 -0.08929953 -0.013330145 0.093621746
-0.015238705 -0.0042140526 0.030274162 0.041276596 0.061080124 -0.061170988 0.06877429 -0.05647935
-0.084338106 0.030137517 0.0054184487 0.007004994 -0.04508285 0.014422308 0.13333918 -0.05604485
0.017962215 -0.07584199 0.018137665 0.080609456 -0.08127814 -0.025437882 0.027902192 0.014235922
0.104297236 0.025194835 -0.021494096 -0.08453136 -0.047457818 0.10793701 0.031154824 -0.00060274545
-0.042549666 0.033776194 0.057905443 -0.021425875 0.030408442 -0.089785144 0.048075475 0.02742104
0.047670875 0.010930282 0.070795104 -0.051893633 0.037380695 0.14852987 -0.0024208033 -0.024810052
-0.019966392 0.02173434 0.030952364 -0.016004294 -0.030637437 -0.058920797 0.06411412 -0.023906523
0.007732961 0.048719823 -0.066355884 0.05202286 -0.00089226593 0.0599002 -0.10958073 0.08755104
0.0040522707 0.02553649 0.04622906 0.019436244 0.022377398 0.024728332 0.015472144 0.08435947

network_body._body_endoder.seq_layers.0.bias f4 [128]
00000000: 0000 0000 0000 0000 0000 0000 0000 0000
00000010: 0000 0000 0000 0000 0000 0000 0000 0000
00000020: 0000 0000 0000 0000 0000 0000 0000 0000
00000030: 0000 0000 0000 0000 0000 0000 0000 0000
00000040: 0000 0000 0000 0000 0000 0000 0000 0000
00000050: 0000 0000 0000 0000 0000 0000 0000 0000
00000060: 0000 0000 0000 0000 0000 0000 0000 0000
00000070: 0000 0000 0000 0000 0000 0000 0000 0000
00000080: 0000 0000 0000 0000 0000 0000 0000 0000
00000090: 0000 0000 0000 0000 0000 0000 0000 0000
000000a0: 0000 0000 0000 0000 0000 0000 0000 0000
000000b0: 0000 0000 0000 0000 0000 0000 0000 0000
000000c0: 0000 0000 0000 0000 0000 0000 0000 0000
000000d0: 0000 0000 0000 0000 0000 0000 0000 0000
000000e0: 0000 0000 0000 0000 0000 0000 0000 0000
000000f0: 0000 0000 0000 0000 0000 0000 0000 0000
00000100: 0000 0000 0000 0000 0000 0000 0000 0000
00000110: 0000 0000 0000 0000 0000 0000 0000 0000
00000120: 0000 0000 0000 0000 0000 0000 0000 0000
00000130: 0000 0000 0000 0000 0000 0000 0000 0000
00000140: 0000 0000 0000 0000 0000 0000 0000 0000
00000150: 0000 0000 0000 0000 0000 0000 0000 0000
00000160: 0000 0000 0000 0000 0000 0000 0000 0000
00000170: 0000 0000 0000 0000 0000 0000 0000 0000
00000180: 0000 0000 0000 0000 0000 0000 0000 0000
00000190: 0000 0000 0000 0000 0000 0000 0000 0000
000001a0: 0000 0000 0000 0000 0000 0000 0000 0000
000001b0: 0000 0000 0000 0000 0000 0000 0000 0000
000001c0: 0000 0000 0000 0000 0000 0000 0000 0000
000001d0: 0000 0000 0000 0000 0000 0000 0000 0000
000001e0: 0000 0000 0000 0000 0000 0000 0000 0000
000001f0: 0000 0000 0000 0000 0000 0000 0000 0000
0.0 0.0 0.0 0.0 0.0 0.0 0.0 0.0
0.0 0.0 0.0 0.0 0.0 0.0 0.0 0.0
0.0 0.0 0.0 0.0 0.0 0.0 0.0 0.0
0.0 0.0 0.0 0.0 0.0 0.0 0.0 0.0
0.0 0.0 0.0 0.0 0.0 0.0 0.0 0.0
0.0 0.0 0.0 0.0 0.0 0.0 0.0 0.0
0.0 0.0 0.0 0.0 0.0 0.0 0.0 0.0
0.0 0.0 0.0 0.0 0.0 0.0 0.0 0.0
0.0 0.0 0.0 0.0 0.0 0.0 0.0 0.0
0.0 0.0 0.0 0.0 0.0 0.0 0.0 0.0
0.0 0.0 0.0 0.0 0.0 0.0 0.0 0.0
0.0 0.0 0.0 0.0 0.0 0.0 0.0 0.0
0.0 0.0 0.0 0.0 0.0 0.0 0.0 0.0
0.0 0.0 0.0 0.0 0.0 0.0 0.0 0.0
0.0 0.0 0.0 0.0 0.0 0.0 0.0 0.0
0.0 0.0 0.0 0.0 0.0 0.0 0.0 0.0

network_body._body_endoder.seq_layers.2.weight f4 [128, 128]
00000000: c8d1 46bd e866 063e 4322 343e 6298 e13a
00000010: b561 743d 3623 933d a299 95bd 3303 dc3d
00000020: f5b0 81bd c04e 5fbd fc5d e1bc 41a8 18be
00000030: 1b57 ff3c c509 873d f42c ccbd 201d 413c
00000040: c4f0 803d 7b82 403e 3e81 f7bd 2beb 803c
00000050: 4870 793d 1e95 cc3d 1268 833c 7d88 133e
00000060: 1d82 063d 1873 3cbd 87ba 873c 607a 05bd
00000070: 9a4d 3fbe ba4f bb3c f59a d6bc 6d1b b5bd
00000080: f2f1 1a3e 4645 2d3d f332 c03c 4fd9 16be
00000090: 2d18 113c 9804 c4bd 0e8c de3d 29f2 12be
000000a0: eecc 3e3d 5663 cb3c 91db df3c e451 c8bd
000000b0: 6ab0 9fbc 42ed 6bbd 47f5 1bbe 7e03 23bd
000000c0: 7713 02be 98b5 27bc c21c 0e3c e58e c1bc
000000d0: 4f0d c83d 0844 113d 5416 4bbe d36f 603d
000000e0: 173d 9b3d 37c0 bfbc 03b1 493d 64ff 9fbd
000000f0: a3fb b33c a7a4 64bd 05dd cc39 88c8 e03d
00000100: 2b08 c43d 3e30 b2bc 6b67 18be 0808 5ebd
00000110: cb5c 6c3c 6421 4f3e 12ca dbba 6358 aebd
00000120: 8471 543e 3499 04bd 32fa 203d ab94 98bc
00000130: 10fe a53d d832 e73d 4bca 723d 180a 363d
00000140: 47e5 48bb 5dd8 26bd 6192 793d c508 f03d
00000150: b2ae 68bd 158e dabb e4a5 8dbd 8b86 b33c
00000160: 3e29 00bd ac8d afbc e4ca 393b 8694 b33d
00000170: 4f3d 933d fe9a a23d 78d0 80bd f9fb 0a3c
00000180: f55c 67bd 6c73 89bd b693 05be e0e2 7fbd
00000190: 842e 543d 53dc 00bd d4e0 fabd d341 083e
000001a0: 3d96 303d da7a 863d 9b9a 53bd ffb6 babd
000001b0: 3385 fd3c 7f24 843c 02d3 ba3d 6bb6 a73d
000001c0: 3651 4c3e 562e 573d 2285 5a3d b50f 2ebb
000001d0: 1c75 7bbc 1e7f aebc f259 6fbe 22c7 223d
000001e0: eb40 57bd e0d1 673e 5f7d 0cbe 818e 8e3c
000001f0: 5ed3 2abe 356a 503d fe69 523d 590b fcbd
00000200: 078e d53c c6f6 20be de18 8b3d be3e 5dbd
00000210: 0b61 ee3c 6c88 71bd 9bd3 6ebd a5b0 a9bd
00000220: 6cbd cabd 9d43 91bd 651c 63bd d77d 0c3c
00000230: 46d8 a03d 0b09 f23c 71e6 d23d 5f3f 053e
00000240: baf8 65bd 4cbf 443e 28bc 60bd bce6 383e
00000250: a1a3 4bbd f810 47be c142 ebbd 909e 393d
00000260: 45ec 083e 90fe 60bc 5563 013e 678c 0b38
00000270: 4503 093e 3021 993d 7ca3 573d f324 bbbd
00000280: c1bc 7a3d 61ba fa3c ed71 58be 1fec d13d
00000290: a2a6 abbd 18d7 cdbc f55a efbc 1b28 dbbd
000002a0: 7bd3 5e3c 34bb 013d e6f5 60bb 4310 32be
000002b0: 7849 87bc 989e 65bd 0021 02bd a0bd ac3c
000002c0: 30be 093c ac36 55bd 6ca0 553e db75 14bb
000002d0: 12d7 773d e31c f4bd 5c19 3d3d e03c 82bd
000002e0: 1082 99bd 0c45 1dbe 9fe7 b83d 231b 0d3c
000002f0: e5ba c33d 3f42 b3bd a5cb bf3d 06a6 19be
00000300: d5df b5bc 12cc f13c 9153 a23c 8bd2 2bbd
00000310: 404b 9dbc d5f4 133c 20ed a63d 35d3 52bd
00000320: 329a 7c3c 795f 6d3c 09c6 043c 3862 0d3d
00000330: f372 adbd 0195 0cbe 2b54 093d b54a ba3c
00000340: b4a3 41bd 5c4d 163d d657 48be 01bb 3c3d
00000350: bcf0 553d cea9 a03d c806 e8bd 0173 0d3d
00000360: 05a1 9cbd 6c24 bb3d 8ba5 dabd bb05 393e
00000370: 1893 77bd ed55 0c3e 6475 1c3e fe6f 293e
00000380: 9d97 35bd b7b5 e03c 23d8 eebd bcaf 19be
00000390: 39af dd3d 5032 ef3d 2d59 8b3d 783f 8f3c
000003a0: bfb0 073d 8e50 ab3d 937a 7cbd af0e 05be
000003b0: 2451 f23d 8d7e 48bd 97b6 2dbb 8ec5 89bd
000003c0: 86d0 edbd daa8 0abe 48c3 dfbd 92c5 e2bd
000003d0: 40e2 973b 8c7f 3abc d477 cfbd 7d4f 713b
000003e0: a1cf 423d 2b16 a03d c5d7 bf3d ba2e d8bc
000003f0: 0832 7ebc f9fc 88bc c271 443d 2fd9 133e
-0.048539907 0.13125193 0.17591195 0.0017211551 0.059663493 0.0718445 -0.07304694 0.10742798
-0.0633258 -0.05451846 -0.027510636 -0.14907934 0.031169465 0.0659366 -0.09969512 0.011786729
0.062959224 0.18799774 -0.12085198 0.015737137 0.060898095 0.09989379 0.016040836 0.14407535
0.03283893 -0.0460082 0.016568435 -0.03258741 -0.18681946 0.022865165 -0.026196936 -0.08843122
0.15131357 0.042302392 0.023461794 -0.14731334 0.008855862 -0.09571189 0.10866557 -0.1435019
0.046582155 0.02482764 0.027326377 -0.097812444 -0.0194933 -0.057599314 -0.15230285 -0.039798252
-0.12702738 -0.010236166 0.008673849 -0.023627708 0.097681634 0.03546527 -0.19832736 0.054794144
0.07580011 -0.023407085 0.049241077 -0.07812384 0.021970576 -0.055821087 0.00039074584 0.10975748
0.095718704 -0.02175152 -0.14883201 -0.054206878 0.01442642 0.20227581 -0.0016768596 -0.08512952
0.20746428 -0.03237267 0.039301105 -0.018625578 0.08105099 0.112889946 0.059274953 0.04444322
-0.0030654238 -0.040733684 0.060930613 0.11720423 -0.056807227 -0.0066697695 -0.06916407 0.021914741
-0.03128933 -0.02142986 0.0028349692 0.08768563 0.07189428 0.07939719 -0.06289762 0.0084829265
-0.056485135 -0.06711468 -0.13044629 -0.062472224 0.051802173 -0.031460118 -0.12249914 0.1330636
0.04311203 0.06566401 -0.051661115 -0.09116935 0.030947303 0.016130684 0.09122278 0.0818909
0.19952855 0.052534424 0.05334962 -0.0026559655 -0.015347745 -0.021300849 -0.23374155 0.03974069
-0.052552145 0.22638655 -0.137197 0.017401936 -0.16682193 0.050882537 0.051370613 -0.12306852
0.0260687 -0.15719137 0.067918524 -0.054014914 0.029099008 -0.058967993 -0.05830727 -0.082856454
-0.098994106 -0.07092974 -0.055447 0.008574924 0.07853751 0.029545328 0.102978595 0.13012455
-0.056145407 0.19213599 -0.05486694 0.18056768 -0.049716596 -0.19440067 -0.11487342 0.045317233
0.1337138 -0.013732567 0.12635548 3.3270942e-05 0.13380153 0.07477033 0.052646145 -0.09137907
0.061215166 0.03060645 -0.21137209 0.10250115 -0.08381392 -0.025126979 -0.029218176 -0.10701009
0.013600226 0.03167267 -0.0034326254 -0.17389016 -0.016514525 -0.05605945 -0.031769753 0.021086514
0.008407161 -0.052054092 0.20861977 -0.0022653255 0.06050784 -0.11919572 0.046166763 -0.06359267
-0.074955106 -0.1535837 0.09028553 0.008612427 0.09557132 -0.0875287 0.09365014 -0.15004739
-0.022201458 0.029516254 0.019815238 -0.041948836 -0.019200921 0.0090305405 0.08150697 -0.051470954
0.015417622 0.0144880945 0.008103856 0.034517497 -0.084691904 -0.13728715 0.033527534 0.022740701
-0.04727526 0.03669487 -0.19564757 0.04607678 0.052231535 0.07844888 -0.113294184 0.034533504
-0.076478995 0.09137806 -0.10676106 0.18068592 -0.060443014 0.13704653 0.15279156 0.16546628
-0.044334043 0.027430398 -0.116623186 -0.15008444 0.10824437 0.11679518 0.06804118 0.017486319
0.033127543 0.08364974 -0.061640333 -0.12993883 0.118318826 -0.048948813 -0.0026506537 -0.06727134
-0.11612038 -0.13540974 -0.10925919 -0.1107284 0.0046351254 -0.011382949 -0.10130277 0.003682106
0.04756129 0.07816728 0.09367327 -0.026389468 -0.015514858 -0.01672219 0.04796005 0.14438318

network_body._body_endoder.seq_layers.2.bias f4 [128]
00000000: 0000 0000 0000 0000 0000 0000 0000 0000
00000010: 0000 0000 0000 0000 0000 0000 0000 0000
00000020: 0000 0000 0000 0000 0000 0000 0000 0000
00000030: 0000 0000 0000 0000 0000 0000 0000 0000
00000040: 0000 0000 0000 0000 0000 0000 0000 0000
00000050: 0000 0000 0000 0000 0000 0000 0000 0000
00000060: 0000 0000 0000 0000 0000 0000 0000 0000
00000070: 0000 0000 0000 0000 0000 0000 0000 0000
00000080: 0000 0000 0000 0000 0000 0000 0000 0000
00000090: 0000 0000 0000 0000 0000 0000 0000 0000
000000a0: 0000 0000 0000 0000 0000 0000 0000 0000
000000b0: 0000 0000 0000 0000 0000 0000 0000 0000
000000c0: 0000 0000 0000 0000 0000 0000 0000 0000
000000d0: 0000 0000 0000 0000 0000 0000 0000 0000
000000e0: 0000 0000 0000 0000 0000 0000 0000 0000
000000f0: 0000 0000 0000 0000 0000 0000 0000 0000
00000100: 0000 0000 0000 0000 0000 0000 0000 0000
00000110: 0000 0000 0000 0000 0000 0000 0000 0000
00000120: 0000 0000 0000 0000 0000 0000 0000 0000
00000130: 0000 0000 0000 0000 0000 0000 0000 0000
00000140: 0000 0000 0000 0000 0000 0000 0000 0000
00000150: 0000 0000 0000 0000 0000 0000 0000 0000
00000160: 0000 0000 0000 0000 0000 0000 0000 0000
00000170: 0000 0000 0000 0000 0000 0000 0000 0000
00000180: 0000 0000 0000 0000 0000 0000 0000 0000
00000190: 0000 0000 0000 0000 0000 0000 0000 0000
000001a0: 0000 0000 0000 0000 0000 0000 0000 0000
000001b0: 0000 0000 0000 0000 0000 0000 0000 0000
000001c0: 0000 0000 0000 0000 0000 0000 0000 0000
000001d0: 0000 0000 0000 0000 0000 0000 0000 0000
000001e0: 0000 0000 0000 0000 0000 0000 0000 0000
000001f0: 0000 0000 0000 0000 0000 0000 0000 0000
0.0 0.0 0.0 0.0 0.0 0.0 0.0 0.0
0.0 0.0 0.0 0.0 0.0 0.0 0.0 0.0
0.0 0.0 0.0 0.0 0.0 0.0 0.0 0.0
0.0 0.0 0.0 0.0 0.0 0.0 0.0 0.0
0.0 0.0 0.0 0.0 0.0 0.0 0.0 0.0
0.0 0.0 0.0 0.0 0.0 0.0 0.0 0.0
0.0 0.0 0.0 0.0 0.0 0.0 0.0 0.0
0.0 0.0 0.0 0.0 0.0 0.0 0.0 0.0
0.0 0.0 0.0 0.0 0.0 0.0 0.0 0.0
0.0 0.0 0.0 0.0 0.0 0.0 0.0 0.0
0.0 0.0 0.0 0.0 0.0 0.0 0.0 0.0
0.0 0.0 0.0 0.0 0.0 0.0 0.0 0.0
0.0 0.0 0.0 0.0 0.0 0.0 0.0 0.0
0.0 0.0 0.0 0.0 0.0 0.0 0.0 0.0
0.0 0.0 0.0 0.0 0.0 0.0 0.0 0.0
0.0 0.0 0.0 0.0 0.0 0.0 0.0 0.0

value_heads.value_heads.extrinsic.weight f4 [1, 128]
00000000: a820 14be e61b 30be ecd0 aa3d c41d 66bd
00000010: 8c6f 16be 764c efbd fe01 5a3e 4ea7 403e
00000020: f358 c5bd acdb fd3d e441 483e a67c 5a3e
00000030: 80a1 8e3b d814 d73d 281e 5abe 9ccc 453e
00000040: 4ab2 143e 6b3c 4bbe f601 5bbe 6327 d5bd
00000050: 920e 083e 6003 ca3d 6fb4 28be 2e1e 3ebe
00000060: e68a 223e 0cbf be3d 8cba 553e c680 003e
00000070: 30f4 58bd 08dc 193d 1932 55be 84a5 9f3d
00000080: 5012 9a3c 6bc2 e6bd 509c c0bc fea3 d4bd
00000090: 47f4 37be 5090 b9bd 5cd0 45be 4c81 593e
000000a0: 7a7c 5bbe 0485 91bd 28d5 94bc e8d2 a53c
000000b0: c0d0 7e3b d8d5 0fbd 9e8c 0dbe 784b b1bc
000000c0: c2ea 203e 883e 543d 509d a93d b88e d83c
000000d0: 20ba 133c b435 e2bd c689 533e 8c34 013d
000000e0: 60fd 7c3d 8100 bfbd 5abf d5bd 78ca 3bbd
000000f0: c42d cb3d 4ce5 1dbd 46ff 413e 4731 3cbe
00000100: 6061 fd3d fa3f 58be 6e04 323e a493 8a3d
00000110: 503e 2c3e c4eb b43d 2616 1b3e 465f 443e
00000120: 5289 08be 5c85 213e 289d 813d 8a92 223e
00000130: 9409 c63d b010 ec3d 04b2 d43d 1048 9c3d
00000140: 446d f13d c0e2 2a3d 6f09 2cbe d878 ecbc
00000150: 66e9 fcbd 8045 e03c 40d5 5fbc e3dc 2dbe
00000160: 38d5 d23d 2085 643d 0022 67bd 88f7 1a3e
00000170: 0448 823d 0051 ff3c 2e04 c2bd 80c1 cdba
00000180: 0f9c e3bd d88e 043d 24b9 953d b75a 35be
00000190: 2ee1 4bbe e493 1cbd 288a 373d 50f6 fb3d
000001a0: accc 063e 602a 6cbc 4a86 05be c0b8 263c
000001b0: 6cb7 843d 08fa 0e3e 500c bb3d 8cef 873d
000001c0: ac22 393e c823 523d 4cca 83bd 1c86 983d
000001d0: 2e7f 11be 00a2 66ba 3638 413e 8c44 2f3e
000001e0: a73e 00be d4a4 343e 9eb5 49be bcf9 f83d
000001f0: d0fc b63c 3458 53bd c840 113e 480f 183e
-0.14465582 -0.17198142 0.0834063 -0.05618073 -0.1469099 -0.11684506 0.21289822 0.18813822
-0.09636106 0.12395415 0.19556385 0.21336612 0.0043527484 0.105020225 -0.21300566 0.19316334
0.14521137 -0.19847266 -0.21387467 -0.10407903 0.13286808 0.09863925 -0.1647508 -0.185662
0.15873298 0.09313783 0.20871943 0.12549123 -0.05296725 0.037563354 -0.20819892 0.077952415
0.01880756 -0.11267551 -0.023512036 -0.103828415 -0.17964278 -0.090607285 -0.19317764 0.21240729
-0.21434203 -0.07105449 -0.018168047 0.02024217 0.003888175 -0.035116047 -0.13823172 -0.021642432
0.15714553 0.051817447 0.08281958 0.026435241 0.009016544 -0.11045399 0.20658025 0.031544253
0.061765075 -0.09326268 -0.10436888 -0.045847386 0.099208385 -0.038548753 0.18945035 -0.18378173
0.123720884 -0.21118155 0.17384502 0.067664415 0.16820645 0.08834031 0.15145168 0.19176969
-0.13333634 0.15773529 0.06328803 0.15876213 0.09669796 0.115266204 0.10385516 0.07630932
0.11788419 0.041720152 -0.16800474 -0.028866217 -0.12349205 0.02737689 -0.013661683 -0.16978793
0.102945745 0.05579102 -0.05642891 0.15133488 0.06361392 0.031166553 -0.094734535 -0.0015697926
-0.1111375 0.03236279 0.073107034 -0.17710386 -0.19910118 -0.038226977 0.04480949 0.1230284
0.13164014 -0.0144144 -0.13039508 0.010175884 0.064802974 0.13962567 0.09133208 0.06637487
0.18079633 0.051303655 -0.064350694 0.07447454 -0.14208671 -0.00087979436 0.18869099 0.17115992
-0.125239 0.17641002 -0.19698188 0.12157008 0.022337347 -0.05159779 0.14184868 0.1484958
