results/PlayerAgentTest/MediumPlayer.onnx (onnx, 275220 bytes, 7 tensors)

network_body._body_endoder.seq_layers.0.weight f4 [128, 396]
0	0xbd347884	-0.044060245
1	0xbd4fc809	-0.050727878
2	0x3d432080	0.047638416
3	0xbc30e893	-0.0107976375
4	0xbd9c59c1	-0.07634307
5	0x3d184ad9	0.037180755
6	0xbd01c6fd	-0.03168391
7	0x3db9e09e	0.090760455
8	0xbc1a1a80	-0.009405732
9	0xbdcab565	-0.098978795
10	0x3d4b17ff	0.04958343
11	0xbc92a570	-0.017901152
12	0x3be3f912	0.0069571817
13	0x3dcd9250	0.100376725
14	0x3ce56649	0.028002875
15	0x3c62c709	0.013841399
16	0x3cb3e450	0.021959454
17	0xbd5d0b3d	-0.053965796
18	0xbc111764	-0.008855674
19	0x3d2ba803	0.041908275
20	0x3c930be5	0.017950008
21	0x3d833704	0.06406978
22	0x3cc527cc	0.024066828
23	0xbd487a49	-0.048944745
24	0x3cf631fd	0.030053133
25	0x3d76751b	0.060170274
26	0xbd17539a	-0.036944963
27	0x3c818488	0.015810266
28	0xbd88ab84	-0.06673339
29	0xbdd0d11f	-0.10196137
30	0x3dcec33f	0.10095834
31	0xbcc49a7d	-0.023999447
32	0xbd33ba7a	-0.04387901
33	0xbd464716	-0.048407637
34	0x3d0b0ea2	0.0339495
35	0xbd5f4313	-0.054507326
36	0x3dbec055	0.09314028
37	0xbb39a44c	-0.0028326688
38	0xbd43c402	-0.04779435
39	0x3d930922	0.07179476
40	0xbc189c2d	-0.009314579
41	0xbd869df4	-0.06573096
42	0xbca9e2ae	-0.020737972
43	0xbd83778c	-0.06419286
44	0x3cf30642	0.02966607
45	0x3d425b51	0.047450367
46	0xbd9b2e5f	-0.07577204
47	0xbda7d651	-0.081951745
48	0xbcf12cf4	-0.02944038
49	0x3d7fb615	0.062429506
50	0xbd2ae2fb	-0.04172037
51	0xbcfc35cf	-0.030787377
52	0xbc035070	-0.008014783
53	0xbcd352a2	-0.025796238
54	0xbad6f0ca	-0.0016398665
55	0xbdd6c346	-0.10486464
56	0xbd754ae6	-0.05988588
57	0xbd5b62fd	-0.0535612
58	0xbd8651b3	-0.06558552
59	0xbc8706e8	-0.016482785
60	0x3d8215da	0.06351824
61	0x3d387477	0.045032945
62	0xbdcd64df	-0.10029005
63	0xbcef16dd	-0.029185707
64	0x3b794fcc	0.0038041947
65	0xbc501363	-0.012699935
66	0xbb06b07b	-0.0020551968
67	0x3cbffae3	0.023435062
68	0xbdc80567	-0.097666554
69	0xbcb6a26a	-0.022294242
70	0x3d02118f	0.031755026
71	0xba4023eb	-0.0007329571
72	0xbcab84b0	-0.020937294
73	0x3cf936f0	0.030421704
74	0xbddd682e	-0.10810886
75	0xbb9afc83	-0.004729809
76	0xbd5a7f01	-0.053343777
77	0xbd26b9f9	-0.0407047
78	0x3d5f98c6	0.054589055
79	0xbdb064a6	-0.08612947
80	0x3ab078d8	0.0013463749
81	0x3ce03321	0.02736813
82	0xbd2cb373	-0.042163324
83	0xbcb07cfc	-0.021543972
84	0xbcbf26fd	-0.02333402
85	0xbc043740	-0.008069813
86	0x39eb5ea9	0.0004489322
87	0x3d94fc9b	0.07274743
88	0x3ba7d9b7	0.005122389
89	0xbd0154bb	-0.031574946
90	0x3db6a999	0.08919067
91	0x3d564ffc	0.052322373
92	0x3d9e2c36	0.07723276
93	0xbd132c40	-0.035930872
94	0x3d2db205	0.0424061
95	0xbd3d35c3	-0.04619385
96	0xbd768a77	-0.060190644
97	0xbcac8ec7	-0.021064175
98	0xbb1f6bb9	-0.0024325682
99	0x3c2fa401	0.010720254
100	0x3c69d3d3	0.014271694
101	0xbcaa49ba	-0.020787109
102	0x3c5dbcc8	0.0135337785
103	0x3d9a48e0	0.07533431
104	0xbbe5ace9	-0.007009138
105	0xbb79953e	-0.003808334
106	0x3d5a81f3	0.053346585
107	0xbd47f863	-0.048820864
108	0x3c0210a6	0.00793854
109	0x3d301bca	0.04299525
110	0xbcd475a3	-0.025935
111	0x3d306f09	0.04307464
112	0xbd3d6709	-0.04624084
113	0xbc8f3952	-0.017483387
114	0xbdc682cf	-0.096929185
115	0x3d751209	0.059831653
116	0x3b83c9d6	0.0040218635
117	0xbda0e7d9	-0.078567214
118	0x3bc478ef	0.0059958617
119	0x3ce4b73a	0.0279194
120	0xbd828451	-0.063728936
121	0xbd8f6aa0	-0.07002759
122	0x3c98a302	0.018632416
123	0xbc078d0a	-0.008273372
124	0xbdb1c925	-0.086809434
125	0xbc06c4a1	-0.008225591
126	0xbd30c029	-0.04315201
127	0x3d6811c2	0.05665756
128	0xbdb01f7b	-0.085997544
129	0x3e00e27e	0.125864
130	0xbdfa9584	-0.12235549
131	0x3c1a74a0	0.00942722
132	0xbd53e15d	-0.051728595
133	0x3b6201c7	0.0034485923
134	0xbc3212cf	-0.010868742
135	0xbd388996	-0.045053087
136	0x3d23a3e1	0.03995121
137	0x3a221173	0.00061824097
138	0x3d843635	0.06455652
139	0xbd78f63d	-0.060781706
140	0x3c9d50bd	0.019203538
141	0xbc9971f0	-0.018731087
142	0x3c4628a7	0.012094653
143	0xbb3bf1f4	-0.002867815
144	0xbc424461	-0.011857123
145	0xbdc53040	-0.096283436
146	0xbd9de279	-0.07709212
147	0xbc1b2e25	-0.009471451
148	0xbc896d3a	-0.016775716
149	0xbda420a0	-0.08014035
150	0x3c06c2bb	0.008225138
151	0x3d4a973c	0.049460635
152	0xbc3c6067	-0.0114975935
153	0xbd8edcd0	-0.069757104
154	0xbd46def5	-0.048552472
155	0xbc4e6e3f	-0.012599527
156	0x3d0fe1ec	0.035127565
157	0x3d4bf38a	0.049792804
158	0x3d53c219	0.051698778
159	0x3cf1e64c	0.02952876
160	0xbcd43e28	-0.025908545
161	0xbd54c84d	-0.051948834
162	0xbd3541e1	-0.04425228
163	0xbc46e36b	-0.012139182
164	0x3d40da17	0.047082987
165	0x3da4e2bc	0.08051059
166	0xbc9cd1e6	-0.019143056
167	0xbcdf733a	-0.027276624
168	0x3c6f3a54	0.014601309
169	0x3d2cc081	0.042175774
170	0xbbeb1430	-0.0071740374
171	0xbdb6f756	-0.08933894
172	0xbcbfd91c	-0.023418956
173	0xbd557551	-0.052113835
174	0x3bc766a0	0.006085232
175	0xbdbfd0b6	-0.0936598
176	0xbd30f701	-0.04320431
177	0xbc37d0fc	-0.011219259
178	0x3d4c5db7	0.04989406
179	0xbcf2b31f	-0.029626427
180	0x3d2fdf3d	0.042937506
181	0xbd146482	-0.036228664
182	0xbd9bff81	-0.07617093
183	0xbcdb7b9b	-0.026792338
184	0xbdb81ff2	-0.08990468
185	0xbd1d38a3	-0.03838409
186	0x3d61121d	0.054948915
187	0xbcc3a376	-0.023881655
188	0xbdc18607	-0.09449392
189	0xbd5294c0	-0.05141139
190	0xbc1356ad	-0.008992833
191	0xbc42499f	-0.011858373
192	0xbd2699f8	-0.04067418
193	0x3cc3650c	0.023851894
194	0xbd035792	-0.032065935
195	0xbc6b33aa	-0.014355579
196	0xbc16afb9	-0.009197169
197	0xbd4fcaa1	-0.05073035
198	0xbd2b0093	-0.041748594
199	0xbd529985	-0.05141594
200	0xb9e49ac6	-0.00043602864
201	0xbd78a507	-0.060704257
202	0xbd6f3c05	-0.05840685
203	0x3a0b525f	0.00053147034
204	0xbd172ea4	-0.036909714
205	0x3c22082d	0.009889645
206	0xbd89c60d	-0.06727228
207	0xbaf10198	-0.0018387316
208	0x3cfbfff2	0.030761693
209	0x39027606	0.00012441733
210	0x3d46a85a	0.048500396
211	0xbb1e9122	-0.0024195393
212	0xbd1bb245	-0.038011808
213	0xbde9a408	-0.114082396
214	0x3cdb9334	0.02680359
215	0x3c2a8fb9	0.010410243
216	0x3dd92b0b	0.10603913
217	0x3c9123d0	0.017717272
218	0xbc4d42d9	-0.012528145
219	0xbd13c99a	-0.036080934
220	0xbc1da951	-0.009622888
221	0x3e056cb5	0.1302975
222	0xbded1a17	-0.11577242
223	0xbd75aa32	-0.059976764
224	0x3db271e7	0.087131314
225	0xbd124924	-0.035714284
226	0x3da1c02c	0.07897982
227	0xbd7b2234	-0.061311916
228	0x3d2fa876	0.042885266
229	0xbd0b2877	-0.033974137
230	0x3be5a50a	0.0070081996
231	0xbd80df00	-0.06292534
232	0xbc0b49c3	-0.008501473
233	0xbd52c569	-0.051457796
234	0xbdc861d0	-0.09784281
235	0x3b89ceb4	0.004205549
236	0xbc9d0123	-0.019165581
237	0xbccc640e	-0.024950054
238	0x3cb863a6	0.022508454
239	0xbd355a21	-0.044275407
240	0x3ca271fa	0.019829739
241	0xbaeaaa10	-0.0017903466
242	0x3d5fc003	0.054626476
243	0x3d148e15	0.036268312
244	0xbcac0104	-0.020996578
245	0xbd16f513	-0.036854815
246	0xbca866f1	-0.020556899
247	0x3d38e32c	0.045138523
248	0x3d07c1a3	0.03314365
249	0xb94ff8fe	-0.00019833815
250	0xbcaf865e	-0.021426376
251	0x3d5f77a7	0.05455747
252	0xbddf9948	-0.10917908
253	0x3d8580e9	0.06518728
254	0xbd06815f	-0.03283822
255	0x3cd591fa	0.026070584

network_body._body_endoder.seq_layers.0.bias f4 [128]
0	0xba390e59	-0.0007059328
1	0x3c0558c1	0.008138836
2	0xba9732a1	-0.0011535474
3	0xbbdf9978	-0.006823715
4	0xb99ef6b7	-0.00030319925
5	0x3c14bb07	0.009077794
6	0xbb86ec02	-0.00411749
7	0x3bf38e58	0.00743274
8	0xbad8185a	-0.001648675
9	0x3acfa5e8	0.0015842291
10	0x3b4e1366	0.0031444668
11	0x3b2b03ea	0.0026094862
12	0x3a9a2dcb	0.0011762915
13	0xbbbe8efa	-0.005815384
14	0x3afe2cd6	0.0019392024
15	0x3c548c7e	0.012972949
16	0x3b275658	0.0025533643
17	0x3c1158d0	0.008871272
18	0x3c206cf2	0.0097916
19	0xbb354e67	-0.002766514
20	0xbc33b579	-0.010968559
21	0x3bfa2622	0.0076339403
22	0x3b2c2bb9	0.0026271178
23	0x3b9691de	0.0045950254
24	0xbb9bb73a	-0.004752067
25	0x3c0e9133	0.00870161
26	0xbc0608f2	-0.008180844
27	0xbc26af33	-0.010173607
28	0x3c3d1f80	0.011543155
29	0x3b2c67e4	0.002630704
30	0x3c6fc8cc	0.014635276
31	0x3b3144b3	0.0027049005
32	0x3be1df78	0.0068930946
33	0x3bb09e99	0.00539
34	0x3b972106	0.004612091
35	0xbc0b9b41	-0.008520902
36	0x3b7b1512	0.003831212
37	0x3b614d87	0.0034378485
38	0x3b8c4539	0.004280713
39	0x387e9cdf	6.0704417e-05
40	0xba220aac	-0.00061814
41	0xbbd5be3f	-0.0065229232
42	0x3b6ff5b4	0.0036614956
43	0xbc1a076d	-0.0094011845
44	0x3b63bda4	0.0034750486
45	0xbc60253d	-0.013680753
46	0xb9f38548	-0.00046447874
47	0xbc30a2de	-0.010781018
48	0x3c8d1874	0.017223574
49	0xb99add20	-0.0002953792
50	0x3b8b58a3	0.0042525097
51	0xbb48e5b3	-0.003065449
52	0xb9c52260	-0.0003760038
53	0x3a4595f8	0.00075373007
54	0xbb686a40	-0.003546372
55	0xbaa5cb31	-0.0012649057
56	0xb9c2b9dd	-0.00037141042
57	0x3c7ec82d	0.015550655
58	0x3b90c61f	0.004418149
59	0x3a25b56e	0.00063212856
60	0xbae4cbd5	-0.0017455766
61	0x3c68a48b	0.014199386
62	0xbc296e2c	-0.010341208
63	0xbbaacfd8	-0.005212765
64	0xbafb0742	-0.0019151943
65	0x3be92575	0.007115061
66	0xbaf8fdd2	-0.0018996543
67	0xbc17fde8	-0.009276845
68	0x3b8f2c3e	0.0043692878
69	0x3c9b7a56	0.018979233
70	0x3b269440	0.0025417954
71	0xbc1952d3	-0.009358126
72	0x3bc4936b	0.005999019
73	0x3c3fa0ed	0.011696083
74	0xbb6e16c0	-0.0036329478
75	0x3b12c8b9	0.0022397472
76	0xbc268e25	-0.010165726
77	0x3b8c8df9	0.0042893854
78	0x3ab64cbd	0.0013908368
79	0x3b94d519	0.004542005
80	0x3bc3e9dc	0.005978806
81	0x3c0a5a4f	0.008444383
82	0xb922a735	-0.00015511813
83	0x3bb3bf38	0.0054854415
84	0xbb783b1b	-0.0037877026
85	0xbc20fa3c	-0.0098252855
86	0x3c11991f	0.008886605
87	0x3c62a5fa	0.013833517
88	0x3bbe3e39	0.0058057574
89	0xbad0a705	-0.0015918916
90	0xbbb308c8	-0.0054636933
91	0x3c52e582	0.012872102
92	0xbc5acfdd	-0.0133552225
93	0x3b64837a	0.0034868405
94	0xbb4b5bdd	-0.0031030097
95	0x3c54b928	0.012983598
96	0xb7128a2b	-8.734448e-06
97	0xba330b10	-0.00068299565
98	0xbb23e863	-0.002501034
99	0xbb8f50b2	-0.0043736333
100	0x3ac24eff	0.0014824568
101	0xba2290e8	-0.0006201402
102	0x3bc496c3	0.0059994175
103	0x3c6fab30	0.014628217
104	0xbc04c35e	-0.00810322
105	0x3c02e54c	0.007989239
106	0x3bf825a3	0.007572846
107	0xbb011f4b	-0.001970249
108	0xbb154cab	-0.0022781293
109	0xb76a1c8c	-1.39541335e-05
110	0xbbd34bed	-0.00644826
111	0xbc4b52bb	-0.012409861
112	0x38d39efd	0.00010090878
113	0x3b1dbac4	0.002406762
114	0x3b093df7	0.0020941475
115	0x3acf3c88	0.0015810886
116	0x3b069731	0.0020536894
117	0xbbd1011a	-0.006378305
118	0xbbbf25ea	-0.005833377
119	0xbc18e88a	-0.009332785
120	0x3b2a5976	0.0025993264
121	0x3b91ea40	0.0044529736
122	0xbbe5988b	-0.00700671
123	0x3c357ad6	0.01107665
124	0x3bdb4908	0.0066920556
125	0x3bc84072	0.006111198
126	0x3c47a5f6	0.012185564
127	0xbb84b7fe	-0.004050254

network_body._body_endoder.seq_layers.2.weight f4 [128, 128]
0	0x3e124403	0.14283757
1	0x3d8b7c58	0.06810826
2	0xbd26701d	-0.040634263
3	0x3d6047ad	0.054755855
4	0xbc6fdc13	-0.014639872
5	0xbcd2601b	-0.025680592
6	0xbb812f48	-0.003942404
7	0x3d204aad	0.039133716
8	0xbe0f833e	-0.14014909
9	0x3dfab1e7	0.122409634
10	0xbe4555a9	-0.19270958
11	0xbe58ef2a	-0.21184984
12	0x3d48db94	0.04903753
13	0xbe2426f1	-0.1603048
14	0x3e18631c	0.14881557
15	0x3c91c266	0.017792892
16	0x3dc10807	0.09425359
17	0x3d86b6bb	0.06577822
18	0xbe1d4a65	-0.1536041
19	0xbd82e334	-0.06390992
20	0x3e08fe3e	0.13378236
21	0xbd2dae70	-0.042402685
22	0xbd4c2419	-0.049839113
23	0x3c2df666	0.010617828
24	0xbad285fc	-0.0016061659
25	0x3da323f1	0.0796584
26	0xbd72a41e	-0.059238546
27	0xbd34eeae	-0.044172935
28	0xbde85199	-0.113436885
29	0xbc9a955d	-0.01887005
30	0xbc9b14d5	-0.018930832
31	0x3d98ac19	0.074547
32	0xbc0226cc	-0.00794382
33	0xbc8bd77f	-0.01707053
34	0x3d4a4eff	0.049391743
35	0x3dc1b4c5	0.09458307
36	0xbd18ce22	-0.03730596
37	0x3d521afd	0.05129527
38	0x3b8ec744	0.0043572504
39	0x3df6401d	0.120239474
40	0x3db61656	0.08890979
41	0x3dbdd146	0.09268431
42	0x3b631e52	0.0034655523
43	0xbdaf573a	-0.08561559
44	0xbe7e417a	-0.24829665
45	0x3ccf7508	0.02532436
46	0xbd1a5233	-0.037676048
47	0xba9a7737	-0.0011784796
48	0x3d0ad5f4	0.033895448
49	0xbd76a823	-0.06021894
50	0x3da66b69	0.081259556
51	0x3d5acecc	0.053419873
52	0x3d9bbb03	0.07604029
53	0xbd986214	-0.07440582
54	0x3d0b02d2	0.033938237
55	0x3ddb84cb	0.107186876
56	0xbd445027	-0.047928
57	0xbe02c7c8	-0.12771523
58	0xbe4a74d0	-0.19771123
59	0xbd82a9ad	-0.06380019
60	0xba7178d5	-0.0009211426
61	0x3d141bb0	0.036159217
62	0x3d8ebeff	0.06970023
63	0x3a944f3f	0.0011315121
64	0xbd9ba12c	-0.075991005
65	0xbe238280	-0.1596775
66	0xbd19e598	-0.037572473
67	0xbc105da6	-0.00881139
68	0x3d2474bb	0.040150385
69	0x3c30292f	0.010752006
70	0x3d90a23a	0.07062192
71	0xbdd74338	-0.10510868
72	0x3e5e61d8	0.21717012
73	0x3dc946c3	0.0982795
74	0xbd4b648a	-0.04965643
75	0x3cc6e9bf	0.02428138
76	0xbdff3993	-0.12462153
77	0xbdf3e31d	-0.11908553
78	0xbdac2535	-0.08405534
79	0xbe0434f5	-0.12910827
80	0xbe10e67f	-0.14150427
81	0xbc7fc3f8	-0.015610687
82	0x3dad97f5	0.08476249
83	0x3d765064	0.06013526
84	0xbe2a0d73	-0.16606693
85	0xbdf47d08	-0.1193791
86	0xbe23b0f2	-0.15985468
87	0x3d253bfd	0.040340412
88	0xbdfbf4ef	-0.12302577
89	0xbcd67e4e	-0.026183274
90	0xbdd53343	-0.10410168
91	0xbc88e5d7	-0.016711159
92	0xbd989fad	-0.07452331
93	0xbccd02ec	-0.025025807
94	0xbda3e31c	-0.08002302
95	0x3e31d94b	0.17368047
96	0x3df4cd32	0.119532004
97	0x3d0f5aa1	0.03499854
98	0x3cb37db1	0.02191052
99	0xbc09d94c	-0.008413624
100	0xbd27bb05	-0.04094984
101	0x3d4875f6	0.04894062
102	0xbd4ebcf8	-0.050473183
103	0xbd6c6037	-0.057708945
104	0xbdf4e16d	-0.11957059
105	0xbce852ce	-0.028359797
106	0xbd347e25	-0.044065613
107	0xbe2f0c1f	-0.17094468
108	0x3e258f96	0.16168055
109	0x3c813856	0.015773933
110	0xbe0e24f1	-0.1388128
111	0xbd2d57d1	-0.042320076
112	0x3d1ad8ee	0.037804537
113	0xbdd80040	-0.10546923
114	0x3c9d3ad9	0.0191931
115	0x3d5e26d6	0.054236256
116	0x3d1e2ae2	0.038615115
117	0x3d3b7c15	0.04577263
118	0xbdf3e0b3	-0.11908092
119	0x3c8fd63d	0.017558211
120	0x3db237f9	0.08702082
121	0x3dbd5324	0.092443734
122	0xbd6d2ec5	-0.05790593
123	0xbd08c21b	-0.03338824
124	0xbe091ed6	-0.13390669
125	0x3dac2b40	0.08406687
126	0xbd6a5c5f	-0.057217
127	0x3d5951e5	0.053056616
128	0x3dc405ca	0.09571417
129	0xbd8b4105	-0.06799511
130	0xbbba2e1b	-0.0056817657
131	0x3cd4d89f	0.0259822
132	0xbd7fd097	-0.062454786
133	0x3da8a87e	0.08235262
134	0xbe1421c7	-0.1446601
135	0xbe0522a0	-0.1300149
136	0xbda55d31	-0.080744155
137	0xbdd000aa	-0.10156377
138	0xbcb6eafb	-0.022328844
139	0x3d52c5e5	0.05145826
140	0x3d16a21f	0.036775704
141	0xbe16c6c8	-0.14724267
142	0x3d280882	0.04102374
143	0x3b1ea388	0.002420636
144	0x3d87fd02	0.06640054
145	0x3dbdb63d	0.09263275
146	0x3d7fab32	0.062419124
147	0x3c84dfdf	0.016220031
148	0xbe09fa31	-0.13474347
149	0xbd4a061a	-0.049322225
150	0x3dccf530	0.10007703
151	0xbe4c2cc8	-0.19938958
152	0xbdaf393c	-0.085558385
153	0x3dbde507	0.09272199
154	0x3d794e5e	0.060865752
155	0xbc212568	-0.0098355785
156	0xbd35d3f0	-0.044391572
157	0xbe0bca71	-0.13651444
158	0x3d6a5787	0.05721238
159	0xbcf41546	-0.0297953
160	0xba6316ae	-0.00086627423
161	0xbd8b6b45	-0.068075694
162	0x3deefe8e	0.11669646
163	0xbcd31f93	-0.025771892
164	0xbcf0076e	-0.029300418
165	0x3dea7a38	0.114490926
166	0xbd65449f	-0.055973645
167	0xbce64556	-0.028109234
168	0x3d0bb3e0	0.03410709
169	0x3d2e2239	0.042513106
170	0x3d636b64	0.055522338
171	0xbdd2e868	-0.10298234
172	0x3e28a165	0.16467817
173	0x3e107db0	0.14110446
174	0xbe0c787f	-0.1371784
175	0xbdb8e321	-0.090276964
176	0x3d998b65	0.074972905
177	0xbd5e5dee	-0.054288797
178	0x3d6d03fb	0.057865124
179	0xbd2e65fc	-0.04257773
180	0xbcaf16fa	-0.02137326
181	0xbe23dc08	-0.16001904
182	0xbe61fd4c	-0.22069281
183	0x3e50a68e	0.20376036
184	0xbdf707fb	-0.12062069
185	0xbe11d8ad	-0.14242812
186	0x3e0048a4	0.1252771
187	0xbdb9056f	-0.090342395
188	0x3cdab744	0.026698716
189	0xbc94344b	-0.018091341
190	0xbe25fec8	-0.16210473
191	0x3d33e07a	0.04391525
192	0xbc70789c	-0.014677193
193	0xbde05c82	-0.109551445
194	0xbe739766	-0.23788223
195	0x3ce2350b	0.027613183
196	0x3dba98d0	0.09111178
197	0xbc742815	-0.014902134
198	0x3d00ac4c	0.031414315
199	0x3deeb867	0.11656266
200	0xbd31e002	-0.04342652
201	0x3ce47504	0.027887829
202	0x3d909de2	0.07061364
203	0x3d3d424d	0.046205807
204	0x3c7a20ba	0.015266592
205	0xbdb67b28	-0.08910209
206	0x3cab0694	0.02087716
207	0xbd188579	-0.037236664
208	0x3dbf644d	0.09345303
209	0x3a826b31	0.0009950158
210	0xbcb6d621	-0.022318901
211	0xbdaec487	-0.08533578
212	0xbe47bfc8	-0.19506752
213	0x3d7b759b	0.061391454
214	0xbdc02cd5	-0.09383551
215	0x3e0ecc92	0.13945225
216	0x3e0a29d4	0.13492519
217	0xbdd13686	-0.10215478
218	0xbc265b4a	-0.010153601
219	0x3e1b5b5e	0.15171573
220	0xbd565bac	-0.05233352
221	0xbe12e52f	-0.14345239
222	0x3d11dc04	0.035610214
223	0xbd310d99	-0.04322586
224	0xbe0c37dc	-0.13693184
225	0xba3c5082	-0.00071836275
226	0xbc4d586a	-0.012533287
227	0xbe251b8a	-0.16123787
228	0xbcd6060f	-0.026125936
229	0x3dcd665f	0.10029291
230	0xbe3464ea	-0.1761662
231	0xbdc9d62a	-0.09855302
232	0x3c69b9ef	0.014265521
233	0xbb560626	-0.0032657473
234	0xbdb69e68	-0.08916932
235	0xbdbef637	-0.093243055
236	0x3cfd2be4	0.030904718
237	0xbd923ee9	-0.071409054
238	0xbd4f914b	-0.05067567
239	0xbd96a291	-0.07355226
240	0x3c80e9fb	0.01573657
241	0xbe562217	-0.20911442
242	0x3e06253a	0.13100138
243	0xbc66c8e3	-0.014085981
244	0xbd8c9033	-0.06863441
245	0xbe499bef	-0.1968839
246	0x3dd2f683	0.10300925
247	0x3cd6c8ab	0.026218733
248	0x3ddb681c	0.10713217
249	0xbe46fda2	-0.1943269
250	0x3e5b7ab8	0.21433532
251	0x3dad03b4	0.08447972
252	0xbd5df1fb	-0.05418585
253	0xbdafd036	-0.08584635
254	0xbe35b06f	-0.17743085
255	0x3c7b1809	0.015325555

network_body._body_endoder.seq_layers.2.bias f4 [128]
0	0xbc11003a	-0.008850152
1	0x3c495590	0.012288466
2	0x3c49a0f4	0.012306441
3	0x3bbfdd5a	0.0058552446
4	0xbb4c26b1	-0.0031150992
5	0xba68e042	-0.00088835147
6	0x3af0eca1	0.0018381068
7	0x3b8c7576	0.0042864634
8	0xbb0360f4	-0.0020046802
9	0x3c1b4767	0.009477473
10	0xbc0dcd8f	-0.008654966
11	0xbb894df8	-0.004190203
12	0x3b70f714	0.0036768364
13	0x3b975eb2	0.004619443
14	0x3c495810	0.012289062
15	0x3a04891c	0.0005055831
16	0x3c4ff278	0.012692086
17	0x3b7f1518	0.0038922485
18	0x3bf9c9a1	0.007622913
19	0x3b110bf6	0.0022132373
20	0xb9a39c4b	-0.0003120623
21	0xbad0548b	-0.0015894336
22	0x3bcca9a1	0.0062458073
23	0xbb88717b	-0.0041639186
24	0x3c40357e	0.0117315035
25	0xba3b8fce	-0.00071549125
26	0x3bdb7753	0.006697574
27	0x3b5019cf	0.0031753664
28	0x3baadc7c	0.005214272
29	0x3be2a482	0.0069165835
30	0x3c85356d	0.016260827
31	0x3bd5f95a	0.006529969
32	0x3b91050b	0.00442565
33	0x3b36a7d9	0.002787104
34	0x3a86d845	0.0010287842
35	0x3a83aa55	0.001004527
36	0x3b7d8456	0.0038683615
37	0x3c0a6103	0.008445981
38	0xbb2a02e8	-0.0025941674
39	0xbb91addf	-0.004445776
40	0x3c2449c6	0.010027355
41	0x3ae96319	0.0017806023
42	0xba56f405	-0.0008199814
43	0x3a83bbf1	0.0010050518
44	0xba3871e6	-0.0007036015
45	0x3bdfaa08	0.006825689
46	0x3bef289f	0.0072985436
47	0x3b0e82ae	0.0021745372
48	0x3a1169d5	0.0005547081
49	0x3b963486	0.004583898
50	0xbc0d4d86	-0.00862444
51	0xbc2b0670	-0.010438547
52	0xbca00645	-0.01953424
53	0x3b72fd64	0.0037077302
54	0xbacfd2f1	-0.0015855712
55	0xba24cb91	-0.0006286437
56	0x3b68d619	0.0035528003
57	0xbb850211	-0.004059084
58	0xbbc82028	-0.006107349
59	0x3aa6e524	0.0012733084
60	0x3bb1ae0f	0.0054223607
61	0x3c169362	0.009190412
62	0x3b4cda7f	0.0031258164
63	0x3c1046c4	0.008805934
64	0x3bfe77be	0.007765739
65	0x3bfd4620	0.007729307
66	0xba85b6e1	-0.0010201597
67	0xb9b4ef54	-0.0003451059
68	0xbbe5b6f3	-0.0070103346
69	0x3c096326	0.008385455
70	0xbab8285b	-0.0014050113
71	0x3c0e7108	0.008693941
72	0x3ad2f1bd	0.0016093772
73	0xbbf895fb	-0.0075862384
74	0xbaaca0fa	-0.0013170533
75	0x3a61dea9	0.0008616248
76	0x3b56b7f5	0.0032763456
77	0x3b850061	0.004058883
78	0x3bc51095	0.0060139396
79	0xb9c85bde	-0.0003821542
80	0x3c008841	0.007844985
81	0xbbb3ef09	-0.0054911417
82	0xbb2f84df	-0.0026782078
83	0xbb8f30ac	-0.004369816
84	0xb8c24981	-9.264332e-05
85	0x3b21bad3	0.0024678006
86	0xba2ac12d	-0.0006513771
87	0x3b371fd8	0.0027942564
88	0xbb849037	-0.004045512
89	0xbc0423a0	-0.008065134
90	0xbc1594b6	-0.009129694
91	0x3c131b7f	0.008978724
92	0x3c865e27	0.016402317
93	0x39c8535e	0.00038209086
94	0xbbb22d15	-0.005437503
95	0x3b9b5137	0.004739906
96	0xbba1e939	-0.0049411324
97	0x3bf34262	0.007423685
98	0x3ad5605e	0.001627933
99	0x3c0a7bff	0.008452415
100	0x3c197199	0.009365463
101	0x3c80563b	0.015666118
102	0xbbda46cd	-0.006661272
103	0x3be47629	0.0069720936
104	0x3b704b2a	0.0036665895
105	0x3b26a8d6	0.0025430224
106	0xb9caeb2f	-0.00038703668
107	0xbbab6832	-0.005230927
108	0x3b40506c	0.002934481
109	0xba5a7852	-0.0008333969
110	0x3bd4f911	0.0064994176
111	0x3c667ec4	0.014068309
112	0x3c8d6cb7	0.017263753
113	0xbb589cfc	-0.0033052554
114	0x3b78d1e7	0.0037966908
115	0xbb8a0b0f	-0.004212744
116	0xba9853e4	-0.0011621681
117	0xbb12dd75	-0.002240983
118	0x3bfcfd57	0.00772063
119	0x3c1dc608	0.009629734
120	0x3bd84082	0.006599487
121	0xbbd98d6b	-0.006639173
122	0x3b31b46e	0.00271156
123	0x3a8f23a2	0.0010920654
124	0x3b9d46d0	0.0047997013
125	0x3a9c10ba	0.001190684
126	0x3c152441	0.009102882
127	0xbb33af70	-0.0027417801

action_model._continuous_distribution.log_sigma f4 [1, 6]
0	0xbd200128	-0.039063603
1	0xbde5f361	-0.112280615
2	0x3b8769a4	0.0041324664
3	0xba2ef6ad	-0.0006674331
4	0xbc36d166	-0.011158323
5	0x3c167920	0.009184152

action_model._continuous_distribution.mu.weight f4 [6, 128]
0	0x3c022651	0.007943706
1	0x3cae2d49	0.021261828
2	0x3c10b88f	0.008833065
3	0xbc9c9f6b	-0.019118985
4	0x3d0491b3	0.032365512
5	0xbc9568f5	-0.018238524
6	0x3b07dd9a	0.002073145
7	0xbc478507	-0.012177712
8	0xbb1196ff	-0.0022215245
9	0xbc29203a	-0.010322625
10	0x3c60c5cd	0.013719034
11	0xbc47752e	-0.012173934
12	0x3cc7d137	0.024391754
13	0xbbd2db09	-0.0064348024
14	0xbcd8db1a	-0.026471663
15	0xbc042671	-0.008065806
16	0x3c863701	0.01638365
17	0xbc0def0a	-0.008662948
18	0xbc9a9d2e	-0.018873777
19	0xbc59edb1	-0.013301299
20	0x3ca82ee8	0.02053018
21	0xbc804a64	-0.015660472
22	0x3b89164d	0.0041835667
23	0x3d06510c	0.032792136
24	0xbc5bc48d	-0.013413561
25	0xbc777e6f	-0.015105828
26	0x3cc3a212	0.023880992
27	0xbd0cdcf9	-0.034390423
28	0x3bf76cf4	0.00755083
29	0xbab37ed0	-0.0013694409
30	0xbc86dda2	-0.016463105
31	0x39cabf62	0.00038671034
32	0xbc8d0055	-0.017212072
33	0xbc9995c7	-0.018748177
34	0x3cbfc4aa	0.023409206
35	0xbcceaed5	-0.02522985
36	0x3b0288fe	0.001991808
37	0xbc2ac7f9	-0.010423654
38	0xbc13b420	-0.009015113
39	0x3b51bf0f	0.003200475
40	0xbd25c059	-0.04046664
41	0xbb11353a	-0.002215697
42	0x3d19b04d	0.03752165
43	0x3d5d954f	0.05409747
44	0x3c1f7c8a	0.009734282
45	0x3c36b612	0.011151807
46	0x3c6ce781	0.014459492
47	0xbccf5ac0	-0.025311828
48	0x3d212353	0.03934033
49	0xbc8df64c	-0.017329358
50	0x3d35527b	0.044268113
51	0x3b8faa4e	0.0043843156
52	0x3d27c871	0.04096264
53	0xbc4ffc23	-0.012694391
54	0xbb9805be	-0.0046393564
55	0x3b4c59a0	0.003118135
56	0x3c02f279	0.00799238
57	0x3bcd58e8	0.006266702
58	0x3b2bc73b	0.002621128
59	0x3b87113d	0.004121928
60	0x3c9844bc	0.018587463
61	0x3c077cd4	0.008269507
62	0x3c39ddef	0.011344417
63	0xbcefd0e8	-0.029274419
64	0xbc97d15d	-0.01853245
65	0x3c9d9c19	0.019239472
66	0x3c7401eb	0.014893035
67	0xbcf33d26	-0.029692244
68	0x3d3928a2	0.045204766
69	0x3a3955c9	0.0007069973
70	0xbc3f037a	-0.011658544
71	0xbd2195cd	-0.0394495
72	0xbd2fb00c	-0.0428925
73	0x3c0db9d6	0.008650264
74	0x3c8bf457	0.017084284
75	0x3cde525d	0.027138883
76	0x3abc21da	0.001435335
77	0x3cddc281	0.027070286
78	0x3b98287e	0.004643499
79	0xbc8a5ff7	-0.016891463
80	0xbbf012d6	-0.007326464
81	0xbbae15c1	-0.005312652
82	0xbc9a0f8f	-0.018806247
83	0x3cb511c3	0.022103196
84	0x3aeb54a3	0.0017954301
85	0xbcee8c70	-0.0291197
86	0xb9781a70	-0.00023660972
87	0x3ceaa063	0.028640931
88	0xbcbd51dc	-0.023110323
89	0x3a2f53a6	0.0006688185
90	0x3cb61ae0	0.022229612
91	0x3cc68c7f	0.024236916
92	0xbd3e85a8	-0.046514183
93	0x3c6469b3	0.013941216
94	0x3c1011bd	0.008793292
95	0xbc33ed1b	-0.010981823
96	0xbc5ef976	-0.013609281
97	0xbc15ca72	-0.009142505
98	0xbbed8a09	-0.007249121
99	0x3bd096a3	0.0063656135
100	0xb9e47169	-0.00043572046
101	0xbd0bf475	-0.03416868
102	0x3c4b8892	0.012422698
103	0xbab28e15	-0.0013622666
104	0xba356842	-0.00069201377
105	0x3c865d10	0.016401798
106	0xbbf83061	-0.0075741266
107	0x3ccfcdac	0.025366627
108	0x3b22fac0	0.0024868697
109	0x3aa0ea78	0.0012276908
110	0xbc67823c	-0.014130171
111	0x3cf385e4	0.02972693
112	0xbd158ba0	-0.03651011
113	0xbba7edf0	-0.0051248
114	0xbd29fc20	-0.04150021
115	0x3c685f5f	0.0141828945
116	0x3c058c5b	0.008151139
117	0xbc47d429	-0.012196579
118	0xbc8d49ab	-0.017247042
119	0xbc9b5753	-0.018962538
120	0x399df802	0.00030130154
121	0x3b1bcbb9	0.0023772551
122	0x3ca0616e	0.019577708
123	0x3ce54161	0.027985277
124	0x38e7eb52	0.0001105877
125	0xbc96d119	-0.018410252
126	0xbbf5f65b	-0.0075061745
127	0xbaee714d	-0.0018191725
128	0xbce85523	-0.028360909
129	0x3cf9abe0	0.030477464
130	0xbd1f6b38	-0.03892061
131	0xbb8425c9	-0.0040328247
132	0xbcee1a97	-0.029065413
133	0xbc986248	-0.018601552
134	0xbc9687a6	-0.01837523
135	0xbd03f6fc	-0.032217965
136	0x3d541d7c	0.05178593
137	0x3d48b3be	0.04899954
138	0x3b00a129	0.001962731
139	0x3c9dd07e	0.019264456
140	0xbcbd3410	-0.023096114
141	0x3ca0dafe	0.019635674
142	0x3d23f9fb	0.04003332
143	0xbae5ccc2	-0.0017532336
144	0xbd55d8f2	-0.05220885
145	0xbc9d2ea2	-0.019187275
146	0xbcc098ca	-0.023510356
147	0xbc7029c4	-0.014658395
148	0xbce0c3e1	-0.027437152
149	0xbc3b8733	-0.011445808
150	0xbc662b11	-0.014048354
151	0xbb0e5a53	-0.0021721318
152	0x3d5acb02	0.05341626
153	0xbc9594ec	-0.018259488
154	0xbd166000	-0.036712646
155	0xbce16bee	-0.027517285
156	0x3cfc090d	0.030766034
157	0xbd51a833	-0.051185798
158	0x3b68b812	0.0035510105
159	0xbbd226ee	-0.006413332
160	0xbca1279d	-0.01967221
161	0x3c905b23	0.017621582
162	0xbcd1b50d	-0.025599027
163	0xbbeb7d28	-0.0071865506
164	0xbccb03f1	-0.024782153
165	0xbd466614	-0.048437193
166	0x3c93645c	0.017992191
167	0x3d1e6521	0.038670663
168	0xbcbc103f	-0.022956965
169	0x3d2cc386	0.042178653
170	0xbd01ff64	-0.0317377
171	0xbcbdb27b	-0.023156395
172	0x3d4b8693	0.049688887
173	0x3cc50665	0.0240509
174	0x3ce6f7a2	0.028194252
175	0xbcc176a7	-0.023616148
176	0xbc8729f4	-0.016499497
177	0x3bf34e8d	0.0074251355
178	0xbbe4fd97	-0.006988238
179	0x3c4bec3d	0.01244646
180	0xbd08968c	-0.033346698
181	0x3d26e932	0.040749736
182	0xbcc3d4ba	-0.023905147
183	0xbb4e4aeb	-0.003147776
184	0x39b641b1	0.0003476269
185	0xbbfa5e0d	-0.0076406063
186	0x3c9024a2	0.017595593
187	0xbcf8811f	-0.030335007
188	0xbcdacc0b	-0.026708623
189	0xbcfd4c8b	-0.030920288
190	0x3c99e70d	0.018786931
191	0xbc71ca91	-0.014757768
192	0x3ce3b770	0.02779743
193	0x3d4b69e2	0.049661525
194	0x3d0a9227	0.033830788
195	0xbb017eca	-0.001975941
196	0x3b245d4c	0.0025080023
197	0xbd1d442e	-0.0383951
198	0xbb81ac28	-0.00395729
199	0xbd26f620	-0.040762067
200	0xbc1f9cfd	-0.009742019
201	0xbbfbe36b	-0.0076870224
202	0x3d194429	0.03741852
203	0xbd115ff7	-0.03549191
204	0x3d03d1f4	0.03218265
205	0xbce8e44c	-0.028429173
206	0xbd0202f3	-0.031741094
207	0x3b64314c	0.0034819422
208	0x3cda4dbb	0.026648393
209	0xbc8753fa	-0.016519535
210	0x3c8f6dfe	0.017508503
211	0xbcbd44d8	-0.023104116
212	0xbc4b5287	-0.012409813
213	0x3b816943	0.0039493158
214	0x3c8086f9	0.01568936
215	0x3d568352	0.05237133
216	0x3c7be893	0.015375274
217	0xbbb62fb0	-0.005559884
218	0x39adfd46	0.00033185835
219	0x3d209586	0.039205097
220	0x3ca6baf6	0.020352822
221	0xbbffd4d1	-0.007807352
222	0x3b303bd8	0.0026891138
223	0xbce4632c	-0.02787932
224	0xbc5b73c8	-0.013394304
225	0x3c5c143d	0.01343256
226	0x3c693010	0.01423265
227	0xbd0bf51c	-0.0341693
228	0x3d551a9e	0.052027337
229	0xbc886fd3	-0.016654884
230	0x3cd0ca1d	0.025487
231	0x3bfa14cf	0.007631875
232	0xbcd4843f	-0.025941966
233	0xbc7a3fc3	-0.015273991
234	0xbc9ee86b	-0.019397935
235	0xbb6f9346	-0.0036556288
236	0xbc950429	-0.01819046
237	0x3cdc42fc	0.02688741
238	0x3bd709cc	0.006562447
239	0x3d46f17d	0.048570145
240	0x3c09c2d9	0.008408272
241	0x3cc1b79e	0.023647126
242	0x3cd71dd2	0.026259337
243	0xbae4748a	-0.0017429751
244	0x3c80b848	0.015712872
245	0xbc5dde58	-0.01354178
246	0xbd53aa30	-0.051675975
247	0x3d306f98	0.043075174
248	0xbcea3171	-0.028588029
249	0xbc6f81d0	-0.014618352
250	0xbc6b2baa	-0.014353672
251	0x3d33b010	0.04386908
252	0xbc76c0df	-0.0150606325
253	0xbcea1feb	-0.028579673
254	0xbd191548	-0.03737381
255	0x3d0d0a24	0.0344335

action_model._continuous_distribution.mu.bias f4 [6]
0	0xbba0c1be	-0.0049059084
1	0xba7aa62a	-0.00095615035
2	0x3c05815b	0.0081485165
3	0x3b61258e	0.003435466
4	0x3b1fcdd2	0.0024384153
5	0xbb4335c0	-0.0029786676
