results/PlayerAgentTest/TestPlayerAgent.onnx (onnx, 275220 bytes, 7 tensors)

network_body._body_endoder.seq_layers.0.weight f4 [128, 396]
0	0x3d37d1d4	0.044877842
1	0x3c8960f0	0.016769856
2	0x3d460f76	0.04835459
3	0x3cebdf20	0.028792918
4	0xbb8d19b7	-0.004306044
5	0x3ca8113a	0.020516027
6	0xbd592e37	-0.05302259
7	0x3dcc7a6c	0.099842876
8	0x3c93234e	0.01796117
9	0x3bfabeca	0.0076521384
10	0x3d4b7aef	0.049677785
11	0x3d821f6e	0.06353651
12	0xbdac8415	-0.0842363
13	0x3dec9ea5	0.115536965
14	0x3da7d27d	0.08194444
15	0xbc214a2f	-0.009844347
16	0x3b529bef	0.00321364
17	0xbd7d80a3	-0.061890256
18	0x3d40ef3b	0.047103148
19	0x3c7c8003	0.01541138
20	0xbd13fa94	-0.03612764
21	0x3ddbcc51	0.1073233
22	0x3c160336	0.009156039
23	0x3d17d3bf	0.03706717
24	0xbb8c9658	-0.0042903833
25	0x3d3bfd29	0.04589573
26	0xbb03c5c0	-0.0020106882
27	0x3b07f99d	0.0020748146
28	0xbd3f7987	-0.046746757
29	0x3d0e3a93	0.03472383
30	0xbc639d81	-0.013892532
31	0xbca6c486	-0.020357382
32	0xbd907220	-0.070530176
33	0xbdef5780	-0.11686611
34	0xbcfa7c68	-0.0305769
35	0xbd577f6b	-0.05261175
36	0x3cee860f	0.029116658
37	0xbd146861	-0.036232356
38	0x3d0891b7	0.03334209
39	0x3d286243	0.041109335
40	0xbdc7dd2f	-0.09758984
41	0xbcd6ed71	-0.026236268
42	0xbcc54a4d	-0.024083281
43	0x3e21a291	0.1578467
44	0x3d163426	0.036670826
45	0x3c8b145a	0.016977478
46	0xbd007f6d	-0.031371523
47	0xbb190735	-0.0023350243
48	0xbaa380a9	-0.0012474257
49	0xbceb061e	-0.02868944
50	0xbd6f44ea	-0.05841533
51	0x3c7cfc05	0.0154409455
52	0xbd79938f	-0.06093174
53	0x3d68f4ab	0.05687396
54	0xba778919	-0.00094427314
55	0x3ce1e18c	0.02757337
56	0x3db41d48	0.087946475
57	0x3c85507c	0.01627373
58	0xbced8edc	-0.028998785
59	0x3db73285	0.08945183
60	0xbd3db0e2	-0.046311267
61	0xbdad68f9	-0.084672876
62	0x3d81d596	0.063395664
63	0xbd921cfb	-0.07134434
64	0x3d8ac5ff	0.06776046
65	0xbd549b2d	-0.0519058
66	0x3ddd9f77	0.10821431
67	0xbddccb6f	-0.107809894
68	0x3ca32d88	0.019919172
69	0x3d3a83da	0.0455359
70	0xbd41bb85	-0.047297973
71	0xbc61af76	-0.013774743
72	0x3b87ecad	0.004148087
73	0xbd6a8c97	-0.057262983
74	0xbde1729e	-0.110081896
75	0x3b945e86	0.0045278696
76	0xbdd7e81f	-0.105423205
77	0x3da414c1	0.08011771
78	0xbcb9e77c	-0.022693388
79	0x3d836ede	0.064176306
80	0x3a41fd56	0.0007400116
81	0x3ca14339	0.019685375
82	0x3d4bc40d	0.049747515
83	0x3cc70e50	0.024298817
84	0xba71d680	-0.00092253834
85	0xbba9995a	-0.0051757516
86	0x3e37e5bc	0.1795873
87	0x3d54b33c	0.051928744
88	0x3d1dedeb	0.038556974
89	0x3da749e5	0.08168391
90	0x3cc02213	0.023453748
91	0xbcb5f8f6	-0.02221344
92	0x398b2de5	0.0002654634
93	0x3998345d	0.00029030713
94	0xbbe3f2f8	-0.0069564544
95	0x3d71dc2d	0.059047867
96	0x3c5141e6	0.012772059
97	0x3c36f504	0.011166815
98	0xbd426ffe	-0.047470085
99	0x3dbedd2e	0.093195304
100	0x3c2735b6	0.010205677
101	0xbc864fcd	-0.016395474
102	0x3d93799c	0.072009295
103	0xbcb133a2	-0.021631066
104	0x3d7523c4	0.059848562
105	0x3d1296ed	0.035788465
106	0xbc172ed8	-0.009227477
107	0x3ce7177b	0.028209439
108	0xbd502329	-0.05081478
109	0x3dfddb87	0.12395387
110	0xbcd733f8	-0.026269898
111	0x3c2364be	0.009972749
112	0xbc9caf23	-0.01912648
113	0x3c5fd9e6	0.013662791
114	0xbc6c1690	-0.014409676
115	0xbda01e45	-0.078182735
116	0xbd0e3477	-0.034718003
117	0x3cbd7087	0.023124946
118	0x3d019891	0.03163964
119	0xbc6a0bb7	-0.01428502
120	0xbd81e395	-0.06342236
121	0xbd6604b8	-0.056156844
122	0x3da58895	0.080826916
123	0xbdfc7e0d	-0.1232873
124	0x3b7cf456	0.0038597784
125	0xbd6b9e8b	-0.057524245
126	0x3d3d38c9	0.046196733
127	0x3cb3a75f	0.021930395
128	0x3d4855f8	0.04891011
129	0xbc1cc965	-0.009569501
130	0xbc929e63	-0.01789779
131	0x3d914d43	0.07094815
132	0xbc366334	-0.01113205
133	0x3c2cddd3	0.010550934
134	0x3da64b5f	0.08119845
135	0x3d215a68	0.03939286
136	0x3bc8450d	0.006111747
137	0x3d0c9419	0.034320924
138	0x3d7a8643	0.0611632
139	0xbbd46d97	-0.0064827907
140	0x3d884002	0.066528335
141	0xbcb60995	-0.022221366
142	0x3b11b184	0.0022231052
143	0x3c5be364	0.013420913
144	0xbd91d61f	-0.071209185
145	0x3bbe5d52	0.0058094645
146	0x3d1059aa	0.03524176
147	0xbdd3a60f	-0.103344075
148	0xbdd0ab57	-0.101889305
149	0x3d39817d	0.045289505
150	0xbd34b00c	-0.044113204
151	0xbd355f14	-0.044280127
152	0x3d0fab26	0.03507533
153	0xbca6e387	-0.020372165
154	0xbe06c4fe	-0.13161084
155	0xbcb3a331	-0.021928402
156	0x3d68c0ca	0.056824483
157	0xbd5a20d1	-0.053253952
158	0x3cd216ab	0.025645575
159	0xbc6e36f0	-0.014539465
160	0x3bad6c33	0.0052924394
161	0xbb1cf4ad	-0.002394955
162	0xbd2e91fe	-0.042619698
163	0x3c19e164	0.009392116
164	0xbd263764	-0.04058017
165	0x3dc245cd	0.0948597
166	0xbc5f814a	-0.013641665
167	0xbce4a11b	-0.027908852
168	0xbc312904	-0.010813002
169	0xbb60af1e	-0.0034284065
170	0x3d7a2718	0.06107244
171	0x3d834771	0.06410111
172	0x3dd34b39	0.10317082
173	0x3dbe5697	0.092938595
174	0x3ca41ad9	0.020032333
175	0xbcfbc59a	-0.030733872
176	0xbd29609c	-0.0413519
177	0xbca80fcb	-0.020515343
178	0x3db02435	0.08600656
179	0xbd376d81	-0.044782165
180	0xbcd0f45c	-0.025507145
181	0xbd3bdee2	-0.045866854
182	0x3c082a97	0.008310935
183	0x3d1f6ccd	0.03892212
184	0xbd15c4c7	-0.036564615
185	0xbda3d801	-0.08000184
186	0xbcee68b8	-0.029102668
187	0xbdd1b555	-0.102396645
188	0xbd172062	-0.036896117
189	0xbe09bb74	-0.13450414
190	0xbda9c17d	-0.08288858
191	0x3d3b1cef	0.04568189
192	0x3dae6b99	0.085166164
193	0x3d5f77a3	0.054557454
194	0xbb889cc9	-0.004169081
195	0x3e261b11	0.16221263
196	0x3b72fcfc	0.003707706
197	0xbdde39b5	-0.108508505
198	0x3cdeb182	0.027184252
199	0x3d1bdbad	0.038051296
200	0xbc81e8f6	-0.015858155
201	0x3d37c021	0.044860963
202	0x3cf3dae7	0.029767467
203	0x3d114c99	0.03547344
204	0x3dc256c6	0.09489207
205	0xbdad6917	-0.0846731
206	0xbd94e963	-0.072710775
207	0xbb96e784	-0.0046052355
208	0xbcf85344	-0.030313142
209	0xbbcf29ba	-0.006322113
210	0x3d562e55	0.05229028
211	0xbc250e96	-0.010074278
212	0x3bb8bfc0	0.0056380928
213	0xbd876401	-0.06610871
214	0x3c9e8666	0.019351196
215	0xbdc2eef5	-0.09518234
216	0xbcd8fee4	-0.026488729
217	0x3b037b4e	0.002006251
218	0xbce14776	-0.027499896
219	0x3d6bba7a	0.057550885
220	0x3d5038d9	0.050835464
221	0x3cb40fa4	0.021980114
222	0x3c5e5b03	0.013571504
223	0xbcb64301	-0.022248747
224	0x3c59525a	0.013264263
225	0x3ba171e1	0.0049269055
226	0xbd391f01	-0.045195583
227	0x3a618943	0.00086035224
228	0xbb08be33	-0.002086532
229	0xbd4f042f	-0.0505411
230	0xbdaf8e49	-0.085720606
231	0xbd11d95f	-0.03560769
232	0xbc59cf52	-0.013294058
233	0x3cf1ad4d	0.029501582
234	0xbd6c4ebf	-0.057692286
235	0xbd01bef2	-0.03167624
236	0x3d6b7a2e	0.057489567
237	0xbd5fb0c1	-0.054611925
238	0xbd70a01b	-0.05874644
239	0x3de95a3d	0.11394165
240	0xbc404e15	-0.011737366
241	0xbd207f8e	-0.039184146
242	0xbc9ee70d	-0.019397283
243	0x3de00627	0.109386735
244	0xbd14f551	-0.036366764
245	0x3d344cab	0.04401843
246	0xbdb842c6	-0.08997111
247	0xbc85870a	-0.016299743
248	0x3d06fdf9	0.03295705
249	0x3c55cbfe	0.013049124
250	0x3da37619	0.0798151
251	0x3cd22914	0.025654353
252	0x3d598b5b	0.053111415
253	0xbd88b1d4	-0.06674543
254	0x3d4f80c5	0.050659914
255	0xbd7c4e9b	-0.0615984

network_body._body_endoder.seq_layers.0.bias f4 [128]
0	0x3ab66a17	0.0013917115
1	0x3b3b1f01	0.0028552415
2	0xbb805bac	-0.003917178
3	0x3b83f61b	0.004027141
4	0xbc1a4d75	-0.009417881
5	0x3ba0bb16	0.004905115
6	0xba6ac36f	-0.00089555135
7	0x3abf318e	0.0014586912
8	0xba135577	-0.000562034
9	0xba3830ff	-0.0007026344
10	0xbb8cfd33	-0.0043026446
11	0xbb92b6e2	-0.0044773677
12	0xbbceba33	-0.006308818
13	0x3bc9a618	0.006153833
14	0xbbc2f24b	-0.0059492937
15	0xbbcf9684	-0.0063350815
16	0x3b73ffd9	0.0037231355
17	0x3b2ff4eb	0.0026848863
18	0x3bd56063	0.0065117343
19	0xb9e9d878	-0.00044602505
20	0xb7060a38	-7.989402e-06
21	0x3b9094d8	0.004412275
22	0x3bd9609e	0.006633832
23	0xbb127049	-0.002234476
24	0x3b1814eb	0.0023205827
25	0x3b89ef0e	0.0042094057
26	0x3bb78ba0	0.0056013614
27	0x3a7304ca	0.0009270428
28	0x3b9cd70b	0.0047863773
29	0x3c04e520	0.008111268
30	0x3a577633	0.0008219212
31	0x3bc4f033	0.0060100793
32	0xbacc1a83	-0.0015571866
33	0xb976968c	-0.00023516471
34	0x3b1e68ff	0.002417147
35	0xbbfe4a16	-0.0077602966
36	0xbbbb4f33	-0.0057162284
37	0xbab4cc21	-0.0013793745
38	0x3b8a4def	0.004220716
39	0x3ba3f2ad	0.0050032944
40	0x3b2f5d6c	0.0026758565
41	0xbb2b5788	-0.0026144702
42	0x3bbce587	0.0057646665
43	0x3bb867a2	0.0056275884
44	0x3b12dc0d	0.0022408993
45	0x3bd06ca0	0.0063606054
46	0xbbb0c524	-0.0053945947
47	0x3aaa1c70	0.0012978446
48	0x3ab2fa73	0.0013654962
49	0xbb2f370b	-0.002673569
50	0x3bff9094	0.0077992175
51	0xbb66f6cf	-0.0035242324
52	0x3b9efebf	0.0048521454
53	0x3a05cffc	0.00051045395
54	0xbb165450	-0.0022938438
55	0x3a5879c0	0.0008257888
56	0x3bdd262f	0.0067489366
57	0xb9537e2a	-0.00020169528
58	0x389dab8c	7.5182965e-05
59	0x3b29902a	0.0025873282
60	0x3bb58680	0.0055397153
61	0x3b813c41	0.0039439504
62	0x3b007f70	0.0019607209
63	0x3b75f94b	0.0037532623
64	0x3bd379c4	0.0064537246
65	0x3b467553	0.0030282333
66	0x3ba48497	0.0050206888
67	0x3bdea4d6	0.0067945523
68	0x3b8e3fcf	0.0043411027
69	0x3abaf488	0.001426355
70	0xbb4e875b	-0.0031513784
71	0x3b153968	0.0022769812
72	0xbb060a8e	-0.0020453068
73	0xbbabbe2c	-0.005241176
74	0x3a6cab2a	0.0009028191
75	0x3b8e77fa	0.0043477984
76	0x3b544585	0.003239007
77	0x3bd84524	0.006600039
78	0x3b3133d8	0.0027038958
79	0x3bed813d	0.0072480724
80	0x3bf93a87	0.007605854
81	0x3aed996f	0.0018127392
82	0x3ba2027a	0.004944143
83	0x3b34f80b	0.0027613665
84	0x3a249974	0.000627897
85	0xb8afc09e	-8.380528e-05
86	0xbbafe0f4	-0.0053673927
87	0xba2a710f	-0.00065018324
88	0xbbc6b2c1	-0.0060637896
89	0x3b0a05d2	0.0021060598
90	0xbaf0fad0	-0.0018385295
91	0xbaedd506	-0.0018145151
92	0xbb2ebf05	-0.002666415
93	0xbb801b90	-0.0039095357
94	0x3b68af4f	0.0035504883
95	0xbbb207ce	-0.0054330593
96	0xba345c3f	-0.0006880201
97	0xbae58538	-0.0017511016
98	0x398e2087	0.00027108585
99	0xbb94b0ed	-0.0045376928
100	0x3b1ad1b1	0.002362352
101	0xbada4475	-0.0016652482
102	0x3ba015ed	0.0048854263
103	0x3b1532a8	0.002276579
104	0xbb80c853	-0.0039301305
105	0x3a9d519e	0.0012002473
106	0x3b40f0b0	0.0029440336
107	0x3b55bf92	0.0032615406
108	0xb85cf990	-5.268451e-05
109	0xbac6c232	-0.0015164076
110	0xbb17fdd0	-0.0023192056
111	0xba0c4126	-0.0005350284
112	0x3b72ba86	0.0037037446
113	0xbb9b8ef2	-0.004747265
114	0xba006321	-0.0004897584
115	0x399d9faa	0.00030064333
116	0xb9f12342	-0.0004599337
117	0xbb8b1eb5	-0.004245604
118	0xbb146344	-0.0022642175
119	0xbae09a16	-0.0017135765
120	0x3ad32899	0.0016110122
121	0xba9b0772	-0.001182778
122	0x3bb6615f	0.0055658068
123	0xbb8e2a71	-0.0043385555
124	0xbb3b36d8	-0.0028566625
125	0x3b588f62	0.0033044447
126	0xba8e73bd	-0.0010868233
127	0x3be31c6d	0.006930879

network_body._body_endoder.seq_layers.2.weight f4 [128, 128]
0	0xbe350c58	-0.1768049
1	0x3e22b2e5	0.15888555
2	0xbd3fa891	-0.046791617
3	0x3da69678	0.081341684
4	0x3d87a6c4	0.06623605
5	0x3d0e5ad5	0.034754593
6	0xbd521676	-0.05129095
7	0xbd33bdbf	-0.043882128
8	0xbe1ee2c4	-0.15516192
9	0x3bb7f03b	0.0056133545
10	0x3d894ce7	0.06704121
11	0x3a72610b	0.0009246028
12	0x3d7b5c26	0.061367176
13	0x3df0fe52	0.11767258
14	0x3dd591e5	0.10428218
15	0xbe1ed53e	-0.15511033
16	0x3db150e8	0.0865801
17	0xbc89667b	-0.0167725
18	0x3e048f58	0.12945306
19	0x3cafbeb1	0.021453233
20	0x3d21581e	0.039390676
21	0xbd2684b4	-0.0406539
22	0x3e099ff9	0.13439931
23	0xbe0e6d9d	-0.13909002
24	0xbe322cef	-0.17399953
25	0x3d64f9a8	0.055902153
26	0x3bc8ce30	0.006128095
27	0xbd96ce19	-0.07363529
28	0x3ab66702	0.0013916197
29	0xbcb3fc06	-0.02197076
30	0xbe6af29f	-0.22944115
31	0x3caae7c3	0.020862466
32	0xbde5bf9f	-0.112181894
33	0x3d4d5279	0.05012748
34	0x3d33c3c2	0.04388786
35	0x3d216c22	0.039409764
36	0xbc4a5617	-0.012349627
37	0xbd646046	-0.055755876
38	0xbd08e502	-0.033421524
39	0xbdc866c6	-0.097852275
40	0xbe12db18	-0.1434139
41	0xbd0e6812	-0.034767218
42	0xbdc4bf63	-0.096068166
43	0xbe33b0ec	-0.17547959
44	0xbdb61721	-0.0889113
45	0xbe36c67d	-0.17849155
46	0x3d4cc066	0.049988173
47	0xbd60a31f	-0.054843064
48	0xbbc71b53	-0.0060762553
49	0xbe18e527	-0.14931165
50	0xbe1cc1b1	-0.15308262
51	0xbd129867	-0.035789873
52	0x3c101f8c	0.008796584
53	0x3ab34925	0.0013678415
54	0xbd61a59b	-0.055089574
55	0x3e0c1fe7	0.13684045
56	0x3b4b5c1d	0.0031030246
57	0xbd9aef12	-0.0756513
58	0xbe52134f	-0.20515178
59	0xbde80d1a	-0.11330624
60	0x3dad3a85	0.08458427
61	0xbd8ec37a	-0.06970878
62	0xbdec918e	-0.115512
63	0xbdabf8bd	-0.083970524
64	0x3da0888c	0.07838544
65	0xbd3dfcbd	-0.046383608
66	0xbd884d06	-0.06655316
67	0xbe4fd005	-0.20294197
68	0xb933e513	-0.00017156107
69	0xbd7c32bc	-0.06157182
70	0x3c8c35ac	0.017115436
71	0x3d960168	0.07324487
72	0xbc5ae80b	-0.013360987
73	0xbe248162	-0.1606498
74	0xbd94b3f6	-0.07260887
75	0xbd903e55	-0.07043139
76	0x3d0336f9	0.032034848
77	0xbc44db05	-0.012015109
78	0xbdbf77a8	-0.093489945
79	0x3db7fde4	0.08983973
80	0xbcd8ec37	-0.026479824
81	0xbcdbbf5d	-0.026824648
82	0x3e0e4c3f	0.13896273
83	0x3dd5034f	0.10401022
84	0x3e25ea03	0.1620255
85	0xbd84add2	-0.06478466
86	0x3d969e1d	0.073543765
87	0xbd7c3168	-0.061570555
88	0x3d929621	0.07157541
89	0xbe0751d2	-0.13214806
90	0x3c4fc4e0	0.012681216
91	0x3d14ddd7	0.036344375
92	0xbb16bba3	-0.0023000024
93	0x3d03c4f8	0.032170266
94	0x3dfecabc	0.12441012
95	0x3d6f88ce	0.058480076
96	0x3dcac04d	0.0989996
97	0xbdf1907d	-0.11795137
98	0xbe0e36b9	-0.13888063
99	0xbc914e62	-0.017737571
100	0x3d31d699	0.043417547
101	0xbd3c5d2a	-0.045987286
102	0x3cb9f3c9	0.022699254
103	0xbd8e78d7	-0.06956642
104	0x3c435a85	0.011923437
105	0xbcf9d962	-0.030499164
106	0x3d6f1bde	0.058376186
107	0xbd27e684	-0.04099132
108	0xbd30e0b1	-0.043183032
109	0x3d0d17af	0.034446415
110	0xbca1f3e5	-0.019769618
111	0x3cae716a	0.021294314
112	0xbd522f6a	-0.05131475
113	0xbd9a48af	-0.075333945
114	0xbe2a9c73	-0.16661243
115	0xbd086729	-0.033301506
116	0x3df289ee	0.11842714
117	0x3b8884a5	0.004166203
118	0x3c005bd4	0.0078343935
119	0xbd8b60c3	-0.06805565
120	0xbe582788	-0.2110883
121	0x3e364f83	0.17803769
122	0xbe24985c	-0.16073745
123	0x3dfa2036	0.12213175
124	0xbd679b4d	-0.05654459
125	0xbd928874	-0.071549326
126	0xbc97d78d	-0.0185354
127	0xbe073e63	-0.13207392
128	0xbda6d393	-0.08145823
129	0x3d882211	0.06647123
130	0x3cd7f53a	0.02636205
131	0x3dae68f9	0.08516116
132	0xbdc3e69f	-0.09565472
133	0x3d2cd655	0.04219659
134	0xbdc84d46	-0.09780364
135	0x3d8cdf8e	0.06878577
136	0xbe071a2f	-0.13193582
137	0xbd5d0916	-0.053963743
138	0xbda68647	-0.0813108
139	0xbda351e2	-0.07974602
140	0xbda39102	-0.079866424
141	0x3d83820e	0.0642129
142	0x3e117f80	0.14208794
143	0xbd560265	-0.052248377
144	0xbde9099a	-0.113787845
145	0x3d6173eb	0.05504219
146	0x3c6eb738	0.01457005
147	0x3d898bfd	0.06716154
148	0x3c9e7f0d	0.019347692
149	0xbdf03e6c	-0.11730656
150	0x3db6a4bc	0.08918139
151	0xbd858953	-0.06520333
152	0xbd9fbd36	-0.07799761
153	0xbdef5cb5	-0.11687604
154	0xbd66d89e	-0.056358926
155	0xbd21d262	-0.039507277
156	0xbdf9b344	-0.12192395
157	0x3c8ed1c0	0.017434001
158	0x3d48ef04	0.049056068
159	0xbb46d236	-0.0030337698
160	0xbc02d5f8	-0.007985584
161	0x3d911897	0.07084768
162	0x3b8d5b49	0.0043138606
163	0x3cfe596f	0.031048505
164	0xbb7e0bdc	-0.0038764393
165	0x3d6fd1a1	0.058549527
166	0xbdd4a556	-0.10383098
167	0xbda7a018	-0.08184832
168	0xbe006c96	-0.12541422
169	0xbceeb89e	-0.029140767
170	0xbd85b603	-0.065288566
171	0x3e01e45e	0.12684771
172	0xbe36e6bf	-0.1786146
173	0x3da0a27e	0.07843493
174	0xbe65c014	-0.22436553
175	0xbc546b76	-0.012965074
176	0xbbf719d5	-0.007540921
177	0xbdeb9f3e	-0.115049824
178	0x3b55099d	0.003250695
179	0x3d418879	0.04724929
180	0x3d285ecf	0.04110604
181	0xbcf4b560	-0.029871643
182	0xbdd1cac4	-0.102437526
183	0xbe10a79d	-0.1412644
184	0x3d446891	0.047951285
185	0x3cacb7e9	0.021083789
186	0xbd1edadc	-0.03878294
187	0x3c93aff4	0.018028237
188	0x3dcfc5aa	0.10145123
189	0xbcf817e4	-0.03028483
190	0xbd8359ad	-0.06413589
191	0xbd5bc15c	-0.0536512
192	0x3e32ef0d	0.17474003
193	0xbd84018f	-0.0644561
194	0x3e3bd960	0.1834464
195	0x3e029646	0.12752637
196	0xbc750f4c	-0.01495726
197	0xbd9743ec	-0.07386002
198	0xbd404c9c	-0.04694806
199	0xbe111f02	-0.14171985
200	0x3df2cbd5	0.11855284
201	0x3dcb6f7f	0.099333756
202	0xbe28231f	-0.16419648
203	0x3d3bf976	0.0458922
204	0x3d49a415	0.049228746
205	0x3e3693e2	0.1782985
206	0x3d9272f3	0.07150831
207	0x3bdea76b	0.00679486
208	0xbe27c4e9	-0.16383709
209	0x3d40b5c6	0.047048353
210	0x3d8dbd20	0.06920838
211	0x3d8c6fab	0.068572365
212	0x3d466977	0.048440423
213	0x3c8070c1	0.015678765
214	0x3e1c383c	0.15255827
215	0x3df7d1d2	0.12100567
216	0xbaf5e2a5	-0.0018759562
217	0x3bf8fa3f	0.007598191
218	0x3cca8413	0.024721181
219	0x3d1193d3	0.035541367
220	0x3c98d8f8	0.018658146
221	0xbd0fef46	-0.0351403
222	0x3c09d73c	0.008413132
223	0x3b38a323	0.002817341
224	0x3cb3ac0e	0.021932628
225	0xbd212bf2	-0.03934855
226	0x3da5ae57	0.08089893
227	0x3d088ca3	0.033337247
228	0xbd2f3cc0	-0.042782545
229	0xbd8e2943	-0.06941464
230	0x3d3bd379	0.045855973
231	0xbd93fce3	-0.07225969
232	0x3e09e9b2	0.13468054
233	0xbd97f259	-0.07419271
234	0x3d39a692	0.04532487
235	0x3cdf7b3f	0.027280448
236	0xbd6a9792	-0.057273455
237	0xbd163ab4	-0.036677077
238	0xbd27d8ad	-0.040978123
239	0x3c8c550b	0.017130395
240	0xbd7beb91	-0.06150395
241	0xbdf246da	-0.1182992
242	0xbbb02b1a	-0.005376232
243	0xbdcac5f4	-0.09901038
244	0x3c5c8434	0.013459254
245	0x3c236de1	0.009974928
246	0x3d849f1a	0.06475659
247	0xbe1e5906	-0.15463647
248	0xbdff6608	-0.12470633
249	0x3e07cc60	0.13261557
250	0x3d7b7cf4	0.06139846
251	0xbddfa93d	-0.109209515
252	0xbc0c7fd6	-0.0085754
253	0xbe188e6b	-0.14898078
254	0x3d796e3d	0.060896147
255	0x3e160a99	0.1465248

network_body._body_endoder.seq_layers.2.bias f4 [128]
0	0xbacda782	-0.001569018
1	0x3ab9b24f	0.001416752
2	0x3930d169	0.0001686268
3	0x3b835d88	0.0040089525
4	0xbbe16100	-0.0068780184
5	0xbbb8594e	-0.0056258803
6	0x3b19dcd1	0.0023477564
7	0xbbd400e6	-0.0064698337
8	0x3be1d15a	0.0068914117
9	0x3afc20fb	0.0019235903
10	0x3a8de26d	0.0010824926
11	0xbaea1b41	-0.0017860906
12	0x3b61cd0c	0.0034454493
13	0x3b199e9a	0.002344048
14	0x3b1812c6	0.002320455
15	0xba6c4ac5	-0.0009013827
16	0x3acc6e73	0.0015596881
17	0xbb5c2bd7	-0.0033595467
18	0xbbe8c125	-0.0071031027
19	0xbbb88e2a	-0.0056321817
20	0x3abcdc85	0.0014408982
21	0xba891136	-0.00104574
22	0xba2b1966	-0.0006526917
23	0x3a44b3a9	0.0007503578
24	0xbb19a383	-0.0023443408
25	0x3ba94eee	0.00516688
26	0x3b203bf0	0.0024449788
27	0xba9da6a4	-0.0012027812
28	0x3b8d0c36	0.004304434
29	0xbb5192f4	-0.003197846
30	0x3b5598b2	0.0032592234
31	0xbb4b2522	-0.0030997475
32	0x3bb6598d	0.0055648745
33	0xbbe9eea7	-0.0071390453
34	0xbb753bb7	-0.0037419626
35	0xbb22abaa	-0.0024821558
36	0x3b361a1e	0.0027786563
37	0xb95e0c60	-0.0002117618
38	0xba7a3f03	-0.00095461326
39	0x3b8bcce4	0.004266368
40	0xbbabbc77	-0.0052409726
41	0xba7ee3ee	-0.0009723295
42	0x3bb9b48c	0.005667275
43	0xb98f9a94	-0.00027390255
44	0xbc10a384	-0.008828048
45	0xbb155011	-0.002278332
46	0xbaed109f	-0.0018086619
47	0xbb91cd68	-0.004449535
48	0x3a87f421	0.0010372439
49	0xbb061465	-0.0020458933
50	0xbaa0aae7	-0.0012257964
51	0xbb4c980c	-0.0031218557
52	0xba98fb81	-0.0011671634
53	0xbb5b5cd3	-0.0033472076
54	0xbbd0c86f	-0.00637155
55	0xbbb61b34	-0.005557442
56	0x3945b04b	0.00018853058
57	0x3abedd61	0.0014561826
58	0xb878f901	-5.935971e-05
59	0xbbe76423	-0.007061498
60	0x3b6bb424	0.0035965526
61	0xbb822c3e	-0.0039725592
62	0xbbb0fabe	-0.0054009845
63	0x354d34f8	7.644553e-07
64	0xba5b84f6	-0.0008374
65	0x3ba0eb5b	0.004910869
66	0x3b75afc0	0.0037488788
67	0x37bbcafe	2.2386663e-05
68	0x3af6d058	0.0018830402
69	0x3c1c3f56	0.009536585
70	0x39dee378	0.00042512617
71	0xbb341d05	-0.0027483117
72	0xbba1a16f	-0.0049325745
73	0xbb354cbd	-0.0027664148
74	0x3ab1c59d	0.0013562922
75	0x3c220365	0.009888505
76	0xbb2a1bb2	-0.002595645
77	0xbb8c257b	-0.004276929
78	0xbbdeebfb	-0.0068030334
79	0xbb29e50a	-0.0025923871
80	0xbbf61518	-0.007509839
81	0xbb2fc39f	-0.002681948
82	0xbc076b6c	-0.008265357
83	0x3b42da8c	0.0029732315
84	0x3a7bebc7	0.00096100237
85	0xbaadc8b0	-0.0013258662
86	0x3b79c025	0.0038108912
87	0x3b1e470e	0.0024151239
88	0xb833599c	-4.276038e-05
89	0x3aa5489a	0.0012610138
90	0x3b24f616	0.0025171093
91	0x3b9cd3bb	0.0047859824
92	0x3bc90d8a	0.006135647
93	0x3a70a731	0.0009180187
94	0x39c4cbd7	0.00037535906
95	0xbb35534e	-0.0027668062
96	0x3a142ff9	0.00056529004
97	0x3c00e986	0.007868176
98	0xba2e282c	-0.00066435593
99	0xbb425892	-0.0029654843
100	0x3b91ceb7	0.004449691
101	0x3b8c9117	0.004289757
102	0x3afc961c	0.001927081
103	0xbb8c8fa6	-0.004289585
104	0x397ae11c	0.00023925718
105	0xbb828edb	-0.003984315
106	0x3a7d7f24	0.00096701295
107	0x3ae61cbf	0.0017556174
108	0xba3ce25c	-0.0007205361
109	0xbb63d5bc	-0.0034764847
110	0x3b485d17	0.0030573064
111	0x3a33cabe	0.0006858519
112	0x3928e360	0.00016106432
113	0xbb536d11	-0.0032261054
114	0x3a3cea62	0.00072065566
115	0x3b40ccff	0.0029419062
116	0xba2829d7	-0.0006414926
117	0xbb28521e	-0.0025683711
118	0x3b653c42	0.0034978543
119	0x3b4550ac	0.0030107899
120	0xbaef14e2	-0.0018240476
121	0x3a6ece47	0.0009109717
122	0x39997097	0.0002926632
123	0x3b81c74b	0.003960525
124	0xbb4401a2	-0.00299082
125	0xbb114012	-0.0022163433
126	0x3ba1023d	0.004913597
127	0xbbbb90ad	-0.005724034

action_model._continuous_distribution.log_sigma f4 [1, 6]
0	0xbc6daaf4	-0.01450609
1	0xbcbfb2e2	-0.023400728
2	0xbb20a08f	-0.0024509763
3	0xba4cb84c	-0.0007809445
4	0x3ba15cc3	0.004924388
5	0xbc492708	-0.012277372

action_model._continuous_distribution.mu.weight f4 [6, 128]
0	0xbb080c6a	-0.0020759352
1	0xbb01cb1a	-0.0019804896
2	0xbb9514c7	-0.004549596
3	0x3af6169e	0.0018775051
4	0x3c975445	0.0184728
5	0x3c1a21a8	0.009407438
6	0xbc514706	-0.012773281
7	0x3c9a5f91	0.018844398
8	0xbd0e6f3e	-0.034774058
9	0x3c7acab8	0.015307121
10	0xbb75f50c	-0.0037530093
11	0x3aab1e33	0.0013055265
12	0xbbea7fe6	-0.00715636
13	0xbcaf4825	-0.021396706
14	0x3c6bb314	0.014385957
15	0x3b466c8d	0.0030277104
16	0xbbc01611	-0.0058620055
17	0x3c1f57f5	0.00972556
18	0x3c9ad0fc	0.01889848
19	0x3c45760b	0.012052069
20	0x3c2f9d61	0.010718674
21	0xbc6c1df4	-0.014411438
22	0x3cd7ddcf	0.026350884
23	0xbcd86e2e	-0.026419725
24	0x3d0e87d3	0.0347975
25	0xbc6d7ff6	-0.01449584
26	0x3c1eaba0	0.009684473
27	0xbcd62a60	-0.026143253
28	0xbce2fdb8	-0.027708873
29	0xbba6a609	-0.005085711
30	0xbd04ec74	-0.03245206
31	0x3c46419e	0.012100605
32	0xbd054eee	-0.032545976
33	0x3d278ddc	0.040906772
34	0x3d3a4431	0.04547519
35	0x3cefe366	0.029283237
36	0xbc4a13e1	-0.012333841
37	0xbc9bab95	-0.019002715
38	0x3c25c694	0.0101181455
39	0xbbac43b2	-0.0052570933
40	0x3b99762d	0.004683277
41	0x3d18aed9	0.037276123
42	0xbce77e49	-0.02825846
43	0x3bb8a637	0.0056350487
44	0x3c98c315	0.01864771
45	0x39b84a78	0.00035150698
46	0x3ba1944a	0.0049310075
47	0x3cfff49d	0.03124457
48	0x3b81274e	0.003941453
49	0x3ca14af0	0.019689053
50	0xbc36230e	-0.011116756
51	0x3c9ca522	0.01912171
52	0xbc7173ca	-0.014737079
53	0xbc263f34	-0.010146905
54	0x3cf33d2b	0.029692253
55	0x3ceb482f	0.028720943
56	0x3c10dcab	0.008841674
57	0xba5bcc01	-0.0008384586
58	0xbb05ea89	-0.0020433983
59	0xbb3c98be	-0.0028777565
60	0xbccbe60d	-0.02488997
61	0x3c8e213d	0.017349834
62	0x3c778b13	0.0151088415
63	0x3cb5f547	0.022211684
64	0x3c1c536d	0.009541375
65	0xbc7b1d3a	-0.015326792
66	0x3bd6db5e	0.0065569123
67	0xbc6632d9	-0.014050209
68	0x3cdfd7b9	0.027324544
69	0x3a611207	0.0008585755
70	0xb979dc46	-0.00023828549
71	0xbc066d46	-0.008204764
72	0x3c02bcdf	0.007979601
73	0xbbcb3a26	-0.006202
74	0xbbb5bfff	-0.0055465694
75	0xbc8f1ac7	-0.017468823
76	0x3caa5680	0.0207932
77	0x3cb86d12	0.022512946
78	0x3c8a457e	0.01687884
79	0xbaec1ff2	-0.0018014892
80	0x3bf83fde	0.007575973
81	0x3ce801ad	0.028321112
82	0x3ce78211	0.028260263
83	0xbbf6b80b	-0.007529264
84	0x3b9a93e3	0.0047173365
85	0x3c9dc515	0.019259015
86	0xbc19b1a0	-0.009380728
87	0xbd101f3b	-0.035186034
88	0x3d009771	0.031394426
89	0x3c95c534	0.01828251
90	0xbc6f5e99	-0.014609956
91	0xbc96e282	-0.018418554
92	0xbbcfdca7	-0.0063434425
93	0xbc886c49	-0.016653197
94	0xbcea5be6	-0.028608274
95	0x3cc02fae	0.023460235
96	0x3cc87b9b	0.024473002
97	0xbd32ea91	-0.04368073
98	0x3c20379a	0.009778881
99	0x3b8e0d20	0.0043350607
100	0xbbabd620	-0.0052440315
101	0x39c092a9	0.00036730364
102	0xbd0cedee	-0.034406595
103	0x3c80c426	0.01571853
104	0xbb7a2ae7	-0.0038172544
105	0x3b0f17fa	0.002183436
106	0x3c870543	0.016482001
107	0x3c002ab5	0.007822682
108	0x3d6506ba	0.055914618
109	0x3d1878a6	0.037224434
110	0xbbdf60ee	-0.006816975
111	0x3c99e920	0.01878792
112	0x3c427825	0.011869465
113	0x3c6dd8c4	0.014517013
114	0xbcbeb90c	-0.023281597
115	0xbcbd7ced	-0.023130858
116	0x3c5e94be	0.013585268
117	0x3b49c537	0.0030787715
118	0xb9a67b98	-0.00031754072
119	0x3b0aa57f	0.0021155772
120	0x3b70b3b8	0.0036728214
121	0xbc02ef8a	-0.007991681
122	0x3bd2d53f	0.0064341123
123	0x3b86cc21	0.0041136895
124	0x3c91c55f	0.01779431
125	0x3cda23cc	0.026628397
126	0x3bbd73b2	0.005781614
127	0x3ce333e4	0.027734704
128	0xbc17d649	-0.009267398
129	0x3c883272	0.016625617
130	0xbb97c249	-0.004631315
131	0xbc59d011	-0.013294236
132	0xbc04338d	-0.008068931
133	0xbc05a251	-0.008156375
134	0x3c9b5307	0.018960489
135	0xbc16d182	-0.009205224
136	0x3d09ab07	0.03361037
137	0xbb5442ec	-0.0032388521
138	0xbc861101	-0.01636553
139	0xbb20dbe7	-0.0024545135
140	0x3c9113e1	0.017709674
141	0xbd33a961	-0.043862704
142	0x3a285641	0.0006421544
143	0xbcb5520e	-0.022133853
144	0x3c70c636	0.014695695
145	0x3af77e84	0.0018882309
146	0xbccbff21	-0.024901928
147	0xbcc50a66	-0.02405281
148	0xbd6002d8	-0.054690212
149	0xbcb2be70	-0.021819323
150	0x3be7a5c1	0.00706932
151	0xbae9fb72	-0.0017851426
152	0x3c2a3be1	0.010390253
153	0x3cd3bf86	0.025848161
154	0xbcdc24e5	-0.026873061
155	0xbbfa4c25	-0.0076384717
156	0xbb44a614	-0.0030006217
157	0xbcd523cc	-0.026018046
158	0x3c0b66b2	0.008508371
159	0xbc17eaf7	-0.009272329
160	0x3d14e8b3	0.03635473
161	0xbcac7d22	-0.021055762
162	0xbccaaed5	-0.02474157
163	0x3bfa3eae	0.0076368665
164	0x3c63db2e	0.013907237
165	0xbcdc8a03	-0.026921278
166	0x3cbea950	0.023274094
167	0x3cb6aeb5	0.022300104
168	0x3befc11c	0.0073167216
169	0x3b9536b2	0.0045536393
170	0x3d20ce08	0.039258987
171	0x3bc0ac6f	0.0058799307
172	0xbbdf6e5e	-0.0068185767
173	0xbcf7e06b	-0.030258378
174	0xbc7c3cfc	-0.015395399
175	0xbab80230	-0.0014038738
176	0x3bcdf316	0.0062850816
177	0xbb9a36fc	-0.0047062617
178	0xbcfc1a7d	-0.03077435
179	0x3c113841	0.00886351
180	0xbc61498e	-0.013750447
181	0xbc2da908	-0.010599382
182	0x3bc822a9	0.0061076474
183	0xbc83eedb	-0.016105106
184	0xbd01e026	-0.031707905
185	0x3cb8e83b	0.022571674
186	0x3cd2df8c	0.025741361
187	0xbd029681	-0.031881813
188	0x3c0c24a4	0.008553658
189	0xbcc5776e	-0.0241048
190	0xbd29aa74	-0.041422322
191	0x3c59ef2e	0.013301654
192	0x3bab89af	0.005234919
193	0x3d1718d5	0.036888916
194	0xbcf2f896	-0.02965955
195	0x3c8425b1	0.016131254
196	0xbcdf9adb	-0.02729552
197	0x3d32514a	0.043534555
198	0x3d0617cb	0.032737534
199	0xbce798a9	-0.028271036
200	0xbbf14572	-0.007363015
201	0xbd36825d	-0.044557918
202	0xbd0fe88d	-0.035133887
203	0x3c9ebe0f	0.019377736
204	0xbbc3b9d0	-0.0059730783
205	0xb92a9fec	-0.00016272039
206	0xbbc1492f	-0.0058986167
207	0xba2e9592	-0.0006659861
208	0xbcfc7119	-0.030815648
209	0x3c7d1650	0.015447214
210	0xbc811561	-0.015757265
211	0xbb188782	-0.0023274128
212	0xbb932c74	-0.004491383
213	0xbd0674cc	-0.03282623
214	0x3c50f964	0.012754772
215	0x3c426779	0.01186549
216	0x3cf92df3	0.030417418
217	0x3d163f8e	0.036681704
218	0x3c28063f	0.010255395
219	0xbb770b74	-0.0037696036
220	0xbcc32dd4	-0.023825563
221	0xbc2a82ad	-0.010407132
222	0x3c35c8d8	0.011095248
223	0xbc4c027a	-0.012451762
224	0x3cb9abff	0.022665022
225	0x3cc2e8c5	0.023792634
226	0x375fe730	1.3345663e-05
227	0xbc993669	-0.018702703
228	0x3d20bf4a	0.039244927
229	0x3d3463a2	0.04404033
230	0xbc17c632	-0.009263562
231	0xbd2a8a43	-0.041635763
232	0xbc895c38	-0.016767606
233	0xbbbc9c32	-0.0057559246
234	0x3cc9c03e	0.024627801
235	0x3a0bdc3d	0.0005335247
236	0x3c55bec8	0.013045974
237	0x3c954cff	0.018225191
238	0x3c01dd80	0.007926345
239	0x3ccf7881	0.025326015
240	0x3be3ca57	0.006951611
241	0x3c7b68f0	0.015344843
242	0xbc3bce1e	-0.011462716
243	0x3bf66c66	0.0075202463
244	0x3c0bfa36	0.008543542
245	0x3b979155	0.004625479
246	0x3cd8432d	0.02639922
247	0xbbf5def7	-0.007503386
248	0xbd0d87c2	-0.034553297
249	0x3b8fab85	0.0043844604
250	0xbc6435b0	-0.013928816
251	0x3c3d6bf7	0.011561385
252	0xbcd65e6e	-0.026168074
253	0x3c159d95	0.009131809
254	0x3b9ab1df	0.004720911
255	0xbd22c3a6	-0.039737366

action_model._continuous_distribution.mu.bias f4 [6]
0	0xbbcbaa18	-0.006215345
1	0x3b9bc133	0.0047532558
2	0x3b6dfe9d	0.0036315091
3	0x3b8f7e0d	0.00437904
4	0xba107494	-0.00055105356
5	0x3973168e	0.00023182688
